EXP10_dump/bottleneck_model.pth (torch, 77664 bytes, 19 tensors)

weight f4 [30, 251]
000000 b0 50 de 3c 78 9d 74 bd 76 88 9d bd c1 a6 a1 bd
       0.027138084 -0.059720486 -0.076920435 -0.07893134
000010 0c ca 3e bd 1d f4 91 bb 33 c5 c0 bc 00 84 ae bd
       -0.046579406 -0.0044541494 -0.023531532 -0.08521271
000020 1b 35 18 be 60 84 58 bd 3b 92 9b 3c 48 f4 c6 bd
       -0.14864008 -0.052860618 0.018990627 -0.09714562
000030 3d 26 b0 bd 6b b1 7d bd ee f5 33 3b d3 92 4d bd
       -0.086010434 -0.061936777 0.0027459818 -0.05018885
000040 bb 96 b6 bd 5d ce d1 bc 01 d7 17 bd e4 f5 3f 3c
       -0.08915468 -0.025611097 -0.037070278 0.01171634
000050 0f e7 1e 3d 6a 27 81 bd e2 2d 55 be 77 11 19 bc
       0.038794573 -0.06306346 -0.20818284 -0.009342543
000060 a6 77 20 bd b5 a0 14 be 4b e9 04 bb 5d 4a b2 3d
       -0.039176606 -0.1451443 -0.0020280655 0.0870559
000070 aa 87 1e 3e c1 42 d6 bc 85 b8 95 bc da c9 80 b9
       0.15481439 -0.026154878 -0.018276462 -0.00024564454
000080 1a ad c3 bd 18 4a cc 3b f8 98 9f bd 28 b2 30 bd
       -0.09554501 0.0062344186 -0.07792848 -0.043138653
000090 d2 88 8b 3d 2f 3c 65 bc 13 f3 b4 bc 06 8a 0c 3e
       0.06813206 -0.0139914 -0.022088563 0.13724527
0000a0 12 e2 a3 bd 47 64 b5 bd 5e de c4 3d 9a 67 78 3d
       -0.08002104 -0.08857017 0.09612726 0.060645677
0000b0 67 cb fc bc d3 1c 1a bd 48 2b 0f bd b9 21 79 bd
       -0.030858709 -0.037625145 -0.034953386 -0.060823176
0000c0 35 12 73 bd a3 0d 77 bd 7e d6 96 bd ca 65 4b 3d
       -0.059343535 -0.06031574 -0.0736513 0.04965762
0000d0 05 0d 75 bd 9e b2 ad bd 8b b3 33 3b b0 69 b9 bd
       -0.05982687 -0.08481334 0.0027420248 -0.090533614
0000e0 bb f6 fe bc bc e6 48 bd 0c 7c df bd 0c a2 4b bd
       -0.03112351 -0.04904817 -0.10912332 -0.049715087
0000f0 d5 e0 3c bd 0a e0 4e bd 16 44 b5 bc 54 f8 d7 bc
       -0.046112854 -0.05050663 -0.022127192 -0.02636353
000100 4b 0a 4f bc 3a 89 17 bf 04 08 62 bc 11 cb 83 bd
       -0.012636731 -0.59193766 -0.013795856 -0.06435216
000110 84 4a aa bb c4 9b cb bd 57 2a cd bd 95 8c e2 bb
       -0.0051968712 -0.09941819 -0.10017841 -0.0069137313
000120 e2 18 4f bd 9e e4 c9 bc 9a 9f d7 bc 36 99 78 3d
       -0.05056084 -0.024645146 -0.026321221 0.06069299
000130 b9 1e 6e bd 9d 22 e5 bd a5 fe c4 3c 3f 77 9b bb
       -0.05813477 -0.111882426 0.024047205 -0.00474444
000140 de a6 16 bd 3e 4d bb bd 93 eb 57 bd b6 81 5b bd
       -0.03678023 -0.09145592 -0.052714895 -0.0535905
000150 2d b4 0a bd 38 22 87 bd a1 cf a1 bc 53 e8 50 bd
       -0.033863235 -0.065983236 -0.019752325 -0.05100281
000160 37 e0 21 3c 77 cd 16 bd d4 9c 4b bd bd 94 2b bd
       0.009880117 -0.03681704 -0.04971011 -0.041889895
000170 81 1a 9d bd 4c 98 c0 bc 2a fa 0c bd 56 c6 d2 bc
       -0.07671071 -0.02351012 -0.034418263 -0.02572934
000180 5a 5e 5b bd 76 f0 8c bc f6 3e 4b bd eb 01 b8 bd
       -0.053556778 -0.017204504 -0.04962059 -0.08984741
000190 29 d6 0d be 84 d3 2f bc 71 ff 5a bd 07 d8 50 bc
       -0.13851227 -0.010731582 -0.053466264 -0.012746817
0001a0 15 3e 39 bd 89 77 df bd f0 7f 21 bd 35 7a 42 bd
       -0.04522522 -0.109114714 -0.03942865 -0.047479827
0001b0 06 f0 73 bd 30 41 f3 3d 7f 34 36 bd 9d 53 86 bd
       -0.059555076 0.11877668 -0.044483658 -0.06558917
0001c0 38 0a bb 3c bd a5 a5 3d f2 22 15 bd 1b bf f6 bb
       0.022832021 0.08088253 -0.03641028 -0.0075301058
0001d0 1f df 31 bd 7e c6 64 3c 57 77 05 bd 2f 65 a4 bd
       -0.043425675 0.01396334 -0.032584514 -0.08027112
0001e0 88 88 cd bc 9a 4b e1 ba 91 12 84 bd 24 f1 9f bd
       -0.025089517 -0.0017188669 -0.06448854 -0.07809666
0001f0 a7 c3 c2 bd d5 e1 fc 3c ad 98 4d bc 3b 09 be bc
       -0.09509974 0.030869404 -0.012548608 -0.02319776
000200 82 32 af bd 2c c7 77 bd 92 1a 32 bd 38 da a8 bd
       -0.085545555 -0.06049268 -0.04348237 -0.08244747
000210 05 d1 93 3b 85 42 9d bd c3 eb 9f bc ee 3a 0c bd
       0.004511001 -0.07678703 -0.0195216 -0.034235887
000220 64 88 4f bd 42 ec b5 bc f7 3a f3 39 d9 a5 07 3e
       -0.05066718 -0.022207383 0.00046392504 0.1324686
000230 af e0 76 39 d4 0d 23 bd d0 3b 5e bd f8 50 8e 3d
       0.0002354409 -0.03980811 -0.05425626 0.06949037
000240 54 d0 da bc 44 42 a0 bc 64 31 c1 3c d5 40 71 3e
       -0.026710667 -0.019562848 0.023583122 0.23559888
000250 ce f6 62 bc d6 e2 6f bd a9 f4 6c bc 90 e1 8c bd
       -0.013852788 -0.058565937 -0.014462628 -0.0687896
000260 f2 16 91 bd f7 72 71 bd 78 55 95 bd b8 86 33 bd
       -0.070844546 -0.05894753 -0.072916925 -0.04382965
000270 96 34 9a bd 90 9d 21 bc 78 1a 35 bc 9c 80 3b bd
       -0.07529561 -0.009864226 -0.011053674 -0.04577695
000280 86 41 62 3e 43 86 d1 3d e6 1c 1a be 62 9f 9c 3c
       0.22095308 0.102306865 -0.15050086 0.019118968
000290 0a 27 3c bd 70 65 aa bd 39 a0 9f bd 33 20 45 3d
       -0.045935668 -0.08320129 -0.07794232 0.04812641
0002a0 a9 4c 0e bc d6 7f aa bd f8 2f 7e bd 6a b9 2f bd
       -0.008685269 -0.08325164 -0.062057465 -0.042901434
0002b0 18 1e 95 bd e1 be 42 bd ce 39 3e bd ca 99 47 bd
       -0.072811306 -0.047545318 -0.046441846 -0.04873065
0002c0 61 a1 41 bd 39 59 28 bd 8b 71 69 bc 2f 0e ba bd
       -0.047273044 -0.041100714 -0.014248262 -0.090847366
0002d0 03 36 44 bd 33 d0 67 bd 34 ca 80 bd 1c d5 b4 bc
       -0.047903072 -0.05659504 -0.06288567 -0.022074275
0002e0 09 fc 45 bd c3 2b e3 bc a0 45 b1 bd 2d 81 7e 3c
       -0.048336063 -0.027730828 -0.08655858 0.015533728
0002f0 73 26 82 bd 2a 9e fd bc 36 37 38 bd d2 5d 52 bd
       -0.0635499 -0.030959208 -0.04497453 -0.051359005
000300 0e 40 d7 bb 16 2a 4a bd cc 8a e5 bd 69 22 6b be
       -0.006568915 -0.049356543 -0.11208114 -0.22962345
000310 3c 1d 9d bc a6 63 a8 bc 6c 59 90 3c 62 f8 37 bd
       -0.01917898 -0.020555329 0.017620765 -0.04491461
000320 9e fd dc 3b 09 34 9d bd cf c5 6a bd 1f bc a8 bd
       0.0067441007 -0.076759405 -0.05731755 -0.08239006
000330 10 92 0c be 07 38 1c bd 34 b3 43 bd e1 e0 8a bd
       -0.13727593 -0.03813937 -0.047778323 -0.067811735
000340 81 d6 1e bd e6 50 10 be 25 3a 4e bc ac 85 a7 bc
       -0.038778786 -0.1409336 -0.012587105 -0.020449482
000350 65 89 64 bd 26 fa 53 bd 7a 89 2a 3c a0 d2 94 bd
       -0.055795092 -0.051752232 0.0104087535 -0.07266736
000360 ed 3b a5 bd 05 2c fc bd f5 8f fd 3b d7 11 5d bd
       -0.080680706 -0.123130836 0.0077381083 -0.05397209
000370 e2 f2 35 bc f8 23 1e 3c 1c c6 75 bd 55 f0 c8 bc
       -0.011105271 0.00965213 -0.060003385 -0.024528662
000380 40 80 92 bc 2f d2 f0 bc 1e ed 00 bd aa 5f 06 bc
       -0.01788342 -0.029397098 -0.031476133 -0.008201519
000390 f6 e3 3d 39 74 8a 68 bd f4 69 dc 3c 09 d0 76 bd
       0.00018109367 -0.056772664 0.026905991 -0.06025699
0003a0 28 83 be bd 8a e1 2a be b2 26 77 bd 74 49 91 bd
       -0.0930236 -0.16687599 -0.060339637 -0.07094088
0003b0 e0 ae 8b 3d c3 8d 95 bd 22 35 ec bd dc 1a ec bd
       0.06820464 -0.073024295 -0.11533572 -0.115285605
0003c0 10 ac 8c bd d9 bf 3a bd c6 b4 2c 3d f6 1c 0c bd
       -0.06868756 -0.045593116 0.042164586 -0.034207307
0003d0 25 fa c7 bd 3d 77 84 bb 7e d2 41 bd 3e 17 57 bd
       -0.09764508 -0.0040425346 -0.04731988 -0.0525124
0003e0 ff 66 3c bd 6a ab 65 bd 2b b7 07 bb 2a 57 1d bd
       -0.045996662 -0.056071676 -0.0020708542 -0.038413204
0003f0 4f 21 4d bd 28 30 59 bd 5f a2 a7 3c 89 81 4e bd
       -0.050080594 -0.05302444 0.020463167 -0.050416503

bias f4 [30]
000000 60 81 7a 3d 03 67 16 3d 49 e3 11 3d dc 61 4b 3d
       0.061158538 0.036719333 0.035617147 0.049653873
000010 e0 31 8f bc e5 d9 9c bb df ed 3e 3c 12 e3 6d bd
       -0.017479837 -0.0047867172 0.011653393 -0.05807788
000020 41 db 36 bd f1 f0 9f 3d 45 dd 47 3b 72 3c 26 bd
       -0.04464269 0.07809628 0.0030496877 -0.04058499
000030 9c b4 5c 3d 56 58 1a 3d 77 39 2d bd 35 32 2e bd
       0.05388318 0.0376819 -0.04229113 -0.04252835
000040 f8 3c 83 3d 13 ae 38 bd 78 6a 13 bd 3c 5b 23 bd
       0.06408113 -0.045087885 -0.03599021 -0.03988193
000050 59 27 54 3b bf f5 5a bd c3 bb 3e bc 85 09 27 3d
       0.0032372086 -0.053457018 -0.011641446 0.040780563
000060 b0 53 5c bd 7e eb aa 3d 99 14 12 3d 35 6a 74 3d
       -0.053790748 0.08345698 0.035664175 0.0596716
000070 c7 db 0b 3d 68 df 03 bd
       0.034145143 -0.03219548

weight f4 [30]
000000 de 8b 86 3f 15 c2 54 3f 4a 1e 67 3f 4a 48 65 3f
       1.0511434 0.83108646 0.9028059 0.8956343
000010 9d 40 82 3f 5e 76 52 3f 8c d7 9a 3f 26 f8 5d 3f
       1.0175968 0.82211864 1.209703 0.8670677
000020 65 c3 61 3f cf 17 69 3f 7b 82 a6 3f 45 fb 49 3f
       0.88188773 0.91051954 1.300857 0.7889903
000030 69 50 90 3f 10 09 63 3f b5 6b 61 3f 11 37 83 3f
       1.1274539 0.88685703 0.8805497 1.025118
000040 fe 90 89 3f b1 cf 65 3f ae cd 48 3f df d5 45 3f
       1.0747373 0.89770037 0.7843884 0.77279466
000050 b7 85 98 3f 1e 92 98 3f f0 1c 8b 3f 50 2b 87 3f
       1.1915807 1.1919591 1.0868206 1.0560093
000060 25 f3 6e 3f 57 53 53 3f 63 eb 7f 3f db 54 59 3f
       0.9333976 0.8254904 0.99968547 0.84895104
000070 08 ed 83 3f e0 1e 7f 3f
       1.0306711 0.99656487

bias f4 [30]
000000 d9 31 53 be af c9 68 be 7e f2 08 3e d3 44 54 be
       -0.20624484 -0.22733186 0.13373753 -0.2072938
000010 2f 8b 29 3e ce fc 71 be 26 7d 03 3d a0 8b 40 be
       0.16557 -0.23631594 0.032101773 -0.18803263
000020 ff 10 0a 3e cc a6 40 bd b4 93 71 3e ba 5c 9b bd
       0.13483046 -0.04703407 0.235915 -0.075860456
000030 74 18 3f be 10 e5 ae be 66 81 9b be 7b 98 95 3d
       -0.18661672 -0.34159136 -0.3037216 0.07304474
000040 5a d5 a5 3e 79 48 59 be 04 e3 87 be 18 74 91 be
       0.32389337 -0.21219052 -0.26540387 -0.28408885
000050 45 16 a6 3e 3d 75 21 bd ca 9e 5a 3d a7 a4 5a be
       0.32438865 -0.039418448 0.05337409 -0.21351872
000060 65 80 f2 3c e7 f9 79 be 29 00 e3 3e b6 10 85 be
       0.029602239 -0.24411736 0.4433606 -0.25989312
000070 46 75 3e be b8 87 33 be
       -0.18599424 -0.17532241

running_mean f4 [30]
000000 24 22 1a c1 df 3a 1b c1 ab ee 26 c0 fa 88 f9 c0
       -9.633335 -9.701873 -2.6083171 -7.797971
000010 91 f3 ce c0 40 73 80 c0 9b e6 8c c0 ca ba de c0
       -6.467232 -4.0140686 -4.40315 -6.9603014
000020 5c 18 13 c0 ae 8e 05 c1 86 3d 97 3e 57 8e 2f c1
       -2.2983618 -8.347334 0.29539126 -10.972251
000030 ee f7 b9 c0 4c 65 09 c0 fe eb 73 c0 1b 7a 03 c1
       -5.811515 -2.1468077 -3.8112788 -8.217311
000040 d6 de 21 bf 7e 5c 00 c1 66 c7 c8 c0 af a9 a4 c0
       -0.63230646 -8.022581 -6.2743406 -5.1457133
000050 b7 1c 02 41 92 9a 35 c0 ba 93 cc c0 f7 c3 a4 c0
       8.13201 -2.8375592 -6.393033 -5.1489215
000060 38 be 61 c0 7d 4b 1a c0 93 0c 1f 41 71 72 f3 c0
       -3.527235 -2.4108574 9.94057 -7.60772
000070 9d b7 c6 3f d7 52 f9 c0
       1.5524784 -7.7913623

running_var f4 [30]
000000 5f c5 a1 3b f7 77 8c 3b 40 8a 90 3b c9 08 86 3b
       0.0049368585 0.004286762 0.004411012 0.0040904027
000010 d0 fe b4 3b 02 64 9c 3b 07 f8 f6 3a 6f c6 a8 3b
       0.00552354 0.004772664 0.0018842228 0.0051506083
000020 7e 21 a8 3b db e2 4f 3b c7 4e 02 3b 5e bf 13 3b
       0.0051309457 0.003172091 0.001988338 0.0022544484
000030 93 a3 82 3b 9c 45 67 3b 56 a5 61 3b bb aa 6d 3b
       0.0039867847 0.0035289293 0.0034430823 0.0036265093
000040 bb 54 45 3b ee 76 88 3b 3d 1b 80 3b a6 bb 8d 3b
       0.0030110318 0.004164568 0.003909497 0.004325348
000050 b5 6a 03 3b 97 52 d9 3a 2b 48 2b 3b e6 f4 4b 3b
       0.0020052616 0.00165804 0.0026135545 0.0031121313
000060 bc 97 43 3b 84 33 84 3b 83 d9 7d 3b b1 b6 73 3b
       0.002984508 0.0040344615 0.0038734383 0.003718775
000070 7e 1f 2e 3b 3a 15 5e 3b
       0.0026569064 0.0033887164

weight f4 [30, 30]
000000 f8 5e 96 3e 6a d1 0f 3e 4e 0e 48 3e a1 5d 3b 3e
       0.2936933 0.14044729 0.19536707 0.18297435
000010 05 58 2d 3e 61 54 14 3c b5 aa ea 3d fc f1 07 ba
       0.16928108 0.009053321 0.11458341 -0.00051859
000020 c0 b0 00 3e e1 12 3b 3d 30 49 d9 3b 6e 6c da 3d
       0.12567425 0.0456723 0.006631039 0.106652126
000030 39 dc 7f bd 10 5e ee bc 43 4b 41 3c 3c 3b 84 3e
       -0.06246588 -0.029097587 0.011797729 0.25826442
000040 15 93 19 3e 15 2e 15 3d 23 2e b6 3d 8c 21 db 3c
       0.14997514 0.0364209 0.08895519 0.026749395
000050 25 1e 32 3e 3b 90 10 3e da 3e 7d 3e 46 4d 38 be
       0.17394312 0.1411752 0.24731007 -0.17998227
000060 93 9b ea bd d6 c6 50 bd 0c 7c a5 3d a0 bd b1 bb
       -0.11455455 -0.050970875 0.08080301 -0.0054242164
000070 d0 d5 d8 bd 80 13 38 bd 69 de ae bc 01 17 87 3d
       -0.105876565 -0.04494047 -0.021346288 0.065961845
000080 26 72 af bd 8c c6 5d 3d a9 79 9d bc 01 77 e3 bd
       -0.08566694 0.054144427 -0.019223051 -0.111066826
000090 22 63 9d be aa 20 ac 3c 45 60 0c be f2 77 05 3d
       -0.30739695 0.02101167 -0.13708599 0.032585092
0000a0 6b 46 4c be f9 60 d6 bd 89 f7 05 3e c3 d0 64 bd
       -0.19948737 -0.10467715 0.13082708 -0.055863153
0000b0 a4 a7 6c be 1b 50 39 3d bc 2a 2a be be 0d 46 bc
       -0.23110825 0.04524241 -0.16617864 -0.012088237
0000c0 c5 9d c6 bd cd cd d7 3c c1 f1 20 be 78 bb 5a be
       -0.09698061 0.02634325 -0.15717222 -0.21360576
0000d0 b2 ee 7d 3d 90 48 1c be 42 77 13 be f8 f6 6b 3c
       0.061995216 -0.15262055 -0.14400962 0.014402144
0000e0 68 b1 00 be a8 7d 96 3d e3 66 08 be a1 16 f5 3c
       -0.12567675 0.07348186 -0.13320498 0.029918017
0000f0 dc ce e9 bd ab 0e 31 be e5 d3 0a be 84 59 23 3d
       -0.114164084 -0.17290752 -0.13557394 0.03988029
000100 ed 86 19 bc 8c 92 05 be d0 ff 09 be 55 49 93 3b
       -0.009370548 -0.13044184 -0.13476491 0.004494826
000110 81 26 7c bd d6 55 1e 3d 0f 12 43 be cc af 7d bd
       -0.061560158 0.03865608 -0.19049858 -0.06193523
000120 94 89 5a 3d 60 f0 06 be bd 50 21 3c 38 63 6e 3b
       0.05335386 -0.13177633 0.00984591 0.0036375057
000130 a7 85 0a be 5a 53 3c bd 32 e0 0e 3d fa a3 64 bc
       -0.13527547 -0.045977928 0.034881778 -0.013955111
000140 a4 33 82 be bb 40 67 be b4 8f b5 bd b5 1d bb 3c
       -0.25430024 -0.22583286 -0.088653 0.022841314
000150 28 34 46 3c 91 e1 a5 bd cd ae 0c be d6 76 46 bc
       0.012097396 -0.08099664 -0.13738556 -0.012113294
000160 1d 81 5b be 07 90 9e 3d 66 ca 6e 3d e7 39 2d bb
       -0.21435972 0.07742315 0.05829849 -0.0026432218
000170 4d d5 ae 3d c2 62 92 3d 87 20 04 be 5e 54 dc bd
       0.08536778 0.07147743 -0.12903033 -0.10758279
000180 5c a1 1c 3e c8 2c 04 bd c0 5b 6b 3d e8 ca 96 bc
       0.15295929 -0.03226927 0.057460546 -0.0184073
000190 de 15 b0 be 6b cb dd 3c 6a 97 13 bd 71 d7 17 be
       -0.34391683 0.027074536 -0.03603307 -0.14828278
0001a0 93 5f 85 3c ca dd a1 3c af 47 99 3d 08 1b 2c bd
       0.016280925 0.019759078 0.07484376 -0.042017967
0001b0 c1 5b b7 3d 49 8d 71 3d 9b 4f 18 be 0a 6a a5 be
       0.089530475 0.05897263 -0.14874117 -0.32307464
0001c0 e8 2f f0 3d 50 1a 0f bd 3d 6f 18 bd 6d bc 98 bd
       0.117278874 -0.034937203 -0.03721546 -0.07457814
0001d0 60 a0 ca 3d d3 e7 28 3e 92 34 c4 bb b9 7e cd 3d
       0.0989387 0.16494684 -0.005987712 0.10033936
0001e0 3b 19 8d 3d 3c 87 b6 bd 93 48 cb bd 57 af be 3d
       0.06889578 -0.08912513 -0.09925952 0.09310787
0001f0 7c 7e fe bd 72 64 61 3d a3 c7 a1 bd 34 ed 95 bc
       -0.12426469 0.055027433 -0.07899406 -0.018301584
000200 ce f4 33 be 45 f1 5e bc e0 36 0e be 4a f7 12 be
       -0.17573854 -0.013607328 -0.1388812 -0.14352146
000210 cd ce 00 3d 03 f0 fc bc c1 1b fc bc 8d 68 a9 3c
       0.03144722 -0.030876165 -0.030774953 0.020679737
000220 a6 6e fc bd b5 ee 8b bd 5b ce ab 3d 63 95 b1 bd
       -0.12325792 -0.06832639 0.083889686 -0.086710714
000230 40 c3 bb bd 7e f9 b1 bd d6 fd 78 bd 70 f2 e7 bd
       -0.091681 -0.08690165 -0.06078895 -0.11325538
000240 23 6f 2d be 86 b2 c2 bd 1c ac 20 be 0e b1 1d bd
       -0.16936927 -0.09506707 -0.15690655 -0.03849893
000250 d2 e1 7e be 02 c1 15 3e 02 e4 17 3d 7b ec 71 3d
       -0.24890831 0.14624408 0.03708268 0.059063416
000260 fd b6 29 bd ba 49 8d bc 79 41 83 bc 69 86 92 3d
       -0.041434277 -0.01724707 -0.01602243 0.07154543
000270 49 f6 25 be cb 82 20 bd fb 8e 9c bd d2 6c af 3d
       -0.16207232 -0.039187234 -0.07644459 0.08565678
000280 40 d9 8e be 6c c6 0b 3d 9e be 01 3e 07 a9 dc bd
       -0.27900124 0.034124777 0.12670371 -0.10774427
000290 35 09 b0 bd 14 ab 93 3d eb fe 91 bd e2 3b 14 3c
       -0.08595506 0.07210365 -0.071287 0.00904748
0002a0 f5 00 05 3c 12 44 2c bd d6 5b 14 be fe c5 94 be
       0.008117904 -0.042057104 -0.14488158 -0.29057306
0002b0 af d4 06 3e 59 55 16 be e4 09 b6 bd f7 90 71 bd
       0.1316707 -0.14680995 -0.08888605 -0.05897614
0002c0 a0 ac fd bd 62 2c dc 3c 96 c9 8a be 7a 4b 95 3d
       -0.12386441 0.026876632 -0.27106923 0.07289787
0002d0 7c e9 4c 3e fe 8f 97 bd 6d e5 b1 3d 1a 9d d6 3d
       0.20010942 -0.07400511 0.086863376 0.104791835
0002e0 9c 72 c3 3d 09 d0 d3 3d d9 fe 41 bd d5 db 34 3e
       0.095433444 0.10342414 -0.047362182 0.17661984
0002f0 e4 1f 4e 3d 39 45 d6 bc 9a 4d 1e bd 70 62 20 3e
       0.050323382 -0.026156055 -0.038648225 0.15662551
000300 46 d9 a8 3e 1e 5d cd 3d 48 85 25 be b6 76 6d be
       0.32978266 0.10027526 -0.16164124 -0.23189816
000310 68 9f 2e 3d 34 cb 05 3e 32 f3 1a 3e 1b 85 cd 3d
       0.04263249 0.13065797 0.15131834 0.100351535
000320 a9 8c bb 3d f8 02 4b bd c3 fa 5b be ab c7 f0 3d
       0.09157688 -0.049563378 -0.21482377 0.11756834
000330 be e9 25 3d aa 02 d5 bd 6e 2a c6 3d 8f 52 f8 3d
       0.040506117 -0.10400899 0.096760616 0.12125122
000340 bc e1 77 bd 67 71 6a bc c5 07 bd 3d f5 7f 53 be
       -0.06051801 -0.014309264 0.092299975 -0.2065428
000350 5f bb a8 3d b3 3e 39 3e 65 08 ec b9 72 6a c0 3b
       0.08238863 0.18090324 -0.00045019682 0.0058720643
000360 91 b5 1c bd f2 01 38 bd 80 a2 dd 3c 32 b6 66 3d
       -0.038259093 -0.04492373 0.027055025 0.0563261
000370 c7 58 39 3e 62 28 4a be 25 8d 1a be eb 64 15 3e
       0.18100272 -0.19741967 -0.15092905 0.14589278
000380 f5 c5 c5 3d c6 c9 1e bd 70 38 93 bc eb 90 ed 3c
       0.09656898 -0.038766645 -0.017971247 0.028999766
000390 81 98 1e 3e fd 19 43 be 99 b7 f4 3d 11 10 4a 3e
       0.15487863 -0.19052882 0.11949081 0.19732691
0003a0 49 b5 b9 bd 09 ea 12 bd 01 a8 87 bd b6 96 0b 3e
       -0.090677805 -0.035867725 -0.06623841 0.1363171
0003b0 98 59 4c 3e 49 ba 83 bb 93 65 1d bd 51 97 6f be
       0.19956052 -0.0040200097 -0.038426947 -0.23397566
0003c0 24 64 ff bd ce e7 08 3e 84 d9 7f 3d bd d9 58 3c
       -0.12470272 0.13369676 0.0624633 0.013235507
0003d0 40 b3 1b be 52 dd 0d 3e 70 c8 8d 3d ff 00 05 bd
       -0.15205097 0.13853958 0.06922996 -0.032471653
0003e0 94 9c b0 3c 5d 7d 3e be 10 11 24 3d 27 93 10 be
       0.021559037 -0.1860251 0.040055335 -0.14118634
0003f0 11 8e cc 3d dd be 0d 3e 05 89 ec 3d c4 a3 77 bd
       0.099880345 0.1384234 0.11549572 -0.060458913

bias f4 [30]
000000 67 f8 ec bc 80 c5 64 3d 9c c1 1d 3e 0c 85 2f 3e
       -0.028927041 0.055852413 0.15405887 0.17140597
000010 18 b4 1f be 19 e6 c1 3c 4f d6 0d 3d de d3 f9 bd
       -0.15596044 0.02366929 0.03462821 -0.121986136
000020 9d 01 29 3d 32 c0 33 bb 99 ba 2a bd a2 d2 5e bc
       0.041261304 -0.002742779 -0.04168186 -0.013600023
000030 84 b3 08 3e ac 58 d0 ba c3 c6 f3 bd d0 81 4b 3d
       0.1334973 -0.0015895567 -0.11903145 0.049684346
000040 58 e8 17 3e da 16 04 be 7d d5 e6 3d 4d 7f 12 3e
       0.14834726 -0.12899342 0.112711884 0.14306374
000050 cb c0 48 3d 72 f6 70 bd 18 76 c0 3d 0e 25 10 3c
       0.049011987 -0.05882878 0.093975246 0.008797897
000060 81 d6 1e bd df 3c 93 3c 6e f6 0e 3e ea d5 f8 bd
       -0.038778786 0.017973362 0.13961193 -0.12150176
000070 96 ed 64 bd e4 29 21 3e
       -0.055890642 0.15738636

weight f4 [30]
000000 e1 73 23 3f 24 a0 a0 3f 46 73 7b 3f 74 86 37 3f
       0.6384869 1.2548871 0.9822277 0.71689534
000010 cf 0a 73 3f dd 48 ae 3f ef bc 0b 3f 0c 14 fe 3e
       0.9493837 1.3615986 0.54585165 0.4962467
000020 bb 04 8a 3f 16 ca 24 3f dc ba 75 3f f5 53 34 3f
       1.0782694 0.6437086 0.9598825 0.7044061
000030 fa f1 ad 3f 94 c6 67 3f b6 21 00 3f 4d a2 4c 3f
       1.358947 0.9053738 0.5005144 0.7993515
000040 b6 e4 39 3f 67 87 80 3f 21 5f 20 3f 63 5d 62 3f
       0.7261461 1.0041322 0.62645155 0.88423747
000050 aa 76 32 3f 2a 5a ad 3f 40 59 37 3f fb 51 3b 3f
       0.69712317 1.3543141 0.7162056 0.7317197
000060 cf 42 48 3f fe 52 2f 3f 3f 1b 04 3f b7 09 b9 3f
       0.7822694 0.6848601 0.51604074 1.445609
000070 bb 4f 8f 3f 6d c6 03 3f
       1.1196207 0.5147465

bias f4 [30]
000000 b7 07 17 bf c1 ac 61 be f6 5d 6d be 4c 49 9f be
       -0.58996147 -0.22038557 -0.23180375 -0.3111061
000010 25 7f 8d be d8 fc 74 3e 02 16 32 bf c0 ec 27 bf
       -0.27636066 0.23924577 -0.6956483 -0.65595627
000020 71 a6 20 be 8b f2 d7 be d3 ae d3 bd 64 37 90 be
       -0.15688492 -0.42177233 -0.103360794 -0.2816726
000030 fc f1 07 be 8f 2e a8 be 70 2f f5 be 4d 10 a6 be
       -0.13275903 -0.3284802 -0.47887754 -0.32434312
000040 79 c5 ec be 6e b1 84 be 45 1d 00 bf 1c f7 c8 be
       -0.4624441 -0.25916618 -0.5004466 -0.3925103
000050 01 e2 08 bf d4 a5 04 bd f6 99 b9 be 7d fa e9 be
       -0.53469855 -0.03238471 -0.36250275 -0.4569892
000060 f3 7d f1 be 20 02 c1 be 74 0c fb be 34 93 a0 3d
       -0.47166404 -0.37696934 -0.49032938 0.07840577
000070 9f cc aa be b4 76 04 bf
       -0.33359239 -0.51743627

running_mean f4 [30]
000000 44 3f 1a 3f 19 9b ff be 13 45 d9 be bf 6c a5 3d
       0.60252786 -0.49923018 -0.42435512 0.08077382
000010 52 bf 2d bf ef 26 bd be 99 6b 75 3e e6 19 c3 3d
       -0.67870057 -0.36943766 0.23966826 0.09526424
000020 97 02 b8 3e 3e 83 85 3e 1e 57 f9 3d 05 de 31 be
       0.35939476 0.26076692 0.121748194 -0.1736985
000030 ce 93 be be 61 a2 93 be 23 9b 71 3e 06 b4 d5 bd
       -0.3722214 -0.28834823 0.23594336 -0.10434727
000040 22 14 a6 3e 88 78 79 bc ec f5 ab 3e eb c8 94 3e
       0.32437235 -0.015226491 0.3358606 0.29059538
000050 02 0f 93 be 16 6c be 3e a8 62 f9 3e fc bc 06 3f
       -0.28722388 0.37191838 0.4870808 0.5263212
000060 cf e0 cd 3e 3f 61 d2 bd cd c6 5c 3e 82 ea 33 bf
       0.40210578 -0.102724545 0.21560211 -0.70279706
000070 c7 2a 0d 3f 57 fe 95 3e
       0.551434 0.29295608

running_var f4 [30]
000000 74 ad ce 3e 05 27 ea 3f f3 00 8e 3f a2 1d 31 3f
       0.4036671 1.8293158 1.109404 0.6918584
000010 2d dc 46 3f 97 86 dd 3f 84 83 01 3f c8 4f db 3e
       0.7767971 1.7306699 0.505913 0.42834306
000020 26 0a 7f 3f 16 5a a5 3e 20 60 65 3f 3e c5 12 3f
       0.9962486 0.32295293 0.895998 0.5733222
000030 b7 29 9d 3f 79 f6 0b 3f 00 1a df 3e fb 1d 72 3f
       1.2278355 0.5467296 0.43574524 0.94576997
000040 40 5c 1b 3f 61 a8 61 3f ff 1e 29 3f 64 09 7a 3f
       0.6068764 0.8814755 0.6606292 0.9767058
000050 61 8d f6 3e 31 52 92 3f 69 61 f9 3e d0 35 b7 3e
       0.4815474 1.1431333 0.4870713 0.35783243
000060 b1 f3 48 3f 05 58 78 3f 1e 60 8f 3e 7f 31 e6 3f
       0.78496844 0.9700931 0.2800302 1.7983855
000070 19 09 4c 3f 95 72 45 3f
       0.7970138 0.77127963

weight f4 [251, 30]
000000 3b fa 1e be ac 30 0c 3e 11 47 4b 3c 69 a2 31 3d
       -0.15525143 0.13690442 0.01240708 0.043367777
000010 52 94 46 bc 22 32 3e bd 99 90 94 bd 2a 93 03 3d
       -0.012120323 -0.04643453 -0.07254142 0.03212277
000020 00 8a d1 3d 3f 74 0d 3c 52 6e d9 3d d7 75 a6 bc
       0.102313995 0.008633672 0.10616745 -0.020319862
000030 42 af 9c be a2 34 3b 3e 81 ba b7 3d 20 e2 2f bd
       -0.3060246 0.18281797 0.0897112 -0.04294026
000040 ad 27 c2 bd 9c 54 77 3e 0f 99 58 be 1e 11 e9 3d
       -0.09480224 0.2415337 -0.21152137 0.11380218
000050 55 40 15 3e 24 ed 13 be b9 9e d2 3c 9b ad ff 3d
       0.14575322 -0.1444593 0.02571045 0.124842845
000060 cd 0f 23 be 03 16 7a 3e 97 d5 f2 bb 04 cc 58 3c
       -0.15923996 0.2442246 -0.007410716 0.013232235
000070 19 b1 3b be d0 d9 2d bd cc df 24 bc 68 12 11 3d
       -0.18329276 -0.04244405 -0.010063123 0.035417944
000080 94 d7 0b be 13 76 59 3c 1f da 2a bd 3e 1f 25 be
       -0.13656455 0.01327278 -0.041711923 -0.16125199
000090 d4 d5 b6 3d 4b 0b 05 3e b6 9e 6f 3e 14 d9 14 3d
       0.08927503 0.12992589 0.23400387 0.036339834
0000a0 75 c4 36 3e a1 11 6d 3b 7b 05 c3 bd 50 fc ea bc
       0.1784838 0.0036173838 -0.0952253 -0.028684765
0000b0 3e 0b e2 3c b6 b9 df 3d ff 2d e4 ba d8 1b 79 3d
       0.027593251 0.109240934 -0.0017408727 0.06081757
0000c0 9a 3e 01 be 2b e5 98 bc 55 9d 07 3e 68 aa f1 3d
       -0.12621537 -0.018663963 0.13243611 0.118000805
0000d0 0b 96 82 bc aa 39 8e bb 21 aa 72 3d db a8 4d bd
       -0.015940687 -0.00434037 0.05924428 -0.05020986
0000e0 34 f4 41 bd 34 bf 42 3c d5 1e 73 3e e2 95 fa bb
       -0.04735203 0.011886407 0.2374223 -0.007647262
0000f0 58 3f 03 be 67 b8 65 be 6a c8 0b be 1e bb 9c bc
       -0.12817132 -0.22433625 -0.1365067 -0.019132193
000100 27 c2 44 bd 23 5a 51 bd 4c 44 a8 3d 60 31 17 bc
       -0.04803672 -0.05111135 0.082161516 -0.0092280805
000110 62 99 2e 3e 32 17 1a bd c1 53 01 3d 2f 3a 84 3d
       0.17050698 -0.037619777 0.031574015 0.0645641
000120 f3 77 78 be f4 cd 42 3d ac fb 03 be 55 6b 18 be
       -0.24264507 0.047559693 -0.12888974 -0.14884694
000130 22 65 00 3d 80 e8 28 3e 6f 68 46 bc cd 02 cc 3d
       0.031346448 0.16494942 -0.01210986 0.09961472
000140 82 50 2e 3b 80 1b 7c 3e b6 55 99 3c 75 42 a1 3d
       0.002659828 0.24619865 0.018717628 0.07874004
000150 5c 9b 54 3d 28 47 3c 3d 30 d5 0f 3d 94 39 ad bd
       0.051905975 0.045966297 0.03511542 -0.08458248
000160 25 31 78 3e ab a3 9e 3c 50 77 8d 3d 2d b6 72 be
       0.24237497 0.019365152 0.06907523 -0.23702307
000170 e0 e2 75 bd ed 62 05 be 7e 40 b2 bd 23 38 69 be
       -0.060030818 -0.13026018 -0.08703707 -0.2277532
000180 3a 58 88 bd a1 c2 81 3d f4 33 16 3e 8d 67 5e bd
       -0.06657453 0.06335951 0.14668256 -0.054297972
000190 74 10 a3 bd ff 66 db 3d 46 c5 be bd 9a 88 db bd
       -0.079621226 0.10713004 -0.09314971 -0.10719414
0001a0 37 8e de 3c 8c f3 fd bc 36 ab 7f 3d 82 0a 38 3e
       0.027167423 -0.030999921 0.06241914 0.17972758
0001b0 70 e5 d4 bd 6e c3 36 3c a0 3e 96 bd a9 2b 42 3e
       -0.10395324 0.0111549925 -0.073361635 0.18961968
0001c0 fb d1 bd 3d 2a 2a 69 3d f6 bd f7 bc 81 5b d9 3c
       0.09268566 0.056924976 -0.030241948 0.02653289
0001d0 ee 1b 14 bc f3 91 95 be fd c1 f2 3d 8f b8 84 3d
       -0.009039862 -0.29212913 0.118534066 0.06480514
0001e0 82 a2 46 3d 40 bb d2 bb cb 5e e2 bb bd 2f af bc
       0.048494823 -0.0064310133 -0.006908273 -0.021385068
0001f0 91 73 31 bd d7 18 78 bd e7 0d 8d bd a6 55 3a 3d
       -0.043323103 -0.060570564 -0.06887417 0.045491837
000200 5e 3e cd 3d d4 50 6a be e6 a9 86 3e bb a0 86 3d
       0.10021661 -0.22882396 0.26301497 0.06573626
000210 96 20 23 be a6 0e 99 3c 81 01 6c bd e1 f9 46 bd
       -0.159304 0.018683743 -0.05761862 -0.048578147
000220 6d 53 0c 3e 92 43 30 3e a8 c5 be bd 93 27 68 bd
       0.137037 0.17213276 -0.09315044 -0.056678366
000230 35 f2 86 bd 48 ac 95 3e d7 50 b0 3d 22 69 16 be
       -0.06589166 0.29233003 0.08609169 -0.14688542
000240 b8 20 f9 bc ef 89 8a 3e 6e 2f 76 3d 63 6c 88 3c
       -0.03041111 0.2705836 0.060103826 0.016653245
000250 c2 3c 0e bd 3b e8 fe 3c 45 43 a5 bd 8d 9c 94 bd
       -0.034725912 0.031116595 -0.08069471 -0.07256422
000260 a4 0f 81 bc 50 76 57 3d 96 55 6a 3e 48 aa c3 bd
       -0.015754528 0.052603066 0.22884211 -0.09553963
000270 38 f3 a7 bb af 78 55 3d 55 1d bf 3d 65 f4 33 3c
       -0.0051254295 0.052117046 0.093317665 0.010983561
000280 eb 5f f6 3d 18 6a ae 3d b3 81 ba 3d 76 d1 51 be
       0.12030014 0.085163295 0.091067694 -0.2049006
000290 e0 27 2c 3d d7 5c 3c bd 24 83 7e bd f3 28 ad 3c
       0.042030215 -0.045986976 -0.062136784 0.02113769
0002a0 a0 f1 81 bd 51 9c aa 3e 62 f2 3f 3c e6 c3 6b 3e
       -0.063449144 0.33322385 0.011715503 0.23023948
0002b0 0f e3 b1 3c b1 be 77 3c 4c 32 bd 3d 67 ee e2 bd
       0.021714715 0.015121148 0.09238109 -0.11080628
0002c0 56 89 1b 3e 70 49 1b be 58 b5 41 3e d2 7f 07 3b
       0.15189108 -0.15164733 0.18916833 0.0020675552
0002d0 ac 45 2b ba f4 3e 03 bd 48 92 1f 3d fd 90 a7 3d
       -0.0006533514 -0.03204246 0.038957864 0.08181951
0002e0 d9 a0 35 3d 22 20 78 be 0a 40 fe bc 04 5e 10 bd
       0.04434285 -0.24231008 -0.031036396 -0.03524591
0002f0 6c bd 72 3e ec 09 f8 bc e6 44 5b 3e 6e a6 1c 3d
       0.23705071 -0.030278169 0.21413001 0.038244657
000300 90 7b 24 bc bd a9 61 bc d8 70 a2 3d fa 05 4f bc
       -0.010039225 -0.013773379 0.079316795 -0.012635702
000310 a0 70 3a be 99 6f 87 3d 57 d6 26 3d d7 d2 40 bd
       -0.18207026 0.066130824 0.040731754 -0.047076073
000320 24 2f 89 3d 88 38 56 3e 74 b6 9e 3d 47 6c 69 3d
       0.066984445 0.20920002 0.07749644 0.056988027
000330 9d 2d 26 3e 44 8d 26 be 7c 90 c8 3c 40 be 6f be
       0.16228338 -0.16264826 0.024482958 -0.23412418
000340 4d ec 80 3e 31 1a 27 3e 5f e7 0f 3e d5 d8 c7 bd
       0.25180283 0.16318585 0.14053105 -0.09758154
000350 4e 1d eb 3c 5a 2e 75 be 5b 2c 04 be 4d 3b 2b 3e
       0.028700497 -0.23943463 -0.12907545 0.1672184
000360 5c 93 e5 bb a5 d8 14 3e 6b 3f 08 3e 71 d9 d5 3d
       -0.007006092 0.14535768 0.13305442 0.10441864
000370 43 c6 93 be 5b 1f d0 bc fb 13 83 3d fd 81 37 be
       -0.288622 -0.025405576 0.06400295 -0.1792068
000380 fa dc 54 3d 3e 52 aa bd 29 01 be bd a5 ee 2b bc
       0.051968552 -0.08316468 -0.09277565 -0.010493909
000390 8b 99 e1 bd 2a 68 d9 bd 4e 19 e3 bc 94 6d c5 3d
       -0.11015614 -0.10615571 -0.027722027 0.09640041
0003a0 89 49 67 be 80 4b ff bd 29 c4 13 be 2f 08 0f 3d
       -0.22586645 -0.12465572 -0.14430298 0.034919914
0003b0 3c 8a 40 3d af 75 e7 bd 60 98 0c 3c d1 ed 65 3d
       0.04700683 -0.11301743 0.008581251 0.056135003
0003c0 59 aa af bd f2 b6 78 be 18 fb 47 3d f0 f3 a1 3a
       -0.08577413 -0.24288538 0.048823446 0.0012356024
0003d0 44 fc 9f bd 13 17 a9 3a 54 77 1d be e8 35 06 bd
       -0.07811788 0.0012900553 -0.15377551 -0.032766253
0003e0 b0 f4 5a bd e5 3f fd 3d 33 02 09 bd e3 a1 ca 3c
       -0.05345601 0.123657025 -0.033449363 0.024735397
0003f0 49 bf 9f 3d dc 62 c7 3d ca 6c 36 bd 5f 6f b4 bd
       0.078001566 0.09735653 -0.044537343 -0.08810305

bias f4 [251]
000000 e1 9e fe bd e8 de be 3c e6 76 98 3d df d9 ef 3d
       -0.124326475 0.02329965 0.07444553 0.117114775
000010 fd fa 39 3e 7c 49 5f bd 1b e3 82 3a 9a 70 be bd
       0.1816215 -0.05451344 0.0009985896 -0.09298821
000020 a8 0e 59 bd 7b ea 03 be 2d 4a f7 bc 96 60 04 be
       -0.052992493 -0.12882416 -0.030186737 -0.1292747
000030 12 4a fe 3d 42 ca d5 bc bd 11 32 3c 89 3e 18 bd
       0.124164715 -0.02609742 0.010868487 -0.037169013
000040 fa 68 08 3e bd 87 1d 3e 90 0d 60 bd 2f f8 3e 3e
       0.13321295 0.15383811 -0.054700434 0.18649362
000050 8b 2b bc 3c 03 95 25 bd 45 1b cc bc 4b 63 34 3e
       0.022969982 -0.04042531 -0.024915347 0.17616002
000060 66 4c 97 bd ae b3 39 bd 01 2c 25 3c 40 45 29 bd
       -0.07387619 -0.04533737 0.010081292 -0.041325808
000070 e4 04 c9 3c c4 0d 33 be da 3b 16 be 8e 31 0e be
       0.024538465 -0.1748572 -0.14671269 -0.13886091
000080 d3 e8 15 be d4 d3 16 3e d1 c3 3f bd 25 25 d4 3d
       -0.14639597 0.14729244 -0.046817604 0.10358647
000090 b3 04 3b be 16 09 51 bd 2f 0e 0b be e5 45 5a 3c
       -0.18263511 -0.051034056 -0.1357963 0.013322328
0000a0 b4 77 aa bd 7a 91 9d bc a5 c7 e7 bd e6 90 0f bd
       -0.08323613 -0.019234408 -0.11317376 -0.035050295
0000b0 23 94 d0 3d 88 90 0a be 58 5e 31 3d c7 61 31 3e
       0.10184505 -0.13531697 0.043302864 0.17322455
0000c0 c1 ef e1 3d e5 67 a1 3d df 06 ae 3d 57 01 35 3e
       0.110320576 0.078811444 0.08497404 0.17676292
0000d0 68 f3 da bd d8 0c ab bd 6b 20 69 3d 07 82 3b bd
       -0.10690957 -0.08352059 0.05691568 -0.0457783
0000e0 ec ea 69 bd b1 3c 19 3d 36 c1 ca bd 9e a0 20 be
       -0.057108805 0.037411395 -0.09900133 -0.1568627
0000f0 31 d0 16 be 66 b6 90 3d ec ce 38 be d9 56 2d be
       -0.14727856 0.0706604 -0.18047684 -0.16927661
000100 71 e7 8f bd 61 53 c1 bd 2d da 01 3e fe db 11 3e
       -0.07026566 -0.094397314 0.12680884 0.14244077
000110 49 23 1a 3e 7c 5d b6 3d 8f 96 22 3d ae 40 5b 3d
       0.15052523 0.089045495 0.039694365 0.05352848
000120 b5 e9 81 bd 09 a4 0e b9 2f 36 15 3e d2 3f 92 3d
       -0.06343404 -0.00013603283 0.1457145 0.07141079
000130 0c 08 cb bd 73 3f 33 3e c1 8e 29 3e 55 51 08 be
       -0.09913644 0.17504673 0.16558363 -0.13312276
000140 8d 64 e4 bc 7d c6 65 bd 62 9e 1e be 00 13 92 3d
       -0.027879978 -0.056097496 -0.15490106 0.0713253
000150 e8 f1 34 bd dd d8 f6 3d 24 e2 ca 3d 1b 8f 07 3e
       -0.044176012 0.12053082 0.09906414 0.13238184
000160 28 bc 1e 3c f7 d9 ae bd ea c2 14 be 19 72 9a bd
       0.009688415 -0.08537667 -0.14527479 -0.07541294
000170 de f3 fa 3b 76 69 04 3e 55 26 8e bd d0 73 01 bd
       0.0076584658 0.12930855 -0.06940905 -0.031604588
000180 6c e4 35 be ec f2 12 3e 1a e7 9e bb ed cc db 3d
       -0.17762917 0.1435048 -0.004849327 0.10732446
000190 9f 9f bb bd 89 4b 18 be fe 2d ff 3d 5f a6 21 bd
       -0.09161305 -0.14872564 0.12459944 -0.039465304
0001a0 1b a4 01 bc b9 5a f5 3d 50 22 81 bd f7 a0 21 3e
       -0.007912661 0.119801946 -0.06305373 0.1578406
0001b0 c1 90 fa bd 05 0d 2f 3e 44 1f 2c bc 7f 61 4c 3d
       -0.12234641 0.1709481 -0.010505501 0.049897667
0001c0 a4 fc a5 3d ca 60 2f 3b 89 82 5d bb 9c 2e 77 bd
       0.08104828 0.0026760572 -0.003379973 -0.060347185
0001d0 6a f6 6e bd 29 12 18 3e 72 45 12 3e 7a 02 ae ba
       -0.058340468 0.14850678 0.14284304 -0.0013275885
0001e0 cc 68 0b 3d 3b f3 68 3d 4e 5e 44 bd 3a 7a 94 3c
       0.03403549 0.056872588 -0.0479415 0.018124688
0001f0 11 79 38 3d ef 79 5b 3d c1 61 f1 3d c6 3f 67 3d
       0.045037333 0.05358308 0.11786223 0.056457303
000200 da df 08 be 30 a1 a8 bb 2b 70 5c bc 91 b0 00 be
       -0.13366643 -0.005146168 -0.013454477 -0.12567355
000210 70 0a 13 3e 37 a4 a6 bc 20 bf d9 bc 5b 35 ef 3b
       0.1435945 -0.020341976 -0.026580393 0.0073000616
000220 76 0c ce 3d a0 b3 1c bb 5c 51 1a bd 9a 50 30 be
       0.100609705 -0.0023910776 -0.037675247 -0.17218247
000230 00 8b 63 3b 3a cd b0 bc 0a 79 05 be ec 02 b0 bd
       0.0034720302 -0.021582235 -0.13034454 -0.08594307
000240 43 72 2f bd fb 5c 04 be 8a 71 eb bd e0 bd 34 be
       -0.042833578 -0.12926094 -0.11496265 -0.17650557
000250 33 c2 e9 3c 31 40 f9 bd f0 37 6c bd a9 49 0e 3c
       0.028534984 -0.12170447 -0.057670534 0.008684554
000260 c4 8d 38 3e 93 60 1a be 75 b5 16 be 5c d6 a2 bd
       0.1802283 -0.15075903 -0.14717658 -0.07951042
000270 5b dc 26 be 2b ee 18 be 21 63 0a 3e 8e 7d 9b bc
       -0.16294996 -0.14934604 0.13514377 -0.018980768
000280 db 86 7f 3d 68 a9 e4 bd 66 a6 20 be 55 a3 cf bd
       0.062384468 -0.11165124 -0.15688476 -0.10138575
000290 ff 6f 53 bd c3 58 e0 bd 69 27 2b be 0f a1 06 be
       -0.05162048 -0.1095443 -0.16714253 -0.13147376
0002a0 4f 13 c3 3d a1 4d 8d bc 05 ee 30 bd 14 bf ad bd
       0.09525167 -0.01724893 -0.043195743 -0.08483711
0002b0 e5 65 c2 bd b5 59 17 3d bd 50 f0 3d 70 d0 e3 bb
       -0.09492091 0.036950786 0.117341496 -0.006952338
0002c0 99 91 88 bd cd 12 db 3d 58 3d dd 3d a9 df 19 3e
       -0.066683955 0.10696945 0.10802716 0.15026726
0002d0 ed fc 14 3e bc ad 56 bd 24 53 2f 3e 3a f8 b0 3d
       0.14549609 -0.05241178 0.1712156 0.086410955
0002e0 4f c5 30 3e fc a8 ce 3d 01 01 aa 3c f5 18 d4 3c
       0.17262767 0.10090825 0.020752432 0.025890807
0002f0 8c 9a 32 3e 05 a0 02 3e 84 32 15 bd 1c c4 38 3d
       0.17441767 0.12756355 -0.03642513 0.0451089
000300 bf 25 dc 3d ac 78 93 3d 09 a1 2a be 99 ba dc 3d
       0.10749387 0.07200751 -0.16662993 0.10777778
000310 86 b2 d9 3d 57 c5 e0 bb c1 fa 01 3e c3 b9 da bd
       0.10629754 -0.0068594622 0.12693311 -0.106799625
000320 2b 44 94 bd 55 31 38 be 11 c3 e2 bd 68 73 b6 3c
       -0.072395645 -0.17987569 -0.11072362 0.022271827
000330 2d 43 4c bd 77 7a 1d bd a0 a5 9a 3c a4 cb 65 bd
       -0.04986875 -0.03844687 0.018877804 -0.05610241
000340 d7 61 00 3e fb d8 72 bd 6d 5f e8 bd 61 ca 60 bc
       0.12537323 -0.05928896 -0.11346326 -0.013720126
000350 ff 9b 1f 3e 6c 1a 39 3e c6 b3 22 be 2c 53 ca 3c
       0.15586852 0.18076485 -0.1588889 0.024697863
000360 ef b0 cd bd b5 b0 2b 3c ef a2 e1 3d 67 b9 c3 ba
       -0.10043513 0.010479142 0.11017405 -0.0014932574
000370 af a8 00 3e 27 0c a5 bd 2f c9 f9 bc 0c 68 23 3e
       0.12564348 -0.080589585 -0.03049144 0.1595766
000380 70 a0 05 3d 7b f7 2a be 6a 26 04 3e 13 3f 13 3d
       0.03262371 -0.16695969 0.12905279 0.035948824
000390 e9 92 c3 3c 36 76 30 3e f0 11 2c be 87 c5 10 3e
       0.023873763 0.17232594 -0.16803718 0.1413785
0003a0 55 ea 42 bd 6d b7 94 bd 9d 58 e7 bd f2 64 0a 3d
       -0.047586758 -0.07261548 -0.112961985 0.033787675
0003b0 04 b2 0e bd 93 58 cf bd 64 72 e2 bd 38 5b 88 3d
       -0.034837738 -0.10124316 -0.110569745 0.066580236
0003c0 6e 60 1f 3e a1 4e b8 bd ce e7 13 3e b2 6b 0f 3e
       0.15564129 -0.08999372 0.14443895 0.14005926
0003d0 e0 f6 ea bc 0b 38 f4 3c 64 30 c9 bd b3 0c 0f 3c
       -0.028682172 0.02981188 -0.09823683 0.008731055
0003e0 04 49 0f 3d 47 df a2 bd d7 20 e3 bc
       0.034981743 -0.07952743 -0.02772562

weight f4 [251]
000000 c9 92 6d 3f 7b a1 16 37 c8 5f 27 37 4b 67 2e 38
       0.928021 8.978294e-06 9.9762765e-06 4.1581032e-05
000010 19 f6 91 b7 70 1d 57 b7 e6 f8 05 b8 e3 f9 35 b9
       -1.7399945e-05 -1.2821853e-05 -3.1941476e-05 -0.00017354595
000020 58 86 35 39 8e 9d e0 37 dd c3 ca b7 64 8d be 38
       0.00017311552 2.6776248e-05 -2.4171482e-05 9.086242e-05
000030 f3 65 2a b8 8c 1d db 38 90 87 05 b7 17 b1 8c b5
       -4.0626106e-05 0.00010448237 -7.958981e-06 -1.0482353e-06
000040 32 47 a4 38 94 56 ee b7 77 fd f8 b6 f8 35 e4 3d
       7.8333906e-05 -2.8412127e-05 -7.420483e-06 0.11143106
000050 4a 41 8f b7 fe a5 ce 38 93 c9 48 3e a6 29 a2 35
       -1.7077331e-05 9.853764e-05 0.19608144 1.2082062e-06
000060 86 da 37 36 f6 3d eb 39 b6 f2 bf b7 87 bc 72 39
       2.7396322e-06 0.00044868857 -2.2881995e-05 0.0002314915
000070 9a 34 9c 37 b0 27 0c 38 2a b0 a4 b6 70 3b 8d 3b
       1.8621144e-05 3.3415563e-05 -4.908089e-06 0.004310064
000080 dc 19 00 b9 0e 55 c0 b7 44 01 87 38 91 ec 53 35
       -0.00012216665 -2.292779e-05 6.4375374e-05 7.8947875e-07
000090 de e9 cf 3d 49 c0 d9 38 7c ae b7 3d f3 72 a1 3e
       0.101520285 0.00010383182 0.08968827 0.31533012
0000a0 36 7f 1a 38 f1 94 30 3e f7 1e 23 38 17 96 93 3e
       3.6834936e-05 0.17244317 3.8891067e-05 0.28825447
0000b0 fc 57 6a 38 e2 af a4 b4 96 71 1a 38 31 3b 18 b9
       5.587189e-05 -3.0675352e-07 3.6822246e-05 -0.000145179
0000c0 1f 65 9b b7 35 8b be 38 4e 4b 0c b8 bf 0f c9 3d
       -1.8524528e-05 9.085835e-05 -3.3448734e-05 0.098174565
0000d0 bc a3 fb b8 7d e4 30 b8 1e 8b 10 38 fe 9b 7b 39
       -0.000119991106 -4.2174466e-05 3.446184e-05 0.00023995337
0000e0 92 50 f6 3d 80 2b 27 b7 32 85 85 39 f0 b6 c0 36
       0.12027086 -9.964104e-06 0.00025466975 5.7433426e-06
0000f0 47 a0 6e b8 1a 5d 08 b8 af 51 31 37 9b ea 84 b6
       -5.689289e-05 -3.2511634e-05 1.0569041e-05 -3.961218e-06
000100 ff 1a c0 37 3b 16 0e 3e 02 dd 36 38 77 31 10 b8
       2.2900755e-05 0.13875668 4.359801e-05 -3.4378343e-05
000110 95 e4 4d b8 e0 ae e4 37 3d 09 20 39 6a 2f 8d b7
       -4.9088692e-05 2.726115e-05 0.0001526223 -1.6830589e-05
000120 9d 8f 88 38 8b 4a 64 36 ff 23 9e 37 84 60 c2 b7
       6.5117354e-05 3.4018037e-06 1.885183e-05 -2.3171546e-05
000130 f6 f6 12 39 6a 07 82 35 f5 9b 3b b8 2a db f2 39
       0.00014015645 9.687913e-07 -4.472952e-05 0.00046321127
000140 dd 2b 1b b8 e8 03 a7 37 e8 b9 b6 b8 54 27 81 39
       -3.699573e-05 1.990977e-05 -8.713064e-05 0.000246341
000150 83 35 b3 38 7c 77 36 39 19 43 b6 3e 25 ae 12 39
       8.5453525e-05 0.00017401384 0.35598066 0.00013988519
000160 30 91 77 b7 be 6a d8 38 c8 87 b1 b6 22 63 1b 39
       -1.4756151e-05 0.00010319565 -5.290818e-06 0.00014818882
000170 bb 5d dc b7 53 26 18 b8 67 85 8e b8 7c 8c 63 b9
       -2.626969e-05 -3.6275316e-05 -6.795936e-05 -0.00021700741
000180 3a ae 03 39 8c 42 1e 38 53 63 24 38 db c9 10 38
       0.00012558038 3.7732112e-05 3.919315e-05 3.4520268e-05
000190 39 86 f6 37 8a 94 7b b7 0d 86 41 36 63 9b 01 b8
       2.9387988e-05 -1.499535e-05 2.883727e-06 -3.0900712e-05
0001a0 d1 b4 8b 35 ee d7 fb 38 76 b8 b2 37 8f 16 a9 37
       1.0408932e-06 0.00012008833 2.130515e-05 2.0156875e-05
0001b0 e1 47 d7 36 92 a2 a9 37 58 9f 93 37 74 9f 58 37
       6.415867e-06 2.0222073e-05 1.7597966e-05 1.2911729e-05
0001c0 20 82 50 b8 d6 3b b4 b7 db d1 e2 38 48 da 08 3f
       -4.9712253e-05 -2.1485535e-05 0.000108156084 0.5345807
0001d0 28 25 69 37 3c 9f 14 3a 13 2b 43 39 2b 85 9b b8
       1.3896533e-05 0.000566948 0.00018612696 -7.4157804e-05
0001e0 de 5b 04 b6 d9 e0 cc 3d 64 fd cc b7 8c 19 65 b7
       -1.9723007e-06 0.10003824 -2.443669e-05 -1.3655412e-05
0001f0 e5 39 fc 39 6d 0e 97 b6 51 bb 60 37 0b 1a 16 b7
       0.0004810832 -4.50183e-06 1.3395053e-05 -8.94676e-06
000200 05 c7 3d b8 a5 22 d8 b8 ac 9b 0b 38 86 6a 21 39
       -4.5246463e-05 -0.00010306136 3.3285163e-05 0.0001539384
000210 83 66 02 39 03 0a ee 37 a1 66 1e b7 33 0c 6c 38
       0.00012435955 2.8376473e-05 -9.441429e-06 5.6278146e-05
000220 e0 f4 18 38 c5 5b 10 3a 76 be 11 37 31 54 e9 3d
       3.646768e-05 0.0005506839 8.687019e-06 0.11393011
000230 9e 00 3e 38 1a 14 fc 38 fd b6 d9 b7 15 10 eb 3d
       4.5300105e-05 0.000120200406 -2.5953626e-05 0.11477677
000240 32 ff 85 b7 69 25 9d 35 9f ca 3b b8 e0 1d d5 b5
       -1.597367e-05 1.1708299e-06 -4.477298e-05 -1.5878431e-06
000250 37 51 60 b8 13 6e 38 38 78 ac 29 b7 dc 40 b4 b7
       -5.34814e-05 4.3971533e-05 -1.0113341e-05 -2.1487875e-05
000260 58 9c 85 b6 bd 1b aa 39 1f 66 0c 37 ce 69 a6 b7
       -3.9819097e-06 0.00032445593 8.368427e-06 -1.9838011e-05
000270 5d 6e 9d b9 b1 25 87 b7 07 50 16 b5 93 31 8b b8
       -0.000300276 -1.6110806e-05 -5.599581e-07 -6.6372704e-05
000280 88 00 83 b7 57 9c f5 b7 64 50 03 b8 2f 44 f8 37
       -1.5616664e-05 -2.9279077e-05 -3.1307703e-05 2.9595654e-05
000290 1e a1 d6 39 ab 7f 6f 37 bb 4d 54 39 dc 39 f9 b7
       0.00040937302 1.4275235e-05 0.00020246852 -2.9710056e-05
0002a0 7c e3 90 38 f6 06 e6 b7 6e d7 31 37 a8 10 a5 b7
       6.908827e-05 -2.7421378e-05 1.0600181e-05 -1.9677289e-05
0002b0 c7 da e7 b7 87 9c b9 b8 79 62 9b 37 df 1c f1 39
       -2.7639222e-05 -8.850643e-05 1.8523295e-05 0.00045988613
0002c0 ec c1 45 38 2d b3 d1 3e ed 0f 13 b9 7e 4d e1 38
       4.7149064e-05 0.40957013 -0.00014024945 0.0001074327
0002d0 47 34 7b b7 3b 68 81 37 1a 8b 44 b7 ba 91 10 39
       -1.4972938e-05 1.5426534e-05 -1.17148975e-05 0.00013787198
0002e0 f7 c8 ec 3d 01 bf 15 37 3b f3 88 b7 c6 1c 05 37
       0.115617685 8.925564e-06 -1.6325726e-05 7.934117e-06
0002f0 42 a4 d6 b7 2a 14 03 38 ec ff 89 38 7c b7 bc b6
       -2.5587276e-05 3.1251613e-05 6.580338e-05 -5.624197e-06
000300 d1 a9 c9 b7 72 6f 1c 39 46 15 bb 3d b0 65 ed 3d
       -2.4040144e-05 0.00014918836 0.09134917 0.11591661
000310 99 72 70 38 a9 00 68 38 4d ba 4a 38 c1 49 d6 b6
       5.7327186e-05 5.5313725e-05 4.833406e-05 -6.386283e-06
000320 5d 13 38 b8 d4 32 5d 36 e5 7a 85 b7 d6 c0 ab b7
       -4.3887052e-05 3.2961152e-06 -1.5912063e-05 -2.0474585e-05
000330 1d b3 e4 3d 82 3e 92 38 f4 d0 c0 37 25 14 d9 b9
       0.11166976 6.9734655e-05 2.2985485e-05 -0.00041404474
000340 2f 33 88 b7 2c 41 da 3a c6 4f 35 38 79 c2 15 b9
       -1.6236298e-05 0.0016651503 4.3228058e-05 -0.00014282194
000350 af 02 42 38 eb 94 30 39 fa 91 c4 38 a7 15 0b b8
       4.6255704e-05 0.00016840144 9.3731986e-05 -3.3160348e-05
000360 c4 0b 5b 38 fc 02 11 b8 f2 d4 1f 38 7e 09 72 b6
       5.2224626e-05 -3.4573473e-05 3.8106875e-05 -3.6066335e-06
000370 f5 a9 5e 38 dc de fd b6 2b 38 6f b7 77 73 b6 b7
       5.308721e-05 -7.565932e-06 -1.4258588e-05 -2.1749858e-05
000380 6b 57 d2 b8 e2 43 91 b9 10 f1 b0 38 b1 05 66 b6
       -0.00010029863 -0.00027707132 8.4372354e-05 -3.4275984e-06
000390 41 09 92 37 50 77 6e b8 4f a7 3b b9 eb 67 37 38
       1.7408865e-05 -5.685474e-05 -0.00017896037 4.372738e-05
0003a0 9d 24 31 37 e5 34 bf 38 5c 19 09 b8 97 7f 1c 37
       1.0558547e-05 9.117442e-05 -3.2686963e-05 9.328031e-06
0003b0 a6 4e 5b 38 80 61 e1 38 32 40 81 39 fb cb 93 38
       5.2286916e-05 0.00010746997 0.00024652627 7.0475005e-05
0003c0 03 b0 e1 b7 f9 7e c9 3a 11 15 d9 3d 96 6d 31 38
       -2.6904052e-05 0.0015372924 0.10599721 4.230215e-05
0003d0 9c 3d 88 3c 8a 55 21 b8 b8 00 cc 37 dc 09 71 b7
       0.01663094 -3.8465056e-05 2.431903e-05 -1.4367015e-05
0003e0 60 e6 3f 37 90 a5 88 37 42 43 12 38
       1.14381255e-05 1.628956e-05 3.487175e-05

bias f4 [251]
000000 9e 42 07 40 47 19 0a 40 e8 ca 0a 40 99 7c 0b 40
       2.113441 2.1577928 2.1686344 2.1794798
000010 9c 40 fe 3f b7 28 0f 40 55 1f 17 40 74 84 1a 40
       1.9863467 2.23686 2.3612874 2.4143343
000020 11 51 20 40 30 ee 0d 40 49 3f 0a 40 df ed 1e 40
       2.504948 2.2176628 2.1601126 2.4832685
000030 64 fb 13 40 05 a7 18 40 c9 f7 01 40 47 1b f8 3f
       2.3122187 2.385194 2.0307486 1.9383324
000040 aa c3 19 40 8d a7 19 40 04 b6 f3 3f df 13 ff 3f
       2.4025674 2.4008515 1.9039922 1.9927939
000050 69 32 08 40 f5 4a 0e 40 a1 13 fc 3f 0d a4 f3 3f
       2.1280768 2.223325 1.969349 1.9034439
000060 44 13 f4 3f 88 36 09 40 8a 88 07 40 b7 43 32 40
       1.9068379 2.1439533 2.1177087 2.785383
000070 59 dc f8 3f 82 bd 07 40 b4 a8 f4 3f 76 dc 62 40
       1.9442245 2.1209416 1.9113984 3.5447059
000080 9b 7c 1f 40 23 f5 f7 3f 83 5d 21 40 94 e4 fa 3f
       2.4919803 1.9371685 2.5213325 1.9601007
000090 b1 06 00 40 ae 4a 16 40 86 d3 0a 40 50 34 03 40
       2.0004084 2.348308 2.1691604 2.050068
0000a0 e8 cf 03 40 87 0b fb 3f 89 60 f7 3f fc b7 02 40
       2.0595646 1.9612893 1.9326335 2.0424795
0000b0 f1 be 07 40 36 00 f3 3f 37 d2 17 40 af ff 02 40
       2.1210291 1.8984439 2.3722055 2.0468557
0000c0 1e a1 fc 3f 39 59 1b 40 07 a6 fe 3f 93 dc f9 3f
       1.9736669 2.4273207 1.9894418 1.9520439
0000d0 8d 23 1e 40 13 61 0d 40 4f 24 06 40 f7 17 08 40
       2.4709198 2.20905 2.095966 2.1264627
0000e0 7f 60 06 40 f5 1c f3 3f a6 01 08 40 e1 8e 02 40
       2.0996397 1.8993212 2.1251006 2.0399706
0000f0 e7 75 0b 40 64 7e 0d 40 80 ba 0b 40 bd bc 08 40
       2.1790712 2.2108393 2.183258 2.1365197
000100 37 57 f4 3f b3 92 f3 3f 30 d1 02 40 ab a6 02 40
       1.9089116 1.9029144 2.0440178 2.0414226
000110 57 ce 0c 40 44 39 07 40 8c c3 01 40 91 51 f7 3f
       2.200094 2.1128702 2.0275602 1.9321767
000120 11 7b 12 40 fe cf fd 3f 16 ca f3 3f 1c ab f2 3f
       2.2887614 1.9829099 1.9046047 1.8958468
000130 0d ed 15 40 eb 88 05 40 a9 df 10 40 5f 08 33 40
       2.3425934 2.0864818 2.2636511 2.797386
000140 04 4b fa 3f 87 e9 18 40 32 65 1b 40 80 4f 24 40
       1.9554143 2.3892534 2.4280515 2.5673523
000150 1b e9 10 40 63 a2 1c 40 3c 72 05 40 8b d3 1c 40
       2.2642276 2.4474113 2.0850973 2.4504116
000160 90 2a f8 3f 1f 0b 11 40 bb 85 f6 3f 43 10 29 40
       1.9387989 2.2663038 1.9259561 2.6416175
000170 44 e5 f7 3f 93 3a 01 40 6b a0 11 40 ba 28 25 40
       1.9366841 2.0192 2.2754161 2.5806108
000180 ed 73 1a 40 c9 7f 04 40 f0 64 06 40 f3 07 01 40
       2.4133255 2.0702994 2.0999107 2.0161102
000190 bc 05 f6 3f 8b 3d f2 3f d7 2a f5 3f d2 f9 0c 40
       1.92205 1.8925031 1.9153699 2.2027478
0001a0 0e fb 13 40 4d 46 1d 40 bb ae 02 40 89 06 f3 3f
       2.3121982 2.4574158 2.0419147 1.8986369
0001b0 36 14 06 40 d5 e7 19 40 3f e0 fb 3f c7 82 08 40
       2.0949836 2.404775 1.967781 2.132982
0001c0 a5 f7 0f 40 b5 0b 04 40 0e cd 2b 40 e2 13 01 40
       2.24949 2.0632145 2.6843905 2.0168386
0001d0 4a ba f7 3f 00 2b 35 40 b5 86 28 40 f0 16 13 40
       1.9353726 2.8307495 2.6332219 2.298275
0001e0 1f fc 10 40 54 a0 f2 3f c8 cd 0b 40 64 a9 f3 3f
       2.2653883 1.8955178 2.184435 1.9036069
0001f0 17 63 0a 40 67 76 02 40 1b f2 03 40 d5 96 0c 40
       2.162298 2.0384767 2.061652 2.196706
000200 75 78 0c 40 fe e3 21 40 c6 a4 06 40 44 0f 25 40
       2.194852 2.5295405 2.103807 2.5790567
000210 68 d9 13 40 84 5d 1b 40 8d d0 00 40 c7 64 0a 40
       2.3101444 2.4275827 2.012729 2.162401
000220 6c 36 01 40 b4 1f 35 40 4e 13 02 40 63 49 08 40
       2.0189466 2.83006 2.0324283 2.1294792
000230 ea b9 41 40 f1 6e 1c 40 e8 5e 00 40 2a 0b 06 40
       3.0269723 2.4442713 2.0057926 2.0944314
000240 18 07 00 40 89 7e 05 40 ea f3 09 40 46 a0 f6 3f
       2.000433 2.085848 2.1555123 1.9267662
000250 7b 2f 0b 40 a6 90 01 40 fc f3 f3 3f bc 25 f7 3f
       2.174773 2.0244536 1.9058833 1.9308391
000260 ef 1d 02 40 58 cf 04 40 c3 c2 04 40 48 ab f6 3f
       2.033077 2.0751553 2.0743873 1.9271021
000270 7d 64 31 40 91 7d f8 3f 13 4a fa 3f 07 83 19 40
       2.7717583 1.941332 1.9553856 2.3986223
000280 ca 55 fb 3f d6 66 f6 3f 79 7e 01 40 80 6a 07 40
       1.9635556 1.9250133 2.0233443 2.1158752
000290 0b d7 2c 40 f1 00 f1 3f 3f 5a 0c 40 aa af 04 40
       2.7006252 1.8828412 2.1930082 2.0732217
0002a0 93 a7 18 40 6c 21 f3 3f e1 ed f4 3f 6d 4f 02 40
       2.385228 1.8994575 1.9135095 2.0360978
0002b0 fc 2a 0f 40 b2 b8 19 40 75 74 00 40 8f b1 35 40
       2.2369986 2.401898 2.007108 2.8389623
0002c0 c1 7c 15 40 34 07 09 40 49 ac 1f 40 ea 8e 0f 40
       2.3357394 2.1410646 2.4948905 2.2430978
0002d0 ea 9a f3 3f d4 69 f4 3f 6a 32 0e 40 f1 7c 22 40
       1.9031651 1.9094796 2.221827 2.5388758
0002e0 75 70 01 40 7f af 02 40 ae af f4 3f 3f 0a 0d 40
       2.0224888 2.0419614 1.9116113 2.2037504
0002f0 91 df fb 3f d7 48 01 40 a4 a6 0b 40 b1 4b f1 3f
       1.9677602 2.0200708 2.182046 1.8851224
000300 0e 2b 0a 40 f5 69 18 40 99 75 fd 3f 40 71 02 40
       2.1588778 2.381467 1.9801513 2.0381622
000310 f2 63 1d 40 ca 4f 11 40 83 9f 08 40 29 de f5 3f
       2.4592252 2.270495 2.1347358 1.9208423
000320 9d 89 0b 40 cd 29 f3 3f 93 1e f7 3f ba 9f f7 3f
       2.1802742 1.8997132 1.9306206 1.934562
000330 7f 78 0b 40 dd 1a 22 40 b5 a6 f6 3f b0 44 4a 40
       2.1792295 2.5328896 1.9269625 3.1604424
000340 be e1 05 40 e1 a3 4c 40 51 7c 0f 40 9a f1 2e 40
       2.0919032 3.1975024 2.2419627 2.7334962
000350 a8 f2 08 40 06 23 1d 40 d4 df 15 40 dc d2 f7 3f
       2.1398106 2.4552627 2.3417864 1.9361224
000360 a8 bf 17 40 bf 72 03 40 84 bf fd 3f 24 ea 01 40
       2.3710728 2.0538785 1.9824071 2.0299158
000370 90 1c 03 40 42 3d 02 40 a0 ee f8 3f 1e d4 01 40
       2.0486183 2.0349889 1.9447823 2.0285716
000380 74 d7 05 40 c1 cc 47 40 59 bb 15 40 82 d7 fe 3f
       2.0912752 3.1218722 2.3395598 1.9909518
000390 36 69 04 40 22 73 1a 40 a9 ab 11 40 45 a8 1f 40
       2.0689216 2.4132771 2.2761023 2.4946454
0003a0 c7 62 f1 3f dd 3c 04 40 f3 36 08 40 d6 db 02 40
       1.885827 2.0662148 2.1283538 2.0446677
0003b0 df 97 0e 40 95 49 15 40 bc d6 0b 40 f7 e1 12 40
       2.2280195 2.332616 2.1849813 2.2950418
0003c0 eb d7 00 40 f3 6c 49 40 5e 22 f2 3f 2f b4 ff 3f
       2.0131786 3.1472747 1.8916738 1.9976863
0003d0 41 7d 0a 40 e7 58 03 40 10 ab fe 3f c6 ac 08 40
       2.163895 2.0523012 1.9895954 2.1355453
0003e0 3a 73 03 40 48 d7 f1 3f aa 0d 00 40
       2.0539079 1.8893824 2.000834
