EXP4_dump/MarkovStructure_model.pth (torch, 507167 bytes, 3 tensors)

weights f4 [1, 251, 251]
0	0x3f40a8e4	0.75257707
1	0xbf28f63b	-0.6600072
2	0xbede20d0	-0.4338441
3	0x3fc55948	1.5417871
4	0x3f433a68	0.76260996
5	0x3f43165e	0.76206005
6	0x3f1c66ea	0.61094534
7	0xbf59309e	-0.8483981
8	0x3f7b7b45	0.9823497
9	0x3f1a2c05	0.6022342
10	0x3f21431a	0.62993014
11	0xbf0c80f6	-0.5488428
12	0xbf4d4155	-0.80177814
13	0x3f2f87d0	0.6856661
14	0x3fad4f15	1.3539759
15	0x3f29641e	0.6616839
16	0x3ec7b634	0.39006197
17	0xbf0b6e2a	-0.5446497
18	0x3f438e51	0.7638903
19	0x3f29f333	0.6638672
20	0x3f2d93a9	0.67803437
21	0x3f76560f	0.96225065
22	0x3f81df62	1.0146296
23	0xbf766460	-0.9624691
24	0xbec96e1f	-0.39341828
25	0xbc131fa8	-0.008979715
26	0x3f1581eb	0.58401364
27	0xbf371fa9	-0.71532685
28	0xbee2fffe	-0.44335932
29	0x3f0bd4b0	0.5462141
30	0x3f885b4e	1.0652864
31	0x3f3b2cb3	0.7311508
32	0x3fb00339	1.3750983
33	0xbf6bcb26	-0.92106855
34	0xbf2aff12	-0.66795456
35	0x3f053786	0.5203785
36	0x3f00de64	0.5033934
37	0x3f510473	0.81647414
38	0x3f28a2a2	0.6587316
39	0x3faca63d	1.3488232
40	0x3f9dce84	1.2328649
41	0xbe4449a7	-0.19168721
42	0x3f37e7ed	0.71838266
43	0x3f30f898	0.69129324
44	0x3f68cf87	0.9094166
45	0x3f804c95	1.0023371
46	0x3f6915e4	0.9104903
47	0x3fde5136	1.7368534
48	0x3f986539	1.1905891
49	0xbf266f1c	-0.6501329
50	0x3f019e98	0.5063262
51	0x3f2b9526	0.6702446
52	0x3f389d79	0.72115284
53	0x3f8041d1	1.0020086
54	0x3f9c1e0c	1.219667
55	0xbf376b41	-0.7164803
56	0x3f9952be	1.1978376
57	0x3f37440d	0.7158821
58	0x3f5eb95c	0.87001586
59	0xbebc2d82	-0.3675347
60	0x3f3adcaf	0.72992986
61	0x3fa8316c	1.3140082
62	0x3f7ae049	0.9799848
63	0x3fc8db01	1.5691835
64	0xbf83afd6	-1.0288036
65	0x3ec42277	0.38307545
66	0x3f5e8589	0.8692251
67	0x3fba760c	1.4567275
68	0x3f80a6af	1.0050868
69	0x3e047d1e	0.12938353
70	0x3eed29dd	0.46321002
71	0x4002f556	2.046224
72	0x3f931443	1.1490558
73	0xbf24ca15	-0.6437085
74	0x3f18e78a	0.597283
75	0x3ee5eb49	0.4490607
76	0x3f4f7a16	0.81045663
77	0x3f57ce62	0.8429929
78	0x3f30c15e	0.69045055
79	0x3f248380	0.64263153
80	0x3f5f42ef	0.8721151
81	0x3f1b7277	0.60721534
82	0x3f8c648a	1.0968182
83	0x3f1c3628	0.61020136
84	0xbf6c4f00	-0.92308044
85	0xbf386851	-0.72034174
86	0xbf7c61cc	-0.98586726
87	0xbf273355	-0.653127
88	0x3f014912	0.5050212
89	0x3f35dc32	0.71039116
90	0x3f3f0fc2	0.7463342
91	0x3f849678	1.035842
92	0x3f51ceff	0.81956476
93	0x3f691525	0.9104789
94	0x3f43be57	0.7646231
95	0x3f126feb	0.57202023
96	0x3f9d855e	1.2306325
97	0x3f8ac82d	1.0842339
98	0x3f69605a	0.91162646
99	0x3f920a51	1.1409398
100	0x3f49b64b	0.7879378
101	0xbebc1496	-0.36734456
102	0xbee7f8ff	-0.45307156
103	0x3f77340e	0.96563804
104	0x3f2fbadd	0.68644506
105	0x3ea37614	0.31926024
106	0x3f2bb19c	0.67067885
107	0x3f3d5c79	0.7396923
108	0xbf319563	-0.6936857
109	0x3f690d5a	0.91036
110	0x3f582501	0.84431463
111	0xbf57454f	-0.8409013
112	0x3fa3f865	1.2810179
113	0x3f31be56	0.69431055
114	0x3f4fc9bc	0.811672
115	0x3f1d7a57	0.615148
116	0x3f5b9325	0.857714
117	0x3f4cf0ad	0.8005474
118	0x3ed8268f	0.42216918
119	0x3fc81ecf	1.5634402
120	0x3f597c26	0.8495506
121	0x3eca99f2	0.39570576
122	0xbf0510b8	-0.51978636
123	0x3fa46a92	1.2845023
124	0x3f447139	0.76735264
125	0xbf5b0499	-0.8555389
126	0x3fa911dd	1.3208576
127	0xbf261346	-0.6487316
128	0x400062e2	2.0060353
129	0x3f89908d	1.0747238
130	0x3f255f9e	0.64599025
131	0x3f39f435	0.72638255
132	0x3fa8ba3f	1.3181838
133	0x3fc8b58c	1.5680404
134	0x3effd445	0.49966636
135	0x3f2f3416	0.6843885
136	0x3f12bc89	0.5731893
137	0x3ef9e836	0.48809975
138	0x3f611771	0.87926394
139	0x3fa46db4	1.2845979
140	0xbf5237d1	-0.8211642
141	0xbf69af1a	-0.9128281
142	0xbef52a9e	-0.47884077
143	0x3f48ad41	0.78389364
144	0x3edd9214	0.4327551
145	0x3f58790b	0.84559697
146	0xbf7e2053	-0.9926807
147	0xbf6098c3	-0.87733096
148	0xbf81461a	-1.0099518
149	0xbf6cbbe7	-0.92474216
150	0x3ef35043	0.47522172
151	0x3f166f37	0.5876345
152	0xbf1fd04c	-0.6242721
153	0xbddee512	-0.108835354
154	0x3f56ba5b	0.83878106
155	0xbf219bad	-0.6312817
156	0x3f4d52da	0.80204546
157	0x3f3023d4	0.6880467
158	0x3f2a29fd	0.6647032
159	0x3fea844b	1.8321623
160	0x3fe8a146	1.8174217
161	0x3f2e8ecf	0.6818666
162	0xbea8334d	-0.3285164
163	0x3f868052	1.050791
164	0x3fa534dc	1.2906756
165	0x3f2a28ea	0.6646868
166	0x3eb9afb6	0.3626687
167	0x4010a4ac	2.2600508
168	0x3f3c2572	0.73494637
169	0x3fc0b43d	1.5055004
170	0x3f17623f	0.59134287
171	0xbf42cd92	-0.76094925
172	0x3f734d86	0.95040166
173	0xbf0ede65	-0.558081
174	0x3f21bcac	0.63178515
175	0xbf55c436	-0.8350252
176	0x3f5ee3dc	0.87066436
177	0x3f0058c0	0.5013542
178	0xbf2a0d98	-0.6642699
179	0x3f8f9f8b	1.1220564
180	0x3f181940	0.5941353
181	0x3f78dc1b	0.97210854
182	0xbf9d4368	-1.2286196
183	0x3f3af35f	0.73027605
184	0x3f36e13c	0.7143743
185	0x3f425f25	0.7592643
186	0x3f1f8048	0.62305117
187	0x3f40de11	0.75338846
188	0x3f1aeaf6	0.6051477
189	0x3f01de62	0.50729954
190	0x3f0854d8	0.5325446
191	0x3f61c1db	0.88186425
192	0xbf9006d4	-1.1252084
193	0x3f57514b	0.8410842
194	0x3fb313eb	1.3990453
195	0x3f6a0481	0.9141312
196	0xbf11c0a7	-0.5693459
197	0x3f47fbee	0.7811879
198	0x3f06a143	0.52589816
199	0xbf372e5b	-0.7155511
200	0x3f1d6e57	0.6149649
201	0xbf7a1bd8	-0.97698736
202	0xbf70e99b	-0.94106454
203	0x3f1b7f68	0.6074128
204	0x3f9cf36d	1.2261788
205	0x3f38328c	0.7195213
206	0x3f891828	1.0710497
207	0x3f5d495d	0.8644007
208	0x3e024728	0.12722456
209	0xbe3dcfd3	-0.1853631
210	0x3f05c9a1	0.52260786
211	0x3f8546ab	1.0412191
212	0x3f576400	0.8413696
213	0x3f060b5a	0.5236107
214	0x3f8eeb2e	1.1165521
215	0x3f5e4c19	0.86834866
216	0x3f850db6	1.0394809
217	0x3f0d5c9f	0.55219454
218	0xbf75e742	-0.96055996
219	0x3f45157c	0.7698591
220	0xbf929c57	-1.1453961
221	0x3f530e2c	0.824435
222	0x3ef0ba85	0.47017303
223	0x3f0cf143	0.55055636
224	0xbf1501df	-0.5820598
225	0x3f30c909	0.69056755
226	0x3f233af4	0.6376183
227	0xbf58db27	-0.847094
228	0x3f958e06	1.1683967
229	0xbf0dc66c	-0.5538089
230	0x3f4adb2d	0.79240686
231	0x3fbfb582	1.4977267
232	0x3f521aca	0.82072127
233	0x3ee5e645	0.44902244
234	0x3f05afd5	0.52221423
235	0x3fe06586	1.7530982
236	0x3f494c38	0.78631926
237	0x3f096d34	0.53682256
238	0x3f4de04a	0.8042036
239	0xbf6761c4	-0.90383554
240	0x3f0de119	0.55421597
241	0x3f7f82f7	0.9980921
242	0x3f1b039e	0.60552394
243	0x3f5e07b1	0.86730486
244	0xbf5de82c	-0.8668239
245	0xbf5780ac	-0.8418071
246	0xbf859ef1	-1.043913
247	0x3f136671	0.5757819
248	0x3ee9b236	0.45643777
249	0x3f9cfdfd	1.2265011
250	0xbf13218d	-0.5747307
251	0x3f0739fb	0.52822846
252	0x408923f8	4.2856407
253	0x3f6e33b6	0.93047655
254	0x3eea8c37	0.458101
255	0x3f3d4b5b	0.7394311

bias f4 [1, 251, 251]
0	0x3e9cd6ad	0.30632535
1	0x3f52c895	0.82337314
2	0x3f57ed97	0.8434691
3	0x3ebdc05b	0.37060818
4	0x3e512d7b	0.20427506
5	0x3d7214c4	0.059101835
6	0x3ee66da0	0.45005512
7	0x3f5f4d0f	0.8722696
8	0x3ebf5c83	0.37375268
9	0x3ed3ca60	0.41365337
10	0x3f0624e4	0.5240004
11	0x3f4c408f	0.7978601
12	0x3f5779e7	0.84170383
13	0xbec3ca45	-0.38240257
14	0x3f00c515	0.50300723
15	0x3ed5629f	0.41676804
16	0xbe00bde0	-0.12572432
17	0x3f94d453	1.1627296
18	0x3efde73c	0.4959048
19	0x3bd376e0	0.00645338
20	0xbe88fe20	-0.26756382
21	0x3ecbde4c	0.39818037
22	0x3f0188c2	0.505993
23	0x3f970972	1.1799757
24	0x3eea7ee4	0.45799935
25	0x3f2bd628	0.6712365
26	0xbe988fe7	-0.2979729
27	0x3f82df77	1.0224446
28	0x3f04f66c	0.5193851
29	0xbe6c92a2	-0.23102811
30	0x3eb9053d	0.3613681
31	0x3f1b7c17	0.6073622
32	0xbe083496	-0.1330131
33	0x3ef150c2	0.47131926
34	0x3f580be7	0.8439316
35	0x3d434147	0.047669675
36	0x3ecfc398	0.40578914
37	0x3ef160fc	0.47144306
38	0xbeb27cd5	-0.34860864
39	0x3efa9d2e	0.48948044
40	0x3ed1b113	0.4095541
41	0x3f9623be	1.1729658
42	0xbe9dc274	-0.30812418
43	0x3dd87494	0.105691105
44	0x3dd471bd	0.10373256
45	0xbc0c804a	-0.008575508
46	0xbd8c4f5e	-0.068510756
47	0x3f4854ba	0.7825428
48	0x3f25ac90	0.64716434
49	0x3e76033b	0.2402467
50	0xbe28e48c	-0.16493434
51	0xbc2ad523	-0.010426792
52	0xbec4febd	-0.384756
53	0xbe503f71	-0.20336701
54	0xbe37e51a	-0.17958489
55	0x3f285dea	0.657683
56	0x3f564801	0.8370362
57	0xbd8d7f19	-0.069090076
58	0xbd8197e9	-0.06327803
59	0x3f2eda5d	0.68301946
60	0xbebbffbd	-0.3671855
61	0xbe5f7d5b	-0.21825163
62	0x3e88c1d8	0.2671039
63	0x3eb6882e	0.35650772
64	0x3f571cb3	0.84028167
65	0x3e978a85	0.2959787
66	0x3eabbe41	0.3354359
67	0x3e488c80	0.19584846
68	0x3ee2eaf4	0.4431988
69	0x3f287267	0.65799564
70	0x3d8fa635	0.07014123
71	0x3ef32aa6	0.47493476
72	0xbe032ea4	-0.1281076
73	0x3f71ae6c	0.9440677
74	0x3dd8edbe	0.10592221
75	0xbd0cc948	-0.034371644
76	0x3def2eae	0.11678825
77	0xbd5e5720	-0.054282308
78	0xbcf99037	-0.030464275
79	0xbe8f1e5a	-0.27952844
80	0xbebb35fc	-0.36564624
81	0x3eab802d	0.33496228
82	0x3efd3d8d	0.49461022
83	0x3e50ae50	0.20378995
84	0x3f222941	0.633442
85	0x3f12ca47	0.573399
86	0x3f29af51	0.66283137
87	0x3f7b6f28	0.98216486
88	0x3f042e39	0.5163303
89	0xbd49c0ad	-0.049256016
90	0x3f07cb55	0.53044635
91	0xbe746162	-0.23865274
92	0x3ef3beeb	0.47606596
93	0xbed81c4b	-0.42209086
94	0xbdab60a8	-0.08368045
95	0xbdff5835	-0.12467996
96	0x3ed5e870	0.41778898
97	0xbecf005c	-0.40429962
98	0xbece3002	-0.40271002
99	0x3dc23af1	0.094838984
100	0xbdd27b81	-0.10277463
101	0x3f3099e6	0.6898483
102	0x3f17818f	0.59182066
103	0x3e3ff604	0.18746191
104	0xbed7be8c	-0.42137563
105	0x3eafba85	0.3432199
106	0x3ec899ae	0.39179748
107	0xbe22c15e	-0.15894076
108	0x3f6e20db	0.93018883
109	0x3e851e3a	0.25999624
110	0xbd6c511e	-0.057694547
111	0x3ee64756	0.449763
112	0x3f0e23b4	0.5552323
113	0x3e9aa24d	0.3020195
114	0x3eed7ed7	0.46385834
115	0xbd758604	-0.05994226
116	0x3ec00289	0.37501934
117	0xbcef505e	-0.029213127
118	0xbeca4eb5	-0.39513174
119	0x3e335f2d	0.17516775
120	0x3f187523	0.59553736
121	0xbe5380c3	-0.20654587
122	0x3f6afc1b	0.9179093
123	0x3e874c09	0.26425198
124	0x3e7f0095	0.24902566
125	0x3eb90537	0.3613679
126	0x3f081299	0.5315338
127	0x3f84d5d7	1.0377759
128	0x3edc63b4	0.43044817
129	0x3f0cff2d	0.5507687
130	0xbe4d5cc5	-0.2005492
131	0x3c47812c	0.012176793
132	0x3ef3bea0	0.47606373
133	0x3c73e5e1	0.01488635
134	0x3efbaafe	0.49153894
135	0x3e0313c2	0.12800506
136	0x3d1b4433	0.037906837
137	0xbea50289	-0.32228497
138	0x3ea8b244	0.32948506
139	0xbe53a39c	-0.20667881
140	0x3ef5acd9	0.47983435
141	0x3f435575	0.7630227
142	0x3f4d424b	0.8017928
143	0xbea65842	-0.3248921
144	0x3d336ada	0.043803073
145	0x3e1e3619	0.15450324
146	0x3f709b67	0.93987125
147	0x3f44e9d3	0.7691929
148	0x3f32c69c	0.69834304
149	0x3ea07084	0.31335843
150	0x3f154345	0.5830577
151	0x3e9311fa	0.28724653
152	0x3f37aff2	0.71752846
153	0x3f4281c3	0.7597925
154	0xbea37e2b	-0.31932196
155	0x3f6d7d06	0.92768896
156	0x3e68b71c	0.227261
157	0x3ef8cf29	0.4859555
158	0x3e579b87	0.21055423
159	0x3eae8c48	0.340914
160	0x3ee37045	0.44421592
161	0xbe04b251	-0.12958647
162	0x3f1fd84f	0.62439436
163	0xbd11831e	-0.035525434
164	0x3f23177a	0.637077
165	0x3ef5746f	0.47940394
166	0x3df28089	0.118409224
167	0x3efc43d2	0.49270493
168	0x3f0cc51e	0.54988277
169	0xbe3e2b35	-0.1857117
170	0x3e60d3a3	0.21955733
171	0x3f61b29b	0.88163155
172	0xbcb1dbed	-0.021711314
173	0x3f80f48a	1.0074627
174	0xbd809153	-0.062777184
175	0x3f8076f3	1.00363
176	0xbeaaa7f2	-0.33331257
177	0x3f0a60f0	0.54054165
178	0x3f37fe32	0.71872246
179	0xbc8c2b35	-0.017110446
180	0x3f028056	0.50977075
181	0xbe50789c	-0.20358509
182	0x3f33661d	0.7007769
183	0x3ef73b47	0.48287413
184	0xbe0e421a	-0.13892403
185	0x3e81c205	0.25343338
186	0xbd9ca5f1	-0.07648838
187	0x3eea0c3e	0.45712465
188	0x3dc11523	0.0942786
189	0xbd9b51ae	-0.075839385
190	0x3c0df5a0	0.008664519
191	0x3daf7da4	0.08568886
192	0x3f5f191c	0.8714769
193	0xbe05712c	-0.13031453
194	0x3e3e34e8	0.1857487
195	0x3eb3e12d	0.35132733
196	0x3ea8807a	0.3291052
197	0xbeac141f	-0.336091
198	0x3e754c4d	0.23954888
199	0x3f8b120c	1.0864882
200	0x3e938bdc	0.28817642
201	0x3f9652cc	1.1744018
202	0x3f5f6762	0.87267125
203	0xbec4c8ef	-0.3843455
204	0x3eb4f487	0.3534281
205	0xbdd436b4	-0.10361996
206	0x3f1c6c1a	0.6110245
207	0x3f11c4ad	0.5694073
208	0x3e792023	0.24328665
209	0x3edfce80	0.43712234
210	0xbd8f9f30	-0.070127845
211	0x3e9d0fa4	0.30675995
212	0xbdbcf4e9	-0.092264004
213	0x3f106043	0.56396884
214	0x3f2353a0	0.63799477
215	0x3e667cec	0.22508591
216	0xbd92b880	-0.07164097
217	0xbd92c52f	-0.07166516
218	0x3f476197	0.77883285
219	0x3ee4613d	0.44605437
220	0x3f4f5e00	0.8100281
221	0x3eae570a	0.3405078
222	0x3ec3ad81	0.3821831
223	0x3f1cba03	0.6122133
224	0x3f29e5c0	0.66366196
225	0x3cdb99bb	0.026806703
226	0xbe87a8a3	-0.26495847
227	0x3fa33cae	1.2752893
228	0xbe0da47b	-0.13832276
229	0x3f3973e1	0.7244244
230	0x3e5baf8d	0.21453686
231	0x3ddeb4fe	0.10874365
232	0x3f0ae8fe	0.5426177
233	0xbe09cb74	-0.13456517
234	0x3d7fcd0b	0.062451404
235	0xbd1d03b6	-0.038333617
236	0x3d7d97eb	0.06191246
237	0x3e8d3bb5	0.27584615
238	0x3f11e2ad	0.56986505
239	0x3f3676df	0.7127513
240	0x3eb0d4d8	0.34537387
241	0x3e32ca62	0.17460015
242	0x3eed4295	0.4633986
243	0xbe1740eb	-0.14770858
244	0x3f2f01fc	0.683624
245	0x3f8ebdff	1.1151732
246	0x3f49e6e4	0.78867936
247	0xbda56667	-0.08076172
248	0xbeaf07d2	-0.34185654
249	0x3eaf6713	0.34258327
250	0x3f9f2f50	1.2436314
251	0x3f275200	0.653595
252	0x3efa383b	0.48871025
253	0x3f6d64a5	0.92731696
254	0x3f2d2157	0.67629
255	0x3e9210f9	0.28528574

weight f4 [1, 251]
0	0xbc9791b2	-0.01850209
1	0x3da6dce6	0.08147602
2	0x3d60e6bf	0.054907557
3	0xbc74dd1b	-0.014945294
4	0xbdf3b75e	-0.11900209
5	0xbdd31172	-0.10306062
6	0xbd41b020	-0.047287107
7	0x3d737557	0.059438076
8	0xbdc437df	-0.09580969
9	0xbdd8b483	-0.10581305
10	0xbda15f40	-0.078794956
11	0x3dccd16f	0.10000884
12	0x3d9b9d5b	0.075983725
13	0xbdd25463	-0.10270002
14	0xbd5d3499	-0.05400524
15	0xbd9dac7c	-0.076989144
16	0xbd988f2e	-0.07449184
17	0x3d9b599f	0.07585453
18	0xbe1125a7	-0.1417452
19	0xbdca3b27	-0.09874564
20	0xbe15c784	-0.1462689
21	0xbdd46cac	-0.1037229
22	0xbe007400	-0.1254425
23	0x3dfc3dc5	0.12316469
24	0x3d4371a7	0.04771581
25	0x3bb24041	0.0054397886
26	0xbe054cdc	-0.13017601
27	0x3db385e4	0.08765772
28	0x3d15fe7e	0.036619656
29	0xbdc7816e	-0.09741484
30	0xbdc960ca	-0.09832914
31	0xbde360e8	-0.11102468
32	0xbd79d888	-0.060997516
33	0x3d22aa21	0.03971303
34	0x3dc22d3b	0.09481283
35	0xbdda496f	-0.106585376
36	0xbdcf9305	-0.101354636
37	0xbdb3f47c	-0.08786866
38	0xbe03d5a2	-0.12874463
39	0xbd80adf4	-0.06283179
40	0xbdab0f4f	-0.08352529
41	0x3d1ec3ca	0.038760938
42	0xbdbf4fe1	-0.093414076
43	0xbddadddc	-0.106868476
44	0xbdf7593a	-0.120775655
45	0xbdcaaeff	-0.09896659
46	0xbdc322ed	-0.09528146
47	0xbd0e7ee1	-0.03478897
48	0xbd3425c6	-0.043981336
49	0x3d327c95	0.043575842
50	0xbdae34af	-0.08506142
51	0xbe0b7808	-0.13620007
52	0xbe0864cc	-0.13319701
53	0xbdbdd2d0	-0.09268725
54	0xbd68d25e	-0.056841247
55	0x3db930e5	0.09042529
56	0xbb952a92	-0.004552194
57	0xbd860f5b	-0.065458976
58	0xbdb19069	-0.08670122
59	0x3d1e6eb2	0.038679786
60	0xbde151df	-0.11001944
61	0xbd21c426	-0.039493702
62	0xbdba0d12	-0.09084524
63	0xbd374eb7	-0.044752803
64	0x3d83e4d6	0.06440131
65	0xbdbb21bb	-0.09137293
66	0xbdb58ae4	-0.08864382
67	0xbd506bda	-0.050884105
68	0xbda88f56	-0.08230464
69	0x3be5861e	0.0070045134
70	0xbddc1356	-0.107458755
71	0xbd2eda13	-0.04268844
72	0xbde33d42	-0.110956684
73	0x3dba329a	0.09091683
74	0xbdf1ab11	-0.118002065
75	0xbdd1d5c7	-0.10245853
76	0xbd9d0865	-0.07667617
77	0xbdb43814	-0.087997586
78	0xbe03b930	-0.12863612
79	0xbe09b326	-0.13447246
80	0xbd848e6b	-0.064724766
81	0xbdc49d07	-0.09600263
82	0xbd019454	-0.031635597
83	0xbdb90b38	-0.09035343
84	0x3dc9964e	0.098431215
85	0x3d8b8962	0.06813313
86	0x3d5b51f1	0.053544942
87	0x3d60ca1f	0.054880258
88	0xbd8c422d	-0.068485595
89	0xbdc06ce5	-0.0939577
90	0xbd323a40	-0.043512583
91	0xbd941969	-0.07231409
92	0xbdd45864	-0.10368422
93	0xbdc77950	-0.097399354
94	0xbdcc4a86	-0.09975152
95	0xbe018427	-0.12648068
96	0xbd391c81	-0.0451932
97	0xbdae351c	-0.085062236
98	0xbdb64db6	-0.08901541
99	0xbc2d1598	-0.01056423
100	0xbdbe78b6	-0.093003675
101	0x3cbf93da	0.02338593
102	0x3d02fd4f	0.031979855
103	0xbd9377fa	-0.07200618
104	0xbd9816be	-0.07426213
105	0xbd8652ef	-0.06558787
106	0xbd99b6d0	-0.07505572
107	0xbd579b34	-0.052638248
108	0x3dc85243	0.09781315
109	0xbe0d7425	-0.13813837
110	0xbdce01fb	-0.100589715
111	0x3d5e0e08	0.0542126
112	0xbd856d87	-0.06515031
113	0xbda30fc2	-0.0796199
114	0xbdd0d7d3	-0.10197415
115	0xbd9b951d	-0.075968005
116	0xbdfece61	-0.124417074
117	0xbdb3e526	-0.08783941
118	0xbddeb416	-0.108741924
119	0xbd0aacfd	-0.03385638
120	0xbd8ce093	-0.06878772
121	0xbde5526b	-0.111973606
122	0x3da3f675	0.08005992
123	0xbdb5626e	-0.088566646
124	0xbd8c366a	-0.06846316
125	0x3d4d4541	0.050114874
126	0xbd19269d	-0.03739034
127	0x3d8081b2	0.062747374
128	0xbca6042e	-0.020265665
129	0xbdeaf5f0	-0.1147269
130	0xbe09f84e	-0.13473627
131	0xbd5259b0	-0.051355064
132	0xbd94895a	-0.0725276
133	0xbdac1fb5	-0.08404485
134	0xbdae1049	-0.084992
135	0xbdc72b35	-0.09725038
136	0xbdad777e	-0.08470057
137	0xbde27918	-0.11058253
138	0xbdb880ba	-0.09008928
139	0xbdc04b64	-0.093893796
140	0x3d89fae1	0.067373045
141	0x3d6ef6f6	0.05834099
142	0x3da30c91	0.07961381
143	0xbdbc9267	-0.092076115
144	0xbd85a478	-0.065255105
145	0xbd891d4e	-0.066950426
146	0x3d83837a	0.064215615
147	0x3d5ffd40	0.054684877
148	0x3db056d4	0.08610311
149	0x3d87255e	0.06598924
150	0xbdb79efc	-0.08965871
151	0xbdb245cd	-0.0870472
152	0x3d995acb	0.074880205
153	0x3d1e321f	0.038622018
154	0xbe0009e4	-0.12503773
155	0x3da19d45	0.07891325
156	0xbded76db	-0.115949355
157	0xbddf00ef	-0.1088885
158	0xbdc12b58	-0.09432095
159	0xbd2eabf5	-0.04264446
160	0xbd641a28	-0.055689007
161	0xbd078666	-0.033087157
162	0x3d1d56c4	0.038412824
163	0xbdc0b694	-0.09409824
164	0xbd8da722	-0.06916644
165	0xbded7f83	-0.115965866
166	0xbd3ac717	-0.045600023
167	0xbd2a12e1	-0.04152191
168	0xbdb9bc40	-0.09069109
169	0xbd40a5bb	-0.047033053
170	0xbd8d9d3d	-0.069147564
171	0x3db62574	0.08893862
172	0xbd9b3d34	-0.07580033
173	0x3dc0f629	0.09421951
174	0xbe0e2a94	-0.1388343
175	0x3dc1a9a8	0.094561875
176	0xbdd97bd9	-0.10619325
177	0xbdc5faa3	-0.09666946
178	0x3d4b7cfa	0.049679734
179	0xbde7b039	-0.11312909
180	0xbdbc21d8	-0.09186143
181	0xbdd05882	-0.101731315
182	0x3da77acb	0.08177718
183	0xbd886718	-0.066602886
184	0xbdcf683b	-0.10127302
185	0xbde33d95	-0.1109573
186	0xbe176678	-0.14785182
187	0xbdf745c1	-0.120738514
188	0xbe05d656	-0.13070044
189	0xbdce97b6	-0.1008753
190	0xbdc89de3	-0.097957395
191	0xbc58e84e	-0.0132389795
192	0x3dcbefdb	0.09957858
193	0xbdb763ac	-0.08954558
194	0xbce46027	-0.02787788
195	0xbda7012c	-0.081545204
196	0x3d61a001	0.055084232
197	0xbdca8e55	-0.09890429
198	0xbdcbe9f4	-0.099567324
199	0x3db753b9	0.08951516
200	0xbd4f85e3	-0.050664794
201	0x3db3f399	0.08786697
202	0x3e077f87	0.13232242
203	0xbe0303a8	-0.12794363
204	0xbd8d58ad	-0.06901679
205	0xbda40c69	-0.080101795
206	0xbdab22ae	-0.08356224
207	0xbc2de279	-0.010613077
208	0x3ce478bf	0.027889607
209	0x3d1e15cc	0.038595006
210	0xbe033bf6	-0.12815842
211	0xbdac1af3	-0.08403578
212	0xbd901fac	-0.07037291
213	0xbdbb55e6	-0.09147243
214	0xbc807cb5	-0.015684465
215	0xbda21dce	-0.07915841
216	0xbd812774	-0.06306353
217	0xbdf45df9	-0.11931986
218	0x3d9cb4ba	0.07651658
219	0xbdfbb190	-0.12289727
220	0x3e0288ca	0.12747493
221	0xbd8613de	-0.06546758
222	0xbdd83a3c	-0.10557982
223	0xbda1751a	-0.078836635
224	0x3da6c873	0.081437014
225	0xbda3b284	-0.079930335
226	0xbdf4f8c6	-0.11961512
227	0x3de6bc64	0.112664014
228	0xbd94808a	-0.072510794
229	0x3ccf5019	0.025306748
230	0xbdb76866	-0.08955459
231	0xbd1fb6b9	-0.038992617
232	0xbddd06c3	-0.10792305
233	0xbdd9309f	-0.10604977
234	0xbdff4893	-0.12465014
235	0xbd48ba51	-0.04900581
236	0xbddd8048	-0.10815483
237	0xbd84f1b1	-0.064914115
238	0xbe10c5a9	-0.14137901
239	0x3d860705	0.065443076
240	0xbdd3587b	-0.10319611
241	0xbd91b6b2	-0.071149245
242	0xbde5e571	-0.11225403
243	0xbe09b9a2	-0.1344972
244	0x3da01336	0.07816164
245	0x3de2a5e2	0.11066796
246	0x3dd26fe0	0.10275245
247	0xbdf6a0d7	-0.120423965
248	0xbddc88b7	-0.10768264
249	0xbc326f47	-0.010890788
250	0x3db8c3ad	0.09021697
