EXP7_dump/bottleneck_model.pth (torch, 77664 bytes, 19 tensors)

weight f4 [30, 251]
000000 38 be a7 3c 7e a6 15 bd 2a 51 be 3c 84 c6 9e 3d
       0.020476446 -0.036535732 0.023232061 0.077527076
000010 75 4d fe 3c ea 05 c3 3c dc bb 6c 3d 5d 4b 0a 3d
       0.031042794 0.023806531 0.057796344 0.03376328
000020 33 f7 d1 3d 3f 35 1c 3d 01 56 92 bc b0 60 cc 3b
       0.10252228 0.038136717 -0.017863275 0.006237112
000030 d9 14 12 3d e7 1e 45 3d 77 ce 68 3d 32 7e 3f 3d
       0.035664413 0.048125174 0.056837525 0.04675121
000040 e2 9a c7 3c d6 0e 0b 3d f4 8e 07 3d ea 61 0e 3d
       0.024365846 0.033949696 0.033095315 0.034761347
000050 e2 4c 2e 3d 03 51 0f 3e fb 7d 0d 3d 8f a0 80 3d
       0.04255379 0.13995747 0.034543972 0.06280624
000060 fa cb b1 3c b4 85 9a 3c d0 29 67 3c 26 95 c7 3c
       0.021703709 0.018862583 0.01410909 0.024363112
000070 6f 61 02 3d 1a d1 1b 3d f3 4a 1b 3d 7c b5 af 3b
       0.0318312 0.03804121 0.037913274 0.005362211
000080 c6 22 05 3d 38 7e 32 3c 86 df 68 3d 1f 0d e5 3c
       0.032503866 0.010894351 0.056853794 0.027960358
000090 18 1d db 3c 1c 37 f4 3c ea 13 49 3d 85 9d bd 3c
       0.026747271 0.029811434 0.049091257 0.0231464
0000a0 aa 90 20 3d 06 1d 79 3d 60 34 a3 3c 6d 1e e4 3c
       0.039200462 0.060818695 0.019922435 0.02784654
0000b0 64 59 49 bd 25 0b 60 3b 1e 5a a0 3d b7 13 47 3d
       -0.049157515 0.003418633 0.078296885 0.048602786
0000c0 5a f0 21 3d 4f 9a f5 3c c0 02 2b 3d 98 e1 f9 3c
       0.039535858 0.029980807 0.04175067 0.03050308
0000d0 82 99 55 3d e9 bf c6 3c ce 0c be 3c ea fb 05 3d
       0.05214835 0.024261432 0.023199465 0.032710947
0000e0 24 d2 a4 3c d8 da 2a 3d e2 12 8c 3d 87 31 f4 3c
       0.020119734 0.041712612 0.06839539 0.029808773
0000f0 bd 8f 03 3d 17 5e ed 3c 92 e1 62 3d 53 68 06 3d
       0.0321195 0.02897553 0.055390902 0.032814335
000100 00 bf c6 3c 9d 03 f7 3d a2 91 3f 3d 24 35 ab 3c
       0.024260998 0.12061236 0.046769746 0.020899363
000110 6c 15 02 3d e1 6d 57 3d 90 ee 32 3d 62 4a 5f 3d
       0.03175871 0.052595023 0.043684542 0.054514296
000120 21 20 47 3d ef 3f 98 3d d6 c4 96 3d 77 95 16 3d
       0.048614625 0.07434069 0.07361762 0.036763635
000130 b4 f0 f4 3b 05 7e 63 3d 17 00 04 3d f8 01 1f 3d
       0.007474983 0.055540103 0.03222665 0.038820237
000140 aa 22 27 3d bc 35 66 3d 8e 94 79 3d f1 19 1e 3d
       0.040804543 0.05620359 0.06093269 0.03859896
000150 a4 47 6b 3d 75 1c 17 3d df c7 3d 3d a4 e3 4b 3d
       0.05744137 0.036892373 0.04633319 0.049777642
000160 cc b7 b7 3c 18 3d fc 3c 0c 8e 7e 3d 2f a8 89 3d
       0.022426508 0.03079085 0.062147185 0.067215316
000170 55 f2 f4 3c d1 ae 77 3d ee 13 a6 3d 46 29 09 3d
       0.02990071 0.060469452 0.0810927 0.033486627
000180 68 e8 3f 3d 6a 46 39 bd 64 f0 7c bd 97 5b 36 3d
       0.0468525 -0.045233168 -0.061752692 0.04452094
000190 b1 6b ee 3d 75 9a 1a 3d fb 36 e7 bc 33 05 48 3d
       0.11641634 0.037744958 -0.028224459 0.048833083
0001a0 ad 12 a1 3c a6 e7 ba 3c 67 95 31 3d 40 c8 bd 3c
       0.019662226 0.022815537 0.04335537 0.023166776
0001b0 8d 1e 05 3d 74 9f 32 3d 8a c8 d9 3c 00 84 e4 3c
       0.03249984 0.043609098 0.026584882 0.027894974
0001c0 77 fe d9 3c 82 4c 28 3d 86 f7 fb 3c 42 f2 ca 3d
       0.026610596 0.04108859 0.030757677 0.09909488
0001d0 e8 d9 16 3d 79 37 1e 3b 46 38 a8 3d 4c 33 15 3d
       0.036828905 0.002414195 0.08213858 0.036425874
0001e0 40 a4 48 3d 33 82 7e 3d 9c ef 25 3d 62 a3 26 3d
       0.048984766 0.062135886 0.040511712 0.040683158
0001f0 58 b1 d7 3c eb 05 f2 3c 82 4f b9 bc 25 51 16 bd
       0.026329681 0.029543838 -0.02262092 -0.03669848
000200 b3 06 ea 3c b5 50 4c 3d 48 70 90 3c 5a 60 c7 3c
       0.028567648 0.049881656 0.017631665 0.024337936
000210 50 59 2d 3d 02 66 4a 3d 49 92 58 3d 69 1c 38 3d
       0.042321503 0.04941369 0.052873883 0.04494897
000220 07 c2 bc 3c 52 6d 8d 3c e8 4d 0a 3d 05 d8 40 3d
       0.023041738 0.017264042 0.033765703 0.047081012
000230 d1 7a 04 3d d2 29 f5 3c 18 13 87 3d 9e c9 c7 3c
       0.03234369 0.029927168 0.06595439 0.02438813
000240 6e 02 a1 3c 04 38 0f 3e d6 d2 42 3c 00 ea 1b 3d
       0.019654479 0.13986212 0.0118910875 0.038064957
000250 6a 79 ea 3c 62 42 42 3d b6 f4 3d 3d 3d c4 6d 3d
       0.028622348 0.04742659 0.046375953 0.058048476
000260 a6 b5 0b 3d 6e a6 1c bc 14 41 9a 3d 90 fb ef 3c
       0.03410878 -0.009561164 0.07531944 0.029294759
000270 f4 ff aa 3c 71 ed 0a 3d 9b 32 06 3d 25 89 a8 3c
       0.020874001 0.033917848 0.032763105 0.020573208
000280 a2 9c 04 3d 90 58 2b 3c 99 a7 52 3d bb 47 cf 3d
       0.03237594 0.010458127 0.051429365 0.101211034
000290 06 85 0f 3d e1 43 ac 3d 7d 6b de bd 55 3e 23 3d
       0.03503897 0.084113844 -0.108603455 0.039854366
0002a0 7a 6c f0 3c 31 e2 a8 3c 29 8c 04 3d 1f da 83 3d
       0.0293486 0.020615669 0.03236023 0.06438088
0002b0 34 05 10 3d e5 3b 0f 3d e2 2f b7 3d 89 02 08 3d
       0.035161212 0.03496923 0.0894468 0.033205543
0002c0 e0 44 a2 3c 54 11 63 3d 44 38 8c bc 7b 5c 0d 3d
       0.019808233 0.055436447 -0.017116673 0.034512024
0002d0 1b 63 9d 3c 25 22 b1 3c 92 d4 08 3d 04 40 0b 3d
       0.019212296 0.021622727 0.033405848 0.033996597
0002e0 87 f6 2b 3d 29 69 b5 3c 33 38 cc 3c 6b dc 94 bd
       0.041983154 0.02214487 0.024929142 -0.07268604
0002f0 4d 30 85 3c a8 c4 1f 3d 8d f5 6c 3d 41 aa 61 bd
       0.016258383 0.039005905 0.057851363 -0.055094007
000300 4a 6e 75 bd 63 2a 82 3c 92 b7 0a 3d d7 ce b1 3c
       -0.059919633 0.015889352 0.033866473 0.021705074
000310 d4 9e 83 bc 1d ae ed 3d 48 cb 04 3d 15 73 46 3d
       -0.016066946 0.11605475 0.032420427 0.048449595
000320 d2 95 15 3d f6 26 10 3d b2 3c 02 3e c4 7c 07 3d
       0.036519833 0.035193406 0.12718466 0.03307797
000330 f6 62 10 3d 62 c8 24 3d b2 ca 0c 3d a2 9d 4e 3d
       0.035250627 0.040230162 0.034372993 0.0504433
000340 15 a8 39 3d 62 f2 73 3d f9 43 f1 3a e8 82 fd 3c
       0.04532631 0.059557326 0.0018407098 0.03094621
000350 2d c1 d7 3c bd 21 f5 3c e0 1b 99 3c 93 e4 03 3d
       0.02633723 0.029923314 0.01869005 0.032200407
000360 41 e4 4b 3d 3d b5 a2 3d 1d f9 8b bc 0d 6d 24 3d
       0.049778227 0.07944725 -0.01708656 0.04014306
000370 ff c3 7f 3d c7 d3 f2 3c 3b 38 dd ba 65 63 82 bc
       0.062442776 0.029641999 -0.001687772 -0.015916536
000380 42 02 e1 3c 97 eb c1 3c 50 55 8c bc d9 7d 0d 3d
       0.027466897 0.023671908 -0.017130524 0.034543846
000390 61 cc b0 3c e8 50 f8 3b e4 bd a2 3d 7b 79 24 3d
       0.02158183 0.007578004 0.07946375 0.040154915
0003a0 53 81 03 3d ac 3d 15 3d 6a 36 c7 3c 2a 3b b5 3c
       0.032105755 0.036435768 0.024317939 0.022122938
0003b0 d6 ae 51 3d 43 02 e3 3c cb 22 94 3c 19 2f 5c 3d
       0.051192127 0.02771104 0.018082997 0.053755853
0003c0 23 ba bb 3c 24 a5 4c 3d 27 8c 6f 3d e0 1c c8 3d
       0.022915905 0.049962178 0.05848327 0.097711325
0003d0 7e 73 ac 3c 8b c8 eb 3c 0e 98 18 3d f3 95 a5 3c
       0.021051165 0.02878215 0.037254386 0.020213103
0003e0 29 34 49 3d 82 55 79 3d 30 83 37 3d 00 dc 14 3c
       0.04912201 0.060872562 0.044802845 0.009085655
0003f0 73 a4 92 3d 18 a7 dc 3c 05 db 57 3c d0 d9 07 bc
       0.071602724 0.026935145 0.013174777 -0.008291677

bias f4 [30]
000000 bc 92 d5 bc 74 9f cd 3c 9c 5b 5f bd b9 7d 5f 3a
       -0.026070945 0.025100447 -0.054530725 0.0008525509
000010 07 a2 70 bc 33 7b 54 bd d8 84 84 bc ae da 43 3d
       -0.014687068 -0.051875304 -0.016176626 0.04781597
000020 f9 a5 70 bd d9 3f f9 bc ef 69 b6 3b d8 9b 41 3c
       -0.058752034 -0.030425953 0.0055668275 0.011816941
000030 de fc 02 3d b6 46 b0 3c 03 92 37 3d f0 7a c5 3c
       0.031979434 0.021518093 0.044816982 0.024106473
000040 fc 17 8f 3c 71 71 1c 3c 24 16 39 bd fe a6 03 bd
       0.017467491 0.009548531 -0.04518713 -0.032141678
000050 54 6c 06 bc 67 bc 20 bd 0f 8b 19 bd ab 9c 66 bd
       -0.008204538 -0.039242174 -0.037486132 -0.056301754
000060 0b 47 b4 bc 71 46 45 bd 07 20 5e 3d a7 a4 50 3d
       -0.022006532 -0.04816288 0.054229762 0.050938275
000070 d9 0b 52 3d 62 64 d3 3b
       0.05128083 0.0064511755

weight f4 [30]
000000 48 8e 7e 3f 60 2c 7c 3f f7 be 80 3f b3 96 7f 3f
       0.99435854 0.9850521 1.0058278 0.99839324
000010 c4 07 52 3f d6 9f 60 3f 7b 09 80 3f 78 61 7e 3f
       0.820431 0.8774389 1.0002893 0.99367476
000020 43 11 70 3f 4a e6 80 3f 41 ca 79 3f 03 1d 81 3f
       0.9377634 1.0070279 0.9757424 1.0086979
000030 b5 33 8b 3f 2f a4 80 3f 23 1d 79 3f 8e 7a 77 3f
       1.0875155 1.0050105 0.97310084 0.9667138
000040 5b e1 73 3f 65 55 78 3f 1d 91 84 3f 15 d9 7d 3f
       0.9526574 0.970053 1.0356785 0.99159366
000050 d5 e9 54 3f ea e9 81 3f 71 27 7a 3f 15 1f 83 3f
       0.831693 1.014951 0.9771643 1.024386
000060 42 bf 74 3f 76 85 7a 3f a2 dd 5a 3f 83 65 7e 3f
       0.95604336 0.97859895 0.85494435 0.99373645
000070 34 48 84 3f 02 09 7c 3f
       1.0334535 0.98451245

bias f4 [30]
000000 ec e3 08 be ad 13 32 be 34 df 25 be f1 38 db bd
       -0.13368195 -0.17390318 -0.16198426 -0.1070422
000010 99 e9 fa 3e 0e e1 14 be f8 db 1b be b9 77 0e be
       0.49006346 -0.14538977 -0.1522063 -0.13912858
000020 63 d6 09 be eb f0 64 be 2f 55 0a be 06 fb f1 bd
       -0.13460688 -0.22357528 -0.13509057 -0.11815457
000030 0c 77 b7 bd 12 95 23 be c7 45 3e be a4 e4 3b be
       -0.08958253 -0.15974835 -0.18581305 -0.18348938
000040 ea 7a 02 be 66 95 0b be ec f9 00 be f1 ec 39 be
       -0.127422 -0.1363121 -0.12595338 -0.18156792
000050 4e 5f 02 be 9e 3f ff bd 91 83 3d be 5f b7 09 be
       -0.12731668 -0.12463306 -0.1850722 -0.13448857
000060 54 11 ff bd c2 99 1e be 9b df c1 3e e1 98 26 be
       -0.12454477 -0.15488341 0.3786591 -0.16269256
000070 2a eb d2 bd 84 d7 2d be
       -0.1029876 -0.16976744

running_mean f4 [30]
000000 34 17 8b 40 82 93 87 40 c6 af 86 40 52 5c 82 40
       4.3465824 4.2367563 4.2089567 4.0737696
000010 1f cc 5e c0 65 7e 57 c0 d2 2f 65 40 9e 83 81 40
       -3.4812086 -3.3670895 3.5810437 4.0473166
000020 22 02 88 40 62 f3 73 40 f1 03 86 40 d1 e3 8d 40
       4.2502604 3.81173 4.187981 4.4340596
000030 30 7b 85 40 f0 33 8a 40 7e ac 6a c0 2c 81 68 c0
       4.1712875 4.31884 -3.666778 -3.632884
000040 58 78 7a 40 e8 0e 82 40 b5 65 82 40 e5 b7 80 40
       3.9135952 4.0643196 4.0749154 4.022448
000050 44 05 47 c0 07 32 7e 40 db ea 7c c0 d5 52 68 40
       -3.1096964 3.9718034 -3.9518344 3.6300557
000060 7e b7 7f 40 43 e8 7c 40 20 10 8d 3f 97 00 83 40
       3.9955745 3.9516761 1.1020546 4.093822
000070 88 a7 84 40 f6 3b 71 40
       4.1454506 3.7692847

running_var f4 [30]
000000 62 26 ce 40 04 3d bf 40 11 ca c3 40 47 4d b3 40
       6.4421854 5.976198 6.1184163 5.6031833
000010 75 f0 82 40 a2 f3 6d 40 ce 24 8c 40 58 02 ad 40
       4.0918527 3.7179952 4.3794928 5.406536
000020 2a 13 c8 40 99 58 9f 40 3f 29 bd 40 7c cc d2 40
       6.2523394 4.979565 5.911285 6.5874615
000030 ba 32 b9 40 03 2d c7 40 9c af 94 40 1a 3e 90 40
       5.787442 6.2242446 4.6464367 4.5075808
000040 c2 0b a4 40 39 7e b1 40 7a 72 b7 40 e0 63 b1 40
       5.1264353 5.546658 5.732724 5.543442
000050 1a f4 50 40 55 a3 ad 40 3b 36 a5 40 12 8f 93 40
       3.2648988 5.426188 5.16287 4.6112146
000060 57 88 ae 40 66 f4 ac 40 1c 91 dc 3e df ca b0 40
       5.454143 5.404834 0.4307946 5.5247645
000070 ed 1f b5 40 6f 64 99 40
       5.660147 4.79351

weight f4 [30, 30]
000000 19 8f 25 3e e5 b0 15 be 4e 7a f3 bc f3 02 11 be
       0.16167869 -0.14618261 -0.029721405 -0.14161281
000010 17 97 16 3d 59 94 80 3d 16 47 1b bd a3 d3 83 bd
       0.036765184 0.06278295 -0.03790959 -0.06436851
000020 4c cb 09 be 76 42 91 3c 4e 76 a1 3d e2 f4 02 3e
       -0.13456458 0.017731886 0.07883893 0.12788728
000030 ff 4c f0 bd 98 43 00 3e 96 be d9 3d f1 a9 b3 3d
       -0.11733436 0.12525785 0.106320545 0.08772648
000040 ce 3e 15 be b3 0e c9 3d 73 dc 1d 3d 13 73 ef 3d
       -0.1457474 0.09817257 0.038540315 0.116918705
000050 83 6e 0c bd fa fb 34 be 82 f0 1b 3e 95 67 e3 bd
       -0.03428508 -0.17674246 0.15228465 -0.11103741
000060 82 99 0c bd 29 11 8d 3d 16 64 b2 3c 45 1e dd 3d
       -0.034326084 0.06888039 0.02177624 0.10796789
000070 47 19 36 be cf 88 37 be 11 b9 29 3e e0 37 9b 3c
       -0.1778308 -0.17923282 0.16574503 0.018947542
000080 4c b8 89 bc 7b c5 ac bd ce e9 8c bd 48 2b f6 bd
       -0.016811512 -0.08436104 -0.06880532 -0.12019974
000090 65 3b 7c bd d3 18 16 3d d7 d4 92 3d 36 f5 8b bd
       -0.06158008 0.036644768 0.07169502 -0.0683388
0000a0 b0 ca a6 3c 58 44 dc bd f7 b1 52 bd c3 59 0f 3e
       0.02036032 -0.10755223 -0.05143925 0.13999085
0000b0 b3 ba 2f be bd 61 8c 3d d6 c9 ea 3c 8a c6 f1 3d
       -0.17161064 0.068545796 0.028660696 0.118054464
0000c0 5e cc d3 3c df 8f 52 bd de 9e 0a be 0a ed 10 3e
       0.025854286 -0.051406737 -0.13537166 0.14152923
0000d0 31 b5 2d be 34 d1 f4 bd 97 30 06 3e 19 34 2a 3d
       -0.1696365 -0.11953965 0.13104473 0.04155359
0000e0 6d 6b 35 3d ae 0b b0 bd d0 0c 1d bd 5b cc fa 3d
       0.044291902 -0.08595978 -0.038342297 0.12246009
0000f0 8d 82 01 3e 1e e3 ba 3d 59 c0 94 3d f6 82 a0 bd
       0.12647457 0.091253504 0.0726325 -0.07837479
000100 77 8b 44 3d fe d6 80 3d 2a ad d5 3b 96 9f 37 be
       0.047984567 0.062910065 0.006520887 -0.17931971
000110 f4 e7 49 be 03 61 fc 3d 1b d7 4c be 2d e1 be bd
       -0.1971739 0.12323191 -0.20003931 -0.093202926
000120 48 a9 1c be b7 4e 9c bd 62 21 35 3d c7 d4 18 3d
       -0.1529895 -0.07632201 0.04422129 0.037312295
000130 49 b6 52 3d dc cf 49 bd e3 a1 2f bc da c8 b0 bb
       0.051443372 -0.049270496 -0.010719749 -0.005395037
000140 3b ad 2b 3d 14 74 6a 3d 0c 35 15 3e 66 9a d3 bd
       0.041913252 0.057239607 0.14571017 -0.103321835
000150 7b 54 74 bd f1 b8 31 3e a2 65 a7 3c 3d 72 e1 3c
       -0.05965088 0.17355706 0.020434204 0.027520293
000160 37 18 60 bd 6a c4 39 3e b9 70 af 3d 62 5e 3a be
       -0.054710593 0.18141332 0.08566422 -0.18200067
000170 79 0b 1a be f7 9a ce bd 75 f2 5f 3d 22 b6 b5 3d
       -0.15043439 -0.10088151 0.054674584 0.0887263
000180 e6 2e dc 3c cf 48 a5 3d 8a 76 2e 3e e7 b8 ad 3d
       0.026877832 0.08070528 0.17037407 0.08482533
000190 e4 0c 31 3d e9 5e 54 be d2 95 9c bd 55 15 d5 bd
       0.043225184 -0.2073933 -0.076457635 -0.104044594
0001a0 fe 7c 9a 3d 6a 71 15 3e 28 68 44 3e 55 3a 3e bb
       0.075433716 0.14594045 0.19180357 -0.0029026468
0001b0 cf 88 b9 bc 0b b8 1f 3e d1 f9 0a bd 61 80 1c be
       -0.022648243 0.1559755 -0.03392965 -0.15283348
0001c0 12 00 63 3e 16 28 03 be 39 96 52 be 6d 80 b9 3c
       0.22167996 -0.1280826 -0.20565118 0.022644246
0001d0 89 c7 02 3d 04 c2 12 be 65 af cd 3b 69 33 97 3d
       0.031928573 -0.14331824 0.006277012 0.073828526
0001e0 1d 26 04 be 37 a3 bc 3d 9b c8 5c bd 7d 61 cb bc
       -0.12905164 0.09210818 -0.05390225 -0.02482676
0001f0 17 21 77 3e a4 ef c2 bc 34 02 23 bc 05 68 ac bd
       0.24133717 -0.02379591 -0.009949256 -0.08418278
000200 3b ec 00 bd 90 2c 0b be 8b f2 30 3d fc 08 04 be
       -0.031475287 -0.13591218 0.043200057 -0.12894052
000210 4f 27 04 3e 6b 7a e6 3d 41 d9 2c 3e a9 a1 75 3d
       0.1290562 0.11253818 0.16879751 0.059968624
000220 cf 96 33 3e 1c 73 3a 3d 10 96 74 bd a2 31 25 3d
       0.17537998 0.045519933 -0.059713423 0.040330537
000230 e5 96 11 be ae 26 c1 3d 0f c3 49 3e cd 61 74 3d
       -0.14217718 0.09431206 0.19703315 0.059663583
000240 18 3d 56 3e fc a0 32 3e 63 00 c7 3d a6 51 4e 3e
       0.20921743 0.17444223 0.09716871 0.20148334
000250 e3 f7 f4 bb 71 d8 74 bc cd ff 84 3d 44 e8 4d 3d
       -0.0074758395 -0.014944182 0.064941026 0.050270334
000260 b7 68 50 3d b8 e0 54 3c 89 c8 cf 3c 75 a5 82 3d
       0.050881114 0.01299303 0.025364177 0.06379215
000270 7d dd 17 be 00 f9 37 bc 90 7c 00 be 39 69 eb 3d
       -0.14830585 -0.0112288 -0.12547517 0.11494679
000280 0b 98 b2 bd 89 60 40 be c8 5a 92 bd 97 31 2e be
       -0.08720406 -0.18786825 -0.071462214 -0.17011105
000290 c8 48 9f bc 8a 7a 1a 3e 73 7c ba 3c bc 97 62 3d
       -0.019443884 0.15085807 0.02276442 0.055320486
0002a0 ed 5d 86 bb ca e3 06 3e d0 db ab bc 01 53 d7 3d
       -0.0041005523 0.13172832 -0.020978838 0.105138786
0002b0 5e 6d f9 3d ef 98 1c 3d 19 38 4c 3d ba 5b 58 be
       0.12179063 0.038231786 0.049858186 -0.21128741
0002c0 78 59 ad 3c fd a1 34 bd a6 8d a2 3b a1 02 41 be
       0.021160826 -0.044099797 0.0049607335 -0.18848659
0002d0 0e 34 02 be 2e e5 01 be 56 a8 ec 3d 9f f2 6b bc
       -0.1271517 -0.12685081 0.11555545 -0.014401107
0002e0 71 63 a3 3b cc 60 e4 bc cd 10 a0 bd e7 ee 30 be
       0.0049862196 -0.027878188 -0.078157045 -0.17278634
0002f0 8f df e7 3c 32 5c dc 3d fa 82 03 bd c7 49 0f 3d
       0.028304843 0.10759772 -0.03210733 0.03498247
000300 da d1 86 be a7 43 21 be 69 13 33 3d e9 0b b9 3d
       -0.2633198 -0.15748464 0.043719683 0.09035475
000310 2c 4c 57 3d 43 84 97 3c 6a 9c 37 be e2 2c 26 3e
       0.052562878 0.018495684 -0.17930761 0.16228059
000320 c0 1e c0 3c 80 17 10 3d d7 9f 23 3d 3f d4 1d 3d
       0.023452163 0.03517866 0.039947357 0.03853249
000330 aa 24 ad bd 32 f6 2b 3e bc 55 43 3c e9 8a d1 3c
       -0.08454259 0.16793135 0.011922296 0.025578933
000340 e7 bc b0 bd 50 65 9c bd 8f 61 a8 bc bc a4 59 be
       -0.0862978 -0.07636511 -0.020554332 -0.21254247
000350 31 e7 d9 3c 87 43 7f 3d 5b 3d 1d 3d 45 af e1 bb
       0.026599498 0.06232026 0.03838859 -0.006887349
000360 c0 97 fc bc 1a 8e 84 be 95 c6 91 3d db d1 87 3e
       -0.030834079 -0.25889665 0.07117955 0.26527295
000370 21 3f 8b 3d ae 09 84 be 1e a4 bc 3b 6e d3 09 3e
       0.0679915 -0.25788635 0.005756869 0.1345956
000380 a7 56 91 3d 59 06 eb 3d aa c5 33 be 4d 50 37 bd
       0.07096606 0.1147582 -0.17555872 -0.044754315
000390 9c d1 dc bc 7f 32 cc ba 1c 23 37 3d fb ab 32 3d
       -0.026955418 -0.0015579014 0.044711217 0.043621045
0003a0 d2 ee ad 3d 01 c2 31 b9 7f a2 95 3d da e5 b4 bc
       0.08492817 -0.00016952307 0.07306384 -0.022082258
0003b0 f0 1e 8f 3c e7 cd 31 bd ca e9 7d bd e1 9d 48 3c
       0.017470807 -0.043409254 -0.061990537 0.0122446725
0003c0 e4 ac 6c be 3e 2b a8 3d 92 48 52 3c 3c 6a 1c 3c
       -0.23112828 0.08211373 0.012834685 0.009546813
0003d0 91 f6 4b 3d bd 7f a6 3d bf 9d a0 3d e7 34 86 bb
       0.04979569 0.08129833 0.07842588 -0.004095662
0003e0 83 a6 f8 3d 93 36 f4 3c c9 26 a6 3d 80 9c 97 3d
       0.121411346 0.02981118 0.081128664 0.07402897
0003f0 d9 1d 2a be 1d cf 24 bd b9 2b e5 3c cc 8f c0 3d
       -0.16612948 -0.04023658 0.02797495 0.09402427

bias f4 [30]
000000 92 a5 8d bd dd 04 1f be f7 c1 ae bc b3 08 17 be
       -0.06916346 -0.15529199 -0.021332724 -0.14749412
000010 16 32 8d bd b6 50 ba bc de 5e 9f 3a 5b 6e 2e be
       -0.06894319 -0.022743564 0.001215901 -0.17034285
000020 f0 90 7f 3c f2 1c 37 be a5 b4 27 be b1 04 29 3d
       0.015598521 -0.17882136 -0.16377504 0.04126424
000030 bc 13 c8 3a 59 8c f9 3d 11 a6 84 3c 16 70 92 3d
       0.001526467 0.12184972 0.016192468 0.07150285
000040 fc a2 f5 bd e0 61 d8 3c 0e 4f 9d bd bb 57 2d 3e
       -0.119939774 0.026413858 -0.07681094 0.16927998
000050 65 6a 30 bd c2 8d 00 3e c1 e7 02 3c 45 cf b8 3d
       -0.043070216 0.12554076 0.007989825 0.090239085
000060 7a 27 27 3e 01 36 c0 3d 61 2f ac 3b c5 42 00 3e
       0.16323653 0.093853004 0.0052546714 0.1252547
000070 7c d9 ac 3c 40 34 94 3d
       0.021099798 0.072365284

weight f4 [30]
000000 90 40 87 3f 7a e9 63 3f 6a a7 82 3f de e2 83 3f
       1.0566578 0.8902813 1.0207341 1.0303609
000010 03 0f 3d 3f dc a0 86 3f 5f 1d 86 3f 27 2f 7c 3f
       0.7385103 1.051784 1.0477713 0.9850945
000020 e5 44 7d 3f db bb 5d 3f 3d 66 6b 3f c3 5c 7d 3f
       0.9893325 0.8661477 0.9195288 0.9896967
000030 02 80 7f 3f ec 41 85 3f 15 2f 55 3f d2 8a 90 3f
       0.998047 1.0410743 0.83274966 1.1292365
000040 11 55 6c 3f 9e 8a 53 3f 83 16 81 3f 42 78 74 3f
       0.923173 0.8263339 1.0084995 0.95496
000050 1c 3b 85 3f ba 97 81 3f 2f fa 74 3f b8 5a 81 3f
       1.0408664 1.0124428 0.9569425 1.010581
000060 f2 ed 7c 3f 7b 76 81 3f c7 77 71 3f 9f 06 75 3f
       0.98800576 1.0114282 0.9432339 0.9571323
000070 19 56 7c 3f 57 4e 77 3f
       0.98568875 0.9660391

bias f4 [30]
000000 37 d4 ff bd 6a f1 b1 3d 6a 2b 89 bd 15 11 31 bd
       -0.12491649 0.08688624 -0.06697734 -0.04322918
000010 2b 52 fa bd aa d9 27 be a6 36 b2 be 17 7a ad bd
       -0.122227035 -0.16391626 -0.34807318 -0.084705524
000020 7e e1 85 bd 84 8f b7 be 08 94 9b bd e2 3c 0d be
       -0.0653715 -0.3585168 -0.07596594 -0.13792756
000030 e1 1b 5b be a7 9b 6d be a6 a3 d8 3d a3 55 ac be
       -0.21397354 -0.23203908 0.105780885 -0.33659086
000040 77 87 1a be 04 53 b2 be 66 25 36 be 25 2b 56 be
       -0.15090738 -0.3482896 -0.17787704 -0.20914896
000050 92 88 b7 be 01 16 e4 bd d7 f5 10 be df 13 c3 be
       -0.35846382 -0.111370094 -0.1415628 -0.38101098
000060 26 84 84 be 22 42 cc bd ee 8d f7 bd c4 3b bd 3c
       -0.2588207 -0.09973551 -0.12087618 0.023099788
000070 d2 1d b1 be 51 01 69 be
       -0.34593064 -0.22754408

running_mean f4 [30]
000000 62 be db bd f6 50 4d be 4a c2 a5 bc c6 5e 11 be
       -0.10729672 -0.20050415 -0.020234246 -0.1419631
000010 40 6b c1 3e b5 be 97 bd af 87 0f be 62 e5 3a be
       0.37777138 -0.07409421 -0.14016603 -0.18251565
000020 cb 82 bc 3c 3b 1f 90 3e 1c 04 28 be 3e 3c c7 3b
       0.023011586 0.28148827 -0.16407818 0.0060801795
000030 d8 3f 83 bd 66 2f 26 3d 18 4b ac 3c 3f 54 b1 bd
       -0.064086616 0.040572546 0.021031901 -0.08658647
000040 0a 1e 1d be 79 65 d6 3e 3d 45 0b be 01 b9 b9 3d
       -0.1534349 0.41874292 -0.13600631 0.0906849
000050 d1 b2 89 be fc 4c dd 3d 4a 76 34 bd 53 af b9 bd
       -0.2689424 0.10805699 -0.04405812 -0.090666436
000060 1f c2 29 3d 45 f7 90 3d 6c 39 a7 bc 4c 93 28 3e
       0.041444894 0.07078413 -0.020413123 0.1646244
000070 a1 e3 d9 bd f1 55 f9 bc
       -0.1063912 -0.030436488

running_var f4 [30]
000000 bd e5 8a 3e 50 7a 8d 3e ba 86 1e 3e 24 f7 b2 3e
       0.271284 0.2763238 0.15481082 0.34954178
000010 96 9b 8e 3d 44 c8 56 3e 2c 87 57 3e 89 8d 1f 3e
       0.069632694 0.20974833 0.21047658 0.15581335
000020 9f 61 0e 3e cb 55 30 3e ec e9 eb 3d 8f 8b 1c 3e
       0.13904427 0.17220227 0.115192264 0.15287612
000030 ef e4 ea 3d ac 57 37 3e ad c8 32 3f 24 3d ac 3e
       0.11469447 0.17904538 0.69837457 0.33640397
000040 97 fa a5 3d 5c c5 87 3d 6a c6 3b 3e 55 dd 3a 3e
       0.08104437 0.0662944 0.18337408 0.18248494
000050 50 5b f3 3e 46 e7 3d 3e 97 01 3e 3e ff c2 86 3e
       0.47530603 0.18545255 0.18555294 0.26320645
000060 fb f3 85 3e 21 4c 29 3e 63 a8 9f 3d 52 df 24 3e
       0.26162705 0.16532947 0.07795789 0.16100815
000070 40 35 18 3e a7 e6 4b 3e
       0.14864063 0.19912206

weight f4 [251, 30]
000000 11 01 53 bd ed eb 0a 3c d5 7a bc 3c af 13 bc 3d
       -0.05151469 0.008479101 0.02300779 0.09183442
000010 51 6e 49 3e 68 61 c5 ba b5 e6 7e bd d6 d6 55 3d
       0.19670989 -0.0015058937 -0.062231738 0.052206837
000020 d2 81 db 3d 3e e9 9d be 07 d3 bd bb de 2b bc bd
       0.10718121 -0.30842012 -0.0057929787 -0.091880545
000030 e1 e1 44 bd 47 9b 0f 3d e1 f2 50 3d c4 df dc bb
       -0.048066977 0.035060193 0.051012877 -0.006740542
000040 8e f4 5e bc 30 2a 73 be c0 9b 12 3d 5e 3a 45 3c
       -0.013608111 -0.23746562 0.035793066 0.012037842
000050 ad 1c e0 bd 1e 68 66 bd 81 34 8d bd 40 16 35 3e
       -0.109429695 -0.056251638 -0.0689478 0.17684269
000060 6c 19 75 bd 58 c7 d7 3c 64 7e 37 bd e2 c1 88 3d
       -0.059838697 0.026340172 -0.04479827 0.06677605
000070 a8 7e 3c 3e c2 99 b7 bd fa 91 1b be be 4b 97 3b
       0.1840769 -0.08964874 -0.15192404 0.0046171835
000080 11 a9 34 bd 8f 13 38 be b2 d7 61 bb 79 3d 53 3e
       -0.044106547 -0.17976211 -0.003446084 0.20628919
000090 04 22 01 3d 88 e8 d2 bd bc 54 a0 3d aa 3e bc 3d
       0.03152658 -0.10298258 0.07828662 0.0919164
0000a0 3c 5c 07 bd 19 7c f9 3d dc 1c f0 3c 7c 86 07 be
       -0.033046946 0.12181873 0.029310636 -0.13234895
0000b0 9f 5e ac 3c 4c 7c b6 bd 6f 59 75 3e d0 29 9a bd
       0.021041213 -0.089104265 0.23959897 -0.07527506
0000c0 6f 78 f9 3d 18 9f 80 3d 19 52 9b bc 9e 7d 03 3c
       0.12181174 0.06280345 -0.018960046 0.008025555
0000d0 52 3a 32 3d e0 0e 16 bb fb 41 7d bd b4 08 f7 3c
       0.04351265 -0.002289705 -0.061830502 0.030155517
0000e0 f2 34 7c be 69 df a5 bc 56 09 da 3d ad 0b 8d 3d
       -0.24629572 -0.020248132 0.10646312 0.068869926
0000f0 c8 48 94 3d ba de e8 bd 6f a3 36 bd f3 7a 02 bc
       0.072404444 -0.11370607 -0.044589456 -0.007963884
000100 18 36 10 3c 2a 11 f5 3d a5 9f 39 be b3 41 1f be
       0.008801959 0.119661644 -0.18127306 -0.15552406
000110 b9 0d 0e 3e ca 02 16 bc 44 a2 08 be 50 35 b7 bd
       0.13872422 -0.009155938 -0.1334315 -0.089457154
000120 bf ad cb bc 6b 36 28 3e ae b5 da 3d 7c 8b eb bd
       -0.024863122 0.16427009 0.10679184 -0.11501214
000130 5a 41 6e 3e 2a 05 15 3d 01 25 e4 3c be 63 db bd
       0.23267117 0.036381878 0.027849676 -0.10712384
000140 36 d4 89 3d 1c c3 61 3d dd 55 24 be e0 1f 25 be
       0.06729929 0.05511771 -0.16048379 -0.1612544
000150 4a ce 0d 3d 94 e8 b3 3d e7 a0 87 3d 69 93 f2 bb
       0.03462056 0.08784595 0.066224866 -0.0074028266
000160 26 14 a7 bc 71 f8 c1 bd d5 3a 13 3e 4c 11 70 bb
       -0.02039535 -0.094712146 0.14377911 -0.0036631403
000170 58 eb 6f 3d 1f f6 2c be 00 ac 81 3c 7a c9 f3 bd
       0.05857405 -0.16890763 0.015829086 -0.11903663
000180 da 08 37 be dc 0c 3a 3e 9f c3 dd bd f7 dc be bd
       -0.1787447 0.18168968 -0.108283274 -0.093194894
000190 16 94 b3 bc 1f 52 ae 3c 00 88 11 3e 7f 33 27 3d
       -0.021921199 0.021279393 0.14212036 0.040820595
0001a0 f8 8d be 3a 86 ef 29 bd 17 b8 e9 3d 56 ad 8c 3d
       0.001453816 -0.041488193 0.114120655 0.06868999
0001b0 92 91 8f 3d c9 e8 6f 3d 73 9b 9a 3d 5b 56 1e 3d
       0.07010187 0.05857161 0.07549181 0.038656574
0001c0 84 6d 13 be 03 73 51 be 0b a1 31 3e ad 7b 03 be
       -0.14397246 -0.2045403 0.1734659 -0.12840147
0001d0 3f 88 ba 3d 13 ab 7e bd f3 49 15 bd 9e 1e c5 bc
       0.09108018 -0.062174868 -0.036447477 -0.024062451
0001e0 0d 04 2f 3d 79 62 af bd 76 9f 36 3d 9d 18 35 3c
       0.042728473 -0.08563704 0.044585668 0.011053232
0001f0 8e 53 d2 bd 6a ef 34 3e b4 9a 7f 3d eb a8 a4 bd
       -0.10269843 0.17669454 0.062403396 -0.08040031
000200 da 6c 59 3d e1 7a 30 3d 24 d6 ae 3d 74 c6 2a be
       0.053082325 0.043085936 0.08536938 -0.16677266
000210 4b 0b 28 3d 24 64 a4 bc c1 2b 0a 3e 41 c9 92 be
       0.041026395 -0.020067282 0.13493253 -0.2866917
000220 59 6f fe 3d ff 3b 88 3d 4a 4f 28 3d 6a 6b e3 3b
       0.12423582 0.06652068 0.04109124 0.006940295
000230 89 bb d4 3d fd ed ef 3d cb d8 7c 3d 33 c9 90 3d
       0.10387332 0.117153145 0.061730187 0.07069626
000240 a0 d1 d4 3c c0 0c 8b bd 5e 29 24 be ab 85 11 be
       0.025978863 -0.06789541 -0.16031405 -0.14211147
000250 2e d8 7a be 92 6a 47 3d 44 ec 74 3c 96 77 8a bd
       -0.24496529 0.048685618 0.014948908 -0.067610905
000260 fb 76 08 be 26 2d d6 3d 90 66 20 3e e2 c2 47 3d
       -0.13326637 0.1045783 0.15664124 0.04876984
000270 05 f2 7f be d9 9e 56 bd 5d 82 18 3e 5a c9 00 bd
       -0.24994667 -0.052397583 0.1489348 -0.031442024
000280 77 1a 2a bd 85 ea 33 bd 7e 61 95 bc a4 2c ef 3d
       -0.041529145 -0.043924827 -0.018234964 0.116784364
000290 4d 8d 37 3e 3f 00 32 be 82 78 35 3d 20 43 d7 bc
       0.17924996 -0.17382906 0.04430438 -0.026277125
0002a0 fd a0 d8 3b 7d 1f 41 3e 65 fb 0f 3e d8 4a be 3c
       0.006610988 0.18859668 0.14060743 0.023229048
0002b0 27 de ec bd 24 c0 d9 3d 37 60 bc bd 14 57 fb bd
       -0.1156581 0.10632351 -0.09198039 -0.12272468
0002c0 9b 15 cb bd 0a 36 4e 3d 2e f8 e5 bd bc 35 7a bc
       -0.0991623 0.050344504 -0.11228977 -0.0152716
0002d0 b5 70 11 3e 26 3f bc bc 64 ea 88 3b 62 eb 02 be
       0.1420315 -0.02297933 0.004178332 -0.12785104
0002e0 77 77 9d bc ce cb 05 be 82 06 1b bc 94 6a 4e 3d
       -0.019222004 -0.13066027 -0.009462001 0.05039461
0002f0 14 21 29 bd c2 02 dc 3d e2 d7 e7 3d f4 14 4c be
       -0.04129131 0.107427135 0.11320473 -0.19929868
000300 75 06 20 3c 45 42 22 3e 66 72 39 3c 31 1e b0 bd
       0.0097671645 0.15845592 0.011318779 -0.085995086
000310 ee 4b 16 bd 9e 9c 96 bd f6 1d 74 bc 59 63 45 3d
       -0.036693506 -0.07354091 -0.014899721 0.04819045
000320 c4 bd 76 be ca fe df 3d 2b b2 93 3b 9f f0 33 3e
       -0.24095827 0.10937269 0.0045073233 0.17572258
000330 1d de 22 3e 3e f2 49 3c 7b 59 bf bd a3 8c d7 3a
       0.15905042 0.012325821 -0.09343239 0.0016445111
000340 5c 92 bd 3b c3 3e 97 bc 32 33 8c 3d 2b e6 74 3d
       0.0057852697 -0.018462544 0.06845702 0.059789818
000350 b7 90 58 be 04 bd 3a bc 74 ce 8f 38 13 48 35 3e
       -0.21148954 -0.011397604 6.857226e-05 0.17703275
000360 db 76 ef bc 57 56 73 be 7a 3a cb bd 40 4d 3f 3c
       -0.02923148 -0.23763405 -0.09923263 0.011676133
000370 8b 58 f9 bc 85 d3 82 3c 05 84 c2 bc e0 b4 14 3e
       -0.030437728 0.015970001 -0.023744592 0.14522123
000380 bd bf 07 3e b8 95 b8 bd 96 08 32 be 22 92 27 3c
       0.13256736 -0.090129316 -0.17386088 0.010227712
000390 a8 3f 10 3e 6b 6f 02 3c 99 05 2b 3e 84 9e b2 3a
       0.14086783 0.007961134 0.16701354 0.0013627564
0003a0 16 5f 36 bc d8 cb 90 3e e1 ec 26 3d b3 ea 54 bd
       -0.011131069 0.2828052 0.04075325 -0.05198164
0003b0 59 f4 eb 3d 42 1a f3 bd cf a3 3c 3e d6 d4 69 3d
       0.11521215 -0.11870243 0.18421863 0.05708774
0003c0 b3 3a 1d bb 01 61 0a bd f6 5b e2 3b 2f db dc bb
       -0.0023991286 -0.033783916 0.0069079353 -0.006739996
0003d0 af 49 12 bd b6 1b 88 bd 3f 49 90 be 09 0e 38 3e
       -0.0357148 -0.066459104 -0.28180882 0.17974104
0003e0 8b dc 2e 3c 59 58 f2 3d 90 24 71 3d a7 3d de bd
       0.010672699 0.11833257 0.05887276 -0.10851603
0003f0 17 22 9b bd d4 96 2f b9 5f fc f5 3c df 4f 60 3d
       -0.075748615 -0.00016745488 0.030027566 0.05476367

bias f4 [251]
000000 7f 20 b2 bc 1a 8c 96 bd 70 a0 e0 bd 90 97 2e 3d
       -0.021744011 -0.07350941 -0.10968101 0.04262501
000010 9c 63 5c 3d 90 39 30 3e eb 9a 58 3d ce 95 24 bd
       0.053805932 0.17209458 0.052882116 -0.040181927
000020 f6 67 f9 bd 7a 1e ee bd 23 32 4e bd cc 02 ea bd
       -0.12178032 -0.11626907 -0.050340783 -0.11426315
000030 31 e7 38 bd f1 cd aa bd 84 a6 f7 bc 17 be 09 3e
       -0.045142356 -0.083400615 -0.030230768 0.1345142
000040 82 9b df bd 9d f0 ba 3d ac e4 1d be cd f0 03 3e
       -0.10918333 0.091279246 -0.15419263 0.12884827
000050 e3 a9 20 be 9b 6f 06 3e 32 5e f7 3d 83 21 ea bd
       -0.15689807 0.13128512 0.12078513 -0.11432173
000060 90 fb e9 3d 9e 3c df bd fc 71 b5 3d 21 f9 d2 bd
       0.11424935 -0.10900234 0.088596314 -0.10301424
000070 24 00 e7 bb 7a a9 89 bd 56 d0 97 bd ef 15 d0 3d
       -0.0070495773 -0.06721778 -0.07412784 0.101604335
000080 35 55 00 be 96 23 98 bc ab 4f a5 3c bc cf 21 bd
       -0.12532504 -0.018571656 0.02017959 -0.03950475
000090 a2 d5 dc bd 53 35 d3 bd fe 2f 36 3e d1 93 92 3d
       -0.10782935 -0.10312905 0.17791745 0.071571
0000a0 10 b7 01 3d 9e d5 80 bd e8 a6 08 be 82 e9 be 3d
       0.031668723 -0.06290744 -0.1334492 0.09321882
0000b0 04 71 11 be dc c3 df bd 18 cf 74 3c 66 c8 1d bd
       -0.14203268 -0.10926029 0.014941953 -0.038521193
0000c0 f3 4b 1b 3d 48 42 a4 3c 89 52 ef bd f1 b2 ad 3d
       0.037914228 0.020051137 -0.11685664 0.08481396
0000d0 80 17 b2 3d 0f 9e 8d bd e3 b2 b3 bd 51 cc 90 3d
       0.086958885 -0.06914913 -0.08774354 0.0707022
0000e0 fe 50 04 be b6 ef 26 be 27 df 21 bd 67 91 25 3d
       -0.12921521 -0.1630238 -0.039519455 0.04042187
0000f0 76 20 2d be 1d 7d 27 bd da 15 04 3e 58 a1 1a 3e
       -0.16906914 -0.0408908 0.1289896 0.1510061
000100 6d 8e 01 bd f9 d5 1a 3e 63 c8 e0 bd 12 be fd 3d
       -0.03162997 0.15120687 -0.10975721 0.12389769
000110 0c 63 95 bd 95 53 71 3d 05 89 cf 3d 1d 7a 86 bc
       -0.07294282 0.0589176 0.10133556 -0.01641565
000120 c5 52 43 3a 0c 78 6f bd fc 4d 52 3d d2 2d ed bd
       0.0007450993 -0.058464095 0.051343903 -0.11581005
000130 ac b4 8e 3c 68 b7 07 be 0b a4 ca 3d 20 12 14 be
       0.017420135 -0.13253558 0.0989457 -0.14460039
000140 5c cd b0 3d cf 75 20 be 83 88 05 3e a8 7e 43 3c
       0.08632919 -0.1566994 0.13040356 0.011932053
000150 e1 3d 4d 3c 35 3a 21 be 83 a9 1f bd 2e 5b e8 bd
       0.01252696 -0.1574486 -0.03898002 -0.11345516
000160 a9 13 34 be 33 85 99 bd c7 ac 3e be fa 4c 20 be
       -0.17585625 -0.07496109 -0.18620597 -0.15654364
000170 07 81 9f 3d 4a aa d1 3d b0 9a ac bc 03 17 ec 3d
       0.07788282 0.10237558 -0.021069854 0.11527827
000180 6a 0c 22 bd 09 69 a7 3d b1 cd 9b 3c ab 5f c0 bb
       -0.03956262 0.08174331 0.01901898 -0.0058707795
000190 7f ec f1 bd 4b 83 e6 bc 68 73 3b bd 93 9c 0a bb
       -0.11812686 -0.028138777 -0.045764357 -0.0021150454
0001a0 1d 6f 1a 3e fc 2c 1d 3e 42 1a 76 3d ab 5e e0 3d
       0.15081449 0.15349191 0.060083635 0.109555565
0001b0 f5 b3 f7 3d ff 91 84 3d 5a 58 64 3d 15 71 30 3e
       0.12094871 0.06473159 0.05574832 0.17230637
0001c0 e4 e4 99 bd b7 ae a5 bd 79 5f 0e be 57 cd 51 3d
       -0.075143605 -0.08089965 -0.13903607 0.051221218
0001d0 fe ed 97 3d 63 dc de bd 88 23 f4 bd 65 85 d0 3d
       0.0741844 -0.10881879 -0.119208395 0.10181693
0001e0 9d 34 27 be db 09 e0 bd 31 cd f1 bd fc b4 0f 3e
       -0.16328664 -0.1093938 -0.11806715 0.14033884
0001f0 a3 b9 f2 3d 7a 53 f7 bd 93 38 bd 3d 44 0f 2e 3e
       0.11851814 -0.12076469 0.09239306 0.16998011
000200 b5 11 87 3c 22 df 68 3c 0f 85 8d 3d b3 88 80 bd
       0.016487936 0.014213355 0.069101445 -0.06276073
000210 7f 4d aa bd 54 ae 8a 3d 93 39 23 be 75 88 24 be
       -0.083155625 0.06771532 -0.15939932 -0.16067679
000220 0d 24 cb 3d 70 ca f6 bd 5e 30 92 bd 80 4e e6 3d
       0.099189855 -0.12050331 -0.071381316 0.112454414
000230 17 5d de 3d 61 c9 0b bd 9e b4 6d bd f6 6f fb bd
       0.10857599 -0.034127597 -0.058033578 -0.12277214
000240 ad 12 f4 bd 62 2f 0d be 56 d5 04 bd 00 e6 31 3d
       -0.119176246 -0.13787606 -0.032430016 0.043432236
000250 36 f7 2f be 5f 36 ef 3d 70 0f e4 bd a5 af 23 bb
       -0.17184147 0.11680292 -0.11135757 -0.0024976518
000260 43 e6 04 be 97 62 24 3e 58 ee 57 bb 92 3d c0 3d
       -0.12978463 0.16053234 -0.003294846 0.093867436
000270 c5 ac 0a be 40 61 a7 3d 51 b3 9f 3d 1c 59 14 3e
       -0.13542469 0.08172846 0.07797874 0.14487118
000280 0f e3 8d 3d 09 8b 5f 3d 5f 42 d0 bd cb 2d 23 be
       0.069280736 0.054575954 -0.10168909 -0.15935437
000290 7b a4 a0 bc 85 02 cf bd 4c 34 ae bd d1 9c a7 3d
       -0.01960968 -0.101079024 -0.085060686 0.08184207
0002a0 24 83 e0 3d 02 f5 83 3d 27 47 3b 3b 97 9a 02 3e
       0.10962513 0.06443216 0.0028576346 0.12754284
0002b0 bf a1 0b be b7 02 66 bd 97 7c 0a be 12 e3 f0 3d
       -0.1363592 -0.056154933 -0.1352409 0.1176206
0002c0 0b b0 f5 bd df 64 29 be bc 34 e9 3d 67 6b 1b bd
       -0.11996468 -0.16542386 0.113870114 -0.037944224
0002d0 dc 87 4c 3d 58 1c d9 3d 49 16 d9 bd 3a c1 12 3e
       0.049934253 0.10601109 -0.10599954 0.14331523
0002e0 35 05 fe 3d aa 89 b4 3c ba 31 39 3e 73 a2 a5 bd
       0.12403337 0.0220383 0.18085375 -0.08087625
0002f0 72 38 22 be d3 84 35 3e 26 18 8a 3d 26 a5 a0 bd
       -0.15841845 0.1772645 0.06742887 -0.078439996
000300 1e e2 a3 3d 2c 75 1e be 5f c5 32 be 7e 61 8f bd
       0.08002113 -0.15474385 -0.17458104 -0.07001017
000310 4e 90 88 bd 3d 33 81 bd 99 01 1c 3e fa be 95 3d
       -0.06668149 -0.06308601 0.15234984 0.073118165
000320 08 08 f2 3d 90 3f 2a be 86 b1 37 bd 1d 7d 1b 3e
       0.11817938 -0.1662581 -0.044847034 0.15184446
000330 30 14 24 be 9a e3 d1 3d ae 4a 76 bd cf bb bf 3d
       -0.16023326 0.1024849 -0.060129814 0.093619935
000340 77 ea 31 be 41 9c 9a bd af 5e c2 3c db ec af 3a
       -0.17374597 -0.07549334 0.02372679 0.0013422029
000350 00 57 87 3c 93 3b 21 be 1b e7 fe bd ea 00 c0 3d
       0.016520977 -0.15745382 -0.124464236 0.09375174
000360 a6 e7 1f 3d 6b 74 01 ba cc 8f 19 3e a4 8c 15 3e
       0.039039277 -0.0004938307 0.1499626 0.14604431
000370 1b b8 57 3c 3a 9d 28 3e ba c3 c4 bd 4f 45 d0 bd
       0.013166453 0.16466227 -0.096076444 -0.101694696
000380 f7 f3 c9 bc c2 fa 23 3d 83 e5 bc bd 96 92 0b be
       -0.024652464 0.040034063 -0.092234634 -0.13630137
000390 f6 3a fc 3d d7 5d ed bc ad f8 99 3c 91 d5 0d bd
       0.123159334 -0.02897541 0.018795336 -0.0346275
0003a0 ae 9d 31 3d 28 c7 1d 3e 63 6e f8 bd 05 d4 a0 bd
       0.043363266 0.15408003 -0.121304296 -0.078529395
0003b0 f7 bd 36 3e 05 30 02 bc f2 1a 2d 3e 5f 25 57 3d
       0.17845903 -0.007946019 0.1690481 0.052525874
0003c0 0b 91 23 3b 11 30 f7 3d bd 6f fb bd 93 ce f3 3d
       0.0024958279 0.12069715 -0.12277172 0.11904635
0003d0 e3 16 89 bb a0 e3 30 bb 6e 6f fb bd 58 2d 0c be
       -0.0041836365 -0.0026991144 -0.12277113 -0.13689172
0003e0 48 bd f1 bd 2d ad db 3d b7 0e 5e 3d
       -0.11803681 0.1072639 0.054213252

weight f4 [251]
000000 04 eb 10 40 7e 46 b0 3f 5f 2e 61 3f 32 56 c4 3f
       2.2643442 1.3771513 0.8796138 1.5338805
000010 0c 5d 8c 3f 7a 87 40 3f 99 0e 85 3f 41 94 9c 3f
       1.0965896 0.7520672 1.039508 1.2232744
000020 b9 c3 cb 3f 2e db 6e 3f 0e 55 90 3f 61 a7 ad 3f
       1.5919105 0.9330319 1.1275957 1.3566705
000030 6a 5a 49 3f 1c 00 c3 3f 88 da 80 3f bf 8c 93 3f
       0.78653586 1.5234408 1.006669 1.1527327
000040 21 67 3a 3f a9 b0 58 3f be a5 80 3f 87 2e 55 3f
       0.7281361 0.8464456 1.005058 0.8327412
000050 1e c7 50 3f 68 b7 b1 3f 95 12 73 3f da 08 5c 3f
       0.8155383 1.3884096 0.9495023 0.85951006
000060 69 4c dc 3f c9 bd b7 3f 67 aa bd 3f d3 6d 4e 3f
       1.7210819 1.4354793 1.4817628 0.8063633
000070 ea 36 59 3f 0e a7 53 3f 0f 67 6c 3f 1f e6 a0 3f
       0.8484942 0.8267678 0.92344755 1.2570227
000080 40 b9 85 3f 01 90 9f 3f 04 6d 93 3f 14 13 83 3f
       1.0447159 1.2465822 1.1517644 1.0240197
000090 06 05 49 3f 3a da 60 3f ba eb 8d 3f 40 c9 8b 3f
       0.7852329 0.8783299 1.1087563 1.0920792
0000a0 a3 56 99 3f b5 37 92 3f 93 3e 90 3f a1 dc 61 3f
       1.1979564 1.142325 1.1269096 0.8822728
0000b0 16 e0 b0 3f d1 6f cc 3f 09 9f 9d 3f 26 6a 89 3f
       1.3818386 1.5971624 1.2314159 1.0735519
0000c0 29 62 40 3f 61 30 91 3f 5b 43 63 3f c6 15 70 3f
       0.7514978 1.1342889 0.8877465 0.93783224
0000d0 84 31 84 3f 41 1e 91 3f c4 71 b7 3f 54 83 3d 3f
       1.0327611 1.1337358 1.4331594 0.74028516
0000e0 d2 ef 3c 3f ea 75 ab 3f e8 d5 b2 3f c9 22 59 3f
       0.73803437 1.339536 1.3971529 0.848187
0000f0 85 3f 6f 3f e1 e6 80 3f 22 47 90 3f 09 4f 4b 3f
       0.934563 1.0070459 1.1271708 0.79417473
000100 6b 66 4e 3f 19 0f 92 3f 1a a9 80 3f 8b 21 a5 3f
       0.8062503 1.1410857 1.0051606 1.2900862
000110 ba 21 5c 3f da cb 64 3f 50 44 67 3f a2 95 bb 3f
       0.8598896 0.8937355 0.9033861 1.4655039
000120 98 b8 97 3f 76 08 99 3f 27 06 f4 3f 5c e6 75 3f
       1.1853209 1.1955707 1.9064378 0.96054626
000130 74 56 98 3f ae f6 b2 3f 35 5b 53 3f 8c 91 72 3f
       1.1901383 1.3981531 0.82561046 0.94753337
000140 fa b2 6b 3f 2f 2c 8c 3f f8 e8 78 3f 58 42 66 3f
       0.9206997 1.0950984 0.9723048 0.8994498
000150 cb 65 b1 3f 61 79 85 3f 37 c1 82 3f 4b fd c0 3f
       1.385919 1.0427667 1.0215214 1.5077299
000160 17 20 37 3f ed 7a 37 3f 85 3a be 3f 3d 7a 9f 3f
       0.7153334 0.71671945 1.4861609 1.2459179
000170 29 37 55 3f 68 29 b7 3f 5e a0 c5 3f 79 4b 36 3f
       0.8328729 1.4309511 1.5439565 0.7120891
000180 8d c4 7c 3f 5f 95 b6 3f cc 34 b2 3f f4 e1 a9 3f
       0.9873741 1.4264334 1.3922362 1.327208
000190 ad 9c 81 3f bf 4e 81 3f d3 b2 b6 3f f8 d8 a8 3f
       1.0125939 1.0102156 1.4273323 1.3191214
0001a0 a0 6c 50 3f 1d 9a 43 3f ae 68 98 3f 37 f6 63 3f
       0.8141575 0.76407033 1.1906946 0.8904757
0001b0 e1 3b 46 3f 2f db 8a 3f 9c 95 75 3f c8 b9 5c 3f
       0.7743512 1.084814 0.9593141 0.8622098
0001c0 df 80 42 3f 05 c8 96 3f 79 d1 83 3f e2 76 a9 3f
       0.7597789 1.1779791 1.0298301 1.3239405
0001d0 5f 2b 94 3f 56 81 ca 3f 20 cd a2 3f a2 30 39 3f
       1.1575736 1.582072 1.2718849 0.7233983
0001e0 1c ad 7b 3f 60 5f 96 3f f3 26 58 3f d4 12 85 3f
       0.9831102 1.1747856 0.8443443 1.0396371
0001f0 27 2b 42 3f 7a b0 3e 3f 04 1c 9e 3f 1e fd a6 3f
       0.75847095 0.7448803 1.23523 1.3045995
000200 27 44 9e 3f 69 a1 bf 3f 87 e0 bb 3f 7d 88 b2 3f
       1.2364548 1.4971133 1.4677895 1.3947903
000210 b2 73 50 3f a1 d8 9b 3f 0a 0f 90 3f 84 c1 83 3f
       0.8142654 1.2175485 1.125459 1.0293431
000220 6e d9 48 3f 27 ef 77 3f b4 d9 49 3f a1 ad 74 3f
       0.7845677 0.9684929 0.78847814 0.95577437
000230 78 28 a5 3f b5 cb 5b 3f 54 71 99 3f 8c aa 3c 3f
       1.2902975 0.8585771 1.198771 0.73697734
000240 24 17 34 3f 32 56 e6 3f 57 c7 45 3f 87 fc 2f 3f
       0.7034781 1.7995055 0.77257293 0.687447
000250 88 d7 c3 3f bf 8a 8b 3f b0 61 52 3f c0 e6 6c 3f
       1.530015 1.0901717 0.8218031 0.92539597
000260 26 72 57 3f 90 a7 bb 3f b0 9c 95 3f e0 04 45 3f
       0.8415855 1.4660511 1.1688442 0.76960564
000270 42 28 b6 3f fa 45 82 3f 85 a8 39 3f 6c 0c 3c 3f
       1.4231036 1.0177605 0.72522765 0.73456454
000280 16 13 b1 3f e1 f2 6f 3f c8 73 9a 3f 6b 29 a1 3f
       1.383395 0.9372998 1.2066584 1.2590765
000290 6e e7 6b 3f d5 0d b7 3f 17 90 b5 3f 80 40 73 3f
       0.9215001 1.4301096 1.4184598 0.95020294
0002a0 24 d8 81 3f 9b 5a 59 3f b6 ef 3d 3f 89 86 a1 3f
       1.0144086 0.8490388 0.74193895 1.2619182
0002b0 2b 55 5e 3f 05 a8 63 3f 43 d7 b5 3f f6 3f 3e 3f
       0.86848706 0.8892825 1.4206318 0.74316347
0002c0 2d e5 bc 3f bf 6a 9e 3f 41 09 d7 3f c0 64 63 3f
       1.4757439 1.2376326 1.6799699 0.8882561
0002d0 aa 53 98 3f 01 8a 5b 3f 68 36 b0 3f de 5f 50 3f
       1.1900532 0.8575745 1.3766603 0.8139628
0002e0 6d 5f 93 3f 7d f6 a0 3f 98 b8 3d 3f b7 82 a7 3f
       1.1513497 1.2575222 0.7410979 1.3086766
0002f0 36 db 3e 3f a1 02 33 3f 80 fb 83 3f 9f a6 c2 3f
       0.7455324 0.69925886 1.0311127 1.5207099
000300 1d b0 b2 3f 0e c8 7f 3f 18 22 8a 3f e6 7e 73 3f
       1.3959996 0.99914634 1.0791655 0.95115507
000310 23 64 be 3f ee 55 df 3f 1c 61 3d 3f f5 14 88 3f
       1.4874309 1.7448099 0.739763 1.0631396
000320 d9 16 4c 3f 72 75 61 3f 72 c5 ba 3f 1b 46 31 3f
       0.7972236 0.8806983 1.4591506 0.692476
000330 ee ca 4e 3f b7 21 71 3f 99 bc 71 3f 9d 98 8b 3f
       0.80778396 0.9419207 0.944284 1.0905949
000340 68 be cc 3f 77 ff 8e 3f 6a 5e 99 3f 66 99 74 3f
       1.5995607 1.1171712 1.1981938 0.9554657
000350 b0 42 51 3f fa b7 5e 3f 2f d7 3c 3f c8 c2 72 3f
       0.8174238 0.86999476 0.73765844 0.9482846
000360 4f ad 58 3f b4 e3 90 3f c4 f3 b1 3f 95 10 b2 3f
       0.8463945 1.131949 1.3902516 1.391131
000370 54 48 83 3f 50 d6 35 3f ea db b1 3f 7a ed b0 3f
       1.0256448 0.7103014 1.3895237 1.3822472
000380 38 18 4c 3f 01 8e 58 3f 37 ed b4 3f 87 04 5f 3f
       0.79724455 0.8459168 1.4134892 0.87116283
000390 4b 61 99 3f e3 ae 8b 3f 6f 1a a5 3f 77 f3 50 3f
       1.1982816 1.0912746 1.2898692 0.816215
0003a0 3e f2 b7 3f 22 97 4e 3f 62 b8 91 3f db 0f 68 3f
       1.4370801 0.8069936 1.1384394 0.90649194
0003b0 e9 19 93 3f a5 ea 4e 3f 10 e4 ac 3f 8a 50 96 3f
       1.1492282 0.8082679 1.3507099 1.1743329
0003c0 67 8e b4 3f 0e a8 c7 3f 45 ad 82 3f 1d fe 96 3f
       1.4105958 1.5598161 1.0209128 1.1796299
0003d0 4f c7 54 3f 46 d1 4d 3f c8 55 3e 3f 4f 5f b3 3f
       0.8311662 0.8039745 0.7434964 1.4013461
0003e0 81 92 8b 3f d7 55 80 3f 83 53 44 3f
       1.0904084 1.0026196 0.7668993

bias f4 [251]
000000 31 66 3e bf 65 05 39 c0 ea 84 3c c0 c0 69 36 c0
       -0.7437468 -2.8909543 -2.9456124 -2.8502045
000010 c6 ea 3c c0 81 44 44 c0 e0 00 3e c0 b6 a4 3b c0
       -2.9518294 -3.0666811 -2.9688034 -2.9319282
000020 d6 c3 35 c0 29 7f 3d c0 b5 65 3b c0 8d 85 38 c0
       -2.8400779 -2.9608862 -2.9280827 -2.8831513
000030 90 f9 43 c0 b1 dc 35 c0 68 29 3f c0 eb b8 3b c0
       -3.062107 -2.841595 -2.9869022 -2.9331615
000040 3b 0f 43 c0 3c dd 3e c0 d5 e0 3e c0 0e 06 3f c0
       -3.0478046 -2.982253 -2.9824727 -2.9847445
000050 f4 27 40 c0 53 3e 37 c0 7e fc 3e c0 e5 e3 41 c0
       -3.0024385 -2.863179 -2.984161 -3.0295346
000060 ed e2 38 c0 14 39 36 c0 6b 5e 36 c0 06 d5 42 c0
       -2.8888505 -2.8472338 -2.8495128 -3.044252
000070 48 fe 43 c0 b1 da 40 c0 27 ad 3e c0 64 08 3a c0
       -3.062395 -3.0133479 -2.9793184 -2.9067621
000080 85 53 3e c0 e4 b2 39 c0 19 1a 37 c0 4c 55 3c c0
       -2.9738476 -2.9015436 -2.8609679 -2.942706
000090 e0 9c 43 c0 bc a6 3d c0 62 d0 39 c0 29 18 3d c0
       -3.05645 -2.9633017 -2.9033437 -2.9545996
0000a0 5d 8b 39 c0 5c f7 37 c0 c1 99 3c c0 ac 5d 3f c0
       -2.899131 -2.8744726 -2.9468844 -2.9900923
0000b0 5e 6c 38 c0 f6 64 35 c0 02 64 41 c0 79 ce 3a c0
       -2.8816142 -2.8342872 -3.021729 -2.918852
0000c0 d1 3c 42 c0 13 11 3c c0 ef c5 3c c0 a1 41 3d c0
       -3.034962 -2.9385421 -2.949581 -2.9571307
0000d0 16 ce 3a c0 7c 16 3b c0 4f 10 39 c0 d7 d4 42 c0
       -2.9188285 -2.9232473 -2.8916204 -3.0442407
0000e0 6e 82 44 c0 29 22 3a c0 ef b4 3c c0 56 a8 40 c0
       -3.0704608 -2.908335 -2.9485433 -3.0102744
0000f0 fa 5a 40 c0 81 78 3c c0 ac fb 37 c0 81 f1 40 c0
       -3.0055528 -2.944855 -2.8747358 -3.0147402
000100 e1 c8 43 c0 e2 1e 3e c0 d4 17 3b c0 e3 69 3a c0
       -3.0591357 -2.970635 -2.9233294 -2.9127128
000110 37 b0 3f c0 8c a3 3d c0 10 03 3e c0 9e bc 37 c0
       -2.9951303 -2.963107 -2.968937 -2.8708873
000120 2e d0 38 c0 b8 94 3b c0 e1 df 34 c0 a5 93 3c c0
       -2.8877063 -2.930952 -2.8261645 -2.9465115
000130 d1 ad 3b c0 21 18 38 c0 52 e1 40 c0 44 e9 3c c0
       -2.932484 -2.8764727 -3.0137525 -2.9517374
000140 2c d9 3e c0 5c 3c 3e c0 e3 85 3f c0 e6 c1 3d c0
       -2.9820051 -2.972434 -2.9925468 -2.9649596
000150 3d 68 3a c0 a0 e5 3c c0 1a 99 3b c0 bf 25 37 c0
       -2.9126122 -2.9515152 -2.9312196 -2.8616788
000160 a9 81 43 c0 90 4b 43 c0 94 44 39 c0 03 cd 38 c0
       -3.0547888 -3.051487 -2.8948107 -2.887513
000170 9f e8 43 c0 2c 05 38 c0 1d 78 37 c0 c7 bc 42 c0
       -3.061073 -2.8753157 -2.8667061 -3.042772
000180 e5 8b 3b c0 80 0e 38 c0 ba 23 38 c0 a8 ea 3a c0
       -2.9304135 -2.875885 -2.8771806 -2.9205723
000190 7a 14 40 c0 55 97 3c c0 58 8c 36 c0 49 42 3b c0
       -3.0012498 -2.9467366 -2.852316 -2.9259207
0001a0 3a 4b 42 c0 a0 fc 40 c0 19 92 3a c0 a7 c5 42 c0
       -3.0358415 -3.015419 -2.915167 -3.0433137
0001b0 f9 d4 42 c0 31 23 3c c0 e6 07 3f c0 fc 10 3f c0
       -3.0442488 -2.939648 -2.984857 -2.9854116
0001c0 a0 b1 43 c0 d0 02 3c c0 00 f2 3b c0 c9 4c 39 c0
       -3.0577164 -2.9376717 -2.9366455 -2.8953116
0001d0 88 47 3b c0 a0 0d 35 c0 ad 1c 3b c0 bf 3e 43 c0
       -2.926241 -2.8289566 -2.9236252 -3.0507047
0001e0 ac 0c 3c c0 0e bf 3a c0 37 26 3f c0 ab ba 39 c0
       -2.9382734 -2.917911 -2.9867074 -2.9020183
0001f0 71 21 40 c0 d9 f5 42 c0 cb 95 3a c0 13 01 38 c0
       -3.002041 -3.0462554 -2.9153926 -2.8750656
000200 9b d3 39 c0 5c f7 36 c0 bd b9 36 c0 51 0a 38 c0
       -2.9035404 -2.8588476 -2.8550866 -2.8756297
000210 a5 a9 3d c0 ee 53 38 c0 2e e2 3b c0 54 da 3c c0
       -2.9634793 -2.8801227 -2.93568 -2.9508257
000220 dc d2 42 c0 2f 66 3e c0 39 98 3f c0 fd 96 3e c0
       -3.0441198 -2.9749868 -2.993666 -2.9779656
000230 94 f1 39 c0 36 cf 3f c0 e0 ba 39 c0 90 6e 40 c0
       -2.9053698 -2.9970222 -2.902031 -3.0067482
000240 fe e7 41 c0 dc e0 35 c0 f2 6f 41 c0 7d 0f 42 c0
       -3.0297847 -2.8418493 -3.0224576 -3.0321953
000250 17 a7 36 c0 ee 22 3b c0 76 c8 3e c0 27 2d 3e c0
       -2.8539484 -2.924007 -2.9809852 -2.9715059
000260 2f 7d 3d c0 35 fd 36 c0 7e 60 39 c0 8b af 40 c0
       -2.9607656 -2.8592045 -2.8965144 -3.0107143
000270 7d 61 35 c0 aa 5d 3f c0 1f ba 43 c0 1e 58 44 c0
       -2.8340752 -2.9900918 -3.058235 -3.0678782
000280 ad 4c 39 c0 9f 17 3f c0 13 d7 38 c0 22 fe 3a c0
       -2.895305 -2.9858167 -2.888127 -2.921761
000290 f8 b5 3f c0 56 6a 37 c0 dd 8e 38 c0 02 21 3e c0
       -2.9954815 -2.8658652 -2.8837197 -2.9707646
0002a0 04 42 3d c0 77 d5 42 c0 d6 8e 42 c0 39 70 3a c0
       -2.9571543 -3.0442789 -3.039968 -2.9130995
0002b0 ca f1 3f c0 d5 c4 3e c0 74 bc 37 c0 1b 94 43 c0
       -2.9991326 -2.9807637 -2.8708773 -3.0559146
0002c0 ab 84 36 c0 d5 e2 3a c0 fe 32 34 c0 59 ae 3c c0
       -2.8518474 -2.9200947 -2.8156123 -2.9481413
0002d0 50 86 3b c0 03 ec 3e c0 f7 ff 39 c0 91 3a 3f c0
       -2.9300728 -2.983155 -2.9062479 -2.9879496
0002e0 6d a7 37 c0 53 f4 39 c0 f8 0e 42 c0 28 1a 3a c0
       -2.8695939 -2.9055374 -3.0321636 -2.9078465
0002f0 25 51 49 c0 e8 5d 42 c0 31 73 3c c0 64 7f 36 c0
       -3.1455777 -3.0369816 -2.9445307 -2.8515253
000300 29 95 37 c0 82 0f 3e c0 ce f9 3d c0 be 5a 3c c0
       -2.868479 -2.9696965 -2.9683719 -2.9430385
000310 7f bc 34 c0 83 fb 39 c0 fa 36 40 c0 62 65 3e c0
       -2.824005 -2.905976 -3.0033555 -2.974938
000320 04 45 42 c0 b7 f2 3f c0 53 3b 37 c0 5f 0e 43 c0
       -3.0354624 -2.9991891 -2.8629959 -3.0477521
000330 79 39 43 c0 bf c0 3f c0 52 6a 3d c0 51 00 3b c0
       -3.0503829 -2.9961393 -2.9596143 -2.9218943
000340 55 f1 36 c0 4f ab 3e c0 8f 10 3a c0 cc 0b 3e c0
       -2.8584797 -2.9792058 -2.9072607 -2.96947
000350 52 aa 40 c0 9e 21 3e c0 dd 65 42 c0 b0 9b 3f c0
       -3.0103955 -2.9708018 -3.0374672 -2.9938774
000360 80 7b 41 c0 16 db 3b c0 97 68 38 c0 fa d9 38 c0
       -3.0231628 -2.935247 -2.8813837 -2.8883042
000370 49 e1 3a c0 74 45 41 c0 61 f2 37 c0 7c 99 39 c0
       -2.9200003 -3.019864 -2.8741686 -2.899993
000380 b6 54 42 c0 47 f3 40 c0 d5 f6 39 c0 c3 28 41 c0
       -3.0364203 -3.0148485 -2.9056904 -3.018113
000390 17 69 39 c0 2f 85 39 c0 07 e6 38 c0 5a cd 40 c0
       -2.8970392 -2.898754 -2.8890398 -3.0125337
0003a0 5e 9a 3a c0 36 94 3e c0 20 1e 3c c0 ee 07 41 c0
       -2.9156718 -2.977796 -2.9393387 -3.016109
0003b0 9e e4 38 c0 f1 6b 3e c0 6b 8e 38 c0 8d c9 3e c0
       -2.8889537 -2.9753382 -2.8836925 -2.9810517
0003c0 94 6b 37 c0 14 1d 37 c0 c1 d3 39 c0 15 70 3e c0
       -2.865941 -2.8611498 -2.9035494 -2.975591
0003d0 4f bd 43 c0 c4 1b 40 c0 3b a1 45 c0 4c ac 3a c0
       -3.0584295 -3.0016947 -3.0879657 -2.9167662
0003e0 81 d5 3b c0 b7 56 3b c0 18 71 3f c0
       -2.9349062 -2.9271677 -2.9912777
