EXP7_dump/bottleneck_model_Large.pth (torch, 77664 bytes, 19 tensors)

weight f4 [30, 251]
-0.04025281 0.031569015 0.1688378 0.39238134 -0.07060311 0.008514471 0.0449459 0.021218851
0.12545308 0.012001365 0.1140055 -0.027992444 0.04318065 0.044511933 -0.019083066 0.064362444
0.06777824 0.000593572 0.15522915 0.012859202 -0.017820766 -0.13984118 -0.028128432 0.035467107
0.06042452 0.06042272 0.028272856 0.005976289 -0.013613691 -0.056067817 0.05662023 0.2493558
-0.1387233 0.10053081 0.10238738 0.18502605 0.029137492 0.13834693 0.17880674 0.20172538
0.2501285 -0.2840428 -0.10831645 0.0027597803 -0.14964983 -0.22941682 0.070452735 -0.042482115
0.006121336 -0.1504964 0.052184515 0.06774888 -0.12185431 0.12938417 0.47261634 0.004595261
0.009109069 0.1832818 -0.1547845 0.047892835 -0.018000452 -0.012617182 -0.1426047 0.12037655
0.02214305 -0.16400701 -0.13124602 -0.05991276 0.016754035 0.15196511 0.12906924 0.50604075
-0.046800006 -0.08106407 0.11752622 -0.031560373 0.056545824 -0.13700609 0.020955313 0.020363683
0.10600957 0.1670372 0.078506716 0.02965831 -0.015776655 0.102831684 -0.17951716 -0.15413032
0.054712173 0.09432425 0.061448146 -0.23809507 0.08040032 -0.22064264 0.15568793 0.010333887
-0.01648353 -0.07519935 0.4308154 -0.0055426657 -0.031222275 0.16234227 -0.26864764 -0.061234456
-0.061938927 0.05434583 -0.14811116 0.021068566 0.007829865 0.06464263 0.030409833 0.08650234
0.04443351 0.18807697 -0.015452361 0.04328211 0.0999122 0.3252031 -0.037609402 0.09053941
-0.12666328 -0.10615851 0.0244542 -0.10926339 0.101831086 -0.0005212217 0.33124 0.1833885
0.17230333 -0.07380798 0.269111 -0.03324754 -0.0012910584 0.03140311 -0.005233425 -0.02207028
0.024565255 -0.21895324 0.01198902 0.2514045 -0.3272505 0.062439952 -0.023336172 0.10790567
0.048323836 0.26270202 0.08079168 0.06418627 -0.25851116 0.060407124 0.041719366 0.06824513
0.1482227 0.04278014 0.20787376 0.049687464 -0.012386333 0.040592898 0.058458395 -0.00091520115
-0.1600305 0.17431991 -0.10038887 -0.049034458 -0.01847295 -0.41511396 0.027068008 0.013534216
-0.070919394 0.108841926 0.14633171 0.053981155 0.04735625 -0.00954375 0.26420543 0.061886676
-0.36667618 -0.053305086 -0.07106033 0.12874904 -0.022836488 0.13533488 0.14073037 0.010602785
-0.09071645 0.09748635 0.04885339 -0.1410284 0.035103917 0.048170656 0.23190205 0.05902754
-0.20659123 0.05417415 -0.07209544 0.14086823 -0.14960007 0.08687562 -0.06849138 0.06778257
-0.0074215475 0.058667075 0.057378326 0.066779554 0.026506212 0.05087979 -0.027546572 0.0014432406
-0.102158636 0.13750201 -0.28016445 0.01068122 0.08210407 0.009548992 0.09861125 0.090585984
0.17527045 0.0513082 -0.004487634 -0.009033782 0.16863428 0.074674994 -0.28567386 -0.036079627
0.07897284 -0.034535185 -0.11780192 -0.0008855385 8.133752e-05 -0.20689571 0.12743963 -0.039949123
0.29324555 0.13149452 0.09595399 -0.10184348 0.06732852 0.11418356 -0.016599564 0.074342646
-0.24827634 0.064379655 0.22338934 0.039641857 0.043180473 0.085332684 0.06690446 0.337929
-0.008643088 0.12686217 0.0172517 0.010683954 0.26004967 -0.03029507 -0.091540314 -0.025158523
00000000: 21e0 24bd 834e 013d d1e3 2c3e 35e6 c83e
00000010: 5d98 90bd 4880 0b3c 3119 383d 28d3 ad3c
00000020: c676 003e 60a1 443c b77b e93d 6950 e5bc
00000030: 31de 303d 2552 363d 1754 9cbc 75d0 833d
00000040: 51cf 8a3d f199 1b3a 64f4 1e3e 67af 523c
00000050: dbfc 91bc 8732 0fbe 996d e6bc f545 113d
00000060: b47f 773d d07d 773d 7a9c e73c bfd4 c33b
00000070: f50b 5fbc 5ea7 65bd 9dea 673d 2057 7f3e
00000080: 7b0d 0ebe 19e3 cd3d 7ab0 d13d 7877 3d3e
00000090: c0b1 ee3c d1aa 0d3e 1d19 373e 1991 4e3e
000000a0: d810 803e 0f6e 91be 04d5 ddbd 6edd 343b
000000b0: ce3d 19be 3eec 6abe 8649 903d ba01 2ebd
000000c0: 7d95 c83b ba1b 1abe 6ebf 553d edbf 8a3d
000000d0: c18e f9bd 497d 043e c5fa f13e d893 963b
000000e0: 343e 153c 39ae 3b3e d47f 1ebe 472b 443d
000000f0: af75 93bc 4cb8 4ebc f706 12be fb87 f63d
00000100: 5765 b53c 74f1 27be 5b65 06be 1567 75bd
00000110: c23f 893c be9c 1b3e ba2a 043e e38b 013f
00000120: 5db1 3fbd eb04 a6bd 96b1 f03d 7345 01bd
00000130: 989c 673d 534b 0cbe 7aaa ab3c bdd1 a63c
00000140: 8c1b d93d cd0b 2b3e 21c8 a03d fcf5 f23c
00000150: 0b3e 81bc 6b99 d23d 59d3 37be 57d4 1dbe
00000160: df19 603d 132d c13d 0db1 7b3d 32cf 73be
00000170: eca8 a43d 25f0 61be a86c 1f3e 774f 293c
00000180: 7808 87bc 1e02 9abd d693 dc3e 409f b5bb
00000190: dbc5 ffbc 0d3d 263e 2f8c 89be fbd0 7abd
000001a0: acb3 7dbd bc99 5e3d 74aa 17be fc97 ac3c
000001b0: d648 003c 5b63 843d 0b1e f93c 2428 b13d
000001c0: eaff 353d 4097 403e e62b 7dbc 9548 313d
000001d0: c49e cc3d 0581 a63e 510c 1abd ba6c b93d
000001e0: 05b4 01be a269 d9bd 2d54 c83c 7cc5 dfbd
000001f0: d18c d03d 99a2 08ba 4a98 a93e 32ca 3b3e
00000200: 4970 303e a328 97bd ebc8 893e 932e 08bd
00000210: bb38 a9ba 8ca0 003d 277d abbb bbcc b4bc
00000220: 133d c93c 4735 60be 986d 443c 17b8 803e
00000230: 618d a7be 09c1 7f3d 802b bfbc a6fd dc3d
00000240: 37ef 453d e180 863e 1c76 a53d 1774 833d
00000250: 935b 84be 766d 773d ede1 2a3d 1ac4 8b3d
00000260: b1c7 173e 3a3a 2f3d dcdc 543e 1585 4b3d
00000270: 0cf0 4abc bd44 263d 1272 6f3d 1cea 6fba
00000280: 09df 23be eb80 323e ae98 cdbd 5bd8 48bd
00000290: 9654 97bc d189 d4be babd dd3c 9ebe 5d3c
000002a0: 303e 91bd 84e8 de3d fbd7 153e 581b 5d3d
000002b0: a1f8 413d 645d 1cbc ef45 873e e27c 7d3d
000002c0: fbbc bbbe 6f56 5abd 1488 91bd cad6 033e
000002d0: 9613 bbbc 3a95 0a3e 9f1b 103e 4eb7 2d3c
000002e0: 8cc9 b9bd eca6 c73d 7e1a 483d c069 10be
000002f0: 20c9 0f3d 984e 453d bb77 6d3e ddc6 713d
00000300: a78c 53be b7e5 5d3d c6a6 93bd c33f 103e
00000310: c330 19be d8eb b13d 3545 8cbd 97d1 8a3d
00000320: 7430 f3bb e34c 703d 8905 6b3d b8c3 883d
00000330: 8e23 d93c 5467 503d 59a9 e1bc 1e2b bd3a
00000340: 8c38 d1bd 54cd 0c3e b771 8fbe 4900 2f3c
00000350: 2e26 a83d 6073 1c3c b2f4 c93d 2585 b93d
00000360: 197a 333e 8c28 523d 010d 93bb 6e02 14bc
00000370: 77ae 2c3e 34ef 983d d843 92be 3bc8 13bd
00000380: 83bc a13d c474 0dbd 2242 f1bd 7c23 68ba
00000390: c093 aa38 78dc 53be 897f 023e b1a1 23bd
000003a0: 4824 963e 80a6 063e 8783 c43d 5093 d0bd
000003b0: 89e3 893d 12d9 e93d cffb 87bc f540 983d
000003c0: 273c 7ebe 7bd9 833d 2dc0 643e 805f 223d
000003d0: 02de 303d e7c2 ae3d 3505 893d 0805 ad3e
000003e0: bd9b 0dbc 28e8 013e 7053 8d3c c00b 2f3c
000003f0: 3b25 853e 5e2d f8bc 7d79 bbbd 3f19 cebc

bias f4 [30]
0.0622871 -0.007499599 0.011966143 0.051054955 0.008865357 0.04116248 0.040935364 0.054782916
-0.023664942 0.045143507 0.05255211 0.04963656 0.03795992 0.018752333 0.045027513 -0.04144133
-0.0061698942 -0.060745228 -0.029557928 0.023027027 0.024597526 -0.05349222 0.017720496 0.05666046
-0.017210873 -0.0052570296 -0.013097009 0.0016682489 -0.059039623 -0.034053948
00000000: c220 7f3d 32bf f5bb a40d 443c 001f 513d
00000010: 0140 113c fd99 283d d7ab 273d 0d64 603d
00000020: fbdc c1bc 66e8 383d e240 573d b54f 4b3d
00000030: dc7b 1b3d 7e9e 993c c56e 383d 62be 29bd
00000040: d32c cabb fdcf 78bd 7823 f2bc 2da3 bc3c
00000050: c080 c93c a81a 5bbd 932a 913c cc14 683d
00000060: d1fd 8cbc 2943 acbb d694 56bc 25a9 da3a
00000070: 88d3 71bd 277c 0bbd

weight f4 [30]
0.3460874 0.32021338 0.41250512 0.7753778 0.44034895 0.45073643 0.5171732 0.43802914
0.58575773 0.65941817 0.52896124 0.52370346 0.3388418 0.3767413 0.3806739 0.65780103
0.54723424 0.34446916 0.6745325 0.4077418 0.6390579 0.51494086 0.2380371 1.1598583
0.41033164 0.41186017 0.6531961 0.6407838 0.67795575 0.47233307
00000000: 5e32 b13e 02f3 a33e df33 d33e 297f 463f
00000010: 6b75 e13e edc6 e63e 7665 043f 5b45 e03e
00000020: 38f4 153f a1cf 283f 016a 073f 6e11 063f
00000030: ac7c ad3e 3ce4 c03e b0e7 c23e a665 283f
00000040: 8b17 0c3f 435e b03e 29ae 2c3f 89c3 d03e
00000050: 4c99 233f 2ad3 033f ffbf 733e 3d76 943f
00000060: fd16 d23e 56df d23e dc37 273f 680a 243f
00000070: 828e 2d3f a4d5 f13e

bias f4 [30]
0.54907286 0.2064156 0.6538927 1.3879546 0.7001248 0.72881377 0.535401 0.6256214
1.0069541 0.9954344 0.745703 0.60235673 0.53362554 0.5540491 0.6045333 0.32350555
-0.32347292 0.53061825 0.9714405 0.5954698 0.9722339 0.8202732 0.36390096 -1.1387649
0.67025256 0.6333656 -0.8666887 0.96470636 0.66559553 0.69652104
00000000: 0a90 0c3f 9c5e 533e 8365 273f 7fa8 b13f
00000010: 613b 333f 8a93 3a3f 0a10 093f b928 203f
00000020: dfe3 803f cad4 7e3f 64e6 3e3f 0d34 1a3f
00000030: af9b 083f 29d6 0d3f b2c2 1a3f 85a2 a53e
00000040: 3e9e a5be 99d6 073f 53b0 783f b570 183f
00000050: 52e4 783f 6dfd 513f 3a51 ba3e 0cc3 91bf
00000060: ac95 2b3f 3f24 223f 50df 5dbf fff6 763f
00000070: 7864 2a3f 344f 323f

running_mean f4 [30]
3.4642344 2.0551016 3.528464 15.752007 3.6412668 3.6782522 9.782913 7.2595696
16.576899 10.8827305 6.524997 8.17874 3.3530846 5.7369666 3.2232354 9.757294
11.486734 2.650476 11.076227 4.707655 11.721224 3.40206 3.4758925 -19.435701
3.7951798 6.887379 15.105958 8.741747 6.420627 7.430676
00000000: 04b6 5d40 c986 0340 5bd2 6140 3808 7c41
00000010: 840a 6940 7c68 6b40 d086 1c41 654e e840
00000020: 7d9d 8441 aa1f 2e41 c7cc d040 1edc 0241
00000030: f098 5640 3b95 b740 7d49 4e40 e01d 1c41
00000040: aac9 3741 66a1 2940 3a38 3141 1ca5 9640
00000050: 228a 3b41 5abb 5940 0675 5e40 517c 9bc1
00000060: 3ae4 7240 6965 dc40 01b2 7141 32de 0b41
00000070: c775 cd40 19c8 ed40

running_var f4 [30]
4.6381426 1.8911796 4.871955 83.24508 5.2036643 5.097897 32.50785 17.91361
93.094345 39.947723 14.584196 22.68845 4.40106 11.408688 4.065541 32.679813
44.62644 3.0867262 41.821316 7.8408527 46.52738 4.676081 4.4849586 128.1663
5.4171653 16.384151 77.21981 26.192812 14.624307 19.197714
00000000: aa6b 9440 2c12 f23f 0ee7 9b40 7b7d a642
00000010: 6b84 a640 f921 a340 0a08 0242 134f 8f41
00000020: 4e30 ba42 78ca 1f42 de58 6941 f281 b541
00000030: 7cd5 8c40 fc89 3641 e918 8240 21b8 0242
00000040: 7981 3242 ec8c 4540 0749 2742 44e8 fa40
00000050: 0a1c 3a42 75a2 9540 c884 8f40 932a 0043
00000060: 6b59 ad40 be12 8341 8b70 9a42 e18a d141
00000070: 29fd 6941 eb94 9941

weight f4 [30, 30]
0.032759648 -0.006721751 -0.022398971 0.06565331 0.030454822 0.04029409 -0.06415558 0.06833701
0.006537933 0.12628599 0.05355889 0.048548236 0.018463839 0.008505306 0.0062010954 -0.6032328
0.3657234 0.04244456 0.029058497 0.087104544 0.1285503 -0.0036658803 0.066869326 -0.0629913
0.0024297528 0.044163484 0.6148168 0.19391532 0.0032977322 0.17099129 -0.100123025 -0.1168734
-0.022905374 0.8488637 -0.1592441 0.122960955 0.12458035 0.07656991 0.44519103 -0.09539201
0.011907853 -0.07880507 -0.07204122 -0.070981495 -0.060989648 -0.10600983 -0.09780436 -0.0013917777
-0.1259928 -0.09257783 -0.0989227 -0.14204898 -0.1086282 -0.3145152 0.16064335 -0.22881854
-0.061418142 0.10903565 0.14302744 -0.137205 0.12814243 -0.09979731 -0.09676921 0.19152004
-0.007609717 0.13639843 0.07747521 -0.045091968 -0.20888779 -0.118572846 0.058588676 -0.1489874
-0.18814361 0.08526468 -0.111468576 0.28047276 0.025845025 0.070865296 -0.21132314 0.45901805
0.2437046 0.101315305 -0.029782092 -0.23814438 0.34747636 -0.011174666 -0.38791132 0.14162223
0.10156015 -0.21290661 0.07580616 -0.052014455 0.16388233 0.12863769 0.14735857 0.13863225
0.23582047 0.10080088 0.33433533 -0.52957505 -0.111357555 0.23432559 0.117521174 -0.045509253
0.14782543 -0.007458603 -0.06504683 0.14387189 -0.3295366 -0.062157232 0.10589319 0.18154842
0.03412194 -0.27860838 0.0911167 -0.070647836 -0.16235565 -0.21868359 0.06267236 -0.045450296
-0.040741555 0.038178824 -0.02644807 0.0023835583 0.016114304 0.10111393 -0.12416622 -0.054864697
0.38288775 -0.12426447 -0.18104634 -0.25222826 0.010469606 -0.14375935 -0.097595155 -0.07013876
-0.10576849 0.043009255 -0.015274579 -0.012861299 0.18083791 -0.021014513 0.19976752 -1.3467768
0.099701196 -0.08865119 -0.079696275 0.1822035 -0.05716524 -0.11140904 -0.2672879 0.036605254
-0.21264714 -0.11272872 -0.17818844 -0.16225114 -0.7013571 0.1438165 0.34935954 0.13430826
-0.015950615 0.1944257 -0.25156826 0.040571723 -0.27001277 -0.12844795 -0.091717385 -0.19357558
0.106887884 0.06611527 0.24988885 -0.15587623 -0.046888106 0.27994537 -0.057538904 0.24391274
-0.23634467 0.12996036 0.021243509 0.06951989 0.1271023 0.04380691 0.18755047 0.61683464
0.13733874 0.25691503 -0.0020175409 -0.36254227 -0.22856629 -0.13591039 -0.13629533 0.12801974
0.28161806 -0.013717618 0.13434966 0.0027218028 -0.0671616 0.12514696 0.02220164 0.07081216
-0.34362096 0.1243833 -0.06474199 -0.23535828 0.17218566 -0.24042825 -0.1676994 -0.1376522
0.13853607 -0.16951203 0.06587632 -0.11357874 0.08974758 0.61182797 0.18246838 0.15822592
0.04714265 -0.21597975 -0.06789616 -0.24294634 -0.028143115 0.034830578 -0.13847758 0.025157273
-0.010595316 -0.09141581 0.11452774 -0.07426207 -0.2530147 -0.21184681 0.40023416 0.082142375
0.20329842 0.009472654 0.3092915 -0.2435774 0.15144177 -0.09417047 -0.022187343 -0.40911278
0.13694784 -0.12712988 0.10555439 0.1728701 0.113128096 0.047136467 -0.29872167 0.08505366
-0.121296324 -0.205262 0.117519744 -0.11513839 0.15357096 -0.25168726 0.14683303 0.039565455
00000000: fb2e 063d 2242 dcbb 0c7e b7bc 3e75 863d
00000010: 647c f93c 6a0b 253d 0064 83bd 46f4 8b3d
00000020: 283c d63b 1d51 013e 9160 5b3d 84da 463d
00000030: 7a41 973c d759 0b3c 8f32 cb3b 776d 1abf
00000040: 1940 bb3e 59da 2d3d 160c ee3c de63 b23d
00000050: b1a2 033e 443f 70bb c9f2 883d 9501 81bd
00000060: 7d3c 1f3b c5e4 343d a264 1d3f bd91 463e
00000070: c41e 583b 5718 2f3e 4d0d cdbd 525b efbd
00000080: 0da4 bbbc 224f 593f e310 23be f4d2 fb3d
00000090: fc23 ff3d afd0 9c3d 14f0 e33e e35c c3bd
000000a0: 2819 433c 8d64 a1bd 598a 93bd bf5e 91bd
000000b0: 48d0 79bd af1b d9bd a74d c8bd 4f6c b6ba
000000c0: 4204 01be 7299 bdbd fc97 cabd 4a75 11be
000000d0: 7678 debd 2308 a1be b17f 243e 684f 6abe
000000e0: 9791 7bbd 154e df3d c975 123e 787f 0cbe
000000f0: c537 033e 8862 ccbd f02e c6bd d41d 443e
00000100: ef5a f9bb 08ac 0b3e 53ab 9e3d 5bb2 38bd
00000110: aee6 55be 52d6 f2bd aefa 6f3d 2790 18be
00000120: b8a8 40be 409f ae3d a349 e4bd 209a 8f3e
00000130: f2b8 d33c d321 913d 1865 58be 6a04 eb3e
00000140: b38d 793e 667e cf3d 93f9 f3bc 1fdc 73be
00000150: 6ce8 b13e f215 37bc 509c c6be 6b05 113e
00000160: c5fe cf3d 3104 5abe 4340 9b3d 1c0d 55bd
00000170: c5d0 273e 99b9 033e 2ae5 163e 9df5 0d3e
00000180: ec7a 713e b170 ce3d 002e ab3e 3b92 07bf
00000190: 6e0f e4bd 0cf3 6f3e f1ae f03d e967 3abd
000001a0: 8d5f 173e 4c67 f4bb 4637 85bd 2753 133e
000001b0: 05b9 a8be 9598 7ebd 87de d83d d4e7 393e
000001c0: 73c3 0b3d c2a5 8ebe 649b ba3d d0af 90bd
000001d0: 8f40 26be 97ee 5fbe 5e5a 803d 172a 3abd
000001e0: 9ee0 26bd 6661 1c3d 9fa9 d8bc 7935 1c3b
000001f0: 2502 843c d214 cf3d dc4a febd ceb9 60bd
00000200: dd09 c43e 5f7e febd 3664 39be 1024 81be
00000210: b688 2b3c a735 13be f8df c7bd e9a4 8fbd
00000220: 269d d8bd 792a 303d 3a42 7abc 33b8 52bc
00000230: 932d 393e a126 acbc db8f 4c3e 2f63 acbf
00000240: 2430 cc3d c18e b5bd cd37 a3bd 8e93 3a3e
00000250: 1926 6abd 6c2a e4bd f6d9 88be 64ef 153d
00000260: 2cc0 59be 51de e6bd 0877 36be 2a25 26be
00000270: 248c 33bf a244 133e 41df b23e 1b88 093e
00000280: ddaa 82bc 8817 473e 8ecd 80be 892e 263d
00000290: 1d3f 8abe dc87 03be 53d6 bbbd ad38 46be
000002a0: 09e8 da3d 7167 873d dde2 7f3e 059e 1fbe
000002b0: be0d 40bd 0055 8f3e eaad 6bbd 43c4 793e
000002c0: 5604 72be 5414 053e de06 ae3c 7260 8e3d
000002d0: 1b27 023e e06e 333d 3b0d 403e e0e8 1d3f
000002e0: 87a2 0c3e 5e8a 833e b838 04bb 249f b9be
000002f0: 480d 6abe 182c 0bbe 0191 0bbe 9b17 033e
00000300: 3e30 903e dcbf 60bc f592 093e 4660 323b
00000310: 058c 89bd 8626 003e 37e0 b53c f705 913d
00000320: 16ef afbe acbc fe3d 7397 84bd c301 71be
00000330: 7051 303e d332 76be 64b9 2bbe b3f4 0cbe
00000340: 66dc 0d3e 9094 2dbe 2aea 863d f89b e8bd
00000350: 94cd b73d c2a0 1c3f fed8 3a3e fa05 223e
00000360: a718 413d cc29 5dbe 240d 8bbd edc6 78be
00000370: 648c e6bc 82aa 0e3d 11cd 0dbe a016 ce3c
00000380: fa97 2dbc 3638 bbbd 858d ea3d b616 98bd
00000390: 258b 81be 5fee 58be 7eeb cc3e 433a a83d
000003a0: 762d 503e 3133 1b3c 755b 9e3e 5b6c 79be
000003b0: 8d13 1b3e 73dc c0bd 3bc2 b5bc 3b77 d1be
000003c0: 0e3c 0c3e 562e 02be e62c d83d dc04 313e
000003d0: b4af e73d 2b12 413d 0cf2 98be 9d30 ae3d
000003e0: 356a f8bd 3430 52be 31ae f03d adcd ebbd
000003f0: b541 1d3e 27dd 80be 665b 163e 630f 223d

bias f4 [30]
0.103125006 0.14882036 0.071344584 0.17492369 -0.15892403 -0.033683952 -0.0041349134 0.014936026
0.0074956478 -0.18203509 0.062329624 0.07423027 0.039015904 -0.005313478 0.07631245 -0.109243505
0.013394967 0.044917703 0.023060018 -0.15883154 -0.17610115 0.04472318 -0.13262954 0.075554706
-0.11168131 -0.1448129 0.060023125 -0.14039186 -0.0006766375 0.02711816
00000000: 3433 d33d 5d64 183e 1c1d 923d 321f 333e
00000010: fbbc 22be 2ff8 09bd 2b7e 87bb 3cb6 743c
00000020: 0d9e f53b 6867 3abe 594d 7f3d 0a06 983d
00000030: 24cf 1f3d af1c aebb b449 9c3d 0fbb dfbd
00000040: 9076 5b3c a0fb 373d 5de8 bc3c bca4 22be
00000050: dc53 34be a72f 373d 0ad0 07be 6dbc 9a3d
00000060: 2cb9 e4bd d549 14be cfda 753d e2c2 0fbe
00000070: 6060 31ba e726 de3c

weight f4 [30]
0.6077477 0.5685399 0.65809554 0.40573618 0.43000638 0.8234831 0.57159424 0.3076694
0.5219222 0.4486353 0.76738703 0.47268376 0.64754814 0.6515968 0.6345468 0.68424463
0.27128395 0.13591507 0.6365467 0.32748938 0.6913696 0.12737493 0.11806424 0.73705983
0.7436618 0.093748815 0.69487333 0.1319879 0.52802044 0.10648696
00000000: 5a95 1b3f d58b 113f f378 283f a7bc cf3e
00000010: cc29 dc3e cacf 523f 0054 123f d886 9d3e
00000020: b19c 053f 87b3 e53e 7a73 443f 9b03 f23e
00000030: b7c5 253f 0ccf 263f a971 223f a82a 2f3f
00000040: bbe5 8a3e 522d 0b3e b9f4 223f b0ac a73e
00000050: 99fd 303f 936e 023e aacb f13d f4af 3c3f
00000060: 9f60 3e3f 61ff bf3d 38e3 313f d627 073e
00000070: 592c 073f d615 da3d

bias f4 [30]
0.12287301 1.2174542 0.88510686 0.6889898 0.08655133 -1.5211947 0.95309824 0.46141034
0.14982212 0.7886565 -1.4432484 0.6932018 0.1486295 1.1459646 0.90212303 1.4058555
0.4899551 0.18950994 0.20320864 0.5692912 0.9779935 0.0530013 0.041754678 1.6129767
-1.4388115 0.13425261 0.84354836 0.12083265 0.8427519 0.1074282
00000000: d8a4 fb3d 8ad5 9b3f 5d96 623f a361 303f
00000010: d341 b13d 82b6 c2bf 3ffe 733f fa3d ec3e
00000020: f86a 193e 64e5 493f 5dbc b8bf ac75 313f
00000030: 5532 183e f8ae 923f 89f1 663f 13f3 b33f
00000040: 65db fa3e e50e 423e ed15 503e 11bd 113f
00000050: c85d 7a3f e417 593d f406 2b3d 0576 ce3f
00000060: fa2a b8bf 8479 093e c9f2 573f 1c77 f73d
00000070: 97be 573f 5103 dc3d

running_mean f4 [30]
0.7240033 1.1697677 0.85494983 0.7547294 0.11464304 -0.31446576 0.6948436 0.40265235
0.28691438 0.35308972 -0.3396953 0.9482773 0.068548806 0.5333016 0.85971403 1.4023049
0.66719544 0.22123833 0.15048285 0.2995183 0.60224974 0.2576395 -0.2163585 1.8729695
-0.43327773 -0.11298479 0.89686555 0.2977324 0.66983 0.26082125
00000000: 4858 393f f3ba 953f fedd 5a3f f235 413f
00000010: f8c9 ea3d a801 a1be 45e1 313f 7328 ce3e
00000020: 71e6 923e 2dc8 b43e 8bec adbe 4dc2 723f
00000030: 5163 8c3d 7486 083f 3816 5c3f ba7e b33f
00000040: 52cd 2a3f 4d8c 623e 2d18 1a3e 765a 993e
00000050: 0a2d 1a3f 53e9 833e 158d 5dbe 77bd ef3f
00000060: 94d6 ddbe 9264 e7bd fb98 653f 6270 983e
00000070: fb79 2b3f 5d8a 853e

running_var f4 [30]
0.26137847 0.3386594 0.25645334 0.112215765 0.18418513 0.114921644 0.12400565 0.03139294
0.2641756 0.096259 0.13206412 0.22840396 0.29970694 0.11304707 0.11784033 0.9277901
0.09728485 0.011089299 0.7713071 0.10569763 0.38755247 0.018342612 0.007371051 1.0189174
0.12480043 0.0045311493 0.22491193 0.018742861 0.08897029 0.06522652
00000000: 66d3 853e c464 ad3e da4d 833e 61d1 e53d
00000010: 079b 3c3e 0a5c eb3d adf6 fd3d e295 003d
00000020: 0642 873e 7023 c53d d13b 073e bae2 693e
00000030: 3073 993e 3985 e73d 4556 f13d a783 6d3f
00000040: 483d c73d e4af 353c 6274 453f 0078 d83d
00000050: 476d c63e 3f43 963c db88 f13b e36b 823f
00000060: 5e97 ff3d 097a 943b 504f 663e a18a 993c
00000070: 0e36 b63d 7b95 853d

weight f4 [251, 30]
0.036573432 -0.17163217 0.04558437 0.0851257 0.012808677 1.042174 0.11735941 0.0088509405
0.020261241 -0.13139513 0.81285435 0.064491965 0.014215348 0.2657654 0.089430146 -0.18124057
0.033146832 0.00398069 0.028177712 -0.058323536 0.042815164 -0.0005559616 0.00066255464 -0.05611563
0.92672455 0.003998311 0.14752777 0.005585974 0.047828585 0.006080808 0.290967 -0.21134229
0.20010768 -0.09743851 -0.17326517 0.17146496 0.15798667 0.08921644 -0.018612336 -0.23646732
-0.066759616 0.0444565 -0.08111865 -0.059463914 -0.056740023 -0.2578504 -0.020638315 0.024591517
-0.08732097 0.027676301 0.12087153 0.04743908 0.077091835 -0.20375805 0.33774036 0.014577293
0.15682222 -0.051337168 -0.016409626 0.10514758 0.13055803 -0.13401133 0.11456428 -0.019275114
0.09130238 -0.017153716 -0.057752676 -0.0015682208 -0.031968135 -0.0318021 -0.30044842 -0.05497134
-0.24258897 -0.14766358 -0.022030868 -0.1423809 -0.033866607 0.22568104 -0.56554645 0.08714009
0.15490077 0.075238205 0.045836736 -0.09136685 0.25597093 0.014461003 0.06308253 0.023286073
0.11180027 0.12412686 0.24297081 -0.18521155 0.09366385 -0.034920823 -0.17606989 -0.07720563
0.15623255 0.040174298 -0.09919353 -0.16801527 -0.15754099 -0.04263678 0.02013121 -0.087012015
-0.0393445 -0.2617388 -0.3186133 0.017974114 0.18518952 0.05279202 0.055347692 0.0042041703
-0.42378265 -0.22902676 0.23858275 0.09011367 0.25031814 0.021221558 -0.013746645 -0.12739585
0.1411023 -0.05590149 0.004893948 -0.03884274 -0.16435607 0.65395546 0.014701782 0.0979488
0.034549087 -0.16723841 -0.11001522 -0.0554123 -0.2728375 0.012063085 0.15298192 -0.26998702
-0.06297013 -0.06739846 0.18266201 -0.021885313 0.08096272 0.10052142 0.0200447 -0.21071917
-0.06344548 0.023802362 0.21804537 0.034668382 0.06937375 0.1459408 -0.11254776 -0.13866
0.20584124 -0.083615854 0.022684598 -0.17362568 -0.12392364 -0.17923093 0.5499136 -0.19382459
0.14973705 -0.05363739 0.10748772 -0.023366567 0.13042615 -0.18931325 0.04992098 0.118988864
0.4971761 -0.092257224 -0.17849685 0.030067075 0.051644932 -0.16717649 0.29013488 -0.38870877
-0.017851464 0.14743122 0.0714432 0.3937843 0.22548686 -0.18017612 0.03140989 0.2159162
0.33638698 0.64045143 0.14983346 0.008180145 -0.1834909 -0.18190758 0.35260358 0.013306103
-0.08155303 -0.06636778 0.112128235 -0.25663084 0.10082092 0.10076703 0.113564804 0.073536724
-0.2600244 -0.08325185 -0.013123997 -0.055096924 -0.3186978 0.09488099 0.11989255 -0.17353258
-0.06343281 0.10844664 0.21473622 -0.21868114 0.11372006 0.00300204 -0.11643041 0.47884375
-0.2481413 -0.12235643 0.03317679 -0.15237585 -0.0043076845 0.1126858 0.087313846 0.14585415
-0.039508764 -0.1487501 -0.0050300863 0.033213735 0.22975 0.17425497 0.07343444 0.048545208
-0.011072393 -0.2877776 0.12398046 0.0027446437 0.043550383 -0.02770141 0.15238337 -0.20509414
0.16393107 -0.31986183 -0.011280637 0.1381886 -0.223456 -0.2543214 0.18386804 0.015714278
-0.038198553 -0.1850799 0.31887364 -0.18735668 0.43376333 -0.16169433 0.049556483 -0.011920915
00000000: 06ce 153d 58c0 2fbe adb6 3a3d 6256 ae3d
00000010: 7cdb 513c f565 853f 215a f03d 8903 113c
00000020: e7fa a53c 728c 06be 3917 503f 5d14 843d
00000030: 7ee7 683c 6712 883e 2727 b73d 2197 39be
00000040: f9c4 073d 7370 823b f2d4 e63c a9e4 6ebd
00000050: f45e 2f3d f4bd 11ba 4aaf 2d3a 81d9 65bd
00000060: d23d 6d3f 4304 833b 8511 173e 8c0a b73b
00000070: e8e7 433d 8441 c73b a0f9 943e 1d6a 58be
00000080: 07e9 4c3e d78d c7bd 6d6c 31be 8394 2f3e
00000090: 42c7 213e 1cb7 b63d e678 98bc 7d24 72be
000000a0: 44b9 88bd 0518 363d 8921 a6bd 6f90 73bd
000000b0: 3a68 68bd f804 84be af11 a9bc 2674 c93c
000000c0: 56d5 b2bd 69b9 e23c 7e8b f73d 7b4f 423d
000000d0: 53e2 9d3d f3a5 50be 4eec ac3e 99d5 6e3c
000000e0: 0196 203e ec46 52bd 7b6d 86bc 9d57 d73d
000000f0: 01b1 053e 443a 09be ada0 ea3d d8e6 9dbc
00000100: befc ba3d f385 8cbc 128e 6cbd c28c cdba
00000110: 05f1 02bd eb42 02bd 60d4 99be a129 61bd
00000120: 3e69 78be 1f35 17be 147a b4bc 4ccc 11be
00000130: b6b7 0abd ee18 673e a7c7 10bf 8176 b23d
00000140: 4f9e 1e3e 7d16 9a3d 4dbf 3b3d 8b1e bbbd
00000150: 9f0e 833e d8ed 6c3c 6a31 813d 6fc2 be3c
00000160: 8af7 e43d 3936 fe3d 57cd 783e 19a8 3dbe
00000170: d5d2 bf3d 2309 0fbd aa4b 34be fc1d 9ebd
00000180: 6dfb 1f3e ce8d 243d fa25 cbbd 320c 2cbe
00000190: 6d52 21be e7a3 2ebd 35ea a43c 5b33 b2bd
000001a0: b327 21bd a102 86be 4821 a3be 733e 933c
000001b0: 52a2 3d3e 723c 583d 43b4 623d 23c3 893b
000001c0: 0afa d8be fe85 6abe 094f 743e 848d b83d
000001d0: b329 803e d5d8 ad3c 9c39 61bc 0f74 02be
000001e0: 1f7d 103e f6f8 64bd 695d a03b 9119 1fbd
000001f0: f54c 28be a069 273f bedf 703c 6199 c83d
00000200: 5883 0d3d 8c40 2bbe a94f e1bd 02f8 62bd
00000210: 5bb1 8bbe 3fa4 453c 4ba7 1c3e bd3b 8abe
00000220: 7cf6 80bd 3408 8abd c00b 3b3e d448 b3bc
00000230: c8cf a53d 2dde cd3d c834 a43c c4c6 57be
00000240: b4ef 81bd 2cfd c23c 4947 5f3e 6f00 0e3d
00000250: d313 8e3d 8171 153e 717f e6bd e3fc 0dbe
00000260: 0cc8 523e ca3e abbd 0dd5 b93c eeca 31be
00000270: adcb fdbd 5088 37be 23c7 0c3f f479 46be
00000280: ab54 193e e1b2 5bbd 8622 dc3d 3e6b bfbc
00000290: 6f8e 053e 55db 41be f179 4c3d 6fb0 f33d
000002a0: de8d fe3e 5bf1 bcbd e1c7 36be 3a4f f63c
000002b0: a389 533d 5030 2bbe 8f8c 943e d604 c7be
000002c0: 3c3d 92bc 36f8 163e d050 923d 199e c93e
000002d0: 07e6 663e 1780 38be a8a7 003d 2319 5d3e
000002e0: ea3a ac3e a0f4 233f f16d 193e 0406 063c
000002f0: 0ae5 3bbe fb45 3abe 7588 b43e d701 5a3c
00000300: 4605 a7bd d5eb 87bd 7da3 e53d 1e65 83be
00000310: 337b ce3d f25e ce3d aa94 e83d 6c9a 963d
00000320: eb21 85be f27f aabd 0806 57bc 50ad 61bd
00000330: 5c2c a3be f750 c23d 3a8a f53d 86b2 31be
00000340: 10e9 81bd 4619 de3d d0e3 5b3e f3ed 5fbe
00000350: 10e6 e83d e0bd 443b 1173 eebd 022b f53e
00000360: c118 7ebe 0296 fabd 63e4 073d 6a08 1cbe
00000370: 7a27 8dbb d0c7 e63d 9ad1 b23d ca5a 153e
00000380: f1d3 21bd f251 18be 6cd3 a4bb 200b 083d
00000390: 9643 6b3e e56f 323e cc64 963d 57d7 463d
000003a0: fb68 35bc 9657 93be 78e9 fd3d 7bdf 333b
000003b0: e361 323d 11ee e2bc 630a 1c3e 3304 52be
000003c0: 8cdd 273e eec4 a3be 6cd2 38bc 5081 0d3e
000003d0: a6d1 64be 6a36 82be e747 3c3e 3bbb 803c
000003e0: 1676 1cbd 9685 3dbe 6843 a33e 6eda 3fbe
000003f0: 3a16 de3e 3393 25be bdfb 4a3d f14f 43bc

bias f4 [251]
0.16757412 0.13677292 -0.09819167 -0.09095848 0.15456046 0.044746142 0.028664397 -0.06136141
-0.16113593 -0.03725616 0.14099547 0.07138635 -0.12153071 -0.0070645744 -0.14807461 0.11579535
0.15813646 0.020715158 -0.15648504 -0.13785991 0.07968721 0.052405715 -0.18631823 0.09115738
-0.1232571 -0.022444956 0.018042024 -0.011315579 -0.053567704 -0.017493488 -0.100817814 0.053343546
-0.01997143 0.16230656 0.029711373 0.167858 -0.17107117 -0.0563199 0.11916615 0.07575913
-0.1663492 0.119161144 -0.06249345 -0.10175966 0.13509704 -0.11567902 0.06511308 0.1699757
0.12411353 -0.01921598 -0.08321596 -0.1842361 0.11198818 -0.12540787 -0.03854609 -0.13412513
-0.17969602 -0.111528315 -0.026549455 -0.041669738 0.00029117512 -0.027602287 -0.0027650907 -0.18597518
-0.114580944 0.017412424 -0.0018039627 0.15033148 -0.13639703 0.09786121 -0.005352148 0.17813016
0.051001374 0.15633789 0.1416985 -0.1878247 -0.087084495 -0.044981238 -0.07291723 0.105932176
0.14120379 -0.06120144 0.12900607 -0.15468036 0.10215284 -0.0122691095 0.0005767003 0.13192245
-0.047257397 -0.10541825 0.08996082 -0.11336824 -0.033633195 0.07895583 0.17273013 -0.00085330824
0.15941042 -0.14799881 -0.06641993 -0.06339257 -0.05311306 0.054374695 0.12881938 -0.004613878
-0.091372676 -0.035076547 0.1383506 0.0924853 -0.1330518 0.15616788 -0.18340404 -0.15031591
-0.17662951 0.090514995 -0.14462169 0.11440718 -0.017269569 0.015654081 0.013729822 0.15577276
-0.08119886 -0.030027866 -0.02417848 -0.114695475 0.09834983 0.09447375 -0.115550935 0.13091989
-0.021298993 -0.1089381 -0.026938364 0.07947284 -0.17236002 -0.14720525 0.16594236 -0.15270397
-0.18726045 -0.10355801 0.045337968 0.11177217 -0.077743545 0.01785098 0.17068268 -0.1694164
0.13099892 0.16315567 -0.028487444 0.01731723 0.11842905 -0.12633175 -0.16567367 0.044392567
0.0115377 0.05674895 -0.11192193 0.13550243 0.14669445 -0.05157964 0.021427356 -0.17381561
-0.084672295 0.017108561 -0.19520973 0.12687425 0.08528348 0.014302977 0.064833604 -0.032447737
-0.050648764 -0.14669949 0.14558865 -0.11093385 -0.12608735 0.066982426 -0.0041160653 0.033567384
-0.18105222 0.059622813 0.00015382071 -0.09022976 -0.07562695 -0.011612381 0.034078073 0.03217943
-0.08935572 0.107463785 0.010174006 -0.16372347 0.014186926 0.118509375 0.07872775 -0.17857832
0.059033547 0.0037612068 0.12087254 -0.10278349 -0.054627437 0.15665403 0.072915114 0.0044126743
0.1785247 -0.13188216 0.1332815 0.11454093 0.15060757 -0.06513376 -0.089295596 0.11633311
-0.16472484 -0.08170663 0.061400916 -0.15980548 -0.092444636 -0.16951053 -0.11192085 0.015843118
0.162298 0.011005637 0.05906614 0.018836109 0.16094598 -0.117446974 0.0911831 -0.15391612
0.075870275 0.031059643 0.06329635 0.13184635 -0.11683923 -0.012705957 0.11076506 0.02761822
-0.16934809 -0.0067249686 0.09197769 -0.17680883 -0.12818566 -0.16797754 -0.05781469 -0.04319286
0.11890604 0.059216082 0.01414503 -0.1899287 -0.059682168 0.037911788 0.12914573 0.11117775
-0.17271109 0.014307954 0.07989578
00000000: 8d98 2b3e 330e 0c3e b718 c9bd 7148 babd
00000010: 1945 1e3e bb47 373d 99d1 ea3c 1a56 7bbd
00000020: d100 25be ea99 18bd 1e61 103e 0233 923d
00000030: 18e5 f8bd f27d e7bb dfa0 17be 1d26 ed3d
00000040: 86ee 213e d6b2 a93c 9d3d 20be 262b 0dbe
00000050: 0c33 a33d 60a7 563d 35ca 3ebe b8b0 ba3d
00000060: 386e fcbd 7cde b7bc decc 933c fa64 39bc
00000070: cf69 5bbd 814e 8fbc 9279 cebd c37e 5a3d
00000080: 209b a3bc b133 263e 4465 f33c f8e2 2b3e
00000090: 482d 2fbe b2af 66bd 620d f43d 9a27 9b3d
000000a0: 7257 2abe c20a f43d 22f9 7fbd 5e67 d0bd
000000b0: e156 0a3e 1fe9 ecbd 025a 853d 1c0e 2e3e
000000c0: 3c2f fe3d d56a 9dbc 216d aabd 63a8 3cbe
000000d0: 0f5a e53d ec6a 00be 81e2 1dbd 1958 09be
000000e0: 3c02 38be f568 e4bd 3e7e d9bc e3ad 2abd
000000f0: dda8 9839 311e e2bc 8636 35bb 4770 3ebe
00000100: 6aa9 eabd 80a4 8e3c f272 ecba 7ff0 193e
00000110: aaab 0bbe 756b c83d 1261 afbb c167 363e
00000120: d1e6 503d 0a17 203e 6919 113e 1e55 40be
00000130: 5b59 b2bd 3f3e 38bd a155 95bd f8f2 d83d
00000140: ba97 103e 5cae 7abd 2b1a 043e 8764 1ebe
00000150: 8235 d13d 6004 49bc b42d 173a ae16 073e
00000160: f990 41bd 86e5 d7bd 613d b83d 9c2d e8bd
00000170: f6c2 09bd 98b3 a13d 2be0 303e 8cb0 5fba
00000180: 7c3c 233e 008d 17be 2c07 88bd f7d3 81bd
00000190: 148d 59bd 00b8 5e3d 3ae9 033e 0430 97bb
000001a0: 9921 bbbd 6dac 0fbd c8ab 0d3e ef68 bd3d
000001b0: bb3e 08be 79ea 1f3e 45ce 3bbe 6aec 19be
000001c0: 5ede 34be ed5f b93d b517 14be 504e ea3d
000001d0: e978 8dbc fd3c 803c 0cf3 603c e582 1f3e
000001e0: 974b a6bd 00fd f5bc f311 c6bc 76e5 eabd
000001f0: a36b c93d 747b c13d f8a5 ecbd dd0f 063e
00000200: 3a7b aebc f01a dfbd d8ad dcbc a8c2 a23d
00000210: 257f 30be f9bc 16be cbec 293e 6e5e 1cbe
00000220: 34c1 3fbe 3916 d4bd 4eb4 393d cfe8 e43d
00000230: 0238 9fbd 383c 923c 71c7 2e3e 7e7b 2dbe
00000240: 9524 063e 4812 273e 805e e9bc dddc 8d3c
00000250: ee8a f23d 1c5d 01be 5ca6 29be fbd4 353d
00000260: 9f08 3d3c 9671 683d 5337 e5bd 26c1 0a3e
00000270: 1237 163e 2c45 53bd 6c88 af3c b8fc 31be
00000280: ab68 adbd 4127 8c3c 0fe5 47be 53eb 013e
00000290: 1ba9 ae3d 0957 6a3c 7bc7 843d ebe7 04bd
000002a0: 1475 4fbd 6438 16be 3115 153e 4931 e3bd
000002b0: 0b1d 01be 152e 893d 0fe0 86bb f47d 093d
000002c0: c165 39be 0d37 743d ef4a 2139 61ca b8bd
000002d0: 4de2 9abd db41 3ebc 7395 0b3d 94ce 033d
000002e0: 2200 b7bd f915 dc3d e0b0 263c 20a7 27be
000002f0: 4870 683c 0bb5 f23d 043c a13d 3cdd 36be
00000300: 29cd 713d 947e 763b 068c f73d 2780 d2bd
00000310: 05c1 5fbd ea69 203e 8554 953d 3298 903b
00000320: 2ecf 363e 1e0c 07be f27a 083e 6f94 ea3d
00000330: df38 1a3e d964 85bd 9ce0 b6bd 0e40 ee3d
00000340: a1ad 28be ce55 a7bd 877f 7b3d 0ca4 23be
00000350: 9d53 bdbd 2b94 2dbe c236 e5bd 6dc9 813c
00000360: 7231 263e fd50 343c 56ef 713d 2f4e 9a3c
00000370: 06cf 243e 0a88 f0bd 35be ba3d 309c 1dbe
00000380: e061 9b3d cb70 fe3c 84a1 813d bb02 073e
00000390: 6849 efbd a52c 50bc cbd8 e23d 9b3f e23c
000003a0: 9669 2dbe 205d dcbb cd5e bc3d 600d 35be
000003b0: 1a43 03be 4e02 2cbe 19cf 6cbd ffea 30bd
000003c0: 0385 f33d 908c 723d 8ec0 673c ab7c 42be
000003d0: 4a75 74bd 6449 1b3d c73e 043e 29b1 e33d
000003e0: 2ddb 30be e96b 6a3c 66a0 a33d

weight f4 [251]
0.25421238 0.20431474 0.4816331 0.31696162 0.2595277 0.6627301 0.65328693 0.24519764
0.31999916 0.38226357 0.37038273 0.2571983 0.56006294 0.2968623 0.3235655 0.26264307
0.7322452 0.51557416 0.48239684 0.4800905 0.5139922 0.27470914 0.33114362 0.5125014
0.2220134 0.23399639 0.3678519 0.5114193 0.42137092 0.49120837 0.34799957 0.4724064
0.2739633 0.2603432 0.28980827 0.33154544 0.5487847 0.43861726 0.29990798 0.3011062
0.18599448 0.29384264 0.237301 0.41772145 0.41641727 0.3042978 0.49561387 0.2540693
0.65562004 0.3804149 0.43273997 0.37022144 0.33283463 0.37260637 0.38181898 0.7008689
0.75891393 0.3809401 0.29535952 0.45525074 0.32998368 0.32666817 0.28117192 0.54931587
0.5198062 0.48562965 0.3630496 0.29372332 0.42452198 0.43976945 0.41266415 0.2762088
0.23121622 0.517245 0.2974396 0.36208206 0.4314741 0.20651981 0.48943874 0.34843138
0.39808938 0.38462 0.4401867 0.41111326 0.32812276 0.24617139 0.33621696 0.26067123
0.8133304 0.7666579 0.24978396 0.2192893 0.46110272 0.2914326 0.37867233 0.77876097
0.3637373 0.36120605 0.29583833 0.2970726 0.51443183 0.2523165 0.28727412 0.30505377
0.57299876 0.59950286 0.28927314 0.24343303 0.57951325 0.25423062 0.39032516 0.4311862
0.6113036 0.34754902 0.34293222 0.37380654 0.24497096 0.3317674 0.23616354 0.75297755
0.33932155 0.2229383 0.484929 0.39680946 0.6431367 0.70130885 0.6041061 0.35581458
0.36689746 0.27756882 0.26971307 0.41777328 0.55514103 0.34375408 0.20874362 0.28291613
0.50100887 0.4362378 0.5726607 0.48494643 0.18400066 0.44795692 0.32915136 0.6697935
0.80496603 0.36441442 0.6278376 0.85188097 0.34573042 0.276567 0.5205954 0.49224737
0.5157616 0.27940696 0.29152143 0.59923327 0.34508538 0.28149936 0.81179255 0.86546105
0.28973332 0.65682477 0.2277296 0.35627207 0.32726222 0.3095199 0.3264404 0.37071234
0.3370387 0.44142178 0.68736786 0.31927547 0.43322572 0.4122014 0.24542356 0.6945037
0.29082918 0.24818933 0.47541624 0.4545783 0.44470596 0.5362795 0.2136776 0.5134028
0.27212206 0.38094136 0.6662938 0.2536634 0.88176954 0.8917588 0.29341826 0.23949479
0.24767989 0.5159427 0.44062787 0.50524807 0.3641171 0.5322059 0.67796963 0.19562906
0.5391191 0.41150835 0.35141706 0.97670364 0.5083494 0.29513624 0.3802682 0.24822517
0.2589149 0.53585 0.2720411 0.35772294 0.4858 0.46578398 0.70488495 0.34463474
0.4995734 0.3347718 0.39483604 0.21290231 0.39310336 0.7306467 0.26172173 0.25847882
0.5679485 0.42752883 0.24977759 0.39294267 0.33244127 0.35824716 0.36918774 0.51338464
0.2836558 0.5575756 0.4299324 0.6016032 0.21386619 0.55207324 0.2930208 0.14570594
0.20569289 0.25867108 0.3445639 0.5536656 0.41601244 0.5412015 0.7178271 0.35598618
0.20130014 0.36274362 0.5881595
00000000: 2028 823e e237 513e 9d98 f63e cb48 a23e
00000010: d1e0 843e aea8 293f d03d 273f 1715 7b3e
00000020: eed6 a33e 0db8 c33e cea2 bd3e 7faf 833e
00000030: 4960 0f3f 56fe 973e 61aa a53e 2779 863e
00000040: 6c74 3b3f abfc 033f b8fc f63e 6cce f53e
00000050: fe94 033f ada6 8c3e a88b a93e 4b33 033f
00000060: 7b57 633e c09c 6f3e 1657 bc3e 60ec 023f
00000070: eebd d73e aa7f fb3e 002d b23e 40df f13e
00000080: eb44 8c3e b44b 853e c061 943e 53c0 a93e
00000090: 277d 0c3f 7192 e03e 8a8d 993e 982a 9a3e
000000a0: 5675 3e3e 8b72 963e 09ff 723e 96df d53e
000000b0: a534 d53e eccc 9b3e 1ac1 fd3e 5f15 823e
000000c0: b7d6 273f bec5 c23e 1890 dd3e aa8d bd3e
000000d0: 4d69 aa3e 43c6 be3e c77d c33e 256c 333f
000000e0: 2f48 423f 950a c33e 5d39 973e a016 e93e
000000f0: 9ff3 a83e 0d41 a73e c4f5 8f3e f79f 0c3f
00000100: 0512 053f 73a4 f83e a3e1 b93e e762 963e
00000110: f25a d93e 7629 e13e b748 d33e 3d6b 8d3e
00000120: f2c3 6c3e 2b6a 043f 014a 983e d262 b93e
00000130: 2cea dc3e ee79 533e b797 fa3e 9965 b23e
00000140: 5fd2 cb3e eaec c43e 2760 e13e 707d d23e
00000150: b5ff a73e 5a14 7c3e a124 ac3e b376 853e
00000160: 6c36 503f b143 443f 5ec7 7f3e 608d 603e
00000170: a815 ec3e a736 953e 57e1 c13e e15c 473f
00000180: c63b ba3e 00f0 b83e 1f78 973e e619 983e
00000190: ceb1 033f a12f 813e 9815 933e 0230 9c3e
000001a0: 0cb0 123f 0579 193f 9c1b 943e 8246 793e
000001b0: fb5a 143f 842a 823e b3d8 c73e 70c4 dc3e
000001c0: 657e 1c3f f2f1 b13e d094 af3e 9263 bf3e
000001d0: abd9 7a3e 6bdd a93e dbd4 713e 23c3 403f
000001e0: 8ebb ad3e f049 643e 9d48 f83e 9c2a cb3e
000001f0: 9ba4 243f fa88 333f b3a6 1a3f 542d b63e
00000200: fcd9 bb3e 801d 8e3e d517 8a3e 61e6 d53e
00000210: b91d 0e3f 8900 b03e e3c0 553e 62da 903e
00000220: 1e42 003f 905a df3e e499 123f e64a f83e
00000230: ab6a 3c3e 9c5a e53e 8786 a83e 9677 2b3f
00000240: 4112 4e3f 8794 ba3e f7b9 203f df14 5a3f
00000250: 9403 b13e 319a 8d3e bd45 053f d907 fc3e
00000260: f408 043f 6e0e 8f3e 4c42 953e 5a67 193f
00000270: 08af b03e af20 903e a3d1 4f3f db8e 5d3f
00000280: ed57 943e ab25 283f f331 693e 4b69 b63e
00000290: ea8e a73e 6479 9e3e 3223 a73e 02ce bd3e
000002a0: 5690 ac3e 0902 e23e 57f7 2f3f 1378 a33e
000002b0: c3cf dd3e 100c d33e 5050 7b3e ffca 313f
000002c0: 90e7 943e 5825 7e3e c269 f33e 7dbe e83e
000002d0: 80b0 e33e 9d49 093f 4dce 5a3e 5e6e 033f
000002e0: 9553 8b3e bf0a c33e 3b92 2a3f 2be0 813e
000002f0: a6bb 613f 4e4a 643f eb3a 963e 1f3e 753e
00000300: cc9f 7d3e d214 043f fa99 e13e f057 013f
00000310: 8e6d ba3e a53e 083f 6b8f 2d3f fc52 483e
00000320: b603 0a3f 39b1 d23e f0ec b33e 4009 7a3f
00000330: 3023 023f 191c 973e 83b2 c23e bd2e 7e3e
00000340: 7e90 843e 772d 093f f948 8b3e 7627 b73e
00000350: c7ba f83e 3d7b ee3e 5773 343f f773 b03e
00000360: 16c8 ff3e 3667 ab3e f327 ca3e 1003 5a3e
00000370: d844 c93e aa0b 3b3f 6400 863e 5657 843e
00000380: 1365 113f 0fe5 da3e b2c5 7f3e c82f c93e
00000390: be35 aa3e 2c6c b73e 2d06 bd3e 2d6d 033f
000003a0: 553b 913e 46bd 0e3f 1920 dc3e ab02 1a3f
000003b0: bdff 5a3e ac54 0d3f d306 963e f033 153e
000003c0: 28a1 523e 8970 843e ae6a b03e 07bd 0d3f
000003d0: 95ff d43e 2e8c 0a3f 84c3 373f d243 b63e
000003e0: a021 4e3e 88b9 b93e 9f91 163f

bias f4 [251]
0.55093217 -6.164817 -6.3973093 -6.040407 -6.314293 -7.2836976 -6.42657 -6.2672977
-6.004979 -6.4287314 -6.2833233 -6.1895223 -7.2765164 -6.016044 -6.4601965 -6.292649
-7.145175 -6.502453 -6.4070597 -6.631861 -6.628026 -6.066034 -6.514692 -6.701364
-6.18027 -6.098545 -6.0186763 -7.015702 -6.959621 -6.686279 -6.553097 -6.247585
-6.376671 -6.2183003 -6.0436635 -6.3201604 -7.006373 -6.400634 -6.1049976 -6.3615193
-6.1843157 -6.0958343 -6.3224406 -6.5456347 -6.114609 -5.942223 -6.522717 -6.2977324
-6.857022 -6.2739253 -6.4568295 -6.3921742 -6.2329392 -6.2765455 -6.0972166 -6.777964
-7.2683754 -6.191825 -6.2089224 -6.6338277 -6.6193376 -6.393038 -6.1137996 -6.608989
-6.911475 -6.296718 -6.2517824 -6.2204113 -6.634645 -6.5074363 -6.4427667 -6.0881352
-6.148141 -6.236002 -6.0151443 -6.361372 -6.2840333 -6.1369314 -6.6774406 -6.4418826
-6.4877687 -6.3517194 -6.5064244 -6.4947734 -6.1635785 -6.419211 -6.2902117 -6.0249844
-7.0751376 -6.8416314 -6.1564136 -6.180972 -6.8227773 -6.0701265 -6.0154843 -7.0264764
-6.2952323 -6.1094847 -6.1373296 -6.205388 -6.5775127 -6.4657717 -6.085521 -6.2466135
-6.8122444 -6.776496 -6.230391 -6.987935 -7.038763 -6.29941 -6.4247847 -6.5620737
-6.8262014 -6.2820916 -6.3004885 -6.1814055 -6.2993984 -5.956178 -6.252651 -7.0413775
-6.3328485 -6.26255 -6.517227 -6.1696863 -6.7173057 -7.070239 -6.2338815 -6.116729
-6.1902018 -6.0521903 -6.0359554 -6.0885544 -6.470764 -6.0927052 -6.3298535 -6.3418493
-7.1902533 -6.4104013 -6.5862265 -6.427787 -6.2213683 -6.5880704 -6.206187 -6.6379046
-7.082318 -5.9515934 -6.682988 -6.9039516 -6.0283046 -6.258924 -6.492752 -6.3866568
-6.417173 -6.0813937 -6.134658 -6.86103 -6.023146 -6.448067 -7.2719097 -7.548635
-6.1501822 -6.5139313 -6.099356 -6.262919 -6.614155 -6.0562344 -6.1464972 -6.392984
-6.3611445 -6.8063283 -6.812896 -6.197714 -6.6222687 -6.552218 -6.138541 -7.0794444
-6.0625916 -6.244893 -5.955008 -6.3595824 -6.254339 -6.517818 -6.2105985 -6.541271
-6.1091356 -6.213995 -6.8948064 -6.2420664 -7.437308 -7.0687714 -6.329543 -6.0785737
-6.125844 -6.380844 -6.3121653 -6.3548555 -5.9621773 -6.208504 -6.639518 -6.4659605
-6.9762483 -6.6628094 -6.028218 -7.2889404 -6.8715386 -6.6326623 -6.42727 -6.287724
-6.0522466 -6.451124 -6.2214518 -6.4053106 -6.7084975 -6.487179 -6.9990773 -6.5211635
-6.7090664 -6.283932 -6.1208177 -6.1869564 -6.2619414 -6.811204 -6.15367 -6.2060943
-6.821289 -6.7518435 -6.2108073 -6.722944 -6.2396226 -6.234758 -6.136226 -6.659993
-6.1906843 -6.474315 -6.295936 -6.475855 -6.219857 -6.486981 -6.1706147 -6.330195
-6.112999 -6.0272965 -6.2298384 -6.4765267 -7.1480184 -6.6052456 -6.8266907 -6.1440663
-6.3937364 -6.2278547 -6.5826273
00000000: e409 0d3f 2e46 c5c0 c2b6 ccc0 044b c1c0
00000010: b00e cac0 0d14 e9c0 76a6 cdc0 b48d c8c0
00000020: ca28 c0c0 2bb8 cdc0 fc10 c9c0 9110 c6c0
00000030: 39d9 e8c0 6f83 c0c0 eeb9 cec0 615d c9c0
00000040: 46a5 e4c0 1814 d0c0 a206 cdc0 3538 d4c0
00000050: ca18 d4c0 f31c c2c0 5b78 d0c0 9371 d6c0
00000060: c6c4 c5c0 4827 c3c0 ff98 c0c0 a180 e0c0
00000070: 37b5 dec0 fff5 d5c0 f8b2 d1c0 37ec c7c0
00000080: b00d ccc0 51fc c6c0 b165 c1c0 c13e cac0
00000090: 3534 e0c0 fed1 ccc0 245c c3c0 9191 cbc0
000000a0: eae5 c5c0 1311 c3c0 6f51 cac0 d775 d1c0
000000b0: e0aa c3c0 b126 bec0 19ba d0c0 0687 c9c0
000000c0: b96c dbc0 ffc3 c8c0 599e cec0 b18c ccc0
000000d0: 3d74 c7c0 76d9 c8c0 661c c3c0 15e5 d8c0
000000e0: 8896 e8c0 6e23 c6c0 7eaf c6c0 5148 d4c0
000000f0: 9dd1 d3c0 c493 ccc0 3fa4 c3c0 d67c d3c0
00000100: ce2a ddc0 b77e c9c0 9a0e c8c0 9c0d c7c0
00000110: 034f d4c0 eb3c d0c0 252b cec0 01d2 c2c0
00000120: 92bd c4c0 548d c7c0 107c c0c0 5c90 cbc0
00000130: cd16 c9c0 be61 c4c0 98ad d5c0 e723 cec0
00000140: cd9b cfc0 4941 cbc0 a134 d0c0 2fd5 cfc0
00000150: 093c c5c0 2d6a cdc0 6a49 c9c0 accc c0c0
00000160: 8767 e2c0 a5ee dac0 5701 c5c0 86ca c5c0
00000170: 3154 dac0 7a3e c2c0 d97e c0c0 e5d8 e0c0
00000180: 8b72 c9c0 e680 c3c0 0165 c4c0 8a92 c6c0
00000190: fc7a d2c0 9ae7 cec0 97bc c2c0 42e4 c7c0
000001a0: e8fd d9c0 0ed9 d8c0 5d5f c7c0 2a9d dfc0
000001b0: 8c3d e1c0 c494 c9c0 d697 cdc0 82fc d1c0
000001c0: 3e70 dac0 e506 c9c0 9a9d c9c0 13ce c5c0
000001d0: ac94 c9c0 0399 bec0 b815 c8c0 f752 e1c0
000001e0: b2a6 cac0 cf66 c8c0 208d d0c0 126e c5c0
000001f0: 2bf4 d6c0 663f e2c0 f57b c7c0 3ebc c3c0
00000200: 2216 c6c0 8bab c1c0 8c26 c1c0 70d5 c2c0
00000210: 8010 cfc0 71f7 c2c0 298e cac0 6ef0 cac0
00000220: 8e16 e6c0 0222 cdc0 5ec2 d2c0 6eb0 cdc0
00000230: 7315 c7c0 79d1 d2c0 1599 c6c0 b769 d4c0
00000240: 59a2 e2c0 7473 bec0 0adb d5c0 2ced dcc0
00000250: dfe7 c0c0 1b49 c8c0 a0c4 cfc0 7e5f ccc0
00000260: 7b59 cdc0 c79a c2c0 1e4f c4c0 8f8d dbc0
00000270: 9dbd c0c0 9156 cec0 7cb3 e8c0 6b8e f1c0
00000280: 4bce c4c0 2072 d0c0 ed2d c3c0 d569 c8c0
00000290: 28a7 d3c0 accc c1c0 1bb0 c4c0 5393 ccc0
000002a0: 7f8e cbc0 71cd d9c0 3e03 dac0 ac53 c6c0
000002b0: a0e9 d3c0 c5ab d1c0 ee6e c4c0 cf8a e2c0
000002c0: c000 c2c0 2ad6 c7c0 6d8f bec0 b381 cbc0
000002d0: 8c23 c8c0 f791 d0c0 39bd c6c0 1852 d1c0
000002e0: 0a7e c3c0 0cd9 c6c0 41a2 dcc0 02bf c7c0
000002f0: 6dfe edc0 6033 e2c0 9e8b cac0 ad83 c2c0
00000300: ea06 c4c0 e02f ccc0 42fd c9c0 fa5a cbc0
00000310: 28ca bec0 11ac c6c0 ee76 d4c0 26e9 cec0
00000320: 6d3d dfc0 bc35 d5c0 29e7 c0c0 003f e9c0
00000330: a5e3 dbc0 c53e d4c0 32ac cdc0 0935 c9c0
00000340: 01ac c1c0 9c6f cec0 2216 c7c0 4ef8 ccc0
00000350: 03ac d6c0 f896 cfc0 71f8 dfc0 5fad d0c0
00000360: acb0 d6c0 f915 c9c0 bddd c3c0 8cfb c5c0
00000370: d361 c8c0 62f5 d9c0 ddea c4c0 5398 c6c0
00000380: 0048 dac0 1a0f d8c0 efbe c6c0 5b22 d7c0
00000390: fdaa c7c0 2383 c7c0 f75b c4c0 aa1e d5c0
000003a0: 161a c6c0 972d cfc0 4f78 c9c0 343a cfc0
000003b0: 1209 c7c0 5995 cfc0 ad75 c5c0 f590 cac0
000003c0: b09d c3c0 9ddf c0c0 d65a c7c0 b53f cfc0
000003d0: 91bc e4c0 2c5e d3c0 4074 dac0 319c c4c0
000003e0: 7d99 ccc0 964a c7c0 e2a4 d2c0

running_mean f4 [251]
-0.42999417 -0.6494701 -0.6267483 -0.9350788 -0.45661423 -0.7030503 -0.6392345 -0.8040682
-0.9089536 -0.39950916 -0.8612064 -0.81874347 -0.63741434 -1.025099 -0.8680326 -0.46500707
-0.20399512 -0.60009646 -1.1224071 -0.94681585 -0.006969539 -0.92037165 -1.2255646 -0.15234384
-1.0735154 -0.8548633 -1.1129295 -0.56048614 -1.0034065 -0.62447864 -0.54777884 -0.4900425
-0.52235067 -0.715188 -0.95289534 -0.7758757 -0.8949734 -0.9264415 -0.42825338 -0.96290874
-0.6104682 -0.8924659 -0.99014616 -0.91385245 -0.57055646 -0.9549797 -0.84765154 -0.53879946
-0.5185191 -0.8199229 -0.6842226 -1.0222334 -0.74086326 -0.83672345 -0.96866846 -0.16769801
-0.09269342 -1.0941032 -0.9357866 -0.84547615 -0.9019077 -0.8402424 -0.88714975 -1.0776558
-0.46714658 -0.8549097 -0.42031357 -0.86136657 -0.7349502 -0.52699685 -0.761389 -0.8664628
-0.81883556 -0.56010425 -0.77182996 -1.1004612 -0.66372347 -0.6665768 -0.7820095 -1.0740273
-0.77198905 -0.95929724 -0.5212016 -1.1407211 -0.83050066 -0.8945435 -0.7247497 -0.57944787
-0.20066778 -0.70545435 -0.6153332 -0.98786044 -0.64436346 -0.65479004 -0.7312247 -0.62909603
-0.78355914 -1.062951 -0.8132374 -0.84290314 -0.96767175 -0.50141025 -0.52352345 -0.7705442
-0.4578318 -0.22894096 -0.66064334 -0.40199837 -0.39893135 -0.6714377 -0.70693576 -0.92411375
-0.7144273 -0.8283474 -1.0884966 -0.7791045 -0.64866376 -1.048356 -0.825052 -0.45376244
-0.6116584 -0.71922344 -0.4357869 -0.6966159 -0.15910599 -0.08882897 -0.81661433 -0.64832747
-0.87532693 -0.9554529 -0.645958 -0.72998536 -0.70789456 -1.1149843 -0.5699647 -1.073597
-0.7590929 -0.63340336 -0.7702613 -0.66892344 -0.9795377 -0.8009923 -0.6856531 -0.88632524
0.03505681 -0.60895574 -0.4763552 -0.4660873 -0.67611164 -0.93996704 -1.1535556 -0.5612471
-0.7709914 -0.75644016 -0.90093815 -0.24828677 -0.76670057 -0.9557656 -0.75657094 -0.49900317
-0.889324 -0.40359482 -0.79245025 -0.75415075 -0.49038133 -0.7136525 -0.713184 -0.83306724
-0.5192885 -0.70680666 -0.24983877 -1.0606567 -1.0039681 -0.30784565 -0.8786429 -0.8139652
-1.1348027 -0.7798161 -0.9160122 -0.57195735 -1.0989059 -0.3926509 -0.8339331 -0.54077184
-0.96828085 -0.6911859 -0.6485871 -1.0095768 -0.48828444 -0.09209202 -0.83565885 -1.0924654
-0.9554154 -0.8402234 -0.51418734 -0.69912547 -1.0163147 -0.4838007 -0.49217987 -0.6295859
-0.42456183 -0.50851697 -0.9628018 -0.018250773 -0.49478903 -0.96842426 -0.8321559 -0.9071256
-1.0379138 -0.6157442 -1.0209507 -1.0427523 -0.9993578 -0.72025806 -0.565673 -0.88566893
-0.61492264 -0.92651206 -0.34180096 -0.8749787 -0.80753154 -0.41138354 -0.6188419 -1.1229911
-0.64147776 -0.38299206 -0.31325614 -0.6440367 -1.0018901 -1.103889 -0.7218484 -0.5729675
-0.86224896 -0.66144824 -0.90551555 -0.48106375 -1.0531058 -0.46536192 -1.0324445 -1.0247674
-0.75052255 -1.002478 -0.9371945 -0.8116394 -0.4456926 -0.27692392 -0.14969851 -0.5852844
-1.1419072 -0.6651047 -0.47560662
00000000: 3228 dcbe ac43 26bf 9472 20bf 5361 6fbf
00000010: 57c9 e9be 1bfb 33bf dfa4 23bf 6ad7 4dbf
00000020: 2fb1 68bf 778c ccbe 0678 5cbf 2c99 51bf
00000030: 962d 23bf 7236 83bf 6237 5ebf 6815 eebe
00000040: 19e4 50be ec9f 19bf 09ab 8fbf 8662 72bf
00000050: bb60 e4bb 7a9d 6bbf 4ddf 9cbf 0600 1cbe
00000060: f468 89bf 52d8 5abf 7974 8ebf 057c 0fbf
00000070: a06f 80bf d5dd 1fbf 3c3b 0cbf dae6 fabe
00000080: c6b8 05bf 9016 37bf f3f0 73bf ca9f 46bf
00000090: fa1c 65bf 452b 6dbf 0744 dbbe 3081 76bf
000000a0: a547 1cbf a578 64bf 387a 7dbf 3cf2 69bf
000000b0: fd0f 12bf 8d79 74bf b1ff 58bf c3ee 09bf
000000c0: abbd 04bf 78e6 51bf 3629 2fbf 8bd8 82bf
000000d0: 37a9 3dbf 8233 56bf a8fa 77bf 07b9 2bbe
000000e0: 0cd6 bdbd 930b 8cbf b68f 6fbf 2071 58bf
000000f0: 6ce3 66bf 201a 57bf 3f1c 63bf a0f0 89bf
00000100: d62d efbe 5ddb 5abf 5733 d7be 8582 5cbf
00000110: b225 3cbf 44e9 06bf 64ea 42bf 82d0 5dbf
00000120: 359f 51bf fe62 0fbf a696 45bf eadb 8cbf
00000130: c8e9 29bf c7a4 2abf c631 48bf ba79 89bf
00000140: 13a1 45bf 8194 75bf 786d 05bf 2603 92bf
00000150: b19b 54bf ce00 65bf 3289 39bf b256 14bf
00000160: db7b 4dbe a898 34bf 7a86 1dbf 6ce4 7cbf
00000170: 01f5 24bf 52a0 27bf 8b31 3bbf 700c 21bf
00000180: 5597 48bf c70e 88bf 5430 50bf 80c8 57bf
00000190: 56b9 77bf 6c5c 00bf a205 06bf 6242 45bf
000001a0: ee68 eabe 806f 6abe ec1f 29bf bbd2 cdbe
000001b0: bb40 ccbe 57e3 2bbf bef9 34bf b892 6cbf
000001c0: b5e4 36bf 930e 54bf db53 8bbf 6473 47bf
000001d0: d40e 26bf 8830 86bf 9c36 53bf 8d53 e8be
000001e0: a595 1cbf 071f 38bf 761f dfbe 6b55 32bf
000001f0: aeec 22be f7eb b5bd a30d 51bf caf8 25bf
00000200: 6d15 60bf 9098 74bf 815d 25bf 52e0 3abf
00000210: 9438 35bf ceb7 8ebf 35e9 11bf a06b 89bf
00000220: ea53 42bf b926 22bf d82f 45bf 913e 2bbf
00000230: fcc2 7abf d50d 4dbf f686 2fbf 36e6 62bf
00000240: bb97 0f3d 86e4 1bbf d4e4 f3be ffa2 eebe
00000250: a715 2dbf aea1 70bf b6a7 93bf e4ad 0fbf
00000260: b15f 45bf 10a6 41bf e2a3 66bf e33e 7ebe
00000270: 7d46 44bf 0ead 74bf a2ae 41bf 587d ffbe
00000280: bdaa 63bf fba3 cebe 05de 4abf 0610 41bf
00000290: 4313 fbbe eeb1 36bf 3a93 36bf e543 55bf
000002a0: 17f0 04bf 48f1 34bf bcd5 7fbe 99c3 87bf
000002b0: 0782 80bf f29d 9dbe beee 60bf 0660 50bf
000002c0: 3741 91bf 07a2 47bf c77f 6abf cc6b 12bf
000002d0: f3a8 8cbf 8a09 c9be a47c 55bf 0670 0abf
000002e0: 41e1 77bf 8ff1 30bf ce09 26bf d039 81bf
000002f0: 6b00 fabe be9a bcbd bded 55bf e8d5 8bbf
00000300: 1b96 74bf e118 57bf c8a1 03bf e3f9 32bf
00000310: 9a16 82bf bab4 f7be 00ff fbbe 8b2c 21bf
00000320: 2b60 d9be 2b2e 02bf 2e7a 76bf a582 95bc
00000330: fd54 fdbe a7ea 77bf 2b08 55bf 6239 68bf
00000340: 5cda 84bf 69a1 1dbf 83ae 82bf e878 85bf
00000350: ead5 7fbf d562 38bf f2cf 10bf 33bb 62bf
00000360: 926b 1dbf e52f 6dbf 8900 afbe 9bfe 5fbf
00000370: 63ba 4ebf dda0 d2be 6c6c 1ebf 2cbe 8fbf
00000380: e337 24bf 8917 c4be 1c63 a0be 97df 24bf
00000390: ef3d 80bf 3c4c 8dbf 0fcb 38bf 00ae 12bf
000003a0: 59bc 5cbf ac54 29bf decf 67bf fd4d f6be
000003b0: 2ccc 86bf eb43 eebe 2427 84bf 942b 83bf
000003c0: 3f22 40bf 3351 80bf fbeb 6fbf 9ac7 4fbf
000003d0: d231 e4be f9c8 8dbe 914a 19be 33d5 15bf
000003e0: 042a 92bf 4d44 2abf b682 f3be
