EXP7_dump/bottleneck_model_Large.pth (torch, 77664 bytes, 19 tensors)

weight f4 [30, 251]
00000000: 21e0 24bd 86a7 3b3d e449 f1ba 6ebd 9d3c
00000010: 6698 c53c f078 f03c 38b4 193d 5e4a 1f3d
00000020: 79cc 2e3d 1d2f af3c bd59 093d a767 f53c
00000030: 12f6 813d d619 3c3d d13d fe3c be83 04bc
00000040: 3a8c 5e3d 8160 083d 79b7 613d ec09 ad3c
00000050: 8709 263d 9e0b cab9 772a c53c 8d07 e33c
00000060: e68f 1c3d 6cd6 f43c 1ed0 053d 6c20 033d
00000070: 1859 873d a153 f13c 599f e13c 2302 2c3d
00000080: 1d1a 8bbb 60db 4a3d 8c9d 463c 44ba 003d
00000090: a4b0 b73c e3db 7e3d 42e3 523d 980b 7f3d
000000a0: 5a4b 0c3d 9f79 613d 70c9 8c3c 82f5 823d
000000b0: 153e cf3c 2150 133d 37b3 f43c c572 d33c
000000c0: ad62 093d 22b4 4d3c fbf9 353d ff21 243d
000000d0: ad53 573d 700a fa3c 5271 223d 3b79 aa3c
000000e0: c2d0 ee3c fc43 663d cc7f 353d 49d8 053d
000000f0: fbc8 f63c fa02 2b3d 52cd 663c 0bc6 b13c
00000100: 6f57 c73c adf9 073b 8c79 613c 6410 6b3d
00000110: d3e7 183d c101 3e3d bd74 283c 16ce 113d
00000120: 380c ce3c 905f 2c3d 2ac1 903b 1608 513c
00000130: bf29 083d 7c22 0c3d 668b fe3c c9f8 43bc
00000140: 6660 513d 6daa c23c 0249 b73c 69b3 0e3d
00000150: f9ca f83c f4cc 343d 629c 893c 6e4f 0e3d
00000160: 07b5 5a3c 4ddb 653c 9af7 003d 7ad5 8d3c
00000170: 000f 9c3c 0ee2 d23c b437 ab3c 1684 9a3c
00000180: 4f99 063d ad81 423d a638 cc3c 2c90 bf3c
00000190: f8ef 773d 1961 1a3d eb58 8e3b 6b73 9d3c
000001a0: d067 693d d249 233d 72f3 e93a c0f8 383d
000001b0: 2fc3 de3c d232 3d3d af8b 523d ad93 f43c
000001c0: 9645 233d fc52 673d 22d9 9b3c 84ca ed3c
000001d0: 7e85 303d 2847 3a3d 5ad7 493d b74f 2bbc
000001e0: e499 9c3c adc9 713d 3e5f 433d 746b 743c
000001f0: a530 0d3d 38ed 603d 5a1c 803c 8bef cb3c
00000200: d95a 073d 2c7e 253d fdf6 393d 4a00 223d
00000210: 34aa 6a3d adf9 2f3c 9dd7 173d 0695 803d
00000220: d9a8 a23b 66a2 fa3c 65c1 b63c 69a3 9e3c
00000230: 7643 483c 2c3a d53c e655 bf39 64ac af3c
00000240: 8c17 4f3d a1f3 173d babb be3c c14d 223d
00000250: e5f6 1b3d ffba 303d 3763 983c a938 293d
00000260: b606 9cbb 0b75 0a3d e67b 1d3d 05e2 8d3c
00000270: 8360 4d3d e54a 2e3d 93ba 143d d77e 383d
00000280: a891 e63c bb88 1c3c fb75 bc3c 6a45 563c
00000290: 05fe d93c 6c01 7c3d ee86 d23c 7166 243d
000002a0: bf59 913c 87b6 153d a767 0dbc bbf3 443d
000002b0: 6de4 853c 6a59 b23b ca57 c23c 04f2 863b
000002c0: 0532 d13c 9352 193c 62bd 093d e401 2c3d
000002d0: ae84 4c3d 0b54 e03c 3490 133d dba4 2e3d
000002e0: 14fd db3b 0208 693c 6598 6b3d 57d3 fb3b
000002f0: 65be c43c 59fc 483d b4d2 303b a9d4 983c
00000300: 0d51 063d c238 153d 8cd8 953c 7154 ee3c
00000310: 9a7a f43c f046 233d 7b2e 093d b337 f33c
00000320: cc25 893b 9bdd 233d 261d f93c f4ba d6ba
00000330: c51f 3f3d 8ae7 aa3c 4697 2c3d 2286 a03c
00000340: 8402 cf3c afdd 323d 2ac5 1b3d cde6 b93c
00000350: ce25 193d bc22 b33c c05e 0f3d efd9 ff3c
00000360: 90a2 033d 3b08 123d 0dc3 c83c 4d82 163d
00000370: 02e3 453d d806 943c 5278 e13c 97f9 063d
00000380: f1fe 073c 981d 033d 00c7 143d d06b 373d
00000390: 660a 593c b050 8f3c 68ab 1b3d a8cf 1a3d
000003a0: 0a68 163d 1dc1 893d cec8 423d d23e 213d
000003b0: fc18 bb3c b9c9 053d a483 843c 6aaf 2b3d
000003c0: e49c d83c 2b09 353c 23a8 f63c 671a a23b
000003d0: ba80 8f3c be2a c13c acea 413d 700f 923c
000003e0: 5bc2 643d 4e71 9a3c a045 dd3c c00b 2f3c
000003f0: 428b 4b3d 3707 4c3c 3ec6 9c3c 62d5 913c
-0.04025281 0.04581406 -0.0018408862 0.019255366 0.02412052 0.029354542 0.037525386 0.03888928
0.04267547 0.02138477 0.033532847 0.029956652 0.06345762 0.045923077 0.031035336 -0.00808805
0.05433295 0.03329516 0.055106614 0.021122895 0.04053643 -0.00038537098 0.0240681 0.027713561
0.03822317 0.0298874 0.03266918 0.03201334 0.0660879 0.029458823 0.027541803 0.041994225
-0.0042450563 0.04952562 0.012122523 0.031427637 0.022423096 0.06222142 0.05148626 0.062266916
0.03425155 0.055047628 0.017185897 0.06394483 0.025298158 0.03596509 0.029870613 0.025811562
0.03354137 0.012555154 0.044427853 0.040071484 0.052570034 0.030522555 0.039658852 0.02080976
0.029152278 0.05621718 0.04431133 0.03267697 0.030125132 0.041750886 0.014087038 0.02170088
0.024333684 0.0020748184 0.013761889 0.05738868 0.03733046 0.04638839 0.010281739 0.03559693
0.02515231 0.042083323 0.004417558 0.0127582755 0.033242937 0.034212574 0.03107233 -0.0119611705
0.051117323 0.023762906 0.02237368 0.034839068 0.030370222 0.04414077 0.016798202 0.03474372
0.013348824 0.014029336 0.03148613 0.017313708 0.019050121 0.025742557 0.020900585 0.018861812
0.03286105 0.04748695 0.024929356 0.023384176 0.060531586 0.037690256 0.004344096 0.019220075
0.05698377 0.039865322 0.0017849042 0.0451591 0.02719268 0.046191044 0.051402744 0.029855574
0.039861284 0.056475624 0.019024435 0.029027231 0.043096058 0.045478016 0.04927764 -0.010456017
0.01911635 0.059030224 0.047698252 0.014918197 0.03447022 0.05491373 0.01563852 0.024894496
0.033045623 0.04040353 0.045401562 0.039551057 0.057291225 0.01074068 0.03707086 0.06278424
0.004963976 0.030595016 0.022309015 0.01936503 0.012223115 0.026028715 0.00036494358 0.021444507
0.050559565 0.037097577 0.023282874 0.039624933 0.038077254 0.043147083 0.018601997 0.0413138
-0.004761542 0.033803027 0.038448237 0.017319689 0.05014087 0.042551894 0.036310744 0.04504284
0.028145626 0.009554083 0.023005476 0.013078073 0.026610384 0.061524794 0.025699105 0.04013676
0.01774299 0.036551025 -0.00863067 0.048084002 0.016344273 0.005442788 0.023723502 0.004118206
0.025536546 0.009358066 0.033627875 0.04199399 0.04993122 0.027383825 0.036026195 0.042637687
0.006713519 0.014223101 0.05751838 0.007685106 0.024016568 0.049068782 0.0026981058 0.018656092
0.03279214 0.03643108 0.018291734 0.029093 0.029843617 0.039862573 0.033491593 0.029689645
0.004185414 0.04000626 0.030409407 -0.0016382621 0.046661157 0.02086236 0.042136453 0.01959521
0.025269754 0.043668445 0.038029827 0.022693062 0.03738957 0.021867149 0.03500247 0.031231849
0.032137454 0.03565238 0.02450707 0.03674536 0.048312195 0.01806967 0.027523194 0.03295287
0.008300529 0.032010645 0.036322594 0.044780552 0.013247108 0.01749453 0.038005263 0.037795693
0.036720313 0.067262866 0.047554784 0.03936655 0.022839062 0.03266308 0.016176052 0.041915335
0.026441999 0.011049549 0.03010947 0.004946995 0.017517436 0.023579951 0.04734294 0.017829627
0.055849414 0.018852856 0.027010739 0.010683954 0.049693353 0.012452892 0.019137498 0.017801944

bias f4 [30]
00000000: 6893 7e3d e842 f2bb a2ea 423c 9b3d 513d
00000010: 809e 113c db67 283d 68d3 273d 5f41 603d
00000020: 0c38 c1bc 2183 383d ec26 573d fa2f 4b3d
00000030: 55bb 1b3d 6fe4 993c d572 383d 38d4 29bd
00000040: 0a31 c9bb 672b 79bd 871c f1bc f28c bb3c
00000050: 68a7 c93c a5bb 5bbd 8fb0 913c 954c 693d
00000060: 7bfb 8cbc 445c afbb ceee 54bc 4635 d83a
00000070: ac22 72bd ad46 0bbd
0.062152296 -0.0073932298 0.011896761 0.051084142 0.008887887 0.04111467 0.040973097 0.054749843
-0.023586296 0.04504693 0.052527353 0.0496063 0.03802045 0.018785683 0.045031387 -0.041462153
-0.006139879 -0.060832407 -0.029432548 0.022894356 0.024615958 -0.05364575 0.017784385 0.0569578
-0.017209759 -0.005351575 -0.012996389 0.0016495369 -0.059115097 -0.03400295

weight f4 [30]
00000000: 1e16 743f e0d4 633f 139b 783f 33d4 5e3f
00000010: 0632 693f 2454 7c3f e1d2 613f 421b 723f
00000020: cb3d 563f 20a6 4e3f 86c2 543f 1363 563f
00000030: e61b 6f3f b6e6 693f 375b 753f c3ae 733f
00000040: 7ed5 823f 91fa 6a3f 1a66 5e3f 9f1f 683f
00000050: 4e5e 783f 5f9a 7c3f ac75 6f3f f96f 763f
00000060: fda3 693f f56a 5a3f 0964 6d3f 875a 623f
00000070: e0fb 7a3f 5a72 513f
0.9534625 0.88996696 0.97111624 0.8704254 0.91091955 0.9856589 0.882124 0.9457284
0.8368804 0.80722237 0.8310932 0.83744925 0.93401945 0.9136766 0.9584231 0.9518854
1.0221403 0.91788584 0.86874545 0.9067325 0.970189 0.9867305 0.9353893 0.96264607
0.9126585 0.85319453 0.92730767 0.88419384 0.9804058 0.8181511

bias f4 [30]
00000000: a8b0 a0be 3552 8cbe d998 51be 6385 75be
00000010: 3a03 40be bce4 6dbe 6cc5 8abe 431e 9ebe
00000020: 654d 71be 565c 86be 8b89 7cbe 2b5d a0be
00000030: f480 60be efef 66be 4804 71be e729 adbe
00000040: 9806 92be 2fe7 4fbe 661b 8bbe ed6b 55be
00000050: 99a8 98be 05e0 71be 45f6 89be 237d 7d3e
00000060: 9155 88be 5b8e 88be 0217 b1be e7a8 5ebe
00000070: 5e43 a0be fb2b 84be
-0.31384778 -0.2740647 -0.20468463 -0.23976664 -0.18751231 -0.23231786 -0.27103746 -0.30882463
-0.2356468 -0.26242322 -0.24661843 -0.31321082 -0.21924192 -0.22552465 -0.2353679 -0.3382103
-0.28520656 -0.20303033 -0.2716934 -0.20841952 -0.2981613 -0.23620613 -0.269457 0.24754767
-0.26627782 -0.2667111 -0.34587866 -0.21744119 -0.31301397 -0.25814804

running_mean f4 [30]
00000000: eb3a 7740 4094 8a40 35a2 8840 156d 8c40
00000010: f0b9 8c40 f85e 8d40 db95 8d40 f1ae 8340
00000020: 6f6c 7640 8089 8b40 9818 8b40 5ad0 8040
00000030: b900 8340 4449 8c40 4c2c 8540 7ec1 8640
00000040: dbd7 8240 d2e9 8440 1ffe 8640 e459 8740
00000050: cf71 8040 5c8c 7c40 8bc0 8940 c3ce 84c0
00000060: d72e 8040 35bd 8740 5041 8140 3af5 8840
00000070: 0c14 8540 727a 8240
3.862971 4.330597 4.2698007 4.3883157 4.3976974 4.417843 4.424543 4.115105
3.8503683 4.3605347 4.346752 4.0254335 4.093838 4.3839436 4.1616573 4.2111197
4.0888495 4.1535425 4.2185206 4.229723 4.0138927 3.9460669 4.304754 -4.1502395
4.0057178 4.2418466 4.0392227 4.279935 4.158697 4.077447

running_var f4 [30]
00000000: 2597 9c40 8bca cb40 2e56 c440 86bb cb40
00000010: 659d d040 4c6a cf40 ad0e d040 b894 b240
00000020: b4b6 a240 08b1 c940 c6c7 c740 6382 ab40
00000030: f422 b240 9151 ce40 bb98 b740 37e2 c340
00000040: 60c5 b540 f052 c040 0e65 c340 46a2 bf40
00000050: 6a9f ac40 f17d ad40 e502 c740 b4b9 bf40
00000060: 2788 af40 cb53 c340 0bf0 b140 053a c640
00000070: 36be c040 1d1e b740
4.8934503 6.3684745 6.13552 6.366641 6.519213 6.4817257 6.5017915 5.580654
5.0848026 6.3028603 6.2431364 5.3596663 5.5667667 6.447457 5.737394 6.121364
5.6803436 6.010124 6.106086 5.988559 5.3944597 5.4216237 6.2191033 5.991419
5.48537 6.1039786 5.560552 6.1945825 6.023219 5.722426

weight f4 [30, 30]
00000000: 3c6b 7c3e 70cb b2bc 2ceb a5bd a07f 6ebc
00000010: a3bd 243e cb4c d93d 1547 12bc d62c 08bd
00000020: 7fa9 e03c 8f65 103e e8c8 dcbc 5230 af3d
00000030: 8814 4dbb 8864 c3bc 1f7b ef3d 73ac 49bc
00000040: 6fa8 b23d 6d19 f63d 3b64 15be b107 9cbd
00000050: cb52 733e 587d ae3c d40b 9b3d 4f2c 003c
00000060: b014 2b3e c0ba 1e3d f5f2 723d bb34 a43d
00000070: e907 803d 793a 613c d5de c7bc 0f05 dabc
00000080: 2ade 783d 791c b2bc 7b31 0bba c499 b43c
00000090: f2e3 95bd 7058 533d c068 f13d f877 11bd
000000a0: cbd1 96bd cb95 453d 2e18 0cbd 2486 273e
000000b0: f239 7b3e e17a 1b3e 4962 143e 28cc 8fbd
000000c0: 23d7 b3ba 4e47 f23d e067 3e3e 23ac 06bd
000000d0: 1696 4abd a94c 563b 012f 3f3e 4495 8c3c
000000e0: 846b 22bc 6a4a ca3c e02a 6d3e 20c2 4c3d
000000f0: 341d 093e 01b1 30be d98e 7fbc 7550 0e3d
00000100: a925 233e 92d7 b53d 32b1 253b 8ec0 3e3e
00000110: 79fe ce3d 4582 86bb 9f1c 523d 2a75 d8bd
00000120: e1c2 973c c7f0 a4bd feb5 af3d 1961 50bd
00000130: a4d4 bebd 046d 2ebd 2f00 17be 3b9e c23d
00000140: 36e3 053e 6e2c eebb f344 5a3d 2206 2c3d
00000150: 8a65 da3d 01f3 e5bd ec56 91bc 10e7 a63c
00000160: c1e6 05bc 97cf 47bc 6bbb 1e3c 32cf 7a3d
00000170: 46da 6a3d 2f6b a73d 90ad eebb 67c5 cf3d
00000180: ac17 8dbd e53b 253e 16c1 593e 45b3 d3bd
00000190: 9d27 a1bd 3212 cf3d 7755 4d3c e2ef f73d
000001a0: c93c 18bd cfcc 63bd 8ce5 2b3d 6f55 b93d
000001b0: 6cbc 00be 32a7 6abd ea3b 3b3e b9d4 3c3e
000001c0: 775c 9f3d 5333 3f3c ced8 2a3e 9790 343e
000001d0: b7c3 453e ab02 c3bd 950a 993c 9fd0 243d
000001e0: 2264 803c efdc 473d 1403 133c d350 45bc
000001f0: 7136 a23d 0be2 b03d 446f 38bd 8859 03bd
00000200: 65bb 9d3d a4a3 fdbd 79f1 aebd d2a0 46be
00000210: dc06 b2bc 334f 5bbd 88c8 37bd 1947 103e
00000220: f337 003c a590 103d fc41 26be 037a d33d
00000230: 8b22 523d e464 343d 27b1 1a3e 38ab 383d
00000240: 90d8 be3d 5ab0 aebd 10d1 8c3d ce30 993d
00000250: 545b 9ebd 154b 913d e4e2 31be c413 c63d
00000260: c968 4a39 0374 0abe 6938 abbd 762b aebd
00000270: bfa8 37be a3a4 0ebe b6f7 07bd f14b d4bd
00000280: 7715 d0bd 0013 9fbd 6ac3 a1bd 0b2f 7f3d
00000290: d26a 02bd 39b0 75be 6e24 41bd fc15 11be
000002a0: fa61 25be 6f9c 0f3c 6b85 f5bd 890a 42bd
000002b0: ae47 f1bd 59a4 42be 4858 e8bc 19d8 7f3d
000002c0: 1c4d 38bd 0370 bbbd db1a 55be fedb f4bd
000002d0: ce9d bf3d 1924 ae3d 7160 c13d 0fd5 b1bd
000002e0: 31c1 2b3d 4016 1d3e c804 903d a3fd 90bd
000002f0: 5383 01bd 089e b53c 9138 08be 6121 173e
00000300: 79f8 e23d 9785 0b3d 5316 10bc 90f7 bb3c
00000310: b46c 643d ac53 17bd a1ce 283e 6ed4 36bd
00000320: 01ae 573d e390 583e 9a7a debc 3ea3 303b
00000330: 12c4 c13d b735 babd ec9b e13d 286c d9bd
00000340: 6a00 363e 73e0 cc3b d9bd 873e bc80 6cbd
00000350: a200 253e 2a9b 52bd ec29 f23d 77cb cabd
00000360: b879 443d e92f 5abb 8684 98bd c7ce ab3d
00000370: 6e88 c33c 2743 643e fe8c f2bc c596 763d
00000380: 41d8 833d 4e05 383e 9a0d fe3d 82a9 8cbb
00000390: 379e 0f3e bc17 953c fe01 4d3e e8b4 a63d
000003a0: 2ebe 7fbc a941 06bd 3b7f b23d 1182 d2bd
000003b0: 8771 013e 82bd c7bd be03 9a3d fc5b b7bd
000003c0: b2db 3c3c 209e 2d3e 1273 e2bc b12f 9ebd
000003d0: 6cd4 173e 0eef fb3c 2af3 4cbd 771e 353e
000003e0: 7d88 8a3d 0bb2 b0bc 26bd 0cbe 8175 023c
000003f0: 69ed 163c 4952 abbb a796 ff3d f74e 313e
0.24650282 -0.021825522 -0.08101496 -0.014556795 0.16087966 0.1061035 -0.00892808 -0.033245884
0.027424572 0.14101242 -0.026951268 0.08554138 -0.0031292755 -0.023851648 0.11693405 -0.0123091815
0.087235324 0.12016568 -0.14589016 -0.076186545 0.23762052 0.021300003 0.075706154 0.007823064
0.1670711 0.038752317 0.059313733 0.0801787 0.06251509 0.013746851 -0.024398247 -0.02661374
0.060758747 -0.021742092 -0.00053098024 0.022045977 -0.07318868 0.051598012 0.117875576 -0.0355148
-0.073642336 0.048238557 -0.034202747 0.16359764 0.24533823 0.15183593 0.14490618 -0.070213616
-0.0013720732 0.118300065 0.18594313 -0.032879006 -0.04945954 0.0032699502 0.18670274 0.01716102
-0.009913329 0.024693687 0.23160887 0.04998982 0.13390046 -0.17255022 -0.015598022 0.0347447
0.15932335 0.088790074 0.0025282619 0.18628141 0.101071306 -0.004104885 0.051296826 -0.10569222
0.018525543 -0.08053737 0.08579634 -0.05087385 -0.09317902 -0.042584434 -0.14746164 0.09502836
0.13074955 -0.00726848 0.05328841 0.041998036 0.10663898 -0.1122799 -0.017741643 0.020373851
-0.008172692 -0.012195489 0.009688239 0.061232753 0.057337068 0.081747405 -0.007283874 0.101450734
-0.06889281 0.16136129 0.21265063 -0.10336927 -0.07868884 0.10110892 0.012532583 0.12106301
-0.037167344 -0.055615243 0.04196696 0.09049498 -0.12571877 -0.057288356 0.18284574 0.18440522
0.07781308 0.0116699515 0.16684267 0.17633282 0.1931294 -0.09521993 0.018681804 0.04023802
0.015672747 0.048794683 0.008972902 -0.012043196 0.0792054 0.08636864 -0.045027986 -0.032067806
0.07701758 -0.123847276 -0.08542151 -0.19397286 -0.021731786 -0.053542327 -0.044868976 0.14089622
0.007825839 0.035294194 -0.16236109 0.10326006 0.051302474 0.04404153 0.15106641 0.045085162
0.0931865 -0.0852973 0.06875813 0.07480012 -0.07732263 0.07094399 -0.17371708 0.09671739
0.00019303257 -0.13520817 -0.08360369 -0.08504383 -0.17935465 -0.13929991 -0.03319522 -0.10366047
-0.10160344 -0.07767296 -0.078986004 0.062300723 -0.031840153 -0.23993005 -0.047153883 -0.14168543
-0.16150656 0.008765324 -0.11988338 -0.04737333 -0.1178125 -0.19008006 -0.028362408 0.062461946
-0.044995412 -0.09152224 -0.20811026 -0.11956023 0.09356271 0.08502979 0.09442223 -0.08683216
0.04193229 0.15340519 0.07032162 -0.07079627 -0.03161938 0.022170082 -0.13302828 0.14758827
0.11082549 0.034062948 -0.008794385 0.022945195 0.05576773 -0.03694503 0.16485073 -0.044636182
0.052656177 0.2114902 -0.02715807 0.0026952769 0.094612256 -0.090922765 0.11016068 -0.10616332
0.17773595 0.0062523424 0.2651203 -0.05773996 0.16113523 -0.051417507 0.11824402 -0.09902089
0.047967643 -0.0033292717 -0.07447152 0.08389049 0.023868766 0.22291242 -0.029608246 0.06020238
0.064377315 0.17970774 0.12404938 -0.004292668 0.14025198 0.018199794 0.20020291 0.08139974
-0.015609307 -0.032777462 0.087156735 -0.102787144 0.12640963 -0.097529426 0.07520245 -0.089530915
0.011526989 0.16954851 -0.02764276 -0.0772394 0.14827126 0.030753639 -0.050036587 0.17687403
0.06764314 -0.021569273 -0.1374403 0.007962585 0.009211876 -0.005228315 0.124799065 0.17315279

bias f4 [30]
00000000: 258a d23d c910 193e 86e2 943d e87f 333e
00000010: 5744 22be 8828 0cbd 3949 8fbb e5a7 743c
00000020: 0ba3 f53b 6cf7 38be eb57 813d f295 983d
00000030: 214f 203d b0af 98bb 8b03 9d3d 3e4a dfbd
00000040: 8790 5a3c 6d3b 353d da9f ba3c 9bb1 22be
00000050: 3113 34be 308e 383d 90d6 07be 1f4b 9a3d
00000060: d2d7 e6bd 376c 13be f57c 763d 3841 0fbe
00000070: be1f 5539 0144 de3c
0.10280255 0.1494781 0.072697684 0.17529261 -0.15846382 -0.03421834 -0.0043727425 0.014932607
0.007496243 -0.18063134 0.06315597 0.07450475 0.039137963 -0.0046596155 0.076666914 -0.109028324
0.013340122 0.044246126 0.022781301 -0.15888064 -0.17585446 0.045057476 -0.13265443 0.075338595
-0.11271633 -0.1439675 0.060177762 -0.13989723 0.00020325088 0.027132036

weight f4 [30]
00000000: 4241 7b3f d91a 7e3f 604b 843f ffda 763f
00000010: 2b5f 823f 1195 653f e471 703f 416d 853f
00000020: 70d4 863f 50e5 873f 8963 643f f907 7f3f
00000030: 1ece 843f 75c2 813f f1d6 813f 9267 863f
00000040: 0b52 733f 99d4 843f 2313 803f 3eeb 863f
00000050: e4d7 843f 24d6 833f 13fa 853f 41b5 833f
00000060: bcc8 623f 1a9b 803f 946c 7b3f 31ce 7e3f
00000070: 88a5 7e3f acb9 843f
0.9814645 0.99259716 1.0335503 0.9642791 1.0185293 0.8968058 0.93923783 1.0423967
1.0533581 1.0616856 0.8921438 0.9962154 1.0375402 1.0137469 1.014372 1.0500357
0.9504706 1.037738 1.000584 1.054054 1.0378385 1.0299726 1.0466942 1.0289689
0.88587546 1.0047333 0.9821255 0.99533373 0.9947133 1.0369163

bias f4 [30]
00000000: c82e 92bd db56 95bd 7c22 31bd 18a7 92bd
00000010: 9f4f 34bc 2d4b 7dbc 7eff 86bd 247c babd
00000020: ae98 b9bd 5f8c 7bbc 86e9 543c 18a9 75bd
00000030: 3d4b 00be 6263 f3bd dd0e 39bd a95f dfbd
00000040: 560d e2bc 6c23 3fbd b7c2 c3bd 59c1 acbd
00000050: 33ac debd bae6 90bd 1e76 e9bd 0232 dabd
00000060: f317 233c 14db ddbd f2b3 3ebd 376f c9bc
00000070: 2bad 4dbd 7670 91bd
-0.07137829 -0.07291957 -0.043245777 -0.07160777 -0.011005311 -0.015459818 -0.065917 -0.09105709
-0.090623245 -0.015353291 0.012995129 -0.059975713 -0.12528701 -0.1188419 -0.04518019 -0.109069176
-0.02759425 -0.04666464 -0.09558623 -0.08435316 -0.10872688 -0.070752576 -0.11399482 -0.106540695
0.00995444 -0.108328015 -0.046558328 -0.024589164 -0.050213974 -0.07101528

running_mean f4 [30]
00000000: 1bbb b03e 9a13 c83e 1c57 373e 1602 dc3e
00000010: e24a 99bd f802 02bf d176 433e 7ff1 6f3e
00000020: 7e9a 533e 84a2 a5bd 4367 aabe e641 943e
00000030: bc6a 483d 3b1d 4e3c 8810 5f3e 1fc4 e3bc
00000040: 31eb 133e e5cc 813e 0590 1a3e 4a7b 823d
00000050: dcbf debd 97fb a23e f9b7 a8bd fd2c 0a3e
00000060: abe3 dcbe 4278 01be 2d31 513e bbe9 f4bc
00000070: 0d71 0e3e 79ae 863e
0.3451775 0.39077455 0.17904323 0.4297034 -0.07484986 -0.5078578 0.19088294 0.23431967
0.20664403 -0.08087638 -0.33281907 0.28956527 0.048929915 0.012580211 0.2178365 -0.027803479
0.14445187 0.25351635 0.15094002 0.06371172 -0.10876438 0.31832573 -0.08238215 0.13493724
-0.43142447 -0.12643531 0.20428915 -0.029896608 0.13910313 0.26304987

running_var f4 [30]
00000000: 383f f93e b176 fa3e 9452 1e3d 0239 073f
00000010: a79f 753c cc0d 8b3f a9c0 a83e 7370 0f3f
00000020: c664 b93e 4b90 b73c 0813 6e3f fac4 a23e
00000030: 533c d33c 5aed 603d f01b b33d 9949 033e
00000040: a2f0 723d 6c79 713e e6a4 783e 970f 003f
00000050: 7c54 013e ffef 123f 4f0e ac3d 7594 c83d
00000060: 39ca 1f3f ba54 673d 860a b03d 559e fc3c
00000070: 09cc ba3d 8176 c93e
0.48681045 0.4891868 0.03865297 0.5282136 0.014991677 1.0863585 0.32959488 0.5603096
0.36209697 0.022407671 0.9299779 0.31790906 0.0257856 0.054913856 0.08745563 0.12821044
0.059311517 0.23581475 0.24281654 0.5002379 0.12629884 0.57397455 0.08401167 0.09793941
0.6241794 0.056477286 0.08595757 0.030837217 0.09120948 0.39348224

weight f4 [251, 30]
00000000: f37e 11be 6f18 01be d0d4 0c3e b5c5 8b3d
00000010: 39d1 60bc 29b8 713d 672e 813d 18ea c6bd
00000020: b661 3cbb 2bfd d73d d75c c43d edb5 ae3d
00000030: 65bf 96bd a3f4 9bbd e123 223d e09a bfbd
00000040: 517e 183e 732a b6bc efbe e3bd 8b39 e0bc
00000050: 1e9b 94bd c998 8abd 032e 0bbe 267a 2c3b
00000060: 663d 09be 95e5 56be 32ba 563e d49f d53d
00000070: 71f5 413e 7827 823d c066 723d 48a1 9ebd
00000080: edf8 493e 0249 d5bc ae07 b7bc 35c2 ffb9
00000090: b6d8 a7ba 228d 9ebd 6b3f 07be a535 f33d
000000a0: 4d75 01bd 81d4 51be 22c6 c73c 597e 9cbb
000000b0: b68a 503d 1634 05be 8eb6 f4bd de59 813c
000000c0: bcea 023e 8ff1 783d 4db3 453b 2ee5 19bd
000000d0: 9f02 2ebd eb88 833e bda4 ad3b a0e2 013e
000000e0: 4153 babd 33aa a53d 0d62 4bbe 3bba d43c
000000f0: 7699 91bd 1d75 cd3d f8a1 503d 84f4 393b
00000100: 82dd 52be 9c33 243c d8fb a93c e462 203b
00000110: 2097 d43d adc7 c9bd 3ebe 82bd 4885 473d
00000120: 12f1 753d 656d 2ebc b1a3 b23b 44c8 d3bd
00000130: 8da7 89bc a5b8 46be 6e85 d03c 2cdf 3cbc
00000140: a91a 5abd 178e cc3d c98a 5b3e 5a42 3c3e
00000150: 18d4 983b 76ec 89bc 5d3f 9b3d 0d60 0abe
00000160: 65d6 153d 56c5 9ebd 8756 ebbd b325 e43d
00000170: 680b 083d 07ef 5fbd e78e d3bd 340b 36bc
00000180: 836a 013d 86c5 abbd 1a46 b33d 1e2b 49be
00000190: c746 873b 1f36 33be 828a 663e 1ead 453e
000001a0: db87 36bc afe8 69bd 7971 31be a1e4 1cbd
000001b0: 7fe3 343d 8750 b0bd 0411 593c 64a5 debc
000001c0: f0db 1e3e f1b4 0fbd 4b9b 7dbd 5627 e63d
000001d0: 79ce e03d 03e5 f5bc 73b5 883d adb5 4f3d
000001e0: dfdd f7bd 3386 d23d e156 033d 726b 1fbe
000001f0: 38e9 19bd 044f 67bd f425 6fbc c14a d43d
00000200: 5ae7 133e 93df bcbd 6ed8 b53d e8d6 f8bc
00000210: 010d 7abd 9e27 5bbd 5bae 34bd 6088 08be
00000220: bfd8 6cbc abe4 0c3e f204 a33d b6e6 043e
00000230: 14bd d63d f8a4 f0bd 6702 1e3e 3906 95bd
00000240: 34c7 84bd f39f b83d 22bd 733d 94cc 56be
00000250: 411b 943d 18fc 69bd 25dd 0a3e 6976 a73b
00000260: f8ce 02be 7892 f13d ae3d 4fbe 6a77 cf39
00000270: db5e 1c3d 4fdb 1d3e fed0 e0bb 484d c13d
00000280: bede 363c ec30 a43d 7bdd 0fbe a377 383e
00000290: 7b82 fd3c a07a f4bd 6232 1bbe a4e1 a8bd
000002a0: 5f3a 89bd 38fa c23d 3665 0dbe 0052 043e
000002b0: 2e03 a53d cf76 0bbd 7422 85bd a1e8 753e
000002c0: 8e0a bc3d 0972 4cbe 47c3 14be 1cbd ddbc
000002d0: d5ac 9b3d fc47 35bd 2fac a53d 438b 803c
000002e0: f750 b7bd 02b2 ea3d 41ce 95bd bc78 f13d
000002f0: 0038 29be 0626 d0bd a6f1 2cbe 8822 b0bd
00000300: 88b2 a7bc 1f39 583d 7381 05bd 752e 6cbd
00000310: a7e0 1c3e ad29 ee3d 56eb 223d 4159 3f3e
00000320: d0e9 c43a 511a a33d 3d7e 59be b52a eebd
00000330: e1cc db3c 1b9c dd3d 2d16 7bbd 69f1 353d
00000340: 9f2e f53d 0e59 01be e015 a4bd 1880 12be
00000350: 5e5b 13be b363 c63d ed40 08be 6387 9abc
00000360: 4e0a c5bc d7d0 87bd 18a5 5d3e 5de8 9fbd
00000370: 7b36 cd3b def1 a53d 165d ef3d b736 f23d
00000380: 10a7 053e 237d 98bd 45ed c93c af8d b23d
00000390: 34d2 0f3d 2066 17bd 30c9 a3bd fd06 ccbd
000003a0: e5f9 333e 1131 26bd fa44 b8bc ca6b 8abd
000003b0: 6a38 16be b44c 9c3d bebb a13d 216a 23bc
000003c0: 89e8 51bd adac 083e 48de 9b3d 5882 21be
000003d0: 8a26 1cbc fb2c 0d3d 22f8 b03d 93c1 3bbd
000003e0: 128b 023d 1225 133c 6186 a33c ec32 56bd
000003f0: 9a5b 083e 3fca 1a3e 16c9 29be 5630 0c3e
-0.14208584 -0.12606977 0.13753057 0.06824819 -0.013721758 0.05901352 0.06307679 -0.097126186
-0.0028744764 0.10546335 0.0958802 0.08530793 -0.07360724 -0.0761502 0.039584998 -0.09355712
0.14891936 -0.022237038 -0.11120402 -0.027371189 -0.07256149 -0.06767423 -0.13591771 0.0026317923
-0.13402328 -0.20986016 0.20969465 0.104308754 0.18941285 0.06355184 0.05918002 -0.07745606
0.19723864 -0.02603579 -0.02234253 -0.00048782086 -0.0012805674 -0.07741763 -0.13207786 0.11875466
-0.031606007 -0.2049122 0.02438647 -0.004775804 0.050913535 -0.1300815 -0.11948882 0.015789922
0.12784857 0.060777243 0.0030166686 -0.03757208 -0.04248297 0.25690398 0.0052991793 0.12684107
-0.09097911 0.080891035 -0.19861622 0.025967708 -0.071093485 0.10032103 0.050935715 0.0028374502
-0.20592311 0.01002207 0.020749971 0.0024473006 0.10380387 -0.09852538 -0.06383942 0.04871109
0.060044356 -0.010646199 0.0054516424 -0.10340932 -0.016803527 -0.19406374 0.02545425 -0.011527818
-0.05324808 0.09988039 0.21439661 0.18384686 0.0046639554 -0.016836386 0.07580445 -0.13513203
0.036581416 -0.077524826 -0.11491113 0.11140003 0.033214003 -0.054671314 -0.10329991 -0.0111110695
0.031595718 -0.08387284 0.08753605 -0.19645354 0.0041283104 -0.17501114 0.22513774 0.1930432
-0.011140789 -0.05710667 -0.17328443 -0.038303975 0.04416227 -0.08609109 0.013248686 -0.027178474
0.15513587 -0.03508467 -0.061915677 0.112379715 0.109768815 -0.030016428 0.06675234 0.05071037
-0.121028654 0.10279503 0.032065276 -0.15568331 -0.03757593 -0.05647184 -0.014596451 0.10365821
0.14443722 -0.09222331 0.08879171 -0.030375913 -0.061047558 -0.05350458 -0.04411159 -0.13333273
-0.014455973 0.13759105 0.079599276 0.12978634 0.104852825 -0.11750215 0.15430604 -0.072765775
-0.064833075 0.09014883 0.059506543 -0.20976478 0.07231761 -0.05712518 0.13560922 0.005110551
-0.12774265 0.11795515 -0.20238373 0.00039571087 0.0381764 0.15415691 -0.0068608513 0.09438568
0.011161504 0.080171436 -0.14049332 0.18014388 0.030946007 -0.11937451 -0.15155938 -0.082461625
-0.067005865 0.09520382 -0.1380814 0.12921906 0.08057247 -0.03404885 -0.06500712 0.24014522
0.09181701 -0.19965376 -0.14527617 -0.027067713 0.076013245 -0.044258103 0.08089482 0.015691405
-0.0895099 0.114597335 -0.073147304 0.117906064 -0.16525269 -0.101635024 -0.16889057 -0.08600336
-0.020470873 0.05278885 -0.032594156 -0.057661492 0.15320073 0.11629043 0.039775215 0.18686391
0.0015023295 0.07964004 -0.21239562 -0.116292395 0.026831092 0.108207904 -0.061300445 0.04441968
0.11971783 -0.12631628 -0.08011985 -0.14306676 -0.14390323 0.09686985 -0.13306017 -0.018863386
-0.024052765 -0.0663163 0.2164501 -0.07807992 0.006262598 0.08102773 0.116876766 0.11826842
0.1305201 -0.07445743 0.024649272 0.0871843 0.035112575 -0.03696263 -0.07997358 -0.099622704
0.17575796 -0.040574137 -0.022493828 -0.067588404 -0.14669958 0.076318175 0.07897137 -0.009974034
-0.051247153 0.1334712 0.07610756 -0.15772378 -0.009530673 0.034466725 0.086410776 -0.045838904
0.03187091 0.008981006 0.019961538 -0.052294657 0.13316193 0.15116213 -0.16580614 0.13690314

bias f4 [251]
00000000: 5b59 2a3e dd15 193e 2dc9 c2bd d240 b5bd
00000010: bab5 223e 3217 3f3d dbb8 0b3d 0e51 6dbd
00000020: 2f13 21be 16a2 09bd e7d4 133e d039 993d
00000030: 37e9 f0bd 8226 bdbb d8bd 14be a9e2 f43d
00000040: 1ea7 233e 9746 c03c 7449 1dbe 377c 0bbe
00000050: d08e a93d 63eb 693d a5ee 3abe cf46 c53d
00000060: 251e f6bd f090 8abc ce2d 043d 8aa4 00bc
00000070: ec44 57bd 7d89 81bc 5315 c9bd 3292 5f3d
00000080: 1a14 8ebc ce56 283e 3a19 0c3d ac62 323e
00000090: 0c45 2dbe 5495 51bd 7757 fe3d a446 a23d
000000a0: f526 25be 5cd2 f63d 70c4 67bd 46a7 c8bd
000000b0: 859d 103e 2621 d5bd 6b74 8c3d 0201 313e
000000c0: 8f14 003e 059d 4cbc 1c28 a7bd 86cb 39be
000000d0: fee5 e93d 6978 dfbd cf63 0cbd 1336 07be
000000e0: fca2 34be f1c1 cebd 74da bbbc a47a 23bd
000000f0: ee98 3e3b 27de b8bc c817 af3b 5660 37be
00000100: c82b e5bd dde1 a63c 4b23 c83a e36b 1b3e
00000110: 1741 08be a442 d23d 7346 96ba 1bc9 383e
00000120: e9e6 5c3d d388 233e b7a0 143e 8a68 3bbe
00000130: dc04 afbd 9bc7 2cbd b5de 8abd 4639 e13d
00000140: 9360 133e 563e 67bd 3c57 073e 022c 1abe
00000150: d532 d73d e524 07bc d8fc 8c3b 4e81 0a3e
00000160: 63da 36bd bf93 d1bd 0d35 d43d e52d e2bd
00000170: 67ad fbbc 4a8b b53d 668d 353e 44bb cc3a
00000180: 7909 253e ec8b 12be 42fb 7cbd fd57 76bd
00000190: 7e9e 56bd 1bbc 6f3d 63e3 063e 5e82 ed3a
000001a0: ca50 b2bd 1d51 fbbc f918 113e 5809 c03d
000001b0: 1e14 05be 9079 213e 141a 3abe 6eec 16be
000001c0: dab2 2bbe c989 c53d 8cf3 0fbe 4011 f03d
000001d0: 78ed 76bc 053c b03c e2fe 7c3c 6cc5 223e
000001e0: bb6d a0bd 7778 e9bc ea8a afbc b07a e0bd
000001f0: f49d d03d a22b ca3d 542a e7bd a7cd 093e
00000200: 631a 92bc fb77 dabd b798 c0bc bdd2 ad3d
00000210: 294f 2dbe fc8b 04be 715e 2d3e 741d 1bbe
00000220: 9b30 3dbe 7f31 cebd 61c1 4b3d 73ad eb3d
00000230: d7bd 9abd 4e73 ae3c 1e41 303e ba74 2bbe
00000240: 37f8 073e efaa 2a3e 6f9a cabc a588 b03c
00000250: 3801 fb3d 4909 00be 5a3b 25be 946b 453d
00000260: 7208 7a3c 8348 783d 11f1 cebd 280a 0f3e
00000270: ef42 153e 2953 3fbd ad2b cc3c 808a 2ebe
00000280: 6c3c a9bd 2c17 a73c 166b 44be f049 043e
00000290: fb43 b43d 143d a53c 6850 8b3d 12b0 f0bc
000002a0: 3eb8 45bd 1280 12be c7f0 193e fc55 debd
000002b0: e6d4 fdbd d3fd 913d eb4d c0ba cd0b 143d
000002c0: 05fc 36be 9fb7 7e3d 006d c43b 3878 b6bd
000002d0: 0ebd 8ebd 6d89 e0bb 383f 233d 2cd9 183d
000002e0: e97b aebd 6a5d e33d 8e97 303c 7231 24be
000002f0: 1f62 903c 0b70 fa3d 73ff aa3d 62a9 32be
00000300: b543 7e3d b63c b83b 164a ff3d c82f c8bd
00000310: a7b1 45bd e6cb 213e 519c 9c3d 2999 183c
00000320: 5e91 383e 846f 02be 7a69 0c3e 24c6 ee3d
00000330: 7823 213e c3e2 7cbd ab61 b1bd 50e6 f23d
00000340: 4890 26be aa42 a4bd 7a1e 823d 66dc 20be
00000350: cc8b b9bd 3bd7 2bbe c26f d9bd 0870 913c
00000360: e561 293e f527 853c f708 7d3d 3fb7 bc3c
00000370: 2d3b 263e f541 ecbd 1156 c53d c589 17be
00000380: d53d a03d f47a 0c3d 693d 883d 8471 083e
00000390: e7f5 e9bd f895 12bc 6877 ed3d e56e 023d
000003a0: 4b56 2bbe f73b 96bb 46c8 c03d 285e 2fbe
000003b0: dc58 febd 903e 26be 1148 60bd 5aeb 22bd
000003c0: ceff f73d ab7f 843d 021d 963c 9bb4 3bbe
000003d0: 7de4 68bd e7c2 223d b2c9 093e 80be ed3d
000003e0: 7dd4 2ebe 2882 a03c 4fae ac3d
0.16635649 0.14949746 -0.095110275 -0.08850254 0.15889636 0.04665298 0.03411184 -0.057938628
-0.15729974 -0.033601843 0.14436685 0.0748173 -0.11763232 -0.0057724128 -0.14525545 0.119572945
0.15981719 0.02347116 -0.15360051 -0.13621603 0.082791924 0.057109248 -0.18255098 0.09632646
-0.12017468 -0.016914815 0.032270245 -0.007851729 -0.052555963 -0.01581263 -0.098185204 0.054582782
-0.01734357 0.16439363 0.034203745 0.17420453 -0.1692087 -0.0511678 0.12419026 0.0792363
-0.16128142 0.120518416 -0.05658382 -0.0979753 0.14122589 -0.10406713 0.068581425 0.1728554
0.12507842 -0.012488608 -0.08161947 -0.18144044 0.11420821 -0.10911638 -0.034274872 -0.13204221
-0.17640299 -0.10095585 -0.022931315 -0.03991188 0.0029082852 -0.022566868 0.005343411 -0.17907843
-0.11189991 0.020371372 0.0015269307 0.15177874 -0.1330608 0.10266617 -0.0011465087 0.18045466
0.05393115 0.15970163 0.14514433 -0.18301597 -0.08545849 -0.042182546 -0.06780759 0.10997252
0.14392309 -0.056455933 0.13216871 -0.1505585 0.10507742 -0.008248542 0.0043026023 0.13525888
-0.044641864 -0.102332585 0.10361681 -0.1104391 -0.030722333 0.08864458 0.1772972 0.0015619774
0.16116895 -0.14311188 -0.061763056 -0.060142506 -0.052397244 0.058529 0.13172679 0.0018120517
-0.087068155 -0.030678326 0.14169683 0.09376782 -0.12995955 0.15769029 -0.1817401 -0.14738628
-0.16767445 0.09645421 -0.1405775 0.1172204 -0.015071265 0.021512995 0.015441628 0.15895623
-0.078334294 -0.028499825 -0.021428544 -0.10960901 0.10186377 0.098716035 -0.1128737 0.13457356
-0.017834848 -0.10667416 -0.02351032 0.08487461 -0.16924728 -0.12944025 0.16930558 -0.15147954
-0.18475573 -0.100680344 0.049744967 0.11507692 -0.0755574 0.021295216 0.1721234 -0.16743746
0.1327828 0.16666768 -0.024731843 0.021549532 0.12256092 -0.12503542 -0.16135922 0.048198298
0.015260803 0.060616028 -0.101045735 0.13968718 0.14576314 -0.046710167 0.02492317 -0.17045021
-0.08263478 0.020396791 -0.19181475 0.1291883 0.08802029 0.020170726 0.06802446 -0.029380832
-0.04827141 -0.14306667 0.15033256 -0.10856244 -0.12394123 0.07128491 -0.0014671659 0.036144067
-0.17869575 0.062186833 0.005994439 -0.08909649 -0.06969653 -0.00685232 0.039855212 0.037316486
-0.08519728 0.11101802 0.010778321 -0.16034487 0.017624913 0.12228402 0.08349504 -0.17447427
0.06207629 0.0056224717 0.12465303 -0.097747386 -0.048265126 0.15800437 0.076470025 0.00931386
0.18024203 -0.12737852 0.13712111 0.11658886 0.15736187 -0.061739694 -0.08661207 0.11860335
-0.16265976 -0.08020528 0.06353469 -0.15709075 -0.09059867 -0.16781323 -0.10617019 0.017753616
0.1654125 0.016254405 0.061776128 0.023036597 0.16233511 -0.11536018 0.096355565 -0.14798649
0.078242935 0.034296945 0.06652338 0.13324553 -0.11423855 -0.008946888 0.115950406 0.03184404
-0.16732137 -0.004584785 0.09413199 -0.17125762 -0.12419292 -0.16234803 -0.054756228 -0.03977523
0.12109338 0.06469663 0.018324379 -0.18330614 -0.05685853 0.039736655 0.13455847 0.116086006
-0.17073245 0.019593313 0.08431684

weight f4 [251]
00000000: 1e80 eb3f 043f 433f a03a 503f f18d 523f
00000010: 6615 4e3f e8f8 4f3f 2f3a 343f 7d06 533f
00000020: 886e 4d3f 842b 533f 3c5d 503f 3fbe 533f
00000030: 3a23 4e3f ab07 ba3e 8ab9 4e3f 7f4a 513f
00000040: bab1 b63e f421 543f 1d48 1c3f 4405 543f
00000050: a9fe 2f3f 5582 513f 98e4 4d3f cfe7 573f
00000060: edb0 473f 450a 4f3f 7fd8 553f 83fc 4e3f
00000070: de84 cb3e cd44 b43e 9eb2 523f 82f2 c53e
00000080: 9c3a 533f d06e 2d3f a406 4e3f 6955 3f3f
00000090: 59cb 513f ab43 4a3f 63e8 4f3f 18d3 373f
000000a0: 14b9 533f 5bdc 543f ea31 4e3f 3a70 203f
000000b0: 53fc 443f ae54 533f 1095 4d3f 0603 543f
000000c0: 563a b63e 88cf 4e3f ec04 b93e 62e8 263f
000000d0: 2fcf 503f df81 593f a181 513f 6c43 503f
000000e0: 7f49 4e3f 44b1 503f df7b 533f a504 513f
000000f0: 0bf4 4e3f 5882 573f e77b 573f 0ce8 513f
00000100: 6a71 4b3f fd41 553f 0120 513f 286c 513f
00000110: 6804 503f 889b 543f 4e9e 533f 05c9 213f
00000120: b58d 4c3f bf56 503f 416d 543f 0866 443f
00000130: 904a c63e e242 533f d2fe 573f 8030 513f
00000140: bdb3 3e3f 71ba 513f a34d 4e3f c7ae 503f
00000150: ed71 253f c09a c53e ac69 533f 3d7c 523f
00000160: 3b3d 4e3f 0fe1 4f3f 04bc 573f 3217 533f
00000170: 15d4 4d3f 7286 553f f3c7 513f fa6b 513f
00000180: 69d5 493f 4883 5a3f 114e 533f 5616 543f
00000190: ab82 b33e b603 493f 8a0f 553f 6104 523f
000001a0: 886c 3e3f bd31 543f 0fa4 533f 9e80 ab3e
000001b0: f46c 4a3f cc38 b73e c267 b53e de17 413f
000001c0: 0d04 553f 9da7 533f 230f 543f 56a1 523f
000001d0: a6e2 513f 735b 353f 8f92 bd3e 2fd4 523f
000001e0: 9a62 553f 70a7 bc3e d144 543f 0946 523f
000001f0: d355 4f3f 88d7 2b3f 10ec 503f e633 533f
00000200: 1ee9 c93e a4b2 513f bd27 543f 24b0 4a3f
00000210: 3889 543f 2820 593f 0e60 503f 1251 c53e
00000220: 4a18 4f3f 6b14 503f 5477 4e3f 6d69 223f
00000230: 32c3 513f 9f0f 523f 4f57 503f 0d67 1a3f
00000240: 27b3 463f 606e 503f d04e 523f 2402 4e3f
00000250: 9255 563f 205c b73e 47ee 4c3f ddd7 4f3f
00000260: 621f 513f bca5 553f aee0 553f 1ad0 553f
00000270: fb63 403f 37ac 373f 7c6e 4e3f 405f 533f
00000280: 460d 503f afbb 4e3f 7bbd 4c3f 1a8e 4f3f
00000290: 22ea 513f 55b7 393f 613c 503f bdf2 443f
000002a0: dcf4 513f 8a45 4e3f ce1c 4c3f b610 4d3f
000002b0: 67cb 523f 600b 4c3f 5748 553f 5bc9 503f
000002c0: 2f03 2c3f d090 193f 9072 503f f9b3 133f
000002d0: c8e5 513f 9c61 543f 53b7 4d3f 80cc 3b3f
000002e0: d9d5 4f3f c815 4e3f befc b43e 6702 543f
000002f0: 46cd 513f b362 4e3f 6eaf 543f 035d 553f
00000300: eea2 573f c27a 1f3f d7ac 523f 6361 513f
00000310: 5faa 563f aba6 163f f9bf 4e3f f2bc 3e3f
00000320: 0aef 4e3f 5dc1 333f c764 523f 96d2 513f
00000330: 79bb 4c3f 2320 523f 620f 453f a002 343f
00000340: 7a48 513f 3689 b53e 208b 3c3f 1032 513f
00000350: 0c2f af3e bd3b 4c3f d6aa 533f c076 523f
00000360: 28bc 4f3f a816 4f3f 19e1 4e3f b3b1 4f3f
00000370: 994f b83e 452d 4e3f b327 513f 699f 513f
00000380: a5ad 4e3f 2f81 4f3f 9135 523f aa73 b53e
00000390: c1b9 4f3f c581 4a3f de6e 593f 0d63 563f
000003a0: e28a 233f 8bea b43e 0238 bc3e 48a6 503f
000003b0: 2c0f 533f e0dd 533f 6006 543f c1a3 533f
000003c0: c28d ba3e 74a3 4d3f 9b32 463f fa76 503f
000003d0: 8a7c 533f 082c 4d3f 1bbc 313f 3377 513f
000003e0: 0619 c13e c48b 533f 0e3b 523f
1.8398473 0.7626803 0.81339455 0.82247835 0.805014 0.81239176 0.7040128 0.82431775
0.8024678 0.82488275 0.81392264 0.8271217 0.805225 0.36333975 0.8075186 0.81754297
0.3568247 0.8286431 0.61047536 0.82820535 0.68747956 0.81839496 0.8042693 0.84338087
0.7800434 0.80875045 0.8353347 0.8085405 0.39749807 0.3520874 0.823038 0.3866158
0.82511306 0.6774721 0.8047888 0.747397 0.8195091 0.79009503 0.8121397 0.7180648
0.8270428 0.83148736 0.8054491 0.62671244 0.76947516 0.82551086 0.80305576 0.82817113
0.35591382 0.8078542 0.36136568 0.6519834 0.8156614 0.8496379 0.81838423 0.8135288
0.80580896 0.81520486 0.8261089 0.8164771 0.8084113 0.84183264 0.84173435 0.819947
0.7946993 0.83303815 0.8168946 0.8180566 0.81256723 0.8304982 0.8266343 0.63197356
0.7990373 0.81382364 0.8297921 0.7671819 0.38728762 0.8252393 0.843732 0.8171463
0.7449301 0.8192511 0.80587214 0.8151669 0.6462696 0.38594627 0.8258312 0.8222082
0.8056218 0.8120279 0.84271264 0.8245727 0.80401736 0.8340827 0.81945723 0.81805384
0.78841263 0.8535657 0.82540995 0.8284658 0.3506063 0.7852129 0.83226836 0.8203793
0.74384356 0.82888395 0.8267221 0.33496565 0.790725 0.3578552 0.35430723 0.75427043
0.83209306 0.8267763 0.82835597 0.8227743 0.81986463 0.70842665 0.37025878 0.82355016
0.8335358 0.36846495 0.82917506 0.82138115 0.8099033 0.6712575 0.816102 0.82501066
0.39435667 0.8191321 0.82873136 0.7917502 0.8302188 0.8481469 0.8139657 0.38538414
0.8089644 0.81281155 0.8065083 0.63442117 0.8193847 0.82055086 0.8138322 0.60313493
0.77617115 0.8141842 0.8215151 0.80472016 0.8372432 0.35812473 0.8005108 0.81188756
0.8168851 0.83456016 0.8354596 0.8352066 0.7515256 0.71747154 0.80637336 0.82567215
0.81270254 0.8075513 0.79976624 0.81076205 0.81997883 0.7254537 0.8134213 0.7693289
0.8201425 0.8057486 0.7973145 0.80103624 0.8234162 0.79704857 0.83313507 0.81557244
0.6719236 0.5998659 0.8142481 0.5769649 0.81991243 0.8296144 0.80357856 0.7335892
0.8118568 0.80501986 0.35349077 0.82816166 0.8195385 0.80619353 0.83080184 0.8334505
0.84232986 0.6229669 0.8229498 0.81789225 0.83853716 0.58848065 0.8076168 0.7450706
0.80833495 0.70216924 0.82185024 0.81961954 0.7997356 0.82080287 0.769766 0.70316505
0.81751215 0.35456246 0.7364979 0.81717014 0.3421558 0.79778653 0.8268255 0.8221245
0.8114648 0.80893946 0.8081222 0.8113052 0.35998228 0.80537826 0.817012 0.81883866
0.8073371 0.81056494 0.82112986 0.35439807 0.8114281 0.7910426 0.84934795 0.8374489
0.63883793 0.35335192 0.3676148 0.81503725 0.82445025 0.8276043 0.8282223 0.82671744
0.36436278 0.80327535 0.7742097 0.81431544 0.82611907 0.8014531 0.6942765 0.8182251
0.37714404 0.8263514 0.8212136

bias f4 [251]
00000000: b162 6dbe 3f95 51bf 51ec 4ebf 6d34 50bf
00000010: 6a9a 4cbf 4214 51bf cbfa 4ebf 6c98 4dbf
00000020: bf15 51bf 4b2f 4dbf 587e 4fbf ba77 4ebf
00000030: bf12 4fbf 9ccf 53bf 1d04 4ebf 2f3f 4fbf
00000040: 8366 54bf 6f4b 50bf 683d 50bf 9a8f 50bf
00000050: e39c 4dbf 661a 4ebf fd88 4dbf f97f 50bf
00000060: 3fb2 50bf bfa2 4dbf 7eb6 50bf 00f8 4ebf
00000070: 2978 52bf 5281 51bf adb4 4fbf dd99 56bf
00000080: b25b 4fbf ad08 51bf f2ce 4ebf e53b 4ebf
00000090: 8cf8 4fbf a98c 50bf 6563 4bbf b428 4ebf
000000a0: 1302 4bbf 9d64 4dbf 048a 4cbf 63ce 4fbf
000000b0: 11f7 4fbf 5d13 4fbf bf26 50bf f6d9 51bf
000000c0: 8bba 56bf ab2e 4ebf 2b34 50bf dd92 4fbf
000000d0: 3009 50bf 2597 4ebf aa06 4dbf c1f6 4ebf
000000e0: 7d01 4fbf 2a42 52bf 667e 4ebf 64de 50bf
000000f0: dc6e 4fbf 81e9 50bf 0827 50bf 71f5 4bbf
00000100: e29c 4ebf 2395 50bf 8717 4dbf 251d 4ebf
00000110: 6b03 4fbf 64c8 4ebf a2cc 4fbf be7f 4ebf
00000120: 3ae2 4abf ea6f 50bf 997a 4fbf aca9 4cbf
00000130: 137d 55bf 1ff1 50bf 59c1 4dbf f4fd 4fbf
00000140: 592d 4fbf 6f56 50bf 5919 4ebf d7a5 4fbf
00000150: 41d2 4cbf d04e 51bf bf12 4fbf 56df 49bf
00000160: c5db 4fbf 39a2 4fbf aff7 4dbf b173 4ebf
00000170: 5873 4fbf f41f 4abf 150a 4ebf 68a3 4ebf
00000180: 8f3d 4ebf bbee 50bf b66b 4ebf 8d9d 4fbf
00000190: a6a9 55bf 1104 4dbf 9245 4fbf 6772 50bf
000001a0: abbc 4fbf 996c 50bf 43ae 51bf c428 4cbf
000001b0: f4b5 4abf 8d46 54bf 3dac 53bf 21ea 4dbf
000001c0: f6e1 4ebf fe3a 4fbf 0b3b 4fbf cdce 50bf
000001d0: b56c 50bf 19bb 4ebf 641b 53bf d990 4fbf
000001e0: 08fa 4bbf 2b1d 53bf fe6c 4fbf fa36 50bf
000001f0: 1df9 4ebf e546 52bf ab10 50bf 0cbd 4fbf
00000200: ff25 53bf 1991 4ebf 4790 4fbf db77 50bf
00000210: 7442 51bf 2d9e 50bf 3724 4fbf 87be 52bf
00000220: 9307 4ebf a76a 4fbf 85fe 4fbf 7e4d 4dbf
00000230: 63de 4bbf 1dda 4fbf c1a6 4ebf 1770 4abf
00000240: e372 50bf e863 51bf 7b92 4ebf b082 4fbf
00000250: 65a5 51bf bc6a 54bf 4d45 4dbf 70d9 4dbf
00000260: aa7b 4cbf beda 50bf f089 4fbf 7c53 4dbf
00000270: 528a 4fbf a8a0 50bf 678a 4fbf 35b6 4ebf
00000280: 72d5 4dbf 733f 4ebf a539 50bf eeeb 4fbf
00000290: cd07 51bf 715f 50bf cb99 4cbf c3b9 4fbf
000002a0: 00e7 4ebf 9320 52bf 959e 4fbf e50e 50bf
000002b0: cde1 4dbf 5b8d 4ebf 426f 50bf 17de 50bf
000002c0: 13cd 4fbf f715 4bbf af59 4cbf ec66 4fbf
000002d0: 9966 4cbf d72a 4ebf a49d 4cbf 14c6 4fbf
000002e0: f5d5 4dbf d9df 4ebf 3158 56bf 27e5 4ebf
000002f0: 52d7 51bf 3ea2 4bbf 375a 50bf 620b 50bf
00000300: 217a 4fbf ae8d 52bf 1248 4ebf c15f 4ebf
00000310: a1f9 4ebf a567 52bf b8c0 50bf 4b2b 51bf
00000320: acf8 4ebf ec8d 50bf 3afb 51bf a697 4dbf
00000330: 1c2d 50bf cddd 4fbf c781 4fbf 37b2 4fbf
00000340: cf46 4fbf b29d 51bf c1b6 4dbf c83b 50bf
00000350: a1f5 4cbf 051e 4ebf cb42 4fbf b45a 50bf
00000360: 89ea 4fbf 90ab 51bf 6bea 4ebf 8456 50bf
00000370: 55e0 50bf 1619 4fbf 1add 4ebf adb6 4ebf
00000380: bd13 4ebf f2fe 4fbf 6346 4fbf 0761 50bf
00000390: 6e29 4fbf 434e 4fbf 58fd 4fbf dca4 4dbf
000003a0: e718 52bf 6900 50bf 7125 51bf 97a0 4ebf
000003b0: a8b7 4ebf 0af9 4dbf dc16 50bf d158 51bf
000003c0: f73a 4fbf 5924 4fbf 727d 4dbf 47c5 4ebf
000003d0: ff18 54bf 9ee2 4cbf 9e3e 4cbf e1b9 4fbf
000003e0: acfd 4ebf c4dc 4dbf f912 50bf
-0.23182179 -0.81868356 -0.8082934 -0.81329995 -0.7992312 -0.81671536 -0.8085143 -0.803107
-0.81673807 -0.8015029 -0.8105216 -0.8065144 -0.8088798 -0.8273866 -0.80475026 -0.80955786
-0.8296892 -0.813651 -0.813437 -0.8146912 -0.80317515 -0.8050903 -0.8028715 -0.8144527
-0.8152198 -0.80326456 -0.8152846 -0.8084717 -0.822146 -0.8183795 -0.81135064 -0.83828527
-0.8099929 -0.81653863 -0.80784523 -0.8056014 -0.8123863 -0.8146463 -0.7944854 -0.8053086
-0.7930004 -0.8023165 -0.79898095 -0.81174296 -0.8123637 -0.8088892 -0.8130912 -0.81973207
-0.8387839 -0.8053996 -0.813296 -0.8108347 -0.8126402 -0.8069938 -0.80088294 -0.80845267
-0.80861646 -0.8213221 -0.8066162 -0.8158934 -0.81028533 -0.816063 -0.81309557 -0.7967139
-0.80708134 -0.81477565 -0.80114025 -0.8051322 -0.8086459 -0.8077452 -0.8117162 -0.8066367
-0.79251444 -0.8142077 -0.81046444 -0.799464 -0.83393973 -0.8161792 -0.8037315 -0.81246877
-0.8092857 -0.8138189 -0.8050743 -0.81112427 -0.8000832 -0.81760883 -0.8088798 -0.7885641
-0.81194717 -0.8110691 -0.8045606 -0.8064528 -0.81035376 -0.78955007 -0.80484134 -0.8071809
-0.8056268 -0.81614274 -0.80633104 -0.8109978 -0.8346199 -0.8008433 -0.8096553 -0.81424564
-0.8114726 -0.81415707 -0.8190653 -0.79749703 -0.7918389 -0.8292015 -0.8268469 -0.8043538
-0.8081354 -0.8094939 -0.8094947 -0.8156555 -0.81415874 -0.8075424 -0.8246367 -0.81080395
-0.7967839 -0.8246638 -0.81025684 -0.8133389 -0.80848867 -0.82139426 -0.81275433 -0.8114784
-0.8247985 -0.8069015 -0.81079525 -0.81432885 -0.81742024 -0.8149136 -0.80914634 -0.8232197
-0.8048031 -0.81022114 -0.8124774 -0.8019637 -0.7963621 -0.8119219 -0.80723196 -0.79077286
-0.81425303 -0.8179307 -0.8069226 -0.8105879 -0.81893 -0.82975364 -0.8018387 -0.8040991
-0.79876196 -0.81583774 -0.8106985 -0.8020551 -0.81070435 -0.8149514 -0.8107056 -0.80746776
-0.80403817 -0.80565566 -0.8133796 -0.81219375 -0.8165253 -0.8139563 -0.7992217 -0.81142825
-0.8082123 -0.82080954 -0.8110135 -0.8127273 -0.8042267 -0.8068444 -0.81419766 -0.8158888
-0.81172293 -0.7933039 -0.79824346 -0.8101642 -0.7984405 -0.8053412 -0.7992804 -0.8116162
-0.804046 -0.80810314 -0.8372832 -0.8081841 -0.8196918 -0.79544437 -0.81387657 -0.8126737
-0.8104573 -0.82247436 -0.8057872 -0.8061486 -0.80849653 -0.821894 -0.81544065 -0.81706685
-0.80848193 -0.81466556 -0.82023966 -0.8030952 -0.8131883 -0.81197816 -0.810574 -0.8113131
-0.8096742 -0.8188125 -0.80356985 -0.8134122 -0.800623 -0.80514556 -0.80961293 -0.813884
-0.8121725 -0.8190241 -0.80826443 -0.8138201 -0.81592304 -0.80897653 -0.80806124 -0.8074749
-0.8049887 -0.8124839 -0.80966777 -0.8139805 -0.8092259 -0.8097879 -0.81245947 -0.8032968
-0.8206925 -0.81250626 -0.81697756 -0.8071379 -0.8074899 -0.8045813 -0.8128488 -0.8177615
-0.8094935 -0.8091484 -0.8026954 -0.8076977 -0.8285064 -0.8003329 -0.79783046 -0.81143004
-0.8085582 -0.80414987 -0.8127895

running_mean f4 [251]
00000000: a0c1 3a3e 3da6 0d3e a7ef f5bd e1fd f9bd
00000010: dbed 133e c279 b63c 460f c33c 9426 98bd
00000020: ba52 35be 5cde 5abd 4d90 063e 95cc 623d
00000030: 0862 0abe f787 a33e 62bb 24be 3c12 cb3d
00000040: 8bdf c53e 2bca 993a 34a9 3abe e2fa 21be
00000050: 9a42 853d 4784 383d 4c96 46be 5063 a53d
00000060: 933b 03be 2b40 d4bc fd2e bd3c dc41 cfbc
00000070: 190c 96bd 97ff 6c3e 7cca e6bd 5089 3c3d
00000080: 871f 11bd 3831 183e 1c6a c73c 278e 2a3e
00000090: 5d68 3bbe 1561 71bd 2efa ee3d 2cc7 7d3d
000000a0: c355 30be 3d97 d63d 0e98 84bd b67d 02be
000000b0: 3b87 063e 44b3 f0bd 6ea1 743d 4da1 1b3e
000000c0: 9bcd f53e df58 9cbc 7c5d 66bd 56ca 4ebe
000000d0: 37b2 b53d d9c5 f7bd 4036 4ebd 9713 1bbe
000000e0: 859b 42be 6bc3 ddbd 37f4 24bd 1203 8bbd
000000f0: 9cb6 71bc b81b 0fbd 6dae 37bc d1f8 3fbe
00000100: 0cd4 00be cb3f a13b aa7a 90bc eb82 0d3e
00000110: d204 1fbe a510 b33d 3e23 8cbc 7b1f 1b3e
00000120: f5a4 183d 3f4e 0e3e 0c39 013e 3cea 43be
00000130: 4e7e ccbd 6757 54bd 2d5d a1bd 4615 c73d
00000140: 5a9f 0a3e 805e 8cbd 4b55 f43d f8ff 28be
00000150: 0a9b a13d 40ff 12bd b70e 38bc 4a5d f73d
00000160: f90f 88bd 9019 fbbd f727 c13d 5b52 fcbd
00000170: 75fa 54bd 13e9 a43d ac56 1f3e fd7c 66bc
00000180: c9ab 123e 343a 1fbe f33c 95bd 237a a0bd
00000190: a27a d03e a494 523d 7149 e13d a147 f3bb
000001a0: 5389 c3bd 53d6 2abd 9260 f93d 3013 ed3e
000001b0: 5a5c 13be 760e 163f 481e 453e 782c 20be
000001c0: 7ab6 35be b519 b33d b4c4 23be 3790 c53d
000001d0: ccd5 0ebd 095d 043c 45df bd3d 14ff 153e
000001e0: 6c42 b2bd 9151 b73d c47a 27bd 96b5 f7bd
000001f0: 7f5d bc3d 186e a93d cdc1 0cbe 66ac f93d
00000200: cc93 52bd e1c4 06be 934d 14bd 24df 9c3d
00000210: f561 3abe a2b2 0dbe 92ba 1e3e 669a 33be
00000220: e07a 4fbe 9629 e7bd 2ce9 203d 554f bf3d
00000230: d423 c8bd 241b 293c e65e 253e 0e6f 4fbe
00000240: 2bd3 f93d c1b5 1a3e c60c 1dbd b246 2f3c
00000250: 4812 db3d aa1b 363e 803a 33be 4dd5 013d
00000260: adcb a6bb 3325 3b3d ec6a e2bd 8e0f 063e
00000270: 9cd5 0b3e c0c8 6dbd 80bc f83b 40c4 3abe
00000280: 9ebb dabd 4c57 0fbb 72f2 4bbe ab3b d83d
00000290: 9fe7 8b3d 96c1 f23b 7849 513d fca2 19bd
000002a0: efb4 84bd 0c57 1ebe 2d84 103e f064 efbd
000002b0: 1c47 13be bd36 683d 465f 97bc 35af 693c
000002c0: fcce 47be f2fb ef3c ad88 05bc dcc8 cdbd
000002d0: a9fa a1bd fa93 a6bc 2688 fe3c 354b d03c
000002e0: 3e6e d2bd cf59 be3d 0751 ec3e 34e1 3abe
000002f0: 2e99 4b3b ad29 e63d b69a 8f3d 9c59 3dbe
00000300: 1304 2f3d 52fc 0bbd b5b0 dc3d fdb9 ddbd
00000310: 4082 7cbd 11fc b6bc 1083 8a3d ea57 dfb7
00000320: a059 243e 0b03 0ebe cbf5 ef3d 455a c53d
00000330: 3315 163e 4137 96bd 2362 c2bd 84d2 c63d
00000340: 70fa 33be 7a1b c63d 587a 5a3d 9429 34be
00000350: c149 f93d eb64 3fbe 3fd1 ecbd 5559 2ebc
00000360: e5b9 133e 7563 e63b 9a91 423d 9485 733c
00000370: dcf2 893e b881 07be 54da b03d 059e 1fbe
00000380: da7f 883d 362a 903c a5a2 693d 64b2 a43e
00000390: 860a fbbd ee3f 9dbc 9ff4 d53d 8d21 9f3c
000003a0: e073 41be 08ff 283e fa41 ca3d e00d 3dbe
000003b0: 7d2a 13be 2660 34be 8f98 9fbd 2b7b 57bd
000003c0: ba22 453e eaad 5f3d c00d 193c 46cd 47be
000003d0: e5b2 9bbd 5b94 9e3b e472 fa3d e2d8 cc3d
000003e0: c611 47be 1136 143c 91e1 8e3d
0.18237925 0.13832946 -0.12008601 -0.12206627 0.14446203 0.022274856 0.023810994 -0.07429233
-0.17707339 -0.053434715 0.13140984 0.055370886 -0.13513958 0.3193967 -0.16087106 0.09915587
0.38647112 0.0011733224 -0.18228608 -0.1581836 0.06506844 0.045048025 -0.19393271 0.08075583
-0.12815695 -0.025909504 0.023093695 -0.025299959 -0.07326526 0.23144375 -0.112690896 0.04602939
-0.035430457 0.14862525 0.02434259 0.1665579 -0.1830153 -0.058930475 0.11668812 0.061957523
-0.17220215 0.10478065 -0.06474315 -0.12743267 0.13137524 -0.11752942 0.059724264 0.1519825
0.48008427 -0.019085346 -0.056241497 -0.20194373 0.088718824 -0.12098283 -0.050344706 -0.15144192
-0.19004638 -0.10828289 -0.040271964 -0.06787695 -0.01475301 -0.034938544 -0.01121102 -0.1874726
-0.1258089 0.004920935 -0.017636616 0.13819472 -0.15529183 0.08743409 -0.017106649 0.15148728
0.03726669 0.13897036 0.12619418 -0.19132322 -0.09985028 -0.051841166 -0.078791 0.097208545
0.1353735 -0.06853962 0.11930331 -0.16503894 0.078908995 -0.035887957 -0.011233977 0.1207834
-0.066436715 -0.12260735 0.09431451 -0.123203956 -0.051996667 0.08052268 0.15560406 -0.0140678855
0.14323343 -0.15549546 -0.07287016 -0.07835796 0.4071856 0.051411286 0.11000336 -0.0074243103
-0.09547677 -0.0417083 0.121766225 0.463037 -0.14390698 0.58615816 0.19249833 -0.15641963
-0.1774539 0.087451376 -0.15993005 0.096466474 -0.03487186 0.008078822 0.09271101 0.14648086
-0.08704075 0.089511044 -0.040888563 -0.12095182 0.091975205 0.08272952 -0.13745804 0.121910855
-0.05141048 -0.13161041 -0.036206793 0.07659748 -0.1820143 -0.13837674 0.15500858 -0.17539367
-0.20261717 -0.11287229 0.03928487 0.09341303 -0.09772459 0.010321412 0.16149482 -0.20257208
0.1219848 0.15108396 -0.03834226 0.010698007 0.10696846 0.1778399 -0.17502785 0.03169756
-0.005090198 0.045689773 -0.1105555 0.13091871 0.13655704 -0.05805278 0.0075908303 -0.18238926
-0.106803164 -0.0021872101 -0.19916704 0.10558256 0.068312876 0.007408331 0.051095456 -0.03750895
-0.06479823 -0.15462893 0.14112921 -0.11689174 -0.14382595 0.056692827 -0.018478047 0.014262964
-0.19512552 0.029294942 -0.008150262 -0.100480765 -0.07909138 -0.020334233 0.03107078 0.025426487
-0.10274933 0.092944734 0.4615557 -0.1824997 0.0031066644 0.11238418 0.07011931 -0.18491215
0.042728495 -0.03417618 0.10775892 -0.1082649 -0.061647654 -0.022336992 0.067632794 -2.662461e-05
0.16049814 -0.13868348 0.11716803 0.09636358 0.14656524 -0.073347576 -0.09491374 0.097081214
-0.17576003 0.096732095 0.053339332 -0.17593986 0.121722706 -0.18690841 -0.11563348 -0.010641416
0.14426382 0.007030899 0.047502138 0.0148633905 0.269431 -0.13233078 0.08635393 -0.15587623
0.06665011 0.017598253 0.057039876 0.3216735 -0.122578666 -0.019195523 0.104470484 0.019425178
-0.18891859 0.16503537 0.09875865 -0.18462324 -0.14371677 -0.17614803 -0.0779277 -0.052607697
0.19251528 0.054609217 0.009341657 -0.195119 -0.07602481 0.0048394627 0.12228945 0.100023046
-0.19440374 0.009046094 0.06976617
