EXP7_dump/bottleneck_model_3.pth (torch, 77664 bytes, 19 tensors)

weight f4 [30, 251]
000000 21 e0 24 bd 1f 49 38 3d 96 20 40 bb cb 51 96 3c
       -0.04025281 0.04499161 -0.0029316298 0.018349549
000010 62 90 c3 3c 95 0a eb 3c f0 8b 15 3d 05 f1 20 3d
       0.023872558 0.02869157 0.036510408 0.039292354
000020 4a bc 2f 3d 57 68 ac 3c f7 ee 07 3d 2e ef ec 3c
       0.042904176 0.021045847 0.03318688 0.028922644
000030 d0 48 82 3d 05 12 3f 3d a9 65 fb 3c b7 08 1a bc
       0.06361544 0.046648044 0.030688124 -0.009401492
000040 65 c5 5f 3d 15 20 08 3d 0d d5 62 3d 89 ca a9 3c
       0.05463161 0.03323372 0.055378962 0.02072646
000050 a0 21 23 3d 63 ea e5 ba 82 65 be 3c cc c3 e1 3c
       0.03982699 -0.0017541166 0.023241762 0.027559184
000060 a2 02 1f 3d 4b ff f6 3c a2 a9 06 3d 4a 7f 01 3d
       0.03882087 0.03015103 0.03287662 0.031615533
000070 30 32 87 3d 71 a2 eb 3c f7 0c e6 3c 07 4b 2d 3d
       0.066013694 0.028763982 0.028082354 0.04230788
000080 5b 0b c2 bb d9 83 4a 3d a6 c0 3b 3c 44 ab 01 3d
       -0.005921764 0.049442146 0.011459505 0.031657472
000090 91 74 b0 3c 6c fc 80 3d 27 4d 52 3d b6 97 80 3d
       0.021539958 0.06298146 0.05134311 0.062789366
0000a0 25 6d 0a 3d 2f 9b 62 3d b4 fa 86 3c cc 54 83 3d
       0.033795495 0.055323776 0.016476966 0.06412658
0000b0 90 55 c5 3c de f0 14 3d cd 2b f3 3c ee ff c9 3c
       0.024088651 0.03636252 0.029683972 0.02465817
0000c0 92 8c 07 3d e9 40 4a 3c e6 55 36 3d 73 ec 24 3d
       0.033093043 0.012344577 0.044515513 0.040264558
0000d0 ea 94 54 3d 81 98 fc 3c 2e 2e 20 3d ee 83 a1 3c
       0.051899828 0.030834438 0.03910654 0.01971623
0000e0 0e 75 e8 3c 0b 60 6a 3d 50 f4 34 3d c7 6b 05 3d
       0.028376129 0.0572205 0.044178307 0.032573488
0000f0 d2 a8 f6 3c 2b 7c 2b 3d b7 06 62 3c 32 92 ab 3c
       0.030109797 0.041866463 0.013795546 0.020943735
000100 37 f6 c3 3c 3a c5 ae 3a 76 98 54 3c 29 bb 69 3d
       0.023921115 0.0013333925 0.012975803 0.057063255
000110 4f a6 17 3d 38 49 3d 3d a5 32 1a 3c 44 1f 11 3d
       0.03702384 0.046212405 0.009411489 0.035430208
000120 b5 c4 c8 3c ee ef 2a 3d ac b4 52 3b 3c 10 3d 3c
       0.02450786 0.04173272 0.0032151146 0.011539515
000130 13 06 08 3d c0 e8 07 3d bf 80 f9 3c 8f 14 5b bc
       0.033208918 0.033180952 0.030456899 -0.013371601
000140 28 42 53 3d 49 17 c0 3c 34 cd b0 3c 00 14 0c 3d
       0.051576763 0.023448603 0.021582223 0.03419876
000150 1c 70 f2 3c 24 0b 37 3d 8f 4d 87 3c 77 78 0e 3d
       0.029594474 0.04468836 0.016516475 0.034782853
000160 3e 7d 54 3c f8 d1 54 3c fc b5 fc 3c 19 8b 8f 3c
       0.012969313 0.012989514 0.030848496 0.017522382
000170 fc e1 99 3c a2 63 c8 3c 64 9b a4 3c ff b3 98 3c
       0.018784516 0.024461571 0.020093627 0.018640516
000180 15 02 05 3d 2d 2f 42 3d ba f2 c7 3c 1d e2 ba 3c
       0.03247269 0.04740827 0.024407733 0.022812897
000190 a0 ca 78 3d 0e 65 19 3d 58 50 64 3b 6f 54 9b 3c
       0.060740113 0.03744989 0.0034837928 0.01896116
0001a0 7a cc 65 3d 4b 86 23 3d de 1e 60 3a 54 75 39 3d
       0.056103207 0.039922994 0.00085495214 0.04527791
0001b0 7f 33 d7 3c c0 f6 3f 3d 70 c5 53 3d 52 c0 f6 3c
       0.026269672 0.04686618 0.051701963 0.030121002
0001c0 07 c3 23 3d 9b b9 67 3d 42 63 99 3c 21 c8 e7 3c
       0.039980914 0.05657349 0.018724088 0.028293671
0001d0 7b b6 30 3d ea 65 3a 3d 71 fe 4a 3d 18 54 45 bc
       0.043142777 0.04550735 0.04955906 -0.012043975
0001e0 8b fc 96 3c 03 ba 72 3d b2 37 44 3d 15 fe 69 3c
       0.018430969 0.059259426 0.047904678 0.014281769
0001f0 65 09 0d 3d 06 78 64 3d ce b5 75 3c b3 28 d0 3c
       0.034432787 0.055778526 0.014996959 0.025410032
000200 85 37 09 3d e3 98 23 3d 53 b0 3a 3d 03 d7 1f 3d
       0.033500213 0.039940726 0.045578312 0.03902341
000210 79 34 6e 3d 86 46 29 3c 88 9d 17 3d b9 08 81 3d
       0.05815551 0.0103317555 0.037015468 0.06300492
000220 f9 4f 6a 3b 63 ca f3 3c fd b4 b4 3c 6b 90 97 3c
       0.0035753234 0.029759591 0.022058958 0.018501481
000230 d9 38 40 3c 4c 4a d2 3c 8d b0 f0 b9 6d e0 a5 3c
       0.011732304 0.025670193 -0.00045907908 0.020248616
000240 9c 37 4f 3d f5 0f 16 3d b8 c9 be 3c d3 8e 20 3d
       0.050590143 0.03663631 0.023289546 0.039198708
000250 9e db 1a 3d 99 99 31 3d 76 38 8f 3c 95 b2 29 3d
       0.0378071 0.043359373 0.017482977 0.041430075
000260 2f 6f b1 bb 34 c9 08 3d 87 fb 18 3d 6e 3d 86 3c
       -0.0054148654 0.033395007 0.03734925 0.016386714
000270 2c 69 4d 3d 15 e8 2b 3d 9b bb 12 3d 2f 4e 37 3d
       0.050149128 0.041969378 0.035823446 0.044752296
000280 a5 19 e0 3c 6d 8c 08 3c 64 72 b9 3c 08 40 4c 3c
       0.027355978 0.008334261 0.022637554 0.012466438
000290 37 b5 d7 3c 38 bc 7e 3d e6 f4 ca 3c 02 65 22 3d
       0.026331527 0.06219122 0.02477498 0.03964711
0002a0 92 72 8c 3c f5 dc 14 3d ba 6a 23 bc a9 b6 44 3d
       0.017144475 0.036343534 -0.009974176 0.04802576
0002b0 92 b6 87 3c be 7b a5 3b 23 89 bf 3c 7f 33 83 3b
       0.016566548 0.0050501516 0.023380822 0.0040039415
0002c0 4a e4 d2 3c 37 be 0d 3c 8b 38 08 3d 15 b9 2d 3d
       0.025743622 0.008651308 0.03325705 0.042412836
0002d0 0f b8 4d 3d ea f7 de 3c 8a 1f 14 3d db 7c 2e 3d
       0.05022436 0.027217824 0.03616289 0.04259954
0002e0 f3 27 be 3b 7a cc 57 3c 08 ae 6b 3d b3 b8 d2 3b
       0.005803102 0.01317131 0.057539016 0.0064307093
0002f0 db b2 c2 3c 1e e5 49 3d 68 c7 e3 3a 12 f5 8c 3c
       0.023766926 0.04929077 0.0017378153 0.017206702
000300 a1 45 04 3d 01 e6 14 3d 72 01 91 3c 18 6b e7 3c
       0.032292966 0.03635216 0.017700884 0.028249308
000310 e8 43 f3 3c a2 3c 22 3d bf 77 08 3d 40 99 ea 3c
       0.029695466 0.039608605 0.033317324 0.028637528
000320 cc cc 4c 3b b1 92 21 3d 58 da f8 3c a2 c9 3d bb
       0.0031249998 0.039446536 0.030377552 -0.0028959294
000330 4d d9 3d 3d 08 0a ae 3c 20 cf 2b 3d 04 ee 99 3c
       0.046349812 0.021245018 0.041945577 0.018790253
000340 52 6c ce 3c a4 6f 32 3d bf e9 17 3d cc 12 af 3c
       0.025198136 0.0435635 0.037088152 0.021371268
000350 ff a9 19 3d 84 77 ae 3c 9e 8e 0d 3d 37 54 fd 3c
       0.037515637 0.021297224 0.03455984 0.030923946
000360 52 d2 02 3d 5f 7d 11 3d 24 8c c2 3c 5a e8 13 3d
       0.03193886 0.035519954 0.023748465 0.03611026
000370 91 a3 44 3d 06 bd 8d 3c 87 26 e1 3c 73 ae 07 3d
       0.04800755 0.017302047 0.027484192 0.033125352
000380 e8 22 fd 3b fe 46 01 3d ef 86 13 3d 19 02 38 3d
       0.0077251084 0.031561844 0.036017355 0.044923875
000390 53 1f 4e 3c e3 30 89 3c 1c 90 19 3d b6 f5 19 3d
       0.01258071 0.016746944 0.03749095 0.037587844
0003a0 9a 28 15 3d 43 b3 8a 3d f8 32 42 3d 0e 66 1e 3d
       0.036415674 0.06772473 0.04741189 0.038671546
0003b0 d5 9a be 3c 65 d7 04 3d ce 4c 82 3c 33 b7 2b 3d
       0.023267189 0.03243198 0.015905764 0.04192276
0003c0 c1 a4 d6 3c 78 46 2b 3c 8a 44 ef 3c e3 b8 94 3b
       0.026201608 0.010453813 0.029207487 0.004538642
0003d0 9a 75 88 3c 32 d6 ba 3c 25 60 44 3d 1f 8f 87 3c
       0.01665764 0.022807214 0.047943253 0.016547738
0003e0 1d 13 64 3d ef 41 96 3c 03 73 d1 3c c0 0b 2f 3c
       0.05568229 0.018341986 0.025567537 0.010683954
0003f0 c6 f5 49 3d e1 ca 4a 3c bf ac 9a 3c ba ec 91 3c
       0.049306653 0.012377472 0.0188812 0.017813075

bias f4 [30]
000000 48 9f 7e 3d c0 93 f3 bb fc 44 43 3c b6 50 51 3d
       0.06216362 -0.0074333847 0.011918303 0.051102363
000010 6a 0c 11 3c 21 88 28 3d 76 b0 27 3d 38 5a 60 3d
       0.008853057 0.041145448 0.04093977 0.05477354
000020 16 20 c1 bc 8a d0 38 3d 64 20 57 3d 89 ed 4a 3d
       -0.02357487 0.045120753 0.052521124 0.049542937
000030 c1 b1 1b 3d 04 fc 99 3c 69 70 38 3d 5d da 29 bd
       0.038011316 0.018796928 0.045029078 -0.041468013
000040 c9 87 cb bb 94 38 79 bd 27 95 f1 bc 34 6c bc 3c
       -0.006211255 -0.060844973 -0.029490067 0.023000814
000050 0a b3 c9 3c e7 57 5b bd 1a 60 91 3c fa 19 69 3d
       0.024621505 -0.053550627 0.01774602 0.05690954
000060 5c 8f 8c bc 6a 3c b0 bb 5d 91 56 bc a9 8b d5 3a
       -0.017158203 -0.0053782957 -0.013096181 0.0016292232
000070 80 70 71 bd d7 54 0b bd
       -0.05894518 -0.034016456

weight f4 [30]
000000 c5 5f 75 3f e9 30 64 3f b3 94 78 3f 15 c9 5e 3f
       0.9584926 0.8913713 0.97101897 0.87025577
000010 b9 2a 69 3f 04 1d 7c 3f 32 fd 61 3f c3 d4 71 3f
       0.91080815 0.98481774 0.8827697 0.94465274
000020 c5 92 56 3f b6 09 4f 3f 36 ed 54 3f 91 3a 57 3f
       0.838177 0.8087419 0.83174455 0.8407374
000030 9a e4 6e 3f d0 28 6a 3f af 32 75 3f c9 00 74 3f
       0.9331757 0.91468525 0.9578046 0.953137
000040 9b c6 82 3f 3c 84 6a 3f 85 6a 5e 3f 5e 10 68 3f
       1.021686 0.91608024 0.86881286 0.90649974
000050 f9 a6 79 3f 73 81 7c 3f 08 95 6f 3f b3 d6 75 3f
       0.97520405 0.98635024 0.9358678 0.9603073
000060 bf 53 69 3f e9 ab 5a 3f 10 33 6d 3f 6f b8 61 3f
       0.9114341 0.85418564 0.9265604 0.8817205
000070 6a 5c 7b 3f 28 b2 51 3f
       0.9818789 0.8191247

bias f4 [30]
000000 14 06 a0 be 1d 80 8b be db 67 52 be a0 ac 76 be
       -0.31254637 -0.2724618 -0.2054743 -0.24089289
000010 c6 40 41 be fd 0a 70 be 0c 22 8a be 07 0a 9f be
       -0.18872365 -0.23441692 -0.269791 -0.31062338
000020 5d af 72 be d5 57 85 be 61 46 7b be 9d fe 9e be
       -0.23699708 -0.26043573 -0.24538566 -0.3105363
000030 38 b5 61 be f9 f1 65 be 52 cd 71 be 46 a7 ac be
       -0.22041786 -0.22455586 -0.2361348 -0.3372137
000040 24 f8 92 be 05 56 51 be c8 7d 8a be 3c a7 56 be
       -0.2870494 -0.2044297 -0.27049088 -0.20962232
000050 a4 ce 98 be 27 05 73 be 76 d1 8a be 95 cc 7f 3e
       -0.29845154 -0.23732434 -0.2711293 0.24980386
000060 fa 74 89 be 05 96 87 be f1 5f b2 be af 1f 5f be
       -0.2684706 -0.26481643 -0.34838822 -0.2178943
000070 b0 77 9f be f4 8e 83 be
       -0.31146002 -0.25695002

running_mean f4 [30]
000000 28 3a 74 40 b8 cd 89 40 cc fb 87 40 b2 86 8b 40
       3.8160496 4.306362 4.249487 4.3601923
000010 09 0b 8c 40 eb 7b 8c 40 19 ed 8c 40 8b f7 82 40
       4.376347 4.3901267 4.4039426 4.0927176
000020 c7 0e 74 40 0d cd 8a 40 25 86 8a 40 02 00 80 40
       3.813402 4.3375306 4.328875 4.000001
000030 fb 29 82 40 03 85 8b 40 40 a4 84 40 64 5e 85 40
       4.0676246 4.359987 4.14505 4.1677723
000040 b8 ef 81 40 5e e6 83 40 e8 0d 86 40 f1 36 86 40
       4.0605125 4.121871 4.1891975 4.1942067
000050 ba 19 7f 40 9d e2 7b 40 fd 8e 88 40 6e 4a 84 c0
       3.9859452 3.9357064 4.2674546 -4.1340857
000060 34 0e 80 40 49 bd 86 40 d5 39 80 40 50 69 88 40
       4.001734 4.210606 4.0070596 4.2628555
000070 d1 4e 84 40 52 87 81 40
       4.134621 4.0477686

running_var f4 [30]
000000 39 30 99 40 6a fb c9 40 59 e6 c2 40 bc 7f c9 40
       4.7871366 6.31194 6.0906186 6.2968426
000010 88 0e cf 40 81 48 cd 40 2a 7c ce 40 76 08 b1 40
       6.470524 6.4151006 6.4526567 5.532283
000020 b8 02 a0 40 b3 f9 c7 40 24 7c c6 40 c1 c3 a9 40
       5.000332 6.249231 6.202654 5.3051457
000030 9f 4b b0 40 0c 90 cc 40 00 82 b6 40 6d 59 c0 40
       5.509231 6.392584 5.703369 6.010916
000040 52 be b3 40 8c eb bd 40 2c 29 c1 40 e4 db bc 40
       5.6169825 5.9350033 6.036276 5.901842
000050 f7 b1 aa 40 cf eb ac 40 4a 00 c4 40 86 91 be 40
       5.334224 5.403785 6.1250353 5.955264
000060 6e 9e af 40 9b e3 c0 40 1d 91 af 40 b8 00 c5 40
       5.4880896 6.027784 5.486464 6.1563377
000070 6f fe be 40 c0 ec b4 40
       5.968559 5.6539

weight f4 [30, 30]
000000 8a 42 7b 3e 98 42 5c bc 53 7c a1 bd b5 ef f3 bb
       0.24537101 -0.013443612 -0.07885041 -0.007444347
000010 67 71 25 3e 60 cd e0 3d b8 2b 43 3b 76 6c 05 bd
       0.16156541 0.10976672 0.0029780697 -0.03257414
000020 06 dd 0c 3d 63 11 15 3e a7 d0 91 bc bf ad a9 3d
       0.034390472 0.14557414 -0.017799689 0.082850926
000030 48 7a ba 38 ce 0e a6 bc 8e c4 f7 3d 86 d9 18 bc
       8.891948e-05 -0.020270731 0.12098037 -0.009329205
000040 2f 2b a7 3d 8b 23 fb 3d 9b 87 0f be 04 44 9a bd
       0.081625335 0.12262639 -0.14016573 -0.07532504
000050 95 44 67 3e 66 64 a4 3c 04 c9 a7 3d 6b c3 be 3b
       0.22584756 0.020067405 0.081926376 0.0058216355
000060 ed 2d 2d 3e 0f d0 38 3d ae 47 80 3d bd 5d aa 3d
       0.1691205 0.045120295 0.06263672 0.083186604
000070 1b 7b 83 3d b4 a6 a8 3c 5f 63 a6 bc 6f 19 95 bc
       0.06419965 0.020587303 -0.020311056 -0.018200604
000080 01 d0 6a 3d 9d 31 97 bc d5 52 93 bb 03 f1 98 3c
       0.057327274 -0.018456275 -0.0044959583 0.01866961
000090 7e 18 80 bd 42 02 64 3d 2a 05 f9 3d 45 82 b4 bc
       -0.062546715 0.055666216 0.12159188 -0.022034774
0000a0 5c ff 83 bd 02 13 49 3d 75 5a 18 bd 69 1e 26 3e
       -0.0644519 0.049090393 -0.03719564 0.16222538
0000b0 3f df 77 3e db b4 1f 3e b0 89 12 3e a5 58 95 bd
       0.24206255 0.15596335 0.14310336 -0.07292298
0000c0 85 2e 4c 3c 7f 49 ef 3d dd a3 3d 3e fe d9 14 bd
       0.012462263 0.1168394 0.1851954 -0.036340706
0000d0 a7 7b 45 bd d9 b1 84 3b d1 f3 3a 3e d0 58 00 3d
       -0.048213627 0.0040495214 0.18257071 0.0313347
0000e0 e5 84 dc bb 9c 61 d2 3c 02 5f 76 3e 2c 47 73 3d
       -0.0067297095 0.02568131 0.2405968 0.059394047
0000f0 43 fb 0f 3e 8f 99 2d be d2 06 71 bc 3b 07 16 3d
       0.14060692 -0.16953109 -0.014711099 0.03662799
000100 db 6a 24 3e 00 e0 b8 3d 75 bc 94 3b e1 b4 45 3e
       0.16056387 0.090270996 0.0045390674 0.19307281
000110 02 96 d6 3d 80 c5 07 ba a2 c7 5b 3d 71 76 c3 bd
       0.104778305 -0.0005179271 0.05365718 -0.09544075
000120 a6 cb a3 3c df c0 a2 bd e4 83 b3 3d 4a ea 32 bd
       0.019994568 -0.079469435 0.087653905 -0.043680467
000130 db c2 b9 bd 1c 19 2a bd 5f 4f 14 be 19 d2 c4 3d
       -0.09070369 -0.041527852 -0.14483403 0.096103854
000140 ca fd 0b 3e 84 35 be bb bc 42 66 3d b9 4b 1f 3d
       0.13671032 -0.0058047194 0.056215987 0.038890574
000150 25 91 e2 3d 45 0a e1 bd 5b 29 db bb 17 2d b2 3c
       0.1106284 -0.10988287 -0.0066882796 0.021750016
000160 38 f0 6e bb 8b 9e 0e bc 51 20 29 3c 2b 71 8f 3d
       -0.00364591 -0.008704792 0.010322646 0.07004007
000170 b0 46 6e 3d fa 80 b3 3d 19 1d fb bb 80 66 d1 3d
       0.05817288 0.08764835 -0.007663381 0.102246284
000180 a6 55 78 bd b4 ab 27 3e d6 ec 60 3e 7f ae c1 bd
       -0.060628556 0.16374093 0.21965346 -0.094571106
000190 35 8e 93 bd 1f 1b c8 3d 94 de 72 3c cc fc fb 3d
       -0.07204858 0.09770798 0.014823575 0.123040766
0001a0 ff 5a 1d bd 0b aa 5d bd fc eb 2e 3d 1b cc bb 3d
       -0.03841686 -0.054117244 0.04270552 0.091697894
0001b0 5f ad f0 bd f2 70 62 bd e7 57 33 3e e8 18 3c 3e
       -0.11751818 -0.055283494 0.17514001 0.18368876
0001c0 be 75 ac 3d bd 89 29 3c 28 3c 26 3e 45 e4 3d 3e
       0.08420895 0.010347781 0.16233885 0.18544109
0001d0 01 d6 46 3e bf f4 be bd 13 0e a7 3c c4 21 31 3d
       0.19417574 -0.09324025 0.020392453 0.043245092
0001e0 50 c0 96 3c a8 0e 4f 3d c4 7c 1a 3c 01 5e 30 bc
       0.018402249 0.050551087 0.0094291605 -0.0107646
0001f0 f0 58 a3 3d 8f ef b2 3d 11 53 33 bd a2 3a ed bc
       0.07975948 0.087370984 -0.04378039 -0.028958622
000200 e5 d2 a1 3d fe 28 f9 bd 6a 48 ad bd 32 b8 3e be
       0.07901553 -0.12166022 -0.084610775 -0.18624952
000210 d2 ea ab bc d7 da 59 bd 2a b4 34 bd 58 14 17 3e
       -0.020985994 -0.053187218 -0.04411713 0.14753854
000220 13 59 1b 3c 1d 1b 14 3d 48 09 25 be e3 32 d5 3d
       0.009481686 0.03615867 -0.16116822 0.104100965
000230 f0 22 5d 3d 16 ac 38 3d 7b f4 1c 3e ac a6 2e 3d
       0.053988397 0.04508599 0.15327637 0.04263942
000240 01 5a c4 3d 33 b2 ab bd ae 6c a1 3d 40 73 9b 3d
       0.095874794 -0.08383598 0.07882057 0.075903416
000250 0e f7 99 bd 3b cf 96 3d 55 ce 24 be 51 cc e5 3d
       -0.07517825 0.07363745 -0.16094334 0.11220611
000260 09 3a 97 3c 79 e5 f4 bd af 68 84 bd 1f 34 8a bd
       0.01846029 -0.11957831 -0.06465279 -0.067482226
000270 fa 5d 29 be c2 25 01 be ed f0 93 bc 01 9e bd bd
       -0.16539755 -0.1261206 -0.018059218 -0.092586525
000280 82 d1 ad bd 3c a6 8a bd f1 9b 78 bd f5 6e a4 3d
       -0.08487226 -0.06769988 -0.060695592 0.08028976
000290 50 a4 69 bc 54 fe 6a be fd 6d 04 bd cf ba fc bd
       -0.014260367 -0.22948581 -0.032331455 -0.123403184
0002a0 51 1d 17 be 9e 9e d6 3c e1 30 d9 bd fe 9c fb bc
       -0.14757277 0.026198681 -0.10605026 -0.030714508
0002b0 8e 9f d0 bd 59 8e 52 be 57 79 6b bc 6d e9 9a 3d
       -0.10186683 -0.20562114 -0.014372191 0.07564054
0002c0 0a 91 15 bd ef 9d 97 bd a5 a0 47 be 3e 97 d7 bd
       -0.036515273 -0.0740317 -0.19494875 -0.10526894
0002d0 bf 00 bf 3d 49 33 bc 3d de bf c0 3d f9 fb b0 bd
       0.09326314 0.09189469 0.09411596 -0.0864181
0002e0 b7 cc 2a 3d f0 55 1d 3e 2c eb 9c 3d 30 00 8a bd
       0.041699138 0.15364814 0.07662043 -0.06738317
0002f0 07 f0 0f bd 86 3d e7 3c e9 cc 01 be 00 1a 17 3e
       -0.035141017 0.028227579 -0.12675823 0.14756012
000300 82 90 e1 3d 75 bd 0c 3d 93 a5 1e bc 7b b8 c6 3c
       0.11013891 0.034360368 -0.009683031 0.024257889
000310 92 86 47 3d 3d 01 19 bd 6e ce 31 3e ae 07 3b bd
       0.04871232 -0.037354697 0.17363903 -0.04566162
000320 42 23 3e 3d 55 e7 56 3e 49 ce c1 bc f2 71 a4 3b
       0.046420343 0.20986684 -0.023657935 0.005018466
000330 12 a3 af 3d a2 a3 aa bd a0 b4 e2 3d 36 5b d4 bd
       0.08576025 -0.08331992 0.11069608 -0.103689596
000340 41 83 3e 3e b2 b0 70 3c 30 ed 87 3e 75 5f 4f bd
       0.18604757 0.014690565 0.26548147 -0.050628144
000350 a5 c7 2a 3e ce 56 34 bd 2a c8 fc 3d 8f 68 bc bd
       0.16677721 -0.044028096 0.12342866 -0.091996305
000360 25 b3 68 3d d8 e6 3b 37 53 09 84 bd 50 02 b8 3d
       0.05681147 1.1199816e-05 -0.06447091 0.08984816
000370 e4 24 07 3d fe 9b 62 3e a9 16 b7 bc 18 9c 8c 3d
       0.032994166 0.22129819 -0.022349672 0.0686571
000380 10 01 87 3d 4f b3 39 3e f5 75 05 3e 30 dc 26 3b
       0.065919995 0.18134807 0.13033278 0.0025460832
000390 b3 d7 16 3e 82 04 d5 3c dc 5b 4a 3e 37 a1 a1 3d
       0.1473072 0.026003126 0.19761604 0.078920774
0003a0 c8 ad c1 bb c6 0a f2 bc d7 28 a6 3d 93 56 c3 bd
       -0.005910609 -0.029546153 0.08113258 -0.09537997
0003b0 1b 62 03 3e 7f d4 b9 bd 72 15 a4 3d cd 8a ac bd
       0.12830393 -0.090737335 0.08011903 -0.08424912
0003c0 ba f2 35 3c 13 51 35 3e f5 54 d0 bc 44 f6 99 bd
       0.011105234 0.17706709 -0.025431136 -0.075176746
0003d0 31 c1 18 3e 0f 90 07 3d e9 1b 37 bd 05 2f 36 3e
       0.14917447 0.03309637 -0.04470435 0.17791374
0003e0 4c 26 9e 3d fc 65 a2 bc 60 e2 08 be 01 c0 b4 3b
       0.07722148 -0.01982402 -0.13367605 0.0055160527
0003f0 09 02 50 3c 9d 6a c4 ba 2f 7e 04 3e 16 d2 30 3e
       0.012695798 -0.0014985387 0.1293876 0.17267641

bias f4 [30]
000000 34 9e d2 3d 9f 03 19 3e b9 7c 94 3d a6 84 33 3e
       0.10284081 0.14942788 0.072503515 0.1753107
000010 78 31 22 be 61 32 0c bd 47 db 8f bb 05 c4 74 3c
       -0.15839183 -0.034227733 -0.0043901536 0.014939313
000020 8d f6 f4 3b 55 2b 39 be a3 45 81 3d 30 92 98 3d
       0.00747568 -0.18082936 0.0631211 0.07449758
000030 d1 8f 1f 3d dd 19 93 bb 5b 2e 9d 3d fb 76 df bd
       0.038955513 -0.004489167 0.07674857 -0.109113656
000040 93 f4 59 3c 05 be 35 3d b1 e0 ba 3c 57 a1 22 be
       0.01330294 0.04437067 0.02281222 -0.15881859
000050 54 22 34 be c3 f4 38 3d 7d f0 07 be 76 80 9a 3d
       -0.1759122 0.045155298 -0.13275333 0.07544033
000060 20 d2 e6 bd 60 85 13 be b1 4b 75 3d 11 8a 0f be
       -0.11270547 -0.14406347 0.059886638 -0.14017512
000070 77 1a 80 39 dd 7a de 3c
       0.0002443378 0.027158195

weight f4 [30]
000000 35 c2 7b 3f 6c 2f 7e 3f 89 5d 84 3f 3c 9d 76 3f
       0.9834321 0.9929111 1.0341045 0.9633367
000010 ab 5d 82 3f 82 32 64 3f f8 77 70 3f 18 7c 85 3f
       1.0184835 0.8913957 0.9393306 1.0428495
000020 2e ce 86 3f 90 e3 87 3f ce 4b 62 3f 0d 2f 7f 3f
       1.0531671 1.0616322 0.8839692 0.9968117
000030 7c cd 84 3f 85 c3 81 3f e4 dd 81 3f 64 6c 86 3f
       1.0375209 1.0137793 1.0145841 1.0501828
000040 c2 55 73 3f 17 e2 84 3f 73 20 80 3f 21 ef 86 3f
       0.9505273 1.0381497 1.0009903 1.0541726
000050 2e e1 84 3f ec 11 84 3f 24 f6 85 3f cb ab 83 3f
       1.0381219 1.0317969 1.0465741 1.0286802
000060 2b 47 62 3f 93 9a 80 3f d1 7a 7b 3f b6 d4 7e 3f
       0.88389844 1.0047172 0.9823428 0.9954332
000070 5b b2 7e 3f 46 c6 84 3f
       0.994909 1.0373008

bias f4 [30]
000000 71 82 91 bd e6 70 93 bd 00 8d 45 bd 91 41 8f bd
       -0.07104958 -0.07199268 -0.04823017 -0.06994928
000010 ad a6 9b bc ca fc a1 bb 87 06 83 bd e2 fc b4 bd
       -0.019000376 -0.004943465 -0.06397729 -0.08837296
000020 4b b7 b3 bd b8 1d b2 bc a2 ee 9e 3c ed ec 7d bd
       -0.08775195 -0.021742687 0.019400898 -0.06199353
000030 8b 9e f1 bd d2 9a ea bd c5 29 40 bd e0 8a d7 bd
       -0.11797818 -0.11455311 -0.046914835 -0.10524535
000040 ce 2a 00 bd ec e3 45 bd 99 5f bb bd ef dd a7 bd
       -0.03129082 -0.048313066 -0.09149093 -0.08196627
000050 66 9d d6 bd db 6b 8d bd bb 90 e1 bd 9e 74 d1 bd
       -0.1047924 -0.069053374 -0.11013933 -0.10227321
000060 c9 dd 54 3c 3b fc d5 bd 0e 55 44 bd ec 5e ee bc
       0.012992331 -0.104485 -0.047932677 -0.029097997
000070 89 38 57 bd 86 73 8d bd
       -0.05254415 -0.069068

running_mean f4 [30]
000000 ec 77 b7 3e e3 a0 cd 3e c7 50 44 3e ae 7d e1 3e
       0.3583368 0.4016181 0.19171439 0.44041198
000010 21 ae 8c bd 77 69 e3 be f9 8a 4a 3e bd d3 85 3e
       -0.0686915 -0.444164 0.19779576 0.26138106
000020 d2 38 5c 3e dd 35 9a bd eb 75 84 be c4 90 9c 3e
       0.2150605 -0.07529805 -0.25871214 0.30579197
000030 35 8b 89 3d da 2f 21 3d 39 a7 6d 3e aa fd 03 bb
       0.06716005 0.039352275 0.23208322 -0.002014021
000040 23 de 1f 3e 75 d6 88 3e ca 4d 3d 3e 1d a9 ac 3d
       0.15612082 0.26726118 0.18486705 0.08430693
000050 e3 d3 a4 bd 2a 4e aa 3e b7 9e 58 bd 52 4c 2e 3e
       -0.08048227 0.3326276 -0.052885737 0.17021301
000060 e1 9a bc be 32 c9 c9 bd 88 4a 56 3e 13 5d b9 bc
       -0.36836913 -0.09852828 0.20926869 -0.022627389
000070 87 af 1e 3e 6a 6e 89 3e
       0.15496646 0.26842052

running_var f4 [30]
000000 56 d0 0b 3f f5 bf 09 3f 3c fb 76 3d 7c c9 14 3f
       0.5461477 0.5380853 0.06029819 0.5811994
000010 44 ef b6 3c e5 2c 30 3f 70 62 b2 3e c4 9f 2a 3f
       0.022330888 0.68818504 0.34840727 0.66650033
000020 af 7e c6 3e a6 27 ff 3c 13 e3 ff 3e 45 60 c4 3e
       0.38768527 0.031146836 0.4997793 0.38354698
000030 78 1f 2f 3d c0 29 b7 3d f7 f2 f7 3d 72 e6 36 3e
       0.04275462 0.0894351 0.12106889 0.17861345
000040 62 be a8 3d 6f 3a 94 3e 2a 50 aa 3e e1 7d 13 3f
       0.08239438 0.2895083 0.33264285 0.5761395
000050 eb 2e 39 3e fe c0 26 3f 0b c0 05 3e bc 6a 24 3e
       0.18084304 0.6513823 0.1306154 0.16056341
000060 6e 24 a2 3e a5 e8 c2 3d 01 bf c9 3d c5 79 32 3d
       0.3166842 0.0951703 0.09850884 0.04357316
000070 ac 7a 03 3e dc 1b d7 3e
       0.12839764 0.42013443

weight f4 [251, 30]
000000 b4 db 10 be f6 74 00 be f9 60 0d 3e 12 0e 8d 3d
       -0.1414631 -0.12544617 0.13806523 0.06887449
000010 14 09 59 bc b3 bd 62 3d 25 70 82 3d 2d 99 c5 bd
       -0.013246793 0.055356693 0.06369046 -0.096483566
000020 48 f8 12 bb be f5 d8 3d cc 3c bc 3d b1 f3 af 3d
       -0.002242582 0.105937466 0.091912836 0.08591402
000030 ff 24 95 bd 67 61 9a bd dd 71 24 3d a5 33 be bd
       -0.07282447 -0.07538109 0.04014765 -0.09287194
000040 6b 0b 19 3e f5 66 b1 bc ea 67 e2 bd 12 17 db bc
       0.14945762 -0.021655539 -0.11054976 -0.0267444
000050 aa 2a 93 bd e1 54 89 bd ad 75 0a be 8d f2 59 3b
       -0.07185872 -0.067056425 -0.13521452 0.0033256144
000060 f5 54 0d be bf 24 56 be 3b 49 57 3e 6d a0 d6 3d
       -0.1380194 -0.20912455 0.21024029 0.104798175
000070 1b 8f 42 3e bb 67 83 3d f3 69 72 3d 80 a1 9e bd
       0.18999903 0.064162694 0.059183072 -0.077456474
000080 96 99 4a 3e ac 38 d5 bc 43 b9 ae bc a0 3f 37 3a
       0.19785151 -0.026028 -0.021328574 0.0006990377
000090 17 c6 a9 ba b5 ef 9e bd 92 51 07 be 9a 41 f5 3d
       -0.0012952712 -0.07760564 -0.1321471 0.11975403
0000a0 a3 e4 e6 bc b9 b5 51 be 8c 4e c0 3c 15 53 b8 bb
       -0.028185194 -0.20479478 0.023474954 -0.0056251385
0000b0 5b 34 52 3d 9d 9e 05 be a1 78 f3 bd ed bd 83 3c
       0.05131946 -0.13048787 -0.118882425 0.016081775
0000c0 b4 9f 02 3e 02 85 78 3d 07 76 23 3b dd b0 19 bd
       0.12756234 0.06067372 0.0024942176 -0.037522186
0000d0 f5 64 30 bd 94 49 83 3e 90 a0 15 3c 9f 07 01 3e
       -0.04306503 0.25642073 0.009132519 0.12600563
0000e0 92 58 b9 bd 0e 6a a7 3d ab 06 4b be 66 a0 d5 3c
       -0.090500966 0.08174525 -0.19826762 0.02607746
0000f0 f1 d5 91 bd 06 38 cd 3d ae 4d 50 3d 4e 3c 33 3b
       -0.07120884 0.10020451 0.05085533 0.0027349177
000100 4f f4 52 be 65 d3 84 3c c6 23 a9 3c a2 8b 19 3b
       -0.20601009 0.016214082 0.02064694 0.0023429175
000110 6c 5a d4 3d 42 f6 c9 bd 38 87 69 bd 35 21 47 3d
       0.10368809 -0.09861423 -0.05701372 0.048615653
000120 96 53 75 3d 33 62 30 bc 6e 42 b0 3b dc 0b d4 bd
       0.059894167 -0.0107656 0.005379013 -0.103538245
000130 52 54 8a bc af d3 46 be c3 93 cf 3c 77 c1 3e bc
       -0.01688591 -0.19416688 0.025339013 -0.011642805
000140 21 9d 5a bd 39 53 cc 3d 6a 6f 5b 3e 21 20 3c 3e
       -0.053372506 0.09976811 0.2142922 0.18371631
000150 4d 0f 3c 3c 84 1f 8b bc b2 16 9b 3d 75 79 0a be
       0.011478257 -0.016982801 0.07572688 -0.13522895
000160 28 81 15 3d 72 00 9f bd 2d 08 ec bd de 6f e3 3d
       0.036500126 -0.07763757 -0.11524997 0.11105321
000170 2c b2 06 3d 4e 43 61 bd d4 40 d4 bd ce 79 37 bb
       0.03288476 -0.054995827 -0.103639275 -0.0027996185
000180 55 12 00 3d 17 69 ac bd 98 95 b2 3d 16 8d 49 be
       0.031267483 -0.08418482 0.08719939 -0.19682726
000190 ce ce 55 3c 61 8b 33 be ea 36 66 3e 3b 60 45 3e
       0.013049794 -0.17533638 0.22481886 0.1927499
0001a0 77 af 3b bc 4a 3d 6b bd 95 cc 31 be 83 4b 1e bd
       -0.011455408 -0.057431497 -0.17363198 -0.038646232
0001b0 dc 95 33 3d 06 fd b0 bd f1 d8 53 3c 34 69 e1 bc
       0.04384409 -0.086420104 0.012930141 -0.027515985
0001c0 3f 90 1e 3e 81 08 11 bd 92 35 59 bd 54 82 e5 3d
       0.15484713 -0.0354085 -0.053029604 0.11206499
0001d0 b4 21 e0 3d 82 cc f8 bc fd 0c 88 3d 15 4e 4e 3d
       0.10943928 -0.030370954 0.06643102 0.050367434
0001e0 9d f0 f7 bd fe 76 d2 3d 8b c1 03 3d 7a 74 1f be
       -0.1210644 0.10276602 0.032167 -0.15571776
0001f0 02 20 19 bd bc 87 56 bd 16 88 6f bc f3 1f d4 3d
       -0.03738404 -0.05237554 -0.014619848 0.10357656
000200 9b d8 13 3e a3 87 bc bd b5 37 c0 3d f5 c8 f8 bc
       0.14438097 -0.09205558 0.09385625 -0.030369261
000210 be 26 7b bd 64 24 5c bd 99 68 34 bd ec ad 08 be
       -0.061316244 -0.053745642 -0.044045065 -0.13347596
000220 c1 e7 6a bc 88 ee 0c 3e 21 cc a2 3d 9d d6 04 3e
       -0.014337481 0.13762867 0.07949091 0.12972493
000230 80 66 d6 3d a0 b1 f0 bd d1 d8 1d 3e 92 5c 95 bd
       0.10468769 -0.11752629 0.1541474 -0.07293047
000240 1a 72 74 bd 34 1b b8 3d 5b 1a 74 3d bb aa 56 be
       -0.05967913 0.089895636 0.059595447 -0.20963566
000250 81 3a 94 3d b4 04 6a bd 9f d1 0a 3e da 07 a6 3b
       0.07237721 -0.05713339 0.13556527 0.005066854
000260 59 cf 02 be 32 82 f1 3d db 40 4f be 04 9e e7 3b
       -0.1277441 0.11792411 -0.20239584 0.0070683975
000270 49 42 1c 3d 77 d3 1d 3e 36 4b e2 bb 34 5b c1 3d
       0.038149152 0.15412699 -0.0069059385 0.09441224
000280 b2 a6 97 3c fe 26 a4 3d 19 f9 0f be c9 68 38 3e
       0.018512104 0.0801525 -0.14059867 0.18008722
000290 93 98 fd 3c 22 9c f4 bd 7c 31 1b be 7f ef a8 bd
       0.030956542 -0.119438425 -0.15155596 -0.08248805
0002a0 b1 53 89 bd 55 e5 c2 3d 34 75 0d be 4e 48 04 3e
       -0.06705416 0.09516398 -0.1381424 0.12918207
0002b0 03 ea a4 3d 11 bd 0b bd fd 25 6c bd 5f d3 75 3e
       0.08052447 -0.034115855 -0.057653416 0.24006413
0002c0 98 0b bc 3d 15 73 4c be 23 c5 14 be 4f 0c de bc
       0.09181899 -0.19965775 -0.14528327 -0.027105479
0002d0 c8 eb 9b 3d 72 b8 34 bd f3 22 a7 3d 8f 5d 81 3c
       0.07613331 -0.044121213 0.08160963 0.015791683
0002e0 ce 08 b5 bd 0d e9 ed 3d df 90 95 bd 6e 32 f1 3d
       -0.0883957 0.116167165 -0.073030226 0.11777197
0002f0 dd 33 29 be 8c f2 cd bd e2 6d 27 be 36 a6 af bd
       -0.1652369 -0.10056028 -0.1635051 -0.08576624
000300 21 93 ae bc 43 0c 55 3d 30 67 03 bd 90 8b 6d bd
       -0.02131039 0.052013647 -0.03208083 -0.057994425
000310 60 ac 1d 3e ab 09 ef 3d 1a fe 21 3d c3 54 3f 3e
       0.15397787 0.11671766 0.03954897 0.18684678
000320 00 e9 87 3a 12 79 a3 3d 9d 07 5a be d5 0b ef bd
       0.0010369122 0.07982077 -0.21291967 -0.11672179
000330 60 92 06 3d 90 f3 db 3d 40 97 78 bd ac be 39 3d
       0.032854438 0.10739815 -0.06069112 0.045347854
000340 6f 29 f6 3d 99 1a 01 be bd 2c a4 bd bd 8a 12 be
       0.120196216 -0.12607802 -0.08016346 -0.14310737
000350 c5 4e 13 be 98 52 c6 3d 0c 25 08 be 39 d4 70 bc
       -0.14385517 0.09683722 -0.13295382 -0.014699035
000360 d7 50 c5 bc 59 f8 87 bd 31 96 5d 3e 3c af 9f bd
       -0.024086399 -0.066391654 0.21639325 -0.07797095
000370 01 12 38 3c 34 ec a5 3d 42 f3 ee 3d bb db f1 3d
       0.011234761 0.08101693 0.116674915 0.118094884
000380 67 b3 05 3e e9 bb 98 bd 5b 8d ca 3c c3 93 b2 3d
       0.13056718 -0.07457716 0.024725607 0.087195896
000390 a9 6a 0f 3d 9c a9 17 bd 04 11 a4 bd 2d 17 cc bd
       0.03501383 -0.037026986 -0.08011058 -0.09965358
0003a0 3a d7 33 3e b5 be 26 bd 4c 1e 8f bc b7 d8 8a bd
       0.17562571 -0.040709216 -0.017470501 -0.06779616
0003b0 1e 2c 16 be 8c 76 9c 3d e0 ca a1 3d 61 c2 23 bc
       -0.14665267 0.076397985 0.079000235 -0.009995074
0003c0 cd e5 4d bd ca a1 09 3e 38 f2 9d 3d 64 6f 20 be
       -0.050267983 0.13440624 0.07712215 -0.15667492
0003d0 02 cf 0c bc d8 6a 19 3d f6 ed b2 3d 98 0f 37 bd
       -0.008594276 0.03745541 0.08736794 -0.044692606
0003e0 21 f1 06 3d 75 c8 21 3c fd c1 b9 3c 97 37 52 bd
       0.032944802 0.009874453 0.022675509 -0.051322546
0003f0 70 87 09 3e bc 0c 1c 3e 64 c4 28 be 65 58 0d 3e
       0.13430572 0.15239233 -0.16481167 0.13803251

bias f4 [251]
000000 54 7b 2a 3e 2d 40 18 3e 6b d4 c2 bd 6e 90 b4 bd
       0.16648608 0.14868231 -0.09513172 -0.0881661
000010 7b 15 23 3e cb e9 40 3d 29 cc 0f 3d ba 35 6c bd
       0.15926163 0.047097962 0.03510681 -0.057668425
000020 42 b7 20 be b5 89 09 bd 27 32 14 3e 56 cc 98 3d
       -0.15694907 -0.033578593 0.14472257 0.07460849
000030 06 b8 f0 bd c0 fe bc bb 31 ab 14 be 9f bb f4 3d
       -0.1175385 -0.0057676733 -0.1451843 0.119498484
000040 82 a8 23 3e 75 31 c2 3c d1 91 1c be b5 56 0b be
       0.1598225 0.023705224 -0.1529 -0.13607295
000050 45 6c aa 3d 78 59 6c 3d 78 92 3a be 5c 27 c5 3d
       0.08321432 0.05770251 -0.18219936 0.09626648
000060 95 99 f5 bd 9d 23 8c bc fe 39 05 3d 63 df 02 bc
       -0.11992184 -0.017106825 0.03252601 -0.00798783
000070 c7 04 57 bd 5e 8a 81 bc d3 4c c7 bd 22 92 5f 3d
       -0.05249479 -0.015813049 -0.0973145 0.054582722
000080 d1 f0 89 bc 30 75 29 3e f8 5c 0d 3d 7a 71 34 3e
       -0.016838463 0.1654861 0.03451249 0.17621413
000090 ad 74 2c be 4a 9b 4f bd 71 aa fe 3d c5 47 a3 3d
       -0.16841383 -0.050685205 0.12434853 0.07972673
0000a0 80 bc 23 be d3 a9 f9 3d da 9d 67 bd f5 61 c8 bd
       -0.15989876 0.121905945 -0.056547023 -0.09784309
0000b0 cd d2 10 3e 01 0a d5 bd 7f 8d 8e 3d 14 97 31 3e
       0.14142914 -0.10402299 0.06960582 0.17342788
0000c0 40 14 00 3e e9 bc 47 bc 56 20 a7 bd 09 45 39 be
       0.12507725 -0.012191036 -0.081604645 -0.18092741
0000d0 5d c9 ea 3d 98 be df bd 89 5c 0a bd 8e 55 07 be
       0.11464188 -0.10925025 -0.033779655 -0.1321623
0000e0 d9 88 34 be 27 e5 cb bd f2 15 b8 bc 70 06 23 bd
       -0.17630328 -0.09955817 -0.022471402 -0.03980106
0000f0 42 11 4f 3b 6f 4c b9 bc d9 9d be 3b 2a ca 38 be
       0.003159598 -0.022619454 0.0058171568 -0.1804587
000100 2d 2b e5 bd f3 65 ab 3c 1e c1 d7 3a 7f 1e 1d 3e
       -0.11189876 0.020922637 0.0016460752 0.15343665
000110 36 a4 08 be ab 3a d2 3d 6b 95 4b ba 74 bd 38 3e
       -0.13343892 0.10265096 -0.00077661005 0.1804102
000120 68 57 5d 3d 7c 6c 23 3e 98 18 15 3e 70 8e 3a be
       0.054038435 0.15959352 0.14560163 -0.18218398
000130 12 fd ae bd b5 32 2c bd 89 2a 88 bd 0c bc e1 3d
       -0.08544363 -0.042040545 -0.06648738 0.11022195
000140 88 58 12 3e 48 33 67 bd 9a 44 07 3e 8b 82 1a be
       0.14291584 -0.05644539 0.13209763 -0.1508886
000150 18 ec d7 3d ad 27 07 bc 39 ca aa 3b 17 a2 0b 3e
       0.10543078 -0.008249206 0.005212095 0.13636051
000160 01 25 37 bd 71 56 d1 bd ef 77 d4 3d 84 8f e1 bd
       -0.044713024 -0.102215655 0.10374438 -0.110137016
000170 41 46 fa bc c2 33 b6 3d db 93 35 3e c2 19 23 3b
       -0.030551078 0.08896591 0.17732184 0.002488718
000180 e4 20 26 3e ce 11 11 be 2a 71 7c bd 72 9d 75 bd
       0.16223484 -0.14166948 -0.06163136 -0.059964605
000190 b2 9e 56 bd 9b dc 72 3d 72 70 07 3e bd 12 16 3b
       -0.052397437 0.059292417 0.13226488 0.0022899352
0001a0 e7 af b2 bd 41 f2 f5 bc aa d4 10 3e 82 0c c0 3d
       -0.08724957 -0.030022742 0.14143625 0.09377386
0001b0 e4 da 04 be cc 79 21 3e 5f 19 3a be 5f 82 14 be
       -0.12974125 0.15769118 -0.18173741 -0.14502858
0001c0 c9 12 2c be 0e 1b c5 3d 50 13 10 be fd 06 f0 3d
       -0.16804041 0.09624301 -0.14069867 0.11720083
0001d0 dc d7 72 bc e6 54 b0 3c 45 1d 7d 3c 4d a5 23 3e
       -0.014821973 0.021524858 0.015448873 0.15981026
0001e0 d7 49 9c bd e1 64 e9 bc ff 2f ab bc 4f 89 df bd
       -0.07631271 -0.028490486 -0.02089691 -0.109148614
0001f0 1c 4b d1 3d 00 bf ca 3d 27 c5 e7 bd 9c 8d 09 3e
       0.10219404 0.098997116 -0.11316901 0.13432926
000200 5c 2a 92 bc e1 c7 d9 bd 76 98 ba bc 5d d8 ae 3d
       -0.017842464 -0.10633827 -0.022777777 0.08537362
000210 3d 07 2d be 3e 4b 04 be 99 33 2f 3e 48 23 1b be
       -0.16897292 -0.12919328 0.17109527 -0.15150177
000220 1d 0a 3d be 5f ec cd bd a0 47 4b 3d 5b 56 eb 3d
       -0.18460889 -0.1005485 0.049628854 0.114910804
000230 53 42 9a bd d1 52 b7 3c 44 d4 30 3e 24 65 2b be
       -0.075321816 0.022378357 0.17268473 -0.16737801
000240 95 a4 09 3e 22 42 2a 3e c5 1b c5 bc 31 c2 ad 3c
       0.1344169 0.1662679 -0.024061093 0.021210762
000250 37 22 fc 3d 99 09 00 be 13 d7 24 be 07 5e 44 3d
       0.123112135 -0.12503661 -0.1609767 0.047941234
000260 cb 71 7a 3c 5a 1c 79 3d b1 54 cd bd a8 bb 0e 3e
       0.015285919 0.060818054 -0.10025919 0.13938773
000270 1e 78 17 3e e9 c2 3e bd fc 95 cb 3c 2b 6c 2e be
       0.14791915 -0.0465726 0.024851792 -0.1703345
000280 fa 07 a9 bd 75 da a4 3c 11 02 41 be cb 37 04 3e
       -0.082534745 0.0201237 -0.18848445 0.12911908
000290 3f ca b4 3d f2 91 a5 3c d7 37 8b 3d f7 ae e7 bc
       0.08827638 0.020211194 0.0679776 -0.028281672
0002a0 26 8a 44 bd 8e 49 11 be bc 7a 19 3e b6 e0 dc bd
       -0.04798331 -0.14188215 0.14988226 -0.10785048
0002b0 ff de fd bd 84 96 91 3d 1a be 8f ba 76 a8 14 3d
       -0.12396049 0.07108787 -0.0010966689 0.03629347
0002c0 6b 45 37 be 16 83 7e 3d 3a fc c9 3b 1a 0a b3 bd
       -0.17897575 0.062136732 0.006164101 -0.08742161
0002d0 06 5d 8e bd 75 c0 dc bb eb 7b 27 3d d2 9d 1d 3d
       -0.069513366 -0.00673681 0.04088966 0.038480587
0002e0 27 cf ae bd c4 aa e2 3d cd 9e 30 3c 6c 28 24 be
       -0.08535605 0.11067727 0.010780049 -0.16031045
0002f0 6e 5e 94 3c fe 92 fc 3d 93 b5 ab 3d 13 85 32 be
       0.018111434 0.12332724 0.08384242 -0.17433576
000300 9d fe 7d 3d ef e1 bb 3b 41 5d ff 3d 04 ca c8 bd
       0.062010396 0.0057337205 0.12468959 -0.098041564
000310 09 1c 47 bd 48 ce 21 3e 37 1b 9e 3d af 1e 20 3c
       -0.04861072 0.15801346 0.077200346 0.009772941
000320 12 29 39 3e 5c 95 02 be c5 bc 0c 3e 2a 72 f0 3d
       0.18082073 -0.12752289 0.13743885 0.11740525
000330 97 07 1f 3e 34 38 7c bd 0f 1a b0 bd 8f 02 f3 3d
       0.15530239 -0.061577037 -0.0859872 0.118657224
000340 dc b8 25 be 81 43 a4 bd 22 12 85 3d fd c8 20 be
       -0.161838 -0.08020688 0.06497599 -0.15701671
000350 94 8b b9 bd ef 60 2b be 24 e6 d9 bd 86 4f 92 3c
       -0.090598255 -0.16736196 -0.10639599 0.017860185
000360 75 4e 29 3e 61 1e 83 3c 21 3f 7f 3d ad 18 c3 3c
       0.16533835 0.016005697 0.062316064 0.023815477
000370 84 3c 26 3e 11 97 e9 bd 16 15 c4 3d 27 25 17 be
       0.16234022 -0.11405767 0.09574334 -0.14760266
000380 a8 0d a1 3d 82 b4 0c 3d ee cc 89 3d 70 73 08 3e
       0.07863933 0.034351833 0.0672854 0.13325286
000390 d6 b5 e4 bd 17 fd 10 bc 86 d9 ee 3d 00 a0 06 3d
       -0.11167495 -0.008849404 0.11662583 0.03286743
0003a0 83 0a 2a be 61 0d 96 bb 3a d8 c0 3d 96 ae 30 be
       -0.16605572 -0.0045792316 0.09416242 -0.17254099
0003b0 77 f6 fd bd 40 9a 26 be ce 7a 5f bd b2 e0 20 bd
       -0.12400525 -0.16269779 -0.054560475 -0.039276786
0003c0 c3 02 f8 3d f9 3a 84 3d e4 6a 96 3c 07 e1 3c be
       0.12109902 0.06456561 0.018361516 -0.18445216
0003d0 d5 74 67 bd 5c 68 23 3d d3 91 09 3e 79 0a ed 3d
       -0.056507904 0.039894447 0.13434534 0.11574263
0003e0 1d d4 2e be 53 53 9e 3c 10 32 ac 3d
       -0.17073102 0.019326841 0.08407986

weight f4 [251]
000000 1a 5f e6 3f ea fe 47 3f ce fd 4c 3f 28 73 4d 3f
       1.7997773 0.78123343 0.80074775 0.8025384
000010 0e 57 4f 3f dc 89 4d 3f d8 e1 3b 3f 88 76 53 3f
       0.8099221 0.8028848 0.73391485 0.8260274
000020 1f ae 58 3f 64 4b 50 3f 4e d5 50 3f 7b 84 51 3f
       0.8464069 0.81365037 0.8157548 0.81842774
000030 0c 6d 4e 3f 46 23 b1 3e 7d b4 4f 3f f6 f2 4e 3f
       0.8063514 0.34597224 0.8113478 0.8083948
000040 d0 31 a9 3e 7c c7 51 3f c7 44 1d 3f 80 82 50 3f
       0.33045816 0.81945014 0.6143307 0.8144913
000050 73 6f 2d 3f 17 2d 52 3f 3b 6a 50 3f 1e ea 58 3f
       0.67748183 0.8210005 0.81412095 0.84732234
000060 dc e9 4a 3f c2 3e 52 3f 3a 6d 57 3f a2 fb 4d 3f
       0.7926309 0.8212701 0.8415104 0.80462086
000070 2c a4 b3 3e 54 dd a9 3e 92 aa 52 3f 0c fc b4 3e
       0.3508619 0.33176672 0.8229152 0.35348547
000080 bb 0f 51 3f 1a d5 32 3f 2d 73 4f 3f 02 f1 43 3f
       0.8166463 0.6985642 0.8103512 0.76539624
000090 65 af 51 3f e1 38 4d 3f e4 cd 51 3f f5 2b 34 3f
       0.81908256 0.80164915 0.8195479 0.70379573
0000a0 d1 97 56 3f 48 61 55 3f ee de 50 3f c1 c4 1b 3f
       0.83825403 0.83351564 0.81590164 0.608471
0000b0 77 4f 48 3f a4 67 53 3f f4 e0 4e 3f c9 4d 52 3f
       0.78246254 0.8258002 0.80812 0.8214994
0000c0 11 0c b1 3e ff a3 50 3f ad ed ae 3e de e8 21 3f
       0.34579518 0.8150024 0.34165707 0.6324595
0000d0 f3 8d 4d 3f d2 cc 59 3f f9 f5 52 3f ec 25 4e 3f
       0.8029472 0.85078156 0.82406574 0.80526614
0000e0 e7 31 50 3f ca b9 54 3f 5c 85 54 3f b9 28 4d 3f
       0.81326145 0.8309599 0.8301599 0.8014026
0000f0 a1 0d 50 3f e9 af 58 3f 51 5a 57 3f e5 22 55 3f
       0.81270796 0.8464342 0.84122187 0.8325637
000100 b8 c4 4c 3f 7a 70 54 3f c2 af 4f 3f 6a 39 52 3f
       0.7998767 0.82984126 0.8112756 0.82118857
000110 f9 62 4e 3f 08 21 55 3f 9f ed 53 3f 82 f4 1c 3f
       0.8061977 0.83253527 0.82784456 0.6131059
000120 d2 be 4c 3f bd 2f 4f 3f 86 ef 51 3f 3e 02 47 3f
       0.7997867 0.8093222 0.8200611 0.77737796
000130 df d4 b6 3e 2b fc 54 3f 30 19 5a 3f b6 18 51 3f
       0.35709283 0.8319728 0.85194683 0.8167833
000140 7e ac 42 3f ea 39 52 3f 92 f9 4f 3f 51 81 4f 3f
       0.7604445 0.8211962 0.8124019 0.81056696
000150 46 26 1d 3f 04 2e b0 3e d3 41 52 3f 3f 7b 53 3f
       0.61386526 0.34410107 0.8213169 0.82609934
000160 b5 a4 4c 3f f3 dc 4e 3f 7a c9 5a 3f ce 87 52 3f
       0.79938823 0.8080589 0.8546368 0.8223847
000170 88 d3 4b 3f 00 c9 57 3f 28 a5 4f 3f cd 3f 52 3f
       0.79619646 0.84291077 0.81111383 0.821286
000180 61 cd 55 3f 8b 05 5c 3f 6f 0d 55 3f 8f 1f 52 3f
       0.8351651 0.8594596 0.83223623 0.82079405
000190 5f bf b0 3e d3 ba 4a 3f dc c8 52 3f a3 d6 53 3f
       0.34521005 0.7919132 0.8233774 0.82749385
0001a0 9c be 41 3f 01 9a 55 3f 8b 87 51 3f b8 18 ac 3e
       0.7568147 0.83438116 0.8184745 0.3361261
0001b0 3f 82 49 3f b3 09 aa 3e f0 6b a9 3e 06 1f 45 3f
       0.78714365 0.33210525 0.33090162 0.77000463
0001c0 39 f8 55 3f 0f 4a 56 3f e9 f9 51 3f 26 de 4e 3f
       0.8358188 0.83706754 0.8202196 0.8080772
0001d0 c0 17 50 3f d3 6b 3b 3f 7b d4 ac 3e ae 26 53 3f
       0.8128624 0.732114 0.3375586 0.82480896
0001e0 4b 7a 58 3f 31 55 ad 3e 0a 76 51 3f 54 bf 52 3f
       0.84561604 0.33854058 0.8182074 0.82323194
0001f0 2e cb 50 3f 68 17 32 3f 88 14 4e 3f c0 14 53 3f
       0.8156003 0.69566965 0.8050008 0.82453537
000200 a5 a1 b2 3e b6 ce 4e 3f de a3 53 3f 5c 1c 4d 3f
       0.3488895 0.80784166 0.82671916 0.801214
000210 1b 90 54 3f 23 4f 5b 3f f2 44 5b 3f 96 51 ad 3e
       0.8303239 0.8566763 0.8565208 0.33851308
000220 65 3d 4d 3f 77 95 51 3f 75 47 50 3f c7 dc 27 3f
       0.80171806 0.8186869 0.81359035 0.65571254
000230 5d b5 4e 3f a7 a4 53 3f 7f a5 51 3f 91 8e 10 3f
       0.8074549 0.82673115 0.8189315 0.5646754
000240 af 81 49 3f cf 2c 4f 3f 17 08 52 3f 32 16 4f 3f
       0.78713506 0.8092775 0.82043594 0.8089324
000250 b3 7b 55 3f 55 71 b5 3e 26 37 4e 3f 45 84 4f 3f
       0.83391875 0.35438028 0.805529 0.810612
000260 91 45 4f 3f 1b 3b 56 3f f7 4c 59 3f ea 24 58 3f
       0.80965525 0.8368394 0.84883064 0.84431326
000270 b0 db 43 3f c0 00 3f 3f 1d 8d 4d 3f e9 73 53 3f
       0.7650709 0.7461052 0.80293447 0.8259874
000280 11 74 4c 3f 84 05 4c 3f b4 04 4f 3f 2c d8 4c 3f
       0.79864603 0.79695916 0.8086655 0.8001735
000290 e3 bc 50 3f 3f 91 41 3f 43 00 50 3f 6f f1 48 3f
       0.8153822 0.7561225 0.812504 0.784934
0002a0 f9 88 50 3f 46 d3 50 3f bf 65 4f 3f ab ae 4e 3f
       0.81459004 0.8157238 0.8101463 0.8073527
0002b0 6f de 4f 3f fb 0b 4e 3f 2a 97 55 3f 31 6f 4f 3f
       0.8119878 0.8048703 0.83433783 0.8102904
0002c0 31 a7 2f 3f 71 5e 15 3f dd c6 4f 3f 7d 37 1e 3f
       0.6861449 0.5834723 0.81162816 0.6180342
0002d0 d1 c0 53 3f ad 39 54 3f b9 4c 50 3f c8 a9 3d 3f
       0.8271609 0.82900506 0.8136707 0.7408719
0002e0 6a c3 4f 3f 7f d0 4c 3f 02 fa b0 3e 6f 93 50 3f
       0.81157553 0.8000564 0.3456574 0.81474966
0002f0 c1 4c 51 3f a2 1c 50 3f bf eb 53 3f 61 74 56 3f
       0.8175774 0.8129369 0.82781595 0.8377133
000300 18 c4 55 3f 8a 07 15 3f 3e 68 51 3f 1c 17 53 3f
       0.8350234 0.5821463 0.81799686 0.8245714
000310 4e 46 58 3f d2 25 0b 3f da 6f 52 3f f0 9b 40 3f
       0.84482276 0.54354584 0.8220192 0.7523794
000320 de 60 4c 3f a5 f5 38 3f a6 47 50 3f 5d c4 4f 3f
       0.7983531 0.72249824 0.81359327 0.81159
000330 34 2c 4f 3f 50 4a 54 3f e3 35 47 3f be dc 2d 3f
       0.80926824 0.8292589 0.778166 0.6791495
000340 fa 8a 50 3f 0e ed ad 3e 81 dc 41 3f 30 e7 4f 3f
       0.8146206 0.3396992 0.7572709 0.8121214
000350 ad ec ad 3e 63 fc 4a 3f 57 f2 56 3f bc 34 4e 3f
       0.33969632 0.7929136 0.8396353 0.80549216
000360 7e 11 4d 3f 22 66 4f 3f 8b 00 50 3f c3 a6 51 3f
       0.80104816 0.8101522 0.8125083 0.81895083
000370 a3 e6 ab 3e 00 e3 4c 3f 46 a8 52 3f e0 ef 53 3f
       0.335744 0.80033875 0.82288015 0.82787895
000380 36 bf 50 3f 97 49 4f 3f be 23 54 3f 43 7f aa 3e
       0.81541765 0.80971664 0.8286704 0.33300218
000390 4a 95 52 3f fb c1 4e 3f a8 96 5a 3f af 4a 57 3f
       0.8225905 0.8076474 0.85386133 0.84098333
0003a0 19 65 24 3f 74 c5 aa 3e d6 a2 b2 3e 9d 35 50 3f
       0.6421676 0.3335377 0.3488986 0.8133181
0003b0 50 21 50 3f 2d dc 52 3f b0 30 51 3f 47 4b 55 3f
       0.8130083 0.8236721 0.81714916 0.8331799
0003c0 8a 77 af 3e 26 f1 4f 3f 6e 6f 4a 3f 27 e1 51 3f
       0.3427089 0.8122734 0.7907628 0.8198418
0003d0 f5 2a 52 3f ca 8e 49 3f b6 84 36 3f 24 fa 52 3f
       0.820968 0.78733504 0.7129625 0.82412934
0003e0 8f f1 b1 3e a7 64 54 3f 20 22 52 3f
       0.34754607 0.82966083 0.8208332

bias f4 [251]
000000 7e 5f 3d be b7 68 46 bf 44 34 44 bf 5c 4a 45 bf
       -0.18493459 -0.7750353 -0.7664225 -0.7706659
000010 ff d5 41 bf 43 44 46 bf 8e f0 43 bf ea f8 42 bf
       -0.7571716 -0.7744791 -0.7653893 -0.7616106
000020 ba 72 45 bf e2 68 42 bf 77 d6 44 bf 42 9f 43 bf
       -0.77128184 -0.7594129 -0.7688975 -0.76414883
000030 5d 90 44 bf 75 50 48 bf 8b 8f 43 bf 95 76 44 bf
       -0.7678278 -0.7824777 -0.76390904 -0.7674344
000040 2d db 48 bf 09 89 45 bf cc ba 45 bf a1 af 45 bf
       -0.78459436 -0.77162224 -0.77238154 -0.77221113
000050 c9 d6 42 bf e5 82 43 bf 6f ff 42 bf 4b c3 45 bf
       -0.76108986 -0.76371604 -0.7617101 -0.7725112
000060 a6 e5 45 bf f4 08 43 bf 44 f1 45 bf d6 4c 44 bf
       -0.7730354 -0.76185536 -0.7732127 -0.7667974
000070 85 03 47 bf 83 fb 45 bf c3 0c 45 bf a7 52 4b bf
       -0.77739745 -0.773369 -0.769726 -0.7942299
000080 56 9f 44 bf 51 43 46 bf a8 1f 44 bf 4b 3b 43 bf
       -0.7680563 -0.77446467 -0.76610804 -0.7626235
000090 30 25 45 bf 7c f7 45 bf 7e b4 40 bf d3 59 43 bf
       -0.7700987 -0.77330756 -0.7527541 -0.76308936
0000a0 11 59 40 bf c4 e8 42 bf 82 e1 41 bf 95 0c 45 bf
       -0.75135905 -0.7613642 -0.7573472 -0.76972324
0000b0 00 75 45 bf c7 61 44 bf 1e 50 45 bf c5 31 47 bf
       -0.7713165 -0.76711696 -0.77075374 -0.7781032
0000c0 2d 41 4b bf 69 77 43 bf cd bc 44 bf 81 cc 44 bf
       -0.79396325 -0.7635408 -0.7685059 -0.7687455
0000d0 31 38 45 bf 99 13 44 bf 8b a2 42 bf 54 31 44 bf
       -0.77038866 -0.76592404 -0.7602927 -0.7663777
0000e0 3e 80 44 bf 4d a7 47 bf 5f 0b 44 bf ed fc 45 bf
       -0.7675818 -0.77989656 -0.7657985 -0.7733906
0000f0 68 eb 44 bf b2 02 46 bf 61 6f 45 bf 9c 74 41 bf
       -0.769217 -0.7734786 -0.77123076 -0.75568557
000100 ca d5 43 bf 3a d0 45 bf 7a 81 42 bf 3b 77 43 bf
       -0.7649809 -0.77270854 -0.75978816 -0.76353806
000110 5d 41 44 bf 70 42 44 bf 38 fb 44 bf 05 ba 43 bf
       -0.76662236 -0.76663876 -0.7694583 -0.7645572
000120 fa 50 40 bf 7d a1 45 bf b2 a2 44 bf b3 fc 41 bf
       -0.7512356 -0.77199537 -0.76810753 -0.75776213
000130 9b 48 4a bf a8 0e 46 bf 1a 33 43 bf 18 46 45 bf
       -0.7901704 -0.77366114 -0.7624985 -0.7706008
000140 95 95 44 bf fb 94 45 bf 8c 7c 43 bf f3 e8 44 bf
       -0.76790744 -0.7718045 -0.7636192 -0.7691795
000150 a4 c4 41 bf cd 12 46 bf 35 51 44 bf 97 62 3f bf
       -0.75690675 -0.7737244 -0.7668641 -0.7475981
000160 c3 31 45 bf 07 f7 44 bf b2 80 43 bf bc 93 43 bf
       -0.77029055 -0.76939434 -0.7636825 -0.763973
000170 20 bc 44 bf 4d b5 3f bf a5 4b 43 bf b2 1f 44 bf
       -0.76849556 -0.7488602 -0.762873 -0.76610863
000180 91 50 42 bf d2 43 46 bf 99 ee 43 bf b1 d6 44 bf
       -0.75904185 -0.77447236 -0.76535946 -0.76890093
000190 a6 35 4a bf 5f 44 42 bf 79 94 44 bf 34 01 46 bf
       -0.7898811 -0.75885576 -0.7678905 -0.77345586
0001a0 55 d8 44 bf 44 c0 45 bf 8d 0d 47 bf 9c bb 40 bf
       -0.76892596 -0.772465 -0.7775505 -0.7528627
0001b0 23 d5 3f bf e0 bb 48 bf aa 21 48 bf ed 26 43 bf
       -0.74934596 -0.78411674 -0.7817637 -0.7623127
0001c0 84 3f 44 bf b3 aa 44 bf 81 63 44 bf 70 f1 45 bf
       -0.7665942 -0.76822966 -0.7671433 -0.7732153
0001d0 b3 9c 45 bf 3d e4 43 bf 3e 8e 47 bf 4f c3 44 bf
       -0.7719223 -0.7652014 -0.7795142 -0.7686052
0001e0 82 85 41 bf 81 93 47 bf 1e 9d 44 bf 23 63 45 bf
       -0.7559434 -0.7795945 -0.7680224 -0.77104396
0001f0 6c 2c 44 bf 90 56 47 bf 95 40 45 bf ae 06 45 bf
       -0.7663028 -0.7786646 -0.7705167 -0.7696332
000200 e8 c3 47 bf 19 b9 43 bf c5 b1 44 bf dd af 45 bf
       -0.78033304 -0.7645431 -0.76833755 -0.7722147
000210 5f 6e 46 bf 68 27 46 bf 81 7a 43 bf 8e 66 47 bf
       -0.7751216 -0.7740388 -0.763588 -0.7789086
000220 9d 52 43 bf 98 d8 44 bf 00 3d 45 bf 35 94 42 bf
       -0.7629793 -0.76892996 -0.77046204 -0.76007396
000230 16 1e 41 bf f7 15 45 bf 84 d6 43 bf 95 26 3f bf
       -0.7543653 -0.7698664 -0.764992 -0.74668247
000240 cc 8f 45 bf da 7c 46 bf a2 c8 43 bf a5 bb 44 bf
       -0.7717254 -0.7753426 -0.76478016 -0.7684882
000250 c2 e8 46 bf 68 f9 48 bf 0c 9f 42 bf f1 34 43 bf
       -0.7769891 -0.78505564 -0.76023936 -0.7625266
000260 7a a0 41 bf 9c 56 46 bf 2d 07 45 bf d0 b4 42 bf
       -0.7563549 -0.77475905 -0.76964074 -0.7605715
000270 e1 e1 44 bf 6b a4 45 bf d1 dc 44 bf 87 04 44 bf
       -0.76907164 -0.77204007 -0.7689944 -0.7656941
000280 cd 10 43 bf 49 87 43 bf 8b 94 45 bf fd 1e 45 bf
       -0.7619751 -0.76378304 -0.77179784 -0.7700041
000290 74 44 46 bf c2 44 45 bf b2 08 42 bf 78 e5 44 bf
       -0.774482 -0.7705804 -0.7579452 -0.7691264
0002a0 e0 08 44 bf c3 85 47 bf 73 06 45 bf e0 4b 45 bf
       -0.7657604 -0.7793848 -0.76962966 -0.770689
0002b0 20 21 43 bf 40 fc 43 bf a1 e3 45 bf 28 0e 46 bf
       -0.7622242 -0.7655678 -0.7730046 -0.7736535
0002c0 5d 14 45 bf 3e 48 40 bf 3b 75 41 bf f6 c9 43 bf
       -0.76984197 -0.7511023 -0.75569504 -0.7648004
0002d0 69 dd 41 bf 49 3f 43 bf 3f ed 41 bf bc 39 45 bf
       -0.7572847 -0.7626844 -0.75752634 -0.7704122
0002e0 c3 3c 43 bf ac 29 44 bf 3b e1 4a bf 81 07 44 bf
       -0.7626459 -0.76626086 -0.79249924 -0.7657395
0002f0 26 27 47 bf 87 f3 40 bf b6 8c 45 bf 49 30 45 bf
       -0.7779411 -0.75371593 -0.7716783 -0.770268
000300 fe a3 44 bf da 30 47 bf 76 7c 43 bf e8 90 43 bf
       -0.7681273 -0.77808917 -0.7636179 -0.76392984
000310 9f 83 44 bf 11 e7 46 bf 2b ed 45 bf 48 33 46 bf
       -0.7676334 -0.7769633 -0.77315015 -0.77422
000320 d9 29 44 bf 7d bb 45 bf 3c 3e 47 bf 08 ce 42 bf
       -0.76626354 -0.7723921 -0.7782934 -0.7609563
000330 0e 93 45 bf 48 59 45 bf 16 b6 44 bf c4 cf 44 bf
       -0.7717751 -0.7708936 -0.7684034 -0.76879525
000340 fa 68 44 bf f0 1d 46 bf 71 fc 42 bf e5 80 45 bf
       -0.7672268 -0.7738943 -0.76166445 -0.771498
000350 87 86 41 bf 31 65 43 bf 54 c6 44 bf 07 90 45 bf
       -0.755959 -0.7632628 -0.76865125 -0.77172893
000360 99 1f 45 bf a2 d7 46 bf 13 5b 44 bf 34 bd 45 bf
       -0.7700134 -0.7767278 -0.7670147 -0.77241826
000370 93 5a 45 bf fd 4f 44 bf ee 14 44 bf 65 18 44 bf
       -0.7709133 -0.7668455 -0.76594436 -0.76599723
000380 99 80 43 bf be 4a 45 bf e4 b8 44 bf 98 d8 44 bf
       -0.763681 -0.7706717 -0.7684462 -0.76892996
000390 31 a5 44 bf 8a 86 44 bf 49 3d 45 bf 44 e0 42 bf
       -0.7681456 -0.7676779 -0.7704664 -0.7612345
0003a0 72 96 47 bf 23 7e 44 bf d0 bd 45 bf 20 01 44 bf
       -0.77963936 -0.7675497 -0.77242756 -0.76564217
0003b0 26 ca 43 bf 2b 3a 43 bf 3d 36 45 bf d8 b0 46 bf
       -0.7648033 -0.7626063 -0.77035886 -0.7761359
0003c0 b9 ba 43 bf 9f 4c 44 bf b0 0a 43 bf 98 1e 44 bf
       -0.7645679 -0.76679415 -0.7618818 -0.7660918
0003d0 41 6d 49 bf de fb 41 bf b6 90 41 bf 64 32 45 bf
       -0.78682333 -0.75774944 -0.75611436 -0.77030015
0003e0 ab af 43 bf 9f 22 43 bf e9 57 45 bf
       -0.76439923 -0.762247 -0.77087265
