EXP7_dump/bottleneck_model_2.pth (torch, 77664 bytes, 19 tensors)

weight f4 [30, 251]
00000000: 8654 7a3d c9f7 993c ed4e 363c 5966 6e3c
00000010: bf70 aa3b 32d3 c03c 018a d03c 3167 143d
00000020: 23f2 203d c95a d63c b78a 5f3d 7775 ca3c
00000030: 033d 303d 5744 233d 61b7 073d 380f 243d
00000040: d0ce 273d 47e6 703b 1ba2 303d 5dbb 093d
00000050: 50d0 df3c 01c0 c03c 7cd9 c13c 418e 303d
00000060: 8150 663c 2011 383d 066b 173d 559e e33c
00000070: f99a 853c d8e9 153d 351a 663d f3c6 303d
00000080: ea5e ed3b ce61 ba3c de79 223d b8b1 ee3c
00000090: 4cab 6c3d 1a6f 243d b927 593d 2da3 563d
000000a0: d1dc b63c 51ca 0e3d 3f25 8b3c 3799 543d
000000b0: 5d25 423d e4c1 513d e548 193d b09f 343d
000000c0: 5b2a 3d3c e55f 653c 98b6 423d 1c80 2c3d
000000d0: ebb0 433d 6012 d73c 7eef 2b3d 4364 543d
000000e0: f447 fa3c c8b7 a13c e62e 80bc 87ce a13b
000000f0: 81ed 1b3d 757f 8d3b b210 eb3c 80bb 763d
00000100: fe76 803d 948d 0e3d db90 103d 813f 323d
00000110: 7af3 6e3d fd60 223d bc78 343d adf6 4e3d
00000120: 789e 4d3d e32c fa3c 3ac1 c33c 783c 1b3d
00000130: 7646 983c 6f37 0f3d 6ea3 3b3d 2f47 083d
00000140: a1db 143d 75bb 743d 78ef 173c 6449 5b3d
00000150: f050 0c3d 950d e93c 5db1 ef3c 4a4d 4b3d
00000160: 6f3b 023c 5549 983c 83ef 273d 1c0f 3d3d
00000170: a267 1f3d 1f06 e43c 13c2 5f3b 0730 393d
00000180: 3020 583d 8afb 0f3d 52a0 333d 14af 4d3d
00000190: e9e4 183d cd13 423d d34d 0c3d fb70 4c3d
000001a0: 5901 183d a026 1a3d 08c2 0e3c 2e4c 353d
000001b0: 526c ef3c f921 4b3d 94cc 043d c775 0b3d
000001c0: 70c6 723d 1d21 3b3d 3076 2d3d 315a 533d
000001d0: 7ee0 fe3c ed4e e73c 01fa 4d3d 08bb f33c
000001e0: d5cc 993c 02e2 513d 72e1 833c 1a43 6d3d
000001f0: 998e c03c be76 fb3c 8034 5c3d 5aa3 aa3c
00000200: cf8e d43c be6a 893d 7260 1a3d 62d7 343c
00000210: ae77 343d bd23 cf3c e87b 063d ebea 5e3d
00000220: 1d3a 083d a587 fd3c 0af4 633d fc0f e03c
00000230: 7158 223d bf89 9c3c 17ac 2a3d f06f bd3c
00000240: 3a4b 2c3d 5542 593d 3224 293d 6044 1d3d
00000250: 4758 8a3c a6e5 193d 610b 213d 9134 093d
00000260: 54ca ff3c 60ba 4d3d b17d 3b3c be85 6f3d
00000270: 7a6a 0b3d bb67 ec3c 4740 403d 2c70 0b3d
00000280: 2cbc 373d 3f27 143d 6c3d fc3c fb48 acbb
00000290: 5f58 393d 6117 373d e384 3a3d 878f 0f3d
000002a0: d2dc 143d 3287 ba3c e358 2d3d ad8d f13c
000002b0: ad2b 483d 0ad0 413a de2b 033d 1b77 0f3d
000002c0: ddc6 803d 4996 323d 9475 f43c a919 363d
000002d0: 24f6 183d 0b7a 9e3c 44f7 233d eb35 8c3c
000002e0: e6d3 533c 65b5 253d 8ea4 313d 43ee 883c
000002f0: 2637 df3c 7a7c 093d 3221 463d c46d 323d
00000300: ad52 663d 1dd1 293d 25b8 153d 969e 8a3d
00000310: ae0b 363d fc49 a03c 3b69 043d c0e7 8a3c
00000320: dce3 2a3d e247 433d 43eb d93c 8cd5 683d
00000330: 8793 d73c 40cd 0c3d 3bcf d93c e364 053d
00000340: 180a 5c3d 5c03 2f3d 318c 7f3c 1aa3 f03c
00000350: fef8 373d 4e28 4d3c 3f02 473d ddeb e83c
00000360: 8f36 893c e76a 383d 66e8 1a3d aa65 c03c
00000370: 18da ee3c b850 293d b2ec 0d3d e4fa f63c
00000380: fcb7 453d a1b5 d13c 0deb 303d 49bd 4d3d
00000390: cc06 8e3d 0c84 583d d2be 1f3d 8068 fc3c
000003a0: 5500 223d f424 583d 65f5 023d 0cd1 2c3d
000003b0: 90cf 103d b7ea 723d 47da d83c 9849 363d
000003c0: f9a7 1e3d 0da0 203b d9af 253d 186c 583d
000003d0: 678e 2c3d 35f9 613c 9be9 2e3d a905 513d
000003e0: 068c 3e3d e9c0 463c ae03 333d e6bc dcbc
000003f0: abf0 273c 23e1 99b9 9929 d13c ab5b d5bb
0.061115764 0.018794911 0.011127216 0.014550769 0.0052014287 0.023538206 0.02545643 0.036231223
0.03929342 0.026166337 0.05457565 0.024714215 0.043026935 0.039860096 0.033133868 0.040053576
0.040968716 0.003675835 0.043123346 0.03362595 0.02732101 0.023529055 0.023663275 0.043104414
0.01405728 0.044938207 0.0369673 0.02778546 0.016309248 0.036599964 0.056177337 0.043158483
0.0072439807 0.022751715 0.039667003 0.029137477 0.05778055 0.040145017 0.053016398 0.05240171
0.02232209 0.034860913 0.016985534 0.05190393 0.047398914 0.0512103 0.037423033 0.044097602
0.011545743 0.013999914 0.047537416 0.042114362 0.047776144 0.02625388 0.041976444 0.05185343
0.030551888 0.019740954 -0.015647363 0.00493795 0.0380683 0.0043181726 0.028694484 0.060237408
0.06272696 0.03480299 0.035294395 0.043517593 0.058337666 0.039643276 0.044060454 0.050528217
0.050199956 0.030538982 0.023895849 0.037899464 0.018588286 0.034964975 0.045810156 0.03327101
0.036342267 0.059749085 0.009273402 0.053536788 0.034256876 0.02844886 0.029259378 0.049634255
0.00794874 0.018589655 0.0409999 0.046156988 0.03891719 0.02783495 0.0034142777 0.045211818
0.05276507 0.035151996 0.043854065 0.050215796 0.03732768 0.047382165 0.034253906 0.049912434
0.03711066 0.037634492 0.008713253 0.044262104 0.029226456 0.049592946 0.032421663 0.034047868
0.059271276 0.045685876 0.04234904 0.051599685 0.031112906 0.028235877 0.05028725 0.02975227
0.01877443 0.05124093 0.016098712 0.05792532 0.023505496 0.03069627 0.053761005 0.020829845
0.025947003 0.067098126 0.037689634 0.011037679 0.044059448 0.025285596 0.03283301 0.054423254
0.033258546 0.03094847 0.055652656 0.027351372 0.039635126 0.019108651 0.041668024 0.023124665
0.04206393 0.053041775 0.041294284 0.038395286 0.016887797 0.037572525 0.039317492 0.033497397
0.031224407 0.05022657 0.011443541 0.058477156 0.03403709 0.028858056 0.0469363 0.034042522
0.04485719 0.03617024 0.030791007 -0.0052577234 0.045250293 0.04470003 0.045536887 0.035048988
0.036343403 0.022769544 0.042321097 0.029486502 0.048869777 0.0007393366 0.032024257 0.035025697
0.0628793 0.043600354 0.029841222 0.044458065 0.037344113 0.019345304 0.040030733 0.017115554
0.0129289385 0.040456194 0.043369822 0.016715175 0.027247977 0.033565976 0.0483715 0.043561712
0.05623119 0.04145919 0.036552567 0.06768529 0.044444732 0.019566528 0.032326918 0.01695621
0.04172121 0.047675975 0.02660144 0.05684428 0.026315464 0.03437543 0.026588073 0.032566916
0.053720564 0.042727813 0.015597389 0.029374648 0.04491519 0.012521816 0.048586126 0.02843278
0.016749648 0.045023825 0.03781929 0.023485977 0.02915673 0.041336745 0.03464956 0.03014893
0.048271164 0.025599303 0.043192912 0.050229345 0.0693489 0.052860305 0.03900034 0.030811548
0.039551098 0.052769616 0.031972308 0.04219155 0.035354197 0.059305873 0.02647127 0.04450378
0.03873441 0.002450946 0.040450905 0.05283746 0.042127993 0.013792326 0.042703252 0.05103079
0.046520256 0.012130954 0.04370468 -0.026945543 0.010250251 -0.00029350174 0.02553253 -0.006511172

bias f4 [30]
00000000: 83bb ce3c a22f 38bd a173 1d3d 73b6 563d
00000010: b6a0 91bb 0ec2 443d 8497 fe3c e074 95bb
00000020: b26e 103c aa02 fabb 80bf 003d b203 01bd
00000030: a33c 6bbd 157b fbbb 9648 113d b0e7 bc3c
00000040: 31f9 64bd 320c 65bd 0b7b 183d 3902 84bc
00000050: 34ba c6bc dd14 c03c 869e 7a3d 2025 113c
00000060: 6c30 43bc 1bbd d93c 2083 4cbd b48d 76bc
00000070: e2a4 98bc fc3a 143c
0.025235897 -0.0449673 0.03844035 0.05242009 -0.004444207 0.048036627 0.031078108 -0.0045610517
0.008815454 -0.007629712 0.03143263 -0.031497665 -0.057430875 -0.0076745846 0.035469614 0.023059696
-0.05590171 -0.055919833 0.037226718 -0.016114341 -0.02425871 0.023447448 0.061186336 0.008858949
-0.0119134 0.02657943 -0.049929738 -0.015048433 -0.01863331 0.009047266

weight f4 [30]
00000000: 282b 7f3f 9df0 723f b982 653f d635 783f
00000010: 4388 733f e800 803f 941c 803f 8ece 653f
00000020: 49aa 6c3f 0299 6b3f d4c0 803f 7813 783f
00000030: b7eb 763f e398 753f 2b27 803f 1cbf 803f
00000040: 9665 6e3f a109 773f 05ae 563f b79a 6c3f
00000050: 57bb 573f bce9 393f 2b07 713f 7276 443f
00000060: 36a8 743f 2a35 713f 30cc 373f 3f0e 723f
00000070: feb4 6f3f ee1b 753f
0.99675226 0.94898397 0.8965259 0.9695715 0.95129794 1.0000277 1.0008721 0.897683
0.92447335 0.92030346 1.0058846 0.96904707 0.9645342 0.9593641 1.0011953 1.0058322
0.9312376 0.9649907 0.8385928 0.92423576 0.8427023 0.72622275 0.9415156 0.76743233
0.9556917 0.94221747 0.7179594 0.9455299 0.9363555 0.9574574

bias f4 [30]
00000000: 1179 8dbe 5424 04be 7cec 0bbe b0fd 1f3e
00000010: 72f0 2a3e 0235 2a3e da99 27be ea06 453e
00000020: ba28 253f 0ba6 f9bd 37c4 66be 9e87 44be
00000030: 6b21 9abe cb03 b9be b47c a0be b0c3 75be
00000040: 99e1 2ebe b30e 27be 42e2 d23e 0a2f 79be
00000050: f6e0 80be 6605 df3e 1e07 37be 0029 08bf
00000060: 31c5 4bbe cf92 1bbe f8e1 dc3e 7d0c 0bbe
00000070: 4a0f ab3d f031 343e
-0.2763143 -0.12904483 -0.1366443 0.15624118 0.16693285 0.16621783 -0.16367283 0.19240919
0.6451527 -0.12189873 -0.22535788 -0.19192359 -0.3010362 -0.36135706 -0.3134514 -0.2400043
-0.17078246 -0.16314201 0.41188246 -0.2433435 -0.25171632 0.43558806 -0.17873809 -0.5318756
-0.19899441 -0.15192722 0.4314115 -0.13578983 0.083525255 0.17597175

running_mean f4 [30]
00000000: 57a3 8e40 0f12 9140 b6e1 8a40 6534 8fc0
00000010: 7a95 8cc0 e2f4 8040 55e5 8d40 f6da 8f40
00000020: 63b0 8ec0 6483 8740 d0ad 9040 442b 9040
00000030: 4c9e 8a40 4fd6 8740 0fc0 8f40 7221 9640
00000040: 2a51 8b40 2177 9140 d4b8 8e40 cd15 8b40
00000050: aecf 9040 248b 8b40 7f17 8940 230d 8d40
00000060: 2b29 8740 2bed 8c40 e28a 8540 4229 8b40
00000070: ae49 7d40 a538 88c0
4.457439 4.5334544 4.3400526 -4.475146 -4.3932467 4.029893 4.4342446 4.4954786
-4.4590316 4.234789 4.5212173 4.5052814 4.3318233 4.2449107 4.4921947 4.6915827
4.3536577 4.545792 4.460062 4.346411 4.5253515 4.360735 4.284118 4.4078536
4.2237754 4.403951 4.1732035 4.3487864 3.957622 -4.2569146

running_var f4 [30]
00000000: 924b d240 ce71 e040 2e31 c640 6c5a db40
00000010: f51c ce40 95cd a940 728c cf40 06ce d840
00000020: 339a d540 83d3 c040 fed4 d740 034c dc40
00000030: e722 ce40 489f c140 2d93 d440 4a41 e940
00000040: a41c d040 fba9 e240 6065 d140 fbbe cb40
00000050: da96 dd40 eb65 c940 a925 bf40 d014 cf40
00000060: 1015 c040 c029 cd40 60eb be40 64fe cb40
00000070: 2d96 a940 aebc c240
6.571725 7.013892 6.1935034 6.854788 6.441035 5.3063455 6.485894 6.7751493
6.675073 6.0258193 6.74475 6.884279 6.4417605 6.0506935 6.642966 7.28922
6.503496 7.0832496 6.543625 6.367063 6.9246645 6.293691 5.973347 6.4712906
6.002571 6.4113464 5.9662323 6.3748035 5.299582 6.085532

weight f4 [30, 30]
00000000: 3968 3b3d 1528 b7ba 977c e9bd 1cdd 17bd
00000010: d2a3 6f3d 42c6 f33c 5cfc e1ba 08d2 e13b
00000020: 1ff6 eb3d 6daa a7bd 96ee 503d 3b5a d63c
00000030: 709b cf3d 7e65 043e 26ba 053d 7e17 cf3d
00000040: 0dbb b23d 2b24 39bd acf7 173e 349f 31bd
00000050: 26ef d23d ba81 49be 81bd f6bd 0516 7a3d
00000060: 3fdb 28bc 49e2 083d af83 32be 1e86 183e
00000070: d0fc 32bd da4c 123e ba5b de3d defc b7bd
00000080: 93c6 3abd dbf3 183e 4570 8d3d d07f 8dbd
00000090: 4e90 093e 30ce 36bd 9b72 c43b e537 da3c
000000a0: 9735 e73d 112d c13c c538 bf3c 4da3 f63c
000000b0: 06b1 7e3d 4389 2e3d fde4 14be a2b1 333e
000000c0: e2f9 cdbd 64ca 5fbd c81b 9e3c 06fc 213d
000000d0: 1016 22bd ca39 033e fd4f dbbc efb1 93bd
000000e0: 5f4a 603d 26c9 f4bc 2c5f 05bd 905a acbc
000000f0: a443 bd3d 6c36 58be 8719 afbb fcf7 8c3c
00000100: eb5c 0a3e 8d01 b73d 82ba f73c bfa3 3bbc
00000110: 5475 bb3d 350a f9bb 16f2 babc 2a54 ce3d
00000120: 42b9 113d 402d 0b3e fc76 483d 38a5 cb3c
00000130: 6f21 8c3d 6401 6a3d 7a32 34be a8f2 59bc
00000140: eb13 d53d 2ed6 97bd b05b e8bd 2d26 bc3c
00000150: e953 8e3d 2708 9ebd 9f19 943d d063 103d
00000160: 3482 84bc 799a ccbb 1d67 4f3d 56cb a23d
00000170: 05e7 6ebd 7172 d8bd 5cc9 2f3d cbea 193d
00000180: 85f5 ec3d 9039 643d 990c 003e 33cd 06bd
00000190: 1ff1 443e e70e ff3d 21c4 75bc 5b44 af3d
000001a0: 739f ef3d e000 463d 6fca a9bc a878 2f3d
000001b0: 3251 1dbd b51f adbd 3f5f a7bd 9207 1dbe
000001c0: 57b0 743b 34a3 e93d a550 52be 4500 973d
000001d0: 4ef8 e2bb a397 12be a8cb 9bbd 129c 213e
000001e0: 39e0 1c3e f8cc 51bd f97e a63d 4b9a e83d
000001f0: 5b2c 88bc a648 403b fed2 f8bc 43c2 98bd
00000200: d38d bb3d 1a7e a4bd 1c96 de3d 8994 bdbd
00000210: ed7e 813e ec19 513e 4835 123e fb45 fc3b
00000220: 443d fabd e5ae ba3d 4e34 3ebd 801d 253e
00000230: c8b9 dcbc 440d 70be 90c0 8ebd b4fd 9a3c
00000240: 2d94 b1bd 325f b1bd c40c a03d 5077 b93d
00000250: a1ba c5bc 3c28 3c3e e26c cbbc efc8 ebbd
00000260: 1006 76bd e2ac 4c3e 3916 bfbd 9126 2a3c
00000270: a222 dd3d 00c0 8b3d 73bf ec3d 61de 69ba
00000280: 6a4d a83d 5d49 26be a5d0 53bd 8f40 1c3e
00000290: beb2 e83d d331 e63d 3426 013e 6afb e53c
000002a0: 5c6f 2abe 32a8 453e e6af 1c3e a21a 953c
000002b0: 3079 863c d376 bf3b e956 2bbd 4610 c0bc
000002c0: 2c9d 4ebd 10cc e5bd 65ce 87bd 7443 513d
000002d0: 3adb 4c3e 8dff 02bd be15 e8bc 777b 04bb
000002e0: 1e4f e1bb 34f9 cb3c a1de 3c3e c5cb 34bb
000002f0: bd60 273e 71d5 ff3c e034 203e 34d6 ac3d
00000300: 9b81 5a3b 6d32 5d3d 0030 043e 55c4 cf3a
00000310: af64 9b3c 4419 54be 24a6 8d3b bf03 4c3d
00000320: 3ad6 1a3d a35a 8abc 8bdf dabd 8f65 ca3c
00000330: 3e02 94bc 05ef 4bbd ee98 22be 2808 9dbc
00000340: ff6c a0bd ddd9 0b3e e60e a53d a6f4 66bd
00000350: b8e8 543d 3dcd 623d 6965 db3b e3fd 0e3c
00000360: 0ae5 b5bc 71f8 923c ab48 643e cbac 4bbd
00000370: 265e c03c a32a bfbd b0c8 ab3d 9b42 783c
00000380: 9c13 a03d 6bf3 f53c 52e0 9a3c bc3d 853d
00000390: 192a b4bd 134b 543e 648a 463c b63b 2fbe
000003a0: 2ea4 af3c 84da 6abd 8d84 043e 3627 e83d
000003b0: 5c70 bf3d 9c65 43be 5c8d e0bc 0511 0ebc
000003c0: 8cf4 783d 8b40 fabd 12c8 d3bd 23e6 26bc
000003d0: 23c2 313e 15c7 8ebc cd43 e83d 0ff6 adbd
000003e0: ae7e 383d 2695 ee3c 7ac2 e9bc 05fd 7c3d
000003f0: 73ed 01bd a73c d33c de77 a93d 008e 92bb
0.04575369 -0.0013973737 -0.11400717 -0.0370761 0.05850584 0.029757623 -0.0017241347 0.0068914928
0.11521553 -0.08186803 0.051008783 0.026166072 0.10137069 0.12929341 0.032648228 0.10111903
0.08727083 -0.045200508 0.14840573 -0.04336472 0.1029952 -0.19678393 -0.12047864 0.061056156
-0.010306179 0.033418927 -0.17433046 0.14894912 -0.043698132 0.14287129 0.10857339 -0.089837775
-0.04559953 0.14936773 0.06906179 -0.06909144 0.13433954 -0.04463023 0.0059951073 0.02663798
0.11289518 0.02358106 0.0233425 0.030107165 0.06218054 0.04261137 -0.14540477 0.1754823
-0.10057427 -0.054636374 0.019300357 0.03954699 -0.03957182 0.12815014 -0.02677154 -0.072116725
0.054758426 -0.029881071 -0.032561466 -0.021039277 0.09241417 -0.2111451 -0.0053436193 0.017208092
0.13512008 0.08935843 0.030240301 -0.011452614 0.09153238 -0.0076000937 -0.022820514 0.10074647
0.035577066 0.1359148 0.048941597 0.024859056 0.068423145 0.057130232 -0.1759738 -0.013302483
0.1040419 -0.074138984 -0.11345613 0.022967422 0.06949598 -0.07716399 0.07231449 0.03525144
-0.016175367 -0.0062440005 0.050635446 0.079489395 -0.058325786 -0.10568703 0.04291664 0.03757743
0.11570267 0.05571896 0.12504806 -0.032910537 0.19232605 0.12454014 -0.015000374 0.0855796
0.117003344 0.04834068 -0.02072641 0.042839676 -0.038407512 -0.08453313 -0.081724636 -0.15334919
0.0037336552 0.11408082 -0.20538576 0.07373098 -0.006926573 -0.14315657 -0.07607204 0.15782192
0.15319909 -0.051220864 0.08129687 0.11357554 -0.016622713 0.0029340177 -0.030374046 -0.074589275
0.0915791 -0.080318645 0.10868475 -0.092568465 0.2529215 0.20420045 0.14278138 0.007698772
-0.12218717 0.0911539 -0.0464366 0.16124535 -0.026944056 -0.2344256 -0.06970322 0.018919803
-0.086708404 -0.08660735 0.07814935 0.0905596 -0.024136843 0.18374723 -0.024832193 -0.115129344
-0.060064375 0.19987825 -0.093304105 0.0103851715 0.10797621 0.068237305 0.115599535 -0.00089213817
0.082178906 -0.16238923 -0.05171265 0.15259002 0.11362217 0.11239972 0.1261223 0.028073985
-0.16644043 0.19302443 0.15301475 0.018201176 0.016415209 0.0058430224 -0.04183093 -0.02344526
-0.05044286 -0.112205625 -0.066311635 0.05108972 0.20005503 -0.031981993 -0.02833068 -0.0020215192
-0.0068758866 0.024899103 0.18444301 -0.0027587276 0.16345496 0.031229706 0.1564517 0.084392935
0.003334141 0.054003168 0.12908936 0.0015851358 0.018968908 -0.20712763 0.004322784 0.04980826
0.03780196 -0.016888922 -0.10687169 0.02470663 -0.018067475 -0.049788494 -0.1587865 -0.019168928
-0.07833289 0.13657327 0.08059482 -0.05638566 0.05197975 0.05537151 0.0066954386 0.0087275235
-0.02220394 0.017940732 0.22293346 -0.049725335 0.023482393 -0.09334304 0.083878875 0.015152599
0.0781624 0.030023297 0.018905792 0.065059155 -0.08797092 0.20731764 0.012117956 -0.17112622
0.021440592 -0.0573373 0.12941189 0.11335604 0.09347603 -0.1908173 -0.027411155 -0.00867105
0.060780093 -0.12219342 -0.10340895 -0.010186705 0.17359214 -0.017428914 0.11341057 -0.084941976
0.045042686 0.029123854 -0.028535116 0.061764736 -0.03172059 0.025785757 0.08274816 -0.004472494

bias f4 [30]
00000000: 52c6 683c b7c3 90bb 120d 23be c77d 6c3d
00000010: 17b1 333c 3165 dabc f1b0 183e e5aa 9dbd
00000020: e176 adbc 5753 dcbc aeb1 963c 75d2 983d
00000030: 75ad 113e d201 693d 22a6 8a3c 1bb1 73bd
00000040: e3b3 0f3e 5dae 023e e942 22be cf59 db3d
00000050: ce44 7d3d 5cbb 6dbc 2c2c b03d 4a25 593d
00000060: f373 fc3c 8ab0 edbd 0e38 053d b358 983d
00000070: e913 2e3d 925c fa3b
0.0142074395 -0.0044178623 -0.15922955 0.057737138 0.0109675145 -0.02665958 0.14911248 -0.07698611
-0.02117485 -0.026895208 0.018395271 0.074620165 0.14226325 0.0568865 0.016924921 -0.059495073
0.14033465 0.12761827 -0.15845837 0.10710489 0.061833195 -0.014510002 0.08602175 0.053014077
0.030817008 -0.11605938 0.03252416 0.07438793 0.042499457 0.00764043

weight f4 [30]
00000000: 4cab 6e3f 9606 653f f96e 813f a69b 773f
00000010: 6f31 833f d9d8 873f 34db 833f 6397 813f
00000020: 1321 803f 858b 833f 0e4e 7e3f 5337 813f
00000030: 864c 843f 1f09 853f a0a1 813f 8c72 853f
00000040: 3dce 813f 79de 873f 707a 6c3f c92a 7e3f
00000050: 6db4 843f 737b 5e3f 3795 823f 0160 813f
00000060: cdf2 843f bd21 253f 9587 7d3f 8f54 823f
00000070: 8de0 763f eb1d 7c3f
0.9323013 0.89463174 1.0111991 0.96721876 1.0249461 1.0613052 1.030127 1.0124325
1.0010093 1.0276953 0.9933785 1.0095009 1.0335853 1.0393409 1.0127449 1.0425582
1.0141064 1.0614768 0.92374325 0.99284035 1.0367562 0.8690712 1.0201787 1.0107423
1.0386597 0.64504606 0.99035007 1.0182055 0.9643639 0.9848315

bias f4 [30]
00000000: 85b3 aebe 8538 37be 8c44 8abe 77f5 a3be
00000010: 00e7 a7be 1762 98be 5a2c a0be 8245 8dbe
00000020: 23de 9bbe 2a48 b6be fdb0 8abe 8cb6 76be
00000030: 8ab5 9dbe efd6 8cbe d6a3 bdbe 198c a33e
00000040: 3c0a 76be b76d 8abe 0a87 9dbe d1af abbe
00000050: 802a a0be 3de6 823e efd1 7cbe 2d95 97be
00000060: 7e79 a0be a243 34bf 59e1 65be f075 94be
00000070: dc60 98be 4e17 a9be
-0.34121338 -0.17892654 -0.27005422 -0.32023212 -0.32793427 -0.29762337 -0.31283838 -0.27592093
-0.30442914 -0.35601932 -0.27088156 -0.24093074 -0.30802566 -0.2750773 -0.3703906 0.31942824
-0.24027342 -0.2703683 -0.3076709 -0.33532575 -0.31282425 0.25566283 -0.24689458 -0.29606
-0.3134269 -0.704157 -0.22449245 -0.2899623 -0.29761398 -0.33025593

running_mean f4 [30]
00000000: eb84 013e 991f 833d c44a 56bd 72f4 233e
00000010: 279d 123e c827 c73d 150d 9b3e 17ed e33d
00000020: 047e 633d 8b97 d63d a6c4 cd3d daee 313e
00000030: 9441 8f3e ea92 563e 7c70 093e 5436 11be
00000040: 54c2 a43e 19c8 923e b333 71bc 0843 853e
00000050: f2f7 f83d c81f fbbd 0a64 693e d587 103e
00000060: 2f83 423e 078d efbd eedc 4f3e c835 893e
00000070: cea2 253e db1a 153e
0.1264836 0.06402511 -0.052317396 0.16011217 0.14317761 0.097243845 0.30283418 0.11129206
0.0555401 0.10478123 0.10047273 0.17376271 0.2797972 0.20954481 0.13421816 -0.14180881
0.3217951 0.28668287 -0.014721799 0.26027703 0.12156667 -0.12261921 0.22792068 0.14114316
0.18995355 -0.11696821 0.20299122 0.26798844 0.16175386 0.14561026

running_var f4 [30]
00000000: f18b ae3c 4b88 193c 1a0f 673c 5d58 503c
00000010: 45c8 193d 98ee 9f3c c852 af3c 311d 973c
00000020: e37b 4b3c be7a a73c 100d b93c 495e cc3c
00000030: f75b 973c 5b92 933c 983e 8e3c 1ed6 493d
00000040: a2c7 7f3c 9604 783c cccb 803c 5e8c 4d3c
00000050: f821 583c fc04 4c3c e919 da3c 307e 8b3c
00000060: f68f d53c 5dda 6f3a fe9d 5b3c 0ce1 cc3c
00000070: 7e8d 9d3c 3d97 8e3c
0.021306964 0.009370874 0.014102722 0.01271638 0.037544508 0.01952295 0.021401778 0.018446537
0.012419674 0.02044427 0.022589236 0.024947302 0.01847647 0.018014124 0.017363831 0.049276464
0.015611561 0.015137812 0.015722178 0.012545673 0.0131916925 0.01245236 0.026623683 0.017027944
0.026069622 0.0009149665 0.0134043675 0.025009654 0.019232508 0.0174061

weight f4 [251, 30]
00000000: c37a 0fbd ac5c 36be 5381 38bc 8f7d 323e
00000010: 89e7 2f3e 4312 f03d 7d8e 553d 1c96 2ebd
00000020: aa2d 193e d08a 2c3c 2b80 1abe eab0 db3c
00000030: af97 b6bd 0140 013d 0424 093e dcfe ad3c
00000040: ef08 86bd 2617 2ebd 07fe 18be ed6f a83c
00000050: 4acf 82bd fe61 44bd 081b 893d 66dd 29be
00000060: 7b25 f1bd 2d82 703d fefa f53c a8de 143e
00000070: 36c4 24be 6df4 a33d bde1 263e 623f 0d3e
00000080: 7747 02be fa36 88bc ecb4 93bd a206 d7bd
00000090: f722 183d 2b2e b8bd ceac ed3a af42 373e
000000a0: 9ed4 863d d41a 12be c5c8 efbd 2349 95bd
000000b0: 2b8d 483e 4827 1a3d 87b3 393d 0810 f3bd
000000c0: a6b2 6cbb b71a 1f3e 4f1a aebd 35ca 26bd
000000d0: e505 18be af33 72bd 8782 613e 3129 16bd
000000e0: 3217 0ebe 7c1a 723d e3b1 253d c6af a83d
000000f0: 041b 99bd 756d b93d b289 22be b545 ea3d
00000100: e58e b3bc 1602 66bd c742 803d 7820 f83d
00000110: d0c3 d23c f73c 453e 6719 06bd 764f 92bc
00000120: 91ca 583d bfe4 cebd 22d4 d23d ce8a 98bc
00000130: 782b bd3c 2847 73be 7931 d7bd daa8 3c3d
00000140: 8b8b 223d 7513 7c3c 5a26 a33d 44cb 833d
00000150: 6f47 853d 6dbe b8bd e706 23be f0d1 e93d
00000160: 57ad b3bc 9606 2dbe 48f0 c83d 122f c4bd
00000170: f32d f73b 9a6c ecbd 0092 12be a479 bebd
00000180: aae4 023d 83e7 103e a09c 9f3d 88c6 67bd
00000190: d2d2 023d 670a 5b3c 68fc 423d fed7 7e3d
000001a0: 98e2 473d 9ee6 1fbd 88b5 42be ed80 a63c
000001b0: 526d 0abe 3e53 173e 5365 babc a409 1c3d
000001c0: b0c8 143e 8f32 02be 6536 a73d 8875 52bd
000001d0: a5a4 2a3d 8a8e 3abe 5d63 2c3e d6cd 533c
000001e0: 9369 d53d cf8f 6b3c e8fe d43d 0791 9e3c
000001f0: 009f 553e 2a77 41be c6c0 143e d014 bbbc
00000200: bc5c 0a3d bd06 563d 44f0 22bd c001 3fbe
00000210: 04dc 5cbe 4960 bcbd 9ebe 173e e745 bc3c
00000220: 6ae6 053e 5505 c2bc 38e5 d33d d22b 7c3c
00000230: bf0b 70be d99a c3bc ccf8 0abe db44 ca3c
00000240: aff9 7f3d 24f3 02bc 0b11 63bd de0b 623d
00000250: dfbe 953b 6e86 fd3c 025c 2b3d ce12 153d
00000260: dda8 c93d f46d 603c 976e 6d3e 6a5e 2bbe
00000270: 24ed 863c 8d92 033c acba 7d3d e0a8 7a3c
00000280: eb65 0abe 7369 ffbd 8a8a 09be 8d45 dabd
00000290: ff7e cb3d b311 933c 2873 2b3c 26eb bbbd
000002a0: 88bd 7ebd 8173 dd3d 0745 b2bd 7012 bdbc
000002b0: bfc2 4cbe b0c8 163e c3f6 133e 3fdf d7bc
000002c0: 1454 e13c 76fb 79bc 1fc5 2ebd 77b0 223e
000002d0: a2fd 3cbe 2079 3dbd 401f d2bd 6d47 873d
000002e0: a6aa 083d f971 813d d3cd ad3d a2a0 843d
000002f0: a736 66be f9e8 ccbd 80ff b8bd 7fd1 0e3e
00000300: ff93 e13c 5b11 693d 69f4 0a3e 8900 05be
00000310: f84e c3bd 370a 7bbe a1c6 223e 70a8 2d3d
00000320: a0a2 e4bd 7c73 e83d 9952 82bc f32f e5bb
00000330: 1bd0 c33d c2df 2bbe ef8b a53d d108 643d
00000340: a499 543e bd6d 05bc 452d f43d 75dc abbd
00000350: 1775 f4bc 5c53 edbd 2738 323d d0f1 3dbe
00000360: 4c99 9d3d 5fb5 10be 5bc1 acbd 7e04 eb3d
00000370: 4f8c 4abd 9a86 e63d 0444 9f3c 5546 71be
00000380: 7e4a 0c3e 7ad3 4f3c bfb5 213e 7742 edbd
00000390: 6e42 313e c5e8 b03d b4b4 0ebe f70d 51bc
000003a0: 112b 24be 71dc 3b3e 1c9a 223e b4db bf3a
000003b0: 6238 be3d 6630 3b3c 2ae5 3fbc 6bf5 b3bd
000003c0: 7316 d83c 9016 983d 0024 56bc 037a a4bd
000003d0: a0ab bf3d 6db5 003e d897 0ebe 3102 f4bd
000003e0: 6445 0cbd c0f7 ccbd 145a 673e 48af 09be
000003f0: 35fb e5bc c2a2 ebbd cc62 b13d 000c 19bd
-0.035029184 -0.17808789 -0.011261302 0.1743071 0.17178167 0.11722233 0.05213784 -0.042623624
0.14958826 0.010531142 -0.15087955 0.026817758 -0.0891565 0.03155518 0.13392645 0.02123969
-0.06544673 -0.042502545 -0.14940654 0.020561183 -0.063871935 -0.047945015 0.06694609 -0.16588363
-0.11774727 0.058717895 0.030026909 0.14538062 -0.16090474 0.08005605 0.1629705 0.1379371
-0.12722574 -0.016627777 -0.072122425 -0.10499312 0.03714272 -0.08993181 0.0018133165 0.17896532
0.06583522 -0.14268047 -0.117082156 -0.0728934 0.19585101 0.037635118 0.045337226 -0.11868292
-0.0036117225 0.15537535 -0.08501112 -0.040720183 -0.14845999 -0.05913132 0.22022448 -0.036660377
-0.13876036 0.05910729 0.04045285 0.08236651 -0.07475856 0.090540804 -0.15872839 0.11439077
-0.021918723 -0.056154333 0.06262737 0.12115568 0.025728136 0.19261537 -0.03273907 -0.017860156
0.052927557 -0.101022236 0.102943674 -0.018620875 0.023092017 -0.23757613 -0.10507483 0.046059467
0.03968386 0.015385498 0.07966299 0.06435254 0.065077655 -0.09020696 -0.15920602 0.114169955
-0.02193324 -0.16897044 0.09811455 -0.095792904 0.0075433194 -0.115441516 -0.14313507 -0.09300545
0.031956352 0.14150815 0.07793546 -0.05658582 0.031939335 0.013369179 0.047603995 0.062217705
0.04880008 -0.039038293 -0.19014561 0.020325148 -0.13518265 0.14777848 -0.022753393 0.03809513
0.14529681 -0.12714599 0.08164672 -0.051381618 0.041660924 -0.18218437 0.16834779 0.012927493
0.10420527 0.014377548 0.10400182 0.019356264 0.20861435 -0.18893114 0.14526662 -0.022837073
0.033779845 0.05225252 -0.039779916 -0.18653011 -0.21568304 -0.091980524 0.14818808 0.02298255
0.13076177 -0.023684183 0.103464544 0.015391307 -0.23441981 -0.023877548 -0.13571471 0.024691036
0.062493976 -0.00799254 -0.055436175 0.0551871 0.0045698727 0.03094789 0.041835792 0.036394887
0.09846661 0.01369809 0.23186718 -0.16735235 0.0164705 0.008030546 0.061945602 0.015299052
-0.13515441 -0.12471285 -0.13431755 -0.10657797 0.09936332 0.017952776 0.010464467 -0.091757104
-0.06219247 0.10813046 -0.08704572 -0.02308008 -0.19996165 0.14724994 0.14449601 -0.02635157
0.027505912 -0.015257707 -0.042668458 0.15887628 -0.18456128 -0.046258092 -0.10259867 0.0660542
0.033365868 0.06320567 0.084865235 0.06475951 -0.22481786 -0.100053735 -0.09033108 0.13947104
0.02753639 0.056901317 0.13569798 -0.12988485 -0.095365465 -0.24515615 0.15896083 0.042396963
-0.11163831 0.11350152 -0.015908526 -0.0069942414 0.09561177 -0.16784576 0.08083331 0.05567247
0.20761734 -0.008143839 0.11922697 -0.08391658 -0.029840989 -0.11588165 0.043510582 -0.18549275
0.07695255 -0.14131688 -0.08435317 0.11475466 -0.049450215 0.11256142 0.019441612 -0.23561986
0.13700292 0.012684697 0.15791987 -0.11584943 0.17310497 0.08638147 -0.1393612 -0.012759677
-0.16032054 0.1834581 0.158791 0.001463762 0.09288098 0.011425113 -0.011712352 -0.08787044
0.026377892 0.074261785 -0.0130701065 -0.080310844 0.09358907 0.12569208 -0.13925111 -0.119144805
-0.034245864 -0.10008192 0.22592956 -0.1344577 -0.028073886 -0.11505653 0.08661422 -0.03736496

bias f4 [251]
00000000: bb4b 05be 9e86 e7bc 542f 7abd cb3c f6bc
00000010: 8cc6 b63c d674 3c3e 933a 553d f73b 29be
00000020: 7c33 8b3d 34a8 353e 7f2b e03d 75bc 7f3c
00000030: 28c6 803d b7a3 b4bd fbe2 343e b9e8 39be
00000040: c6e5 00be f143 b73d 49e2 f33d 5908 e4bc
00000050: c4ad 15be 2738 b9bd 1783 70bd b157 98bd
00000060: a81e c8bc 56fe 88bd 314a 4e3d 9132 0e3e
00000070: 8322 cc3d 19e1 003e 3551 1ebe a9b2 793d
00000080: cc56 28be fc90 dd3d b419 3cbd 1fec a13c
00000090: 6ba1 253e 1ad7 20be 751a 36be 9566 a63d
000000a0: f575 2e3e 7ef5 31be 958f 0dbe 1dc7 aabd
000000b0: 649c 33bd 234e 3f3c fb55 03be b497 0dbe
000000c0: 92ac 19be cfbe 1ebe c3a2 0f3e ec24 c0bd
000000d0: 6fd5 3abc c284 c1bd 75b1 9c3d 8bf0 653d
000000e0: 19d5 1abe 6b3f 223d f4b8 5d3d cf30 8b3d
000000f0: 3d41 893c 316d 9d3c 53b4 d13b b784 613d
00000100: 3550 dabb ffde 863d 22f1 fa3c c9a2 55bd
00000110: b9ef 2cbe 5876 193e 1221 78bd 869c babd
00000120: 86aa b83d b4c8 e93d c9b7 cb3b 0a72 c63d
00000130: 0025 f43d bd4f df3d bfc5 92bd edcc efbd
00000140: e1b3 d53c e363 963b 46c1 05be 8aa0 d4bc
00000150: c846 1b3e 671f 02be 4518 353e d2fa 10be
00000160: 68ec 80bd c400 073e 6922 e23c ad91 cc3d
00000170: 1bf4 d33d 20cf 50bd 3a0a ecbd 88a9 263d
00000180: 7802 173d 9b3f 0f3e e306 1e3e 362a 123e
00000190: 5b83 e93d 2755 b83d 1216 c9bd e6ac a5bd
000001a0: 38c5 97bb a3d4 cd3d 25c7 c53c 5cca 1bbd
000001b0: cf21 9fbc 19eb 7dbd 1b4c 30bd c49f 8ebd
000001c0: 4c76 0cbe 12f5 d2bd 3e12 26be 6193 b43a
000001d0: f12c 163e 0ac5 cd3d 392a afbd 179e 483d
000001e0: 0413 c0bd d3c6 11be ca6a 1d3e 81d7 f83d
000001f0: e518 253e 850a 02be 52de 2cbd 4ea6 263e
00000200: 02ad 19be 00e0 da3d 74ac 153d 5466 3c3e
00000210: 66a8 debd 9363 6ebd 2e4d 36be 8d2e a9bd
00000220: 05bc 07be e3ba 003e 3915 59bd 5fed 403c
00000230: 6e77 a2bd 6bc2 00be 821f c03c 862c cebc
00000240: a895 9cbd 18cc 213e 8100 9dbd 1aa5 04be
00000250: 0458 933d 3f08 00be f505 753a 03ab 51bd
00000260: 53ab 1ebd aabf 013e ce6c c83d 29ae 0b3d
00000270: ddd5 b2bd 4e14 153e da2a cc3d d915 8fbd
00000280: 964f f43d 51a0 cf3d 623b 103c 8023 50bd
00000290: ef5e c43d 4144 f33d 010a 56bd 6a4c 903d
000002a0: 026d 2bbe 5da3 a1bd f82b f2bc 04ff 213e
000002b0: a93a b03d ed2b 163e 0ef6 ef3d 951b 8a3d
000002c0: 5585 bc3c 4315 6f3d fb20 25be f3fd e3bd
000002d0: 7dbd d4bc ccb2 88bd 7c66 c23d de17 29be
000002e0: 9048 11bd 09d1 a63c ed24 3c3e 0100 1d3e
000002f0: 0af4 1a3e db2d 8fbd 73c2 52bc c4f4 d93c
00000300: 084b 35bd fdb0 13be d019 263e ec06 28be
00000310: a54c 82bd 8c29 d83b 3eb0 313d 2a56 35bd
00000320: bb1c cd3d 839e 023e eec7 8a3d b1d4 4dbd
00000330: 3546 833d 57d3 59bd 0de2 a8bb 0899 80bd
00000340: a132 7dbb 6eac 9ebd 6bc8 0ebe 3534 1e3e
00000350: dde7 0abe 37c5 c0bd 2d41 4e3d c038 2cbe
00000360: e593 2a3e 08a2 763d 4384 c03d cd30 22be
00000370: a465 26bd 861b b73d 08c6 e9bd 4134 af3c
00000380: abed 933d c6a5 ed3d f9c7 bfbb 0586 17be
00000390: 0f6e 28be e1f0 0fbe ae3a a7bd feb0 953c
000003a0: e247 37be 0513 30be 2a52 a83c c3cf 7d3d
000003b0: 682b f6bc 9b78 f23d 5733 ae3d cf0b eb3d
000003c0: f585 36ba 20eb 9c3b 8f56 243e 9bd5 08be
000003d0: 9abc 08be 7d24 703c 0113 153e 6c29 0c3e
000003e0: 86a6 16be edb7 d63d 1a88 453d
-0.1301717 -0.028262433 -0.061080292 -0.030058285 0.022311471 0.18403944 0.052057814 -0.16526781
0.06796929 0.17739946 0.10945796 0.0156088965 0.06287795 -0.08820289 0.17664711 -0.18155183
-0.12587652 0.08948506 0.11908395 -0.027836012 -0.14617068 -0.09043913 -0.058718767 -0.07438601
-0.02442868 -0.06689136 0.050363723 0.13886477 0.0996752 0.12585868 -0.15460666 0.0609614
-0.1643936 0.10818669 -0.04592295 0.019765912 0.16174857 -0.15707055 -0.1778353 0.08125035
0.17037185 -0.17378804 -0.13824303 -0.08338759 -0.043850318 0.011676344 -0.12825768 -0.13827401
-0.15007237 -0.15502475 0.14026932 -0.09382042 -0.011403426 -0.0944915 0.07651035 0.056137603
-0.15120353 0.03961126 0.054131463 0.06796419 0.01675474 0.019217106 0.00639967 0.055058207
-0.0066623935 0.06585502 0.03063256 -0.052157197 -0.16888322 0.14986551 -0.060578413 -0.09111886
0.090169 0.11415234 0.0062169773 0.0968972 0.1192112 0.10903881 -0.07166623 -0.11709008
0.02608675 0.004589544 -0.13062009 -0.025955457 0.1516372 -0.12707292 0.1768504 -0.1415818
-0.06295091 0.13183886 0.027604299 0.09988723 0.10349294 -0.05097878 -0.11525388 0.04068902
0.03686759 0.13989107 0.15432315 0.14273915 0.11402007 0.090006165 -0.09818663 -0.080896184
-0.0046316646 0.10050323 0.024142811 -0.03803478 -0.0194253 -0.061991785 -0.04304133 -0.069640666
-0.13717002 -0.1030065 -0.16217896 0.0013776832 0.14665581 0.10047348 -0.08552975 0.04897889
-0.09378627 -0.14236002 0.15372768 0.12150479 0.16122778 -0.12699325 -0.04220421 0.16274378
-0.15007403 0.10687256 0.036541417 0.1839841 -0.10871963 -0.05820043 -0.17802879 -0.08260832
-0.13255318 0.12571292 -0.052998755 0.011775344 -0.07932936 -0.12574165 0.023452524 -0.025167715
-0.07645732 0.15800512 -0.07666112 -0.12953606 0.07194522 -0.12503146 0.0009346896 -0.05118848
-0.038737606 0.1267077 0.09786378 0.03410164 -0.087321974 0.14558527 0.09969111 -0.06986589
0.11929242 0.10138 0.0088032205 -0.050815105 0.0958842 0.11878253 -0.052255634 0.07045825
-0.16740802 -0.07892487 -0.029561982 0.15819937 0.086049385 0.14665194 0.11716853 0.06743542
0.023012796 0.058369886 -0.16125862 -0.11132421 -0.025969261 -0.06674728 0.094922036 -0.16513011
-0.03546959 0.020363348 0.18373461 0.15332033 0.15132156 -0.06991168 -0.012863743 0.026605971
-0.04426101 -0.14422984 0.16220784 -0.1640889 -0.06362275 0.0065967496 0.04338097 -0.044271626
0.100152455 0.1275578 0.06776415 -0.050251666 0.06409875 -0.053180065 -0.0051539005 -0.062791884
-0.0038634914 -0.07747732 -0.13943641 0.15449603 -0.13565011 -0.09412616 0.050355125 -0.16818523
0.1665798 0.06021312 0.09400227 -0.15838929 -0.040624276 0.089407966 -0.114147246 0.021387221
0.07223066 0.116038844 -0.005852696 -0.14797218 -0.16448234 -0.14056732 -0.08165489 0.018272873
-0.17898515 -0.17194755 0.020546991 0.061965715 -0.030049995 0.1183941 0.08505886 0.11476862
-0.000696271 0.0047887713 0.16048644 -0.13362734 -0.13353196 0.014657137 0.1455803 0.13687676
-0.14711961 0.104843 0.0482255

weight f4 [251]
00000000: 2449 0f40 9bab c43f 6dad c33f b96a c93f
00000010: 00ef c43f 64f3 c63f 9c85 bf3f 9b36 c53f
00000020: 49e7 bf3f bd5d c53f 9ad7 c33f 2f7a c43f
00000030: 1f88 c13f e3cc c33f f795 c53f 18d1 c33f
00000040: 67e2 c63f 67ca c33f 4e70 c13f 89c6 c23f
00000050: 666d c13f a929 c33f ed44 c53f 7f55 c63f
00000060: c596 bf3f 8c25 c33f 0546 c23f 8ee1 c63f
00000070: cc18 c23f ea6d c53f dfc6 c53f fe59 bf3f
00000080: 63ac c13f 7c34 c63f 58f3 c23f fde6 c23f
00000090: f64e c73f 388b c33f 6e47 c33f 599b c33f
000000a0: c09d c63f 7f08 c13f 0673 c23f b6ab c53f
000000b0: 40d3 c23f a1f0 c23f 6758 c43f 7298 c53f
000000c0: 5119 c33f 17f7 c13f 9a18 c53f 100a c43f
000000d0: d0c4 c23f 2266 c43f acde c23f 58a8 c53f
000000e0: 7053 c33f d584 bf3f 8af9 c13f 997e c43f
000000f0: 52c2 c13f 769f bf3f c939 c43f d599 c03f
00000100: 4a21 c63f f8e6 c23f d1fd c33f 1592 c53f
00000110: 74c4 c43f 5b98 c53f 99ab c43f 9668 c43f
00000120: 0753 c43f 8fed c23f d755 c23f f64e c53f
00000130: b190 c63f 06f6 c43f b56a c63f d2ce c53f
00000140: c937 c43f 68f8 c33f 1182 c03f f34f c53f
00000150: 6372 c33f 0275 c23f a6a3 c03f 61b9 c33f
00000160: 87ef c13f 1306 c23f d20e c03f de9a c33f
00000170: abce c33f 33de c33f 47fd c33f 35d6 c53f
00000180: 2e14 c43f 2b35 c33f c911 c43f 2f6f c53f
00000190: 6a87 c23f fba5 c33f 8ecc c33f c76d c43f
000001a0: d136 c23f 68fe c43f c4dd c53f 7ce0 c13f
000001b0: c709 c43f 7ce3 c43f 27a2 c73f e93a c43f
000001c0: 4ca5 c13f aa3c c43f 2141 c43f 4d02 c33f
000001d0: cc6a c53f 0e65 c13f 51a5 c33f 3731 c43f
000001e0: 4f1d c53f ea1c c23f 2a49 c53f b4b3 c33f
000001f0: 34a9 c23f c8da c53f c39d c13f d1d5 c03f
00000200: 4601 c03f d14e c23f 16f4 c23f c096 c63f
00000210: 4e9a c43f c55d c23f fee6 c43f d293 c43f
00000220: a065 c73f f0f9 c33f 3e37 c53f bd86 c43f
00000230: a061 c53f 08c4 c43f 3ed9 c03f c6ba c03f
00000240: 4424 c63f c75f c33f 8f29 c33f 12a8 c13f
00000250: 62a2 c03f 3f50 c43f 0b3a c23f ee9b c03f
00000260: 21ef c43f 18bf c43f ea8a be3f 41ae c43f
00000270: 6f5c bf3f 0fb9 c43f ed64 c73f 9acd c33f
00000280: b6ba c43f eda7 c33f 5049 c43f 6486 c03f
00000290: a9cf c53f 194b c33f 93e3 c33f 84d5 c43f
000002a0: c91e c43f d1e0 c53f b904 c53f 89f9 c13f
000002b0: 7141 c63f fe4c c23f 3dcb c33f 51f1 c13f
000002c0: aa47 c43f 18e0 c43f 7711 c13f 3d3f c43f
000002d0: ac22 c43f 65f9 c13f 4c37 c43f fb27 c23f
000002e0: 17f1 c23f 5e1b c03f 5ff1 c43f 9615 c53f
000002f0: 3644 c73f 5ffb c43f 0ccf c43f aa30 c33f
00000300: 79b8 c23f 696b c33f cc4a c23f 06d0 c33f
00000310: 6815 c13f db8f c33f 3f06 c43f d027 c63f
00000320: d3bd c63f feba c33f 61a6 c23f 2ab5 c63f
00000330: acfd c23f 143b c63f e3ce c23f be7a c53f
00000340: 443a c23f 7e0c c43f a891 c33f 6b35 c23f
00000350: 42bc c53f 47d5 c23f 3d1d c53f 0709 c03f
00000360: ffe7 c53f 94b6 c33f 6e3b c33f f528 c43f
00000370: 7ec0 c43f 5468 c53f a248 c33f 74a2 c53f
00000380: 35d3 c13f b463 c53f d5b4 c53f 8de9 c43f
00000390: 016d c43f 4c17 c53f e91b c23f c210 c33f
000003a0: 9d46 bc3f a0ac c23f 4df7 c03f 58f6 c33f
000003b0: 2cb6 c43f 00a6 c33f 2238 c33f 02c6 c43f
000003c0: 326d c23f ec3f c03f 17bb c33f 20aa c33f
000003d0: 1f4d c73f 54d0 c53f c89d c43f bcb6 c33f
000003e0: f6c1 c53f 9c70 bc3f 52c8 c43f
2.2388391 1.536487 1.52873 1.5735694 1.5385437 1.5543027 1.4962649 1.5407289
1.4992458 1.5419232 1.5300171 1.5349787 1.5119666 1.5296901 1.5436391 1.5298185
1.5537843 1.5296143 1.5112398 1.5216838 1.5111511 1.5247089 1.541166 1.5494841
1.4967886 1.5245833 1.5177618 1.5537584 1.5163817 1.5424168 1.5451316 1.4949338
1.5130733 1.5484767 1.5230513 1.5226742 1.5570972 1.5276861 1.5256174 1.5281783
1.5516891 1.5080718 1.5191352 1.5443027 1.5220718 1.5229684 1.5339478 1.5437148
1.5242101 1.5153531 1.5398133 1.5315571 1.5216312 1.5343668 1.5224204 1.5442
1.5259838 1.4962412 1.5154278 1.5351135 1.5137427 1.4970539 1.5330135 1.5046946
1.5478909 1.5226736 1.5311834 1.5435206 1.5372453 1.543712 1.5364867 1.5344417
1.5337838 1.5228747 1.5182446 1.5414722 1.5512906 1.538758 1.5501314 1.5453742
1.5329524 1.5310183 1.5039693 1.5415024 1.5269283 1.5191958 1.5049942 1.5290948
1.5151223 1.5158104 1.5004523 1.5281637 1.5297445 1.5302185 1.5311669 1.5455996
1.5318658 1.52506 1.5317928 1.5424556 1.5197575 1.5285028 1.52968 1.5346001
1.5172979 1.5390139 1.5458302 1.5146632 1.5315484 1.5381923 1.559636 1.5330478
1.512857 1.5331013 1.5332376 1.5235077 1.5423217 1.5108964 1.5284826 1.5327519
1.5399569 1.5165074 1.5412953 1.5289216 1.5207887 1.5457392 1.512627 1.5065252
1.5000389 1.5180303 1.5230739 1.5514755 1.535959 1.5184866 1.5382993 1.5357611
1.5577888 1.531065 1.5407484 1.5353619 1.5420418 1.5372324 1.5066297 1.5056999
1.5479817 1.5263604 1.5247058 1.5129416 1.5049555 1.5336989 1.5173963 1.5047586
1.5385476 1.5370817 1.4886143 1.5365678 1.4950083 1.5368975 1.5577675 1.529712
1.536948 1.5285622 1.5334873 1.5041013 1.5453998 1.5257293 1.5303825 1.537766
1.5321895 1.5459234 1.5392066 1.5154277 1.5488721 1.5179746 1.5296398 1.5151769
1.533437 1.5380888 1.5083455 1.5331799 1.5323081 1.5154234 1.5329375 1.5168451
1.5229825 1.5008352 1.5386161 1.5397213 1.5567691 1.5389212 1.5375686 1.5249226
1.5212547 1.5267154 1.5179076 1.5297859 1.5084658 1.5278276 1.5314406 1.54809
1.552668 1.529144 1.5207025 1.5524037 1.5233665 1.5486779 1.5219387 1.5428083
1.5174031 1.5316312 1.5278826 1.5172552 1.5448077 1.5221337 1.5399548 1.5002755
1.5461425 1.5290093 1.5252512 1.5324999 1.5371244 1.5422463 1.5256541 1.5440202
1.514258 1.5421052 1.544581 1.5383774 1.5345765 1.5397735 1.5164768 1.5239489
1.470905 1.5208931 1.507547 1.5309553 1.5368094 1.5285034 1.5251505 1.5372927
1.5189574 1.5019507 1.529147 1.5286293 1.557041 1.5454202 1.5360651 1.5290141
1.5449817 1.4721866 1.5373633

bias f4 [251]
00000000: 3aa1 9e3e 7c30 a23f 5469 a23f 0bb5 a13f
00000010: 50c9 a13f c1a1 a33f 267d a33f e43d a23f
00000020: d62e a23f 41ac a23f 74bf a13f a26c a23f
00000030: f58e a43f d4b7 a03f 1ae4 a23f abe5 a23f
00000040: 3ced a23f 2bd6 a23f 3671 a33f 8a5b a33f
00000050: a35f a33f 6238 a23f 582c a33f 5d9d a13f
00000060: 2ca3 a23f ad5f a33f e92f a23f 0d1e a33f
00000070: 7bc3 a33f 4ee7 a23f 2b29 a33f bcb2 a33f
00000080: d54d a23f 1a8f a23f 1499 a23f 39cb a23f
00000090: 2355 a33f da4b a33f c586 a23f 37ed a33f
000000a0: 15b4 a33f c3ab a13f 0152 a23f 041a a33f
000000b0: 0ca7 a23f e049 a13f 7de2 a33f bae6 a13f
000000c0: 3fb0 a23f f7de a13f ff11 a33f 2d82 a33f
000000d0: 58b3 a33f 1200 a33f c615 a23f 3fa3 a23f
000000e0: 0d27 a33f a34e a33f bb31 a43f d85e a23f
000000f0: 1300 a43f 0556 a43f 63fa a13f 6da9 a43f
00000100: 728f a33f 76be a33f b17f a23f 450e a13f
00000110: e05d a43f 09ac a23f cccb a33f 6d47 a23f
00000120: bf5a a23f 4da6 a23f 8039 a13f e70c a23f
00000130: abf9 a33f 192a a13f bf21 a33f 409d a23f
00000140: d223 a33f 0728 a23f 0dc3 a33f 6d96 a23f
00000150: 0ffe a13f a24c a33f de5a a23f fff3 a13f
00000160: 86d2 a33f 3ca4 a23f e778 a23f d05b a33f
00000170: 98aa a23f 0d90 a13f 3614 a23f f764 a33f
00000180: 39c3 a23f ad0a a23f 6912 a23f 8906 a13f
00000190: 0889 a23f 0050 a23f bda6 a13f 43cf a13f
000001a0: eb56 a33f fcf3 a33f 3838 a23f 0056 a43f
000001b0: aec8 a23f ec4d a23f fb19 a23f ce68 a43f
000001c0: 8b10 a53f 5d7a a23f c206 a33f 775d a23f
000001d0: 50dd a13f 978b a23f ae09 a43f 7f76 a23f
000001e0: d14a a23f 231f a23f eec4 a23f ebd7 a13f
000001f0: 86a2 a23f 6c9c a33f f55c a33f 645c a13f
00000200: fb15 a43f 5a7c a13f 3cbb a13f 03a8 a13f
00000210: a789 a23f 207c a23f aae4 a23f 58a4 a23f
00000220: b4e3 a23f c68c a33f 4224 a33f b0a6 a23f
00000230: 78fb a03f c744 a13f 0485 a23f 91db a43f
00000240: 39db a23f b8c0 a13f 276c a23f dd02 a43f
00000250: c03e a23f 93c9 a13f db71 a23f f3b2 a23f
00000260: 4ae1 a13f 11c7 a13f fcc0 a33f 6596 a43f
00000270: 7e1d a23f 9020 a33f 2d91 a23f 7704 a33f
00000280: 9004 a13f b2f7 a23f d6a3 a13f 71eb a33f
00000290: daf8 a23f b016 a23f 5321 a23f 2022 a33f
000002a0: 2ea0 a23f e4ac a33f 60a6 a33f 6ac5 a23f
000002b0: 639f a23f 8500 a33f 736b a23f bda2 a33f
000002c0: e115 a23f 5dec a13f 3a0f a23f 2977 a23f
000002d0: f360 a23f 88b6 a23f 7259 a23f 0520 a23f
000002e0: 1a8f a23f 27d7 a33f e0d9 a33f 765e a43f
000002f0: 2427 a33f ffc2 a33f d7a6 a23f 935d a23f
00000300: 4572 a33f 1ca3 a33f b303 a23f cfe4 a23f
00000310: 9c86 a33f c83b a33f a303 a43f e510 a33f
00000320: 263f a33f a00e a43f b487 a23f c168 a33f
00000330: cd7f a33f 767e a23f 7266 a23f 9f7e a13f
00000340: 698c a23f 8a33 a33f ae09 a33f ff99 a23f
00000350: 6449 a33f cdf2 a13f 8f41 a43f 1edf a33f
00000360: 0304 a33f 39a3 a33f 6162 a23f 5fa7 a33f
00000370: 1668 a23f cddb a23f 43fe a23f ee69 a13f
00000380: 51e3 a23f fad6 a33f 52be a13f 6d15 a43f
00000390: dd41 a23f 4bf9 a33f e760 a23f b3fc a23f
000003a0: 6766 a53f 1ee5 a23f ff44 a23f da35 a33f
000003b0: c830 a23f 1f15 a33f da00 a33f 8b2a a33f
000003c0: 336d a33f d3a3 a23f fd65 a23f eccc a33f
000003d0: 2021 a33f 2a77 a23f 1122 a43f 8c3b a23f
000003e0: 8032 a23f a4ba a53f 3117 a33f
0.3098238 1.2671046 1.2688394 1.2633375 1.2639561 1.2783738 1.2772567 1.2675138
1.2670543 1.2708818 1.2636552 1.2689402 1.2856127 1.25561 1.2725861 1.2726339
1.2728648 1.2721609 1.2768924 1.276231 1.2763561 1.2673457 1.2747908 1.2626148
1.2706046 1.2763573 1.2670871 1.2743546 1.2794031 1.2726839 1.2746938 1.278892
1.2680002 1.2699921 1.2702966 1.2718269 1.2760357 1.2757523 1.2697378 1.2806767
1.2789332 1.2630543 1.2681276 1.2742314 1.2707229 1.260067 1.2803494 1.2648537
1.2710036 1.2646168 1.2739867 1.2774101 1.2789106 1.2734396 1.2662895 1.2706069
1.2746292 1.2758373 1.2827677 1.2685194 1.2812523 1.2838751 1.2654537 1.2864205
1.2778151 1.2792499 1.2695218 1.258248 1.2841148 1.2708751 1.2796569 1.2678047
1.2683944 1.2707001 1.2595673 1.2660187 1.2810568 1.2590972 1.2744673 1.2704239
1.2745306 1.2668465 1.27939 1.2702156 1.2655658 1.2757761 1.268398 1.2652587
1.2798622 1.270637 1.2693146 1.2762394 1.2708311 1.2622086 1.2662418 1.2765187
1.2715827 1.2659508 1.2661868 1.2580119 1.2698069 1.2680664 1.262901 1.2641376
1.27609 1.2808833 1.2673407 1.2838745 1.2717493 1.268003 1.2664179 1.2844484
1.2895674 1.2693592 1.2736437 1.2684773 1.2645664 1.269885 1.2815454 1.2692412
1.2679082 1.2665752 1.2716348 1.2644018 1.2705848 1.2782111 1.2762743 1.260632
1.2819208 1.2616074 1.2635264 1.2629398 1.2698258 1.269413 1.2726033 1.2706404
1.272574 1.2777336 1.274544 1.2707119 1.2576742 1.2599114 1.2696843 1.2879506
1.2723151 1.2636938 1.2689255 1.2813374 1.26754 1.263964 1.2690996 1.2710861
1.2646878 1.2638875 1.2793269 1.2858397 1.266525 1.2744312 1.2700554 1.2735738
1.2579517 1.2731841 1.2628124 1.2806226 1.2732193 1.2663174 1.266642 1.2744789
1.2705133 1.2787137 1.2785149 1.2716496 1.2704891 1.2734534 1.2689041 1.2784039
1.2662927 1.2650257 1.2660897 1.2692615 1.2685837 1.2711954 1.2683547 1.2666022
1.2699921 1.2800034 1.2800865 1.2841327 1.274632 1.2793883 1.2707165 1.2684807
1.2769247 1.2784152 1.2657379 1.2726077 1.2775455 1.2752619 1.281361 1.2739531
1.2753646 1.2816963 1.2697663 1.2766343 1.2773377 1.2694843 1.2687514 1.2616767
1.26991 1.2750103 1.2737329 1.2703246 1.2756772 1.2652222 1.2832507 1.2802465
1.2735599 1.2784187 1.2686273 1.2785453 1.2688015 1.2723328 1.2733845 1.2610452
1.2725621 1.2799981 1.2636206 1.2819039 1.267635 1.2810453 1.2685822 1.2733368
1.2921876 1.2726171 1.2677306 1.2750809 1.2671137 1.2740821 1.2734635 1.2747358
1.27677 1.2706245 1.2687374 1.2796912 1.2744484 1.2692616 1.2822896 1.2674422
1.2671661 1.2947583 1.2741452

running_mean f4 [251]
00000000: 2a8c 2abe 484e 3bbd ded5 69bd f84c ebbc
00000010: 9085 c63b cccc 2c3e 3fd4 6e3d ff1f 39be
00000020: be78 903d 01a6 273e b33c bf3d b705 0a38
00000030: ac40 803d 9f9b d0bd da42 253e 7792 4cbe
00000040: 0ed3 0cbe 2bcb ba3d b32c f53d 7a5b f2bc
00000050: bed9 18be 6202 d2bd 6f4d 94bd ddd1 c2bd
00000060: 7c58 bebc f55e 89bd 7159 0c3d e7ee eb3d
00000070: b4b0 c63d 7330 dc3d 2673 2cbe 5364 7d3d
00000080: a2de 25be 177b df3d b8ce 80bd be73 973c
00000090: 4a51 133e 6417 3abe 4b5d 46be 87ff 853d
000000a0: e3bd 2b3e e25c 3dbe 86c2 0ebe 4e6b c5bd
000000b0: b1dc 36bd 88af 72bb fc9c 17be 51e2 1bbe
000000c0: 9cb8 21be d410 1ebe f9c3 013e 8a77 e8bd
000000d0: 15eb 02bd db0d b9bd 8348 6a3d 3870 343d
000000e0: 2cfe 1fbe effb 093d 8fbd 6b3d 0772 883d
000000f0: f270 873c c13d 9b3c 21d3 18bc 59a2 843d
00000100: bac4 efbc 6449 403d 424c 463c 866d 8fbd
00000110: 58cb 3ebe 4d81 033e b52a 9dbd 3195 cfbd
00000120: 9600 9c3d 760e c43d 5258 0dbc ff2d 983d
00000130: f455 f33d 2a80 ba3d 6e02 a8bd 5c8e 08be
00000140: 10c6 8e3a cf6f 883b 481b 05be a5b6 28bd
00000150: e742 0e3e 8ad2 04be 91f9 323e 6686 1cbe
00000160: 59a8 7abd 035d 073e ad72 083d a4b6 ad3d
00000170: 0159 d63d 8faa 7abd dc70 edbd 7af3 c13c
00000180: ae26 ca3c 4fc1 0e3e c784 103e 794c 033e
00000190: 1fe1 db3d 86a5 af3d 6f55 e9bd 9235 cdbd
000001a0: b6f6 d1bb 7c7f 9f3d 43b1 d63c 3062 19bd
000001b0: 7c39 bdbc 6dde a2bd 4d26 31bd 709d b1bd
000001c0: aaa2 0dbe 610a 00be d284 37be 32ba 8b3a
000001d0: fcb0 043e bb53 b33d 36fd d0bd 8161 403d
000001e0: 6096 c1bd 6dee 0cbe 37c4 0c3e 126b d83d
000001f0: 3c84 223e 5c86 15be d9a5 7abd 9640 203e
00000200: 3e45 20be 066e d43d 24ed d33c 7504 3e3e
00000210: 0f1e 04be b020 a8bd 7e51 45be 1cc8 c6bd
00000220: bcf4 11be 007b e13d eb20 84bd fc88 a5bb
00000230: 1c36 bfbd 0be8 13be aa47 b53c d80d c6bc
00000240: f2c9 babd 4e46 173e 3451 a3bd 8c1e 00be
00000250: e853 9b3d 97a8 0ebe 903d 68bb 95ed 54bd
00000260: f35f 71bd 9856 e83d 9ff3 cf3d eb1a 423c
00000270: 10a8 aabd de00 063e 397e a63d 24a0 97bd
00000280: bb81 d03d 149c ac3d f465 41bb 50c4 50bd
00000290: 8027 a93d db12 d13d 7393 91bd bf6e 583d
000002a0: dd4a 3ebe aec1 bdbd 52aa 40bd 30f2 203e
000002b0: 1d91 893d cd51 133e 6a97 cc3d 12ee 753d
000002c0: a34e 573c e8e8 2c3d 5f3d 30be fd69 02be
000002d0: 4122 26bd ae90 8ebd d4c6 983d 488c 2dbe
000002e0: 5fd4 3dbd 9ab1 ad3c bb44 283e fdf4 1e3e
000002f0: 0d7d 0c3e 7f73 acbd 96e0 01bd ce83 1c3c
00000300: d6e6 82bd 18ae 21be 31e3 203e 177b 3abe
00000310: d230 a4bd 1772 b03b 647a bf3c ce8e 37bd
00000320: cd82 a63d ccc5 da3d ab3e 5a3d 7e4e 8fbd
00000330: a429 713d ce3d 85bd 9c4d 21bc ccb9 99bd
00000340: e2f5 b4bc bd8c cbbd 420f 1bbe 00b1 1c3e
00000350: 309e 17be 41e2 c4bd c20d b73c 6796 2cbe
00000360: 58bb 143e 91e4 1e3d 5cae a43d a25c 22be
00000370: f280 2ebd 4af2 9d3d 10d9 08be 3489 613b
00000380: e739 963d 493e cd3d 647d a4bc cd71 2bbe
00000390: 7681 36be 76f4 0cbe e705 a8bd 6e8a 8e3c
000003a0: 5c7d 38be 869a 2fbe ae7c 863c c529 483d
000003b0: e8b3 44bd 6361 ca3d 21b7 953d 5eb3 d03d
000003c0: 1c8e a0bc 3236 0c3c d709 133e 1152 19be
000003d0: dbc2 1dbe aeed 723b 9b52 043e f858 fc3d
000003e0: d98c 23be 04ff da3d 0d3a f53c
-0.16655031 -0.04572895 -0.057088725 -0.028723225 0.0060584024 0.16874999 0.058307882 -0.18078612
0.0705428 0.16371919 0.09337749 3.2907086e-05 0.06262335 -0.10185932 0.16138783 -0.19977747
-0.13752386 0.091207825 0.11971416 -0.029584635 -0.14926812 -0.10254361 -0.07241332 -0.095126845
-0.023235552 -0.06707565 0.034264985 0.115201764 0.09701672 0.107514285 -0.168408 0.061863255
-0.16198209 0.109121494 -0.062894285 0.018487807 0.14386478 -0.18172985 -0.19371526 0.065428786
0.16771655 -0.18492463 -0.13941392 -0.09639607 -0.04464406 -0.0037030894 -0.14805979 -0.15223052
-0.15793079 -0.15436107 0.12672414 -0.11350925 -0.031962473 -0.09035846 0.05719806 0.044052333
-0.15624303 0.03368753 0.057553824 0.06662374 0.016533349 0.018950345 -0.009327681 0.06476278
-0.029268611 0.04694499 0.012103142 -0.07003312 -0.18632257 0.12842293 -0.07674161 -0.10135878
0.07617299 0.09573071 -0.008627014 0.07430648 0.11881629 0.091064766 -0.082035884 -0.13335556
0.0010892767 0.0041637192 -0.12998688 -0.04118981 0.13892709 -0.1297094 0.17478015 -0.15285644
-0.061195705 0.13219075 0.03331249 0.084821016 0.10466195 -0.061197814 -0.11593792 0.023675669
0.024676647 0.13940929 0.1411315 0.12822141 0.10736298 0.08576493 -0.11393248 -0.10019983
-0.006407584 0.077879876 0.026207572 -0.037447155 -0.0230987 -0.079525806 -0.043249417 -0.08672607
-0.13831583 -0.12503959 -0.1792176 0.0010660349 0.12958139 0.08756205 -0.10204546 0.046967987
-0.0945251 -0.13762827 0.13746725 0.10567297 0.15870756 -0.14602035 -0.06119332 0.15649638
-0.15651414 0.10372548 0.025869913 0.18556388 -0.12902091 -0.0820936 -0.19269368 -0.097061366
-0.14253515 0.110097885 -0.06451591 -0.00505173 -0.093364924 -0.14443986 0.022128899 -0.024176523
-0.09120549 0.14772913 -0.07974473 -0.12511653 0.07584363 -0.139315 -0.0035437085 -0.05198439
-0.058929395 0.113446414 0.10153889 0.011847238 -0.08332837 0.13086268 0.08129544 -0.07403591
0.10180994 0.08428207 -0.0029510232 -0.05096847 0.08259487 0.102086745 -0.07108202 0.05283999
-0.18583246 -0.09265457 -0.04703743 0.15717387 0.06717131 0.14386673 0.099898174 0.060041495
0.013141307 0.042214304 -0.17210911 -0.12735744 -0.04056001 -0.06961189 0.074597985 -0.16948044
-0.04634511 0.021202851 0.16432469 0.15523143 0.13719578 -0.08420467 -0.031708322 0.009552909
-0.06391685 -0.15789068 0.15711667 -0.18211018 -0.08017124 0.0053846943 0.02337379 -0.044813924
0.08130417 0.10682258 0.05328242 -0.06997393 0.058877602 -0.06505929 -0.009845164 -0.07506141
-0.022089902 -0.09938953 -0.15142539 0.15301895 -0.14806437 -0.09613467 0.022345427 -0.16854249
0.14524591 0.038792197 0.08041069 -0.15855649 -0.04260344 0.077122286 -0.13364053 0.0034414055
0.07335263 0.100216456 -0.020079322 -0.1674263 -0.17822823 -0.1376513 -0.08204251 0.017399993
-0.18016571 -0.1714879 0.016416874 0.04886796 -0.048023134 0.09881856 0.0731032 0.101904616
-0.019599013 0.008557843 0.14359222 -0.14972712 -0.15406363 0.0037067938 0.12922136 0.12321657
-0.15971698 0.106931716 0.029934907
