EXP2_dump/bottleneck_model.pth (torch, 77664 bytes, 19 tensors)

weight f4 [30, 251]
0.0053046793 -0.007974866 0.06358634 -0.010571837 -0.023125188 0.032408744 -0.02306118 -0.07716795
-0.0033046552 0.046786405 -0.08103315 -0.01389491 -0.10160906 -0.07438372 -0.10889967 -0.016473113
-0.082003005 0.009998109 0.036589038 0.050292436 -0.054911043 0.00462338 0.017581094 0.00033029038
0.10266128 -0.083697 0.042893935 -0.10140789 -0.0347189 -0.030070895 -0.03300774 -0.060866877
-0.008439806 0.026840635 -0.04341194 -0.024412578 -0.04304687 0.09378673 -0.027680645 0.028991494
-0.0114072 0.04103854 0.04947955 0.08829359 -0.063155286 0.002896762 0.053553607 -0.055368446
0.09279052 0.00484775 -0.028171808 -0.049741097 -0.04531216 0.12867111 0.011172134 0.008044192
0.020298295 -0.08875978 0.060985073 0.027290003 -0.0038615542 -0.0014917251 -0.05047112 -0.006066916
0.07486649 -0.08596414 0.0051006917 -0.14461902 -0.021075357 -0.016411435 -0.0088043595 -0.04268384
-0.080016494 0.00226412 -0.07695921 -0.024658434 -0.040884797 -0.040268615 0.015145835 -0.042929932
-0.049180992 -0.0452498 0.015194198 -0.028044537 -0.09166049 0.036848266 -0.0020698025 0.0046245474
-0.11416765 -0.11979233 0.09035383 0.07840811 0.07029971 0.014932075 0.0018860828 0.00076422055
-0.013795701 0.058283534 0.020540735 0.005051376 -0.016881064 -0.12396141 -0.018169308 0.054416645
-0.09256696 0.025386835 -0.029228205 -0.009006827 0.030047238 0.01167847 -0.035700344 -0.030137619
-0.035278577 0.037139416 0.08974686 0.060639266 -0.14442144 0.016266603 -0.12845317 0.015822692
0.034589294 0.0020768002 0.07504227 0.037019607 0.053132772 -0.027710376 0.016539197 0.054304138
-0.012665115 -0.015918234 0.029987952 0.022863885 -0.048432622 -0.02829294 0.066962995 -0.07490327
-0.06434491 -0.06837648 -0.008340613 -0.021311345 -0.061473943 -0.030513573 -0.024280464 -0.007975091
-0.05035618 0.043852467 0.042061154 -0.02212322 -0.04398531 0.03117149 0.114801705 -0.01963573
-0.026116474 0.009125951 0.04772278 -0.01845569 -0.07524096 0.012801876 -0.045196764 -0.061711054
-0.028461384 -0.10837157 -0.049483947 -0.06439422 0.05964283 0.00018315637 -0.08553188 -0.01155637
0.066866115 -0.03588589 -0.11034414 -0.053351056 -0.013525606 -0.023122083 -0.05203389 -0.017470328
0.02158884 -0.018346008 0.012959632 0.011734725 -0.08220204 -0.020889468 -0.0056505385 -0.06409699
0.031874403 -0.016256293 0.101169825 -0.03686288 0.03297915 -0.06968478 -0.13319588 -0.02874785
-0.06355129 0.027648265 -0.08604273 0.013826657 -0.118516445 -0.02210539 -0.030374097 -0.0030122416
-0.08033739 -0.10751085 -0.017731117 0.011409887 -0.037115514 0.021875111 -0.0012982265 -0.11712208
0.06371586 0.033309847 -0.059322283 -0.07986476 -0.0015994051 -0.016019601 0.04287251 -0.06428653
-0.020711757 -0.00048779545 -0.015141932 -0.12910523 -0.0026357404 0.040461857 -0.02851516 0.038086966
-0.010157327 -0.07258676 -0.035626173 0.013421669 0.041711118 -0.029288875 0.013310986 -0.05036202
-0.06985394 0.04696744 -0.040588006 0.032185446 -0.09992564 -0.079062395 0.04892876 -0.07233116
0.0035419427 0.0068305344 -0.046435755 0.024743866 0.13088633 0.03983641 -0.09036143 0.03776531
0.017902642 0.07064728 0.020945622 0.046263076 -0.0039354917 -0.06262581 -0.013743939 0.011104485
00000000: e0d2 ad3b 03a9 02bc 8e39 823d 8035 2dbc
00000010: 0971 bdbc 08bf 043d cdea bcbc 3b0a 9ebd
00000020: ea92 58bb 1aa3 3f3d b5f4 a5bd 7aa7 63bc
00000030: 6918 d0bd 7e56 98bd ca06 dfbd 9ff2 86bc
00000040: 31f1 a7bd 1ccf 233c 63de 153d 71ff 4d3d
00000050: 67ea 60bd b97f 973b 3a06 903c d32a ad39
00000060: 1440 d23d 5569 abbd 8db1 2f3d f1ae cfbd
00000070: 6835 0ebd 3d57 f6bc 2033 07bd 8c4f 79bd
00000080: 1d47 0abc e4e0 db3c b8d0 31bd e3fc c7bc
00000090: ea51 30bd 4213 c03d 85c2 e2bc 927f ed3c
000000a0: 44e5 3abc 0718 283d 12ab 4a3d 45d3 b43d
000000b0: 8f57 81bd 9ad7 3d3b 075b 5b3d 06ca 62bd
000000c0: f508 be3d e0d9 9e3b 90c8 e6bc 52bd 4bbd
000000d0: 3e99 39bd 5cc2 033e 540b 373c c9cb 033c
000000e0: 9c48 a63c b0c7 b5bd 7ccb 793d 498f df3c
000000f0: 2112 7dbb fd85 c3ba ceba 4ebd fbcc c6bb
00000100: 9a53 993d f80d b0bd b423 a73b 0217 14be
00000110: 3aa6 acbc 4671 86bc 2940 10bc 40d5 2ebd
00000120: b0df a3bd a161 143b ca9c 9dbd 7c00 cabc
00000130: d176 27bd b4f0 24bd 3c26 783c 4cd7 2fbd
00000140: 0272 49bd db57 39bd 16f1 783c a8bd e5bc
00000150: 7fb8 bbbd 35ee 163d 86a5 07bb 8489 973b
00000160: bbd0 e9bd ae55 f5bd 6e0b b93d 6e94 a03d
00000170: 4bf9 8f3d a9a5 743c 7036 f73a f955 483a
00000180: 5d07 62bc b7ba 6e3d 0b45 a83c 0386 a53b
00000190: 284a 8abc 7bdf fdbd cdd7 94bc fde3 5e3d
000001a0: bf93 bdbd 0df8 cf3c fd6f efbc 5f91 13bc
000001b0: a025 f63c 0e57 3f3c 863a 12bd 2be3 f6bc
000001c0: 4580 10bd 801f 183d 34cd b73d e160 783d
000001d0: 37e3 13be 8a41 853c 3a89 03be 979e 813c
000001e0: 81ad 0d3d ed1a 083b c3af 993d dfa1 173d
000001f0: c0a1 593d df00 e3bc 367d 873c 046e 5e3d
00000200: 5881 4fbc f566 82bc 4ba9 f53c 0b4d bb3c
00000210: 4961 46bd 99c6 e7bc e523 893d e366 99bd
00000220: 44c7 83bd f808 8cbd 11a7 08bc 2195 aebc
00000230: 1acc 7bbd 9af7 f9bc d3e7 c6bc f5a9 02bc
00000240: 4842 4ebd a59e 333d 5148 2c3d c13b b5bc
00000250: f129 34bd 5a5b ff3c 281d eb3d 1cdb a0bc
00000260: 37f2 d5bc 0385 153c f678 433d 6330 97bc
00000270: ef17 9abd f6be 513c 3e20 39bd bbc4 7cbd
00000280: d927 e9bc eaf1 ddbd aeaf 4abd 1ee1 83bd
00000290: 0a4c 743d aa0d 4039 572b afbd ee56 3dbc
000002a0: 1af1 883d 15fd 12bd 1cfc e1bd a386 5abd
000002b0: 819a 5dbc 866a bdbc 7d21 55bd ef1d 8fbc
000002c0: 14db b03c 5e4a 96bc a354 543c 0143 403c
000002d0: 8b59 a8bd 6420 abbc 2728 b9bb 4845 83bd
000002e0: bc8e 023d eb2b 85bc 2032 cf3d 88fd 16bd
000002f0: 2515 073d e5b6 8ebd 8064 08be 9c80 ebbc
00000300: 2e27 82bd 9d7e e23c 2c37 b0bd 3489 623c
00000310: c0b8 f2bd 5d16 b5bc 19d3 f8bc 0769 45bb
00000320: ee87 a4bd a62e dcbd d940 91bc 89f0 3a3c
00000330: 7006 18bd 6f33 b33c 4129 aaba b3dd efbd
00000340: 767d 823d e86f 083d ecfb 72bd 2390 a3bd
00000350: 21a3 d1ba 8a3b 83bc 169b 2f3d a8a8 83bd
00000360: b4ab a9bc ccbe ffb9 de15 78bc 2934 04be
00000370: 63bc 2cbb 55bb 253d a098 e9bc 1401 1c3d
00000380: eb6a 26bc 5ea8 94bd c0ec 11bd 8fe6 5b3c
00000390: 47d9 2a3d 39ef efbc 5216 5a3c 6848 4ebd
000003a0: 950f 8fbd ee60 403d 9c3f 26bd e3d4 033d
000003b0: d0a5 ccbd 77eb a1bd 8669 483d 5c22 94bd
000003c0: f01f 683b add2 df3b 6b33 3ebd a6b3 ca3c
000003d0: 1107 063e 812b 233d 6a0f b9bd ccaf 1a3d
000003e0: 90a8 923c 85af 903d 2796 ab3c 5a7e 3d3d
000003f0: 4cf5 80bb f641 80bd 422e 61bc 96ef 353c

bias f4 [30]
0.035880152 0.01860241 0.009815569 0.03587588 0.024876796 -0.06004255 0.012685459 0.0027061023
-0.04759689 0.032301802 -0.031760003 0.013737103 -0.017033331 0.038198438 -0.05292443 -0.00420332
-0.023219384 -0.057149228 -0.042708937 0.0069292835 -0.057377525 -0.02616993 -0.04205926 -0.06000604
-0.00013943974 0.0039869696 0.036328755 0.028189274 -0.006432101 0.020206917
00000000: 11f7 123d 1564 983c 7bd1 203c 96f2 123d
00000010: 6cca cb3c 2def 75bd acd6 4f3c dd58 313b
00000020: f5f4 42bd e54e 043d c716 02bd 9611 613c
00000030: 7c89 8bbc f775 1c3d 4ac7 58bd 01bc 89bb
00000040: 9436 bebc 4f15 6abd 91ef 2ebd 0b0f e33b
00000050: b204 6bbd 5262 d6bc 5546 2cbd e5c8 75bd
00000060: 9236 12b9 20a5 823b 76cd 143d 31ed e63c
00000070: 60c4 d2bb fa88 a53c

weight f4 [30]
1.1337652 0.75182414 1.0539279 0.9278925 1.0444837 1.2200104 0.8921074 0.90591216
1.0133485 0.76859945 0.67293143 0.5490925 0.848197 0.7928291 0.61012286 1.0552197
0.6330816 1.1524336 1.1019616 0.7321116 0.8301407 0.6783036 0.8972518 0.7818363
1.3632002 0.82711715 0.6833521 1.2668931 0.7480928 1.1913544
00000000: 381f 913f 8c77 403f 1ce7 863f 5d8a 6d3f
00000010: a4b1 853f 4d29 9c3f 2761 643f dce9 673f
00000020: 67b5 813f efc2 443f 3c45 2c3f 5391 0c3f
00000030: 7023 593f d9f6 4a3f 0331 1c3f 7011 873f
00000040: a311 223f f282 933f 140d 8d3f aa6b 3b3f
00000050: 1a84 543f 4ea5 2d3f 4bb2 653f 6c26 483f
00000060: 587d ae3f f3bd 533f 2af0 2e3f 8e29 a23f
00000070: 0283 3f3f 4d7e 983f

bias f4 [30]
-0.6156503 1.2357857 0.060996104 0.57178193 -0.003968576 -0.28937522 0.3419425 0.17188726
-0.10227345 -0.58560294 -0.9816558 0.40286902 0.3985002 -0.10499027 0.52149427 0.031429335
-0.31271267 0.25249934 0.032343153 -0.43267918 -0.49851227 -0.15038815 -0.02313818 0.54666305
-0.3861774 -0.6561976 -1.3666791 -0.558731 0.3506417 -0.3206832
00000000: 429b 1dbf 3a2e 9e3f 0dd7 793d 4d60 123f
00000010: d40a 82bb fd28 94be 1613 af3e 3703 303e
00000020: be74 d1bd 13ea 15bf cb4d 7bbf d944 ce3e
00000030: 3808 cc3e 2405 d7bd a680 053f 0cbc 003d
00000040: e01b a0be 9847 813e 417a 043d 2088 ddbe
00000050: 003d ffbe 5aff 19be 488c bdbc 1cf2 0b3f
00000060: 0bb9 c5be 91fc 27bf 57ef aebf ff08 0fbf
00000070: 4f87 b33e 9730 a4be

running_mean f4 [30]
-0.16956605 0.1422424 -0.22608878 0.23319952 -0.20188423 -0.26424694 -0.29312202 0.16391191
0.12847766 -0.21292937 -0.22010657 -0.28764534 -0.056037273 0.1700718 -0.36376798 -0.23323497
-0.4838957 0.15518515 -0.27415603 -0.25225085 -0.24752231 -0.19315913 0.15424 -0.388589
-0.18752919 -0.2433117 -0.13912083 -0.16603793 -0.10909069 -0.17521098
00000000: b9a2 2dbe fea7 113e d183 67be dbcb 6e3e
00000010: bdba 4ebe 604b 87be 1714 96be 86d8 273e
00000020: a68f 033e 280a 5abe 9e63 61be 4046 93be
00000030: 5787 65bd 4d27 2e3e cc3f babe 26d5 6ebe
00000040: 2dc1 f7be dbe8 1e3e 2e5e 8cbe 0627 81be
00000050: 7d76 7dbe 82cb 45be 17f1 1d3e 23f5 c6be
00000060: a707 40be b426 79be b175 0ebe d905 2abe
00000070: f16a dfbd 826a 33be

running_var f4 [30]
0.0457007 0.051536243 0.044599537 0.044701833 0.04315044 0.04446189 0.046487033 0.04199665
0.03984186 0.040795807 0.044206686 0.03637497 0.038366407 0.043126523 0.038666718 0.042667016
0.037083276 0.038603406 0.04044451 0.04464546 0.046677314 0.034707867 0.04302134 0.039959986
0.040177725 0.04671604 0.04299353 0.04346247 0.045820627 0.040909678
00000000: a830 3b3d ab17 533d 01ae 363d 4519 373d
00000010: 84be 303d ac1d 363d 3069 3e3d ae04 2c3d
00000020: 3831 233d 8119 273d 1212 353d ecfd 143d
00000030: 1826 1d3d 70a5 303d fe60 1e3d 9cc3 2e3d
00000040: a2e4 173d 9b1e 1e3d 24a9 253d 28de 363d
00000050: b630 3f3d d629 0e3d 2537 303d 15ad 233d
00000060: 6691 243d 5159 3f3d fc19 303d b405 323d
00000070: 69ae 3b3d e890 273d

weight f4 [30, 30]
0.064817816 0.089864194 -0.24737002 -0.033890188 -0.19627123 -0.07777051 -0.0032856222 0.027313001
0.004640612 0.04029492 0.044833045 -0.20824091 -0.23689938 -0.058525287 0.036015194 -0.1420304
0.011795152 0.0019891188 -0.28905728 0.020210907 -0.1735942 -0.0255467 -0.019660229 -0.0035031552
-0.15059526 0.06413551 -0.010336323 -0.014096643 -0.02130317 -0.1849955 -0.03377715 0.034552064
0.023516087 -0.090123095 -0.0021679099 0.27743882 0.057718605 -0.025425322 0.107981764 0.0013177417
-0.044633977 0.023372697 0.14718431 0.03469499 -0.011364651 0.16455504 -0.040666226 -0.07367502
0.04883856 -0.034812666 -0.10409501 -0.026414817 0.04705214 -0.0109665105 0.2933832 -0.017980846
0.0024500154 0.07598197 -0.023060177 0.08909699 -0.04637787 0.12478125 -0.20724839 0.05221938
-0.13496391 -0.07665392 0.009056224 -0.11101731 -0.09922521 0.016123418 0.13932358 0.0028789074
-0.1628976 -0.007920069 0.054221313 -0.32900715 0.00708053 -0.025525419 -0.36224332 0.14397152
0.06874177 -0.027259544 -0.04928086 -0.020214679 0.14362624 0.06566416 0.04166597 -0.46585092
-0.06508899 -0.03757298 0.11265511 -0.1270038 0.107187994 -0.2533938 0.04473645 0.2453108
0.07381617 -0.010944453 0.0067827613 0.023132455 0.04726492 0.017806828 0.14414634 0.055331003
-0.007070044 -0.12518652 -0.0051976056 -0.27225628 0.030364085 -0.017173357 0.03603821 0.017593347
0.028931094 -0.0034618697 0.11895669 0.07524356 0.09973364 0.0060832016 -0.0798232 0.25576073
0.050286986 -0.09485688 0.09720895 -0.1973179 0.016566088 0.23476946 0.04629625 0.047102857
-0.064309366 0.017611755 0.056669332 0.015117074 0.051307783 0.06984472 0.00089241815 -0.0017728461
0.009041207 -0.24428323 -0.10266101 -0.01982645 0.017009607 0.0050276285 0.033839118 0.003194552
0.26425242 -0.04855337 -0.012811791 -0.07757521 -0.03703334 0.19664705 -0.309301 0.09237663
-0.24282488 0.026842764 -0.156813 0.039584395 0.03866316 -0.10166427 -0.12244217 -0.0009984012
0.011088791 0.014311867 -0.1739099 -0.024003442 0.04692118 -0.23998006 -0.06693623 -0.026745914
-0.4836519 -0.014658948 -0.021551866 -0.03355205 -0.05128158 -0.0008525176 -0.016230118 0.07329722
0.039354753 -0.40799618 -0.078329794 0.06854004 0.0015248182 0.051989213 0.056147214 -0.087199725
0.05345713 0.20989758 0.07738424 -0.020254327 0.10303101 3.1178424e-05 -0.043312036 0.017964432
0.15280285 0.031379636 -0.006071071 0.13474396 -0.043445546 -0.0074234116 0.017798353 -0.09909142
-0.08860443 0.06305219 0.0067547252 -0.008978208 0.3189977 -0.072462805 -0.03594146 0.029449508
-0.013490505 0.26895508 0.02599283 -0.06713383 -0.056473475 -0.04427895 -0.029899102 -0.31668603
-0.060189236 0.042675693 -0.026643926 -0.02584962 0.076017104 -0.05763013 -0.14311397 -0.015667545
0.042049296 -0.016830469 0.054610908 -0.17205755 -0.058046333 -0.020064808 -0.02303694 -0.048926406
0.013281171 0.06558395 -0.25328195 0.0305196 0.060619637 -0.2106771 0.05272555 -0.28238618
-0.046551146 -0.11030543 0.27096903 -0.13006502 0.064922065 -0.043525953 0.008104656 -0.2773225
-0.16864787 0.019221926 -0.044422466 -0.00889117 0.04741711 0.07513178 -0.035685994 0.22265156
00000000: 34bf 843d b80a b83d 914e 7dbe 70d0 0abd
00000010: 53fb 48be 2546 9fbd 9853 57bb 84bf df3c
00000020: 4610 983b 490c 253d dba2 373d 1b3d 55be
00000030: c095 72be 36b8 6fbd ab84 133d 6b70 11be
00000040: 7440 413c e05b 023b 51ff 93be 5891 a53c
00000050: aec2 31be 5047 d1bc 7d0e a1bc 3195 65bb
00000060: a535 1abe 7a59 833d ae59 29bc 9bf5 66bc
00000070: fc83 aebc 766f 3dbe e959 0abd 7786 0d3d
00000080: cfa4 c03c 7592 b8bd 7e13 0ebb 760c 8e3e
00000090: 586a 6c3d c448 d0bc 8b25 dd3d 13b8 ac3a
000000a0: 1ed2 36bd 1978 bf3c 7cb7 163e 551c 0e3d
000000b0: cd32 3abc 1e81 283e a191 26bd eee2 96bd
000000c0: f10a 483d ba97 0ebd c42f d5bd e363 d8bc
000000d0: bfb9 403d e1ac 33bc 5336 963e 914c 93bc
000000e0: 7090 203b 6f9c 9b3d b2e8 bcbc 7c78 b63d
000000f0: b9f6 3dbd 508d ff3d ec38 54be fde3 553d
00000100: fb33 0abe bbfc 9cbd 8e60 143c 0b5d e3bd
00000110: 9636 cbbd 4215 843c d7aa 0e3e 0dac 3c3b
00000120: a1ce 26be 2dc3 01bc 2b17 5e3d a073 a8be
00000130: ca03 e83b af1a d1bc f577 b9be 456d 133e
00000140: 7cc8 8c3d 684f dfbc bada 49bd 4199 a5bc
00000150: c212 133e ee7a 863d f0a9 2a3d 0384 eebe
00000160: 604d 85bd 20e6 19bd b9b7 e63d 490d 02be
00000170: 6185 db3d d5bc 81be 913d 373d c132 7b3e
00000180: ef2c 973d 5d50 33bc ed41 de3b 4680 bd3c
00000190: dc98 413d a0df 913c 199b 133e c3a2 623d
000001a0: d4ab e7bb e530 00be ad50 aabb 2d65 8bbe
000001b0: 1abe f83c 24af 8cbc cd9c 133d ec1f 903c
000001c0: e700 ed3c 89e0 62bb 919f f33d 4c19 9a3d
000001d0: 2741 cc3d 9855 c73b 597a a3bd 12f3 823e
000001e0: baf9 4d3d 5344 c2bd 7c15 c73d b40d 4abe
000001f0: 9bb5 873c 6867 703e 23a1 3d3d edee 403d
00000200: a1b4 83bd 8746 903c 1a1e 683d 9bad 773c
00000210: 1c28 523d c00a 8f3d 2bf1 693a d85e e8ba
00000220: 9221 143c 6225 7abe f03f d2bd 146b a2bc
00000230: bb57 8b3c cebe a43b e39a 0a3d b05b 513b
00000240: 184c 873e e6df 46bd 8ce8 51bc c0df 9ebd
00000250: 46b0 17bd d85d 493e b35c 9ebe f52f bd3d
00000260: 16a7 78be 5be5 db3c 9693 20be 3f23 223d
00000270: 435d 1e3d 5b35 d0bd f6c2 fabd c9dc 82ba
00000280: c3ad 353c 527c 6a3c 7015 32be dea2 c4bc
00000290: 6c30 403d 55bd 75be dd15 89bd 3f1a dbbc
000002a0: 39a1 f7be 162c 70bc 8a8d b0bc e06d 09bd
000002b0: a20c 52bd 7d7b 5fba 06f5 84bc da1c 963d
000002c0: 7332 213d e0e4 d0be 5f6b a0bd b85e 8c3d
000002d0: 69dc c73a a4f2 543d 9ffa 653d c595 b2bd
000002e0: ddf5 5a3d 64ef 563e a17b 9e3d 67ec a5bc
000002f0: ec01 d33d 94c5 0238 f667 31bd 252a 933c
00000300: 5a78 1c3e ef87 003d d6ef c6bb 52fa 093e
00000310: f5f3 31bd 1740 f3bb dacd 913c 71f0 cabd
00000320: 3d76 b5bd 8221 813d be56 dd3b 5519 13bc
00000330: ab53 a33e 6167 94bd 5a37 13bd 1840 f13c
00000340: 4707 5dbc 7bb4 893e eaee d43c 767d 89bd
00000350: bb50 67bd d85d 35bd f6ee f4bc ac24 a2be
00000360: fd88 76bd b5cc 2e3d 5d44 dabc 95c2 d3bc
00000370: dbae 9b3d 920d 6cbd 788c 12be 3959 80bc
00000380: e23b 2c3d 0de0 89bc b0af 5f3d db2f 30be
00000390: fec1 6dbd f45e a4bc f7b7 bcbc 0e67 48bd
000003a0: 4599 593c e150 863d 2cae 81be 3d04 fa3c
000003b0: 4c4c 783d bdbb 57be bff6 573d ec94 90be
000003c0: 6aac 3ebd d0e7 e1bd 74bc 8a3e c42f 05be
000003d0: dcf5 843d 4548 32bd 64c9 043c 37fd 8dbe
000003e0: 07b2 2cbe 4d77 9d3c 55f4 35bd 45ac 11bc
000003f0: 7238 423d b1de 993d 7a2b 12bd c5fe 633e

bias f4 [30]
0.14029813 -0.00981883 -0.12748538 -0.056621596 0.048884377 0.10014061 -0.10578626 0.01409066
-0.07564494 -0.050882176 0.14596546 0.007159786 -0.16226695 -0.06769274 -0.1543575 0.11002442
0.011156405 0.0142251635 -0.11839211 -0.037953764 0.11649615 0.13844663 0.11336184 0.123760365
0.049907293 0.09656418 0.05045408 0.11501066 -0.11430836 0.01517544
00000000: 50aa 0f3e 28df 20bc 878b 02be 0cec 67bd
00000010: fc3a 483d 8516 cd3d 77a6 d8bd 83dc 663c
00000020: bceb 9abd d469 50bd f877 153e a39c ea3b
00000030: 4f29 26be 7ea2 8abd e40f 1ebe 7c54 e13d
00000040: 5bc9 363c a910 693c 9077 f2bd 6875 1bbd
00000050: 8995 ee3d f4c4 0d3e 412a e83d 1376 fd3d
00000060: 976b 4c3d 71c3 c53d f0a8 4e3d b58a eb3d
00000070: 801a eabd 69a2 783c

weight f4 [30]
0.6622086 0.8626358 1.094063 0.76141816 0.8560642 0.970966 0.9571296 0.9906313
0.79052585 0.9519481 0.9311132 0.74978405 0.6729664 0.8600155 0.6170994 0.66144615
0.8441296 0.81227404 0.8667576 0.7063681 0.9314913 0.9025911 0.98253065 0.9304041
0.71278566 1.1070642 0.9068648 0.79468834 0.9362661 1.157519
00000000: 8186 293f b3d5 5c3f 420a 8c3f 4dec 423f
00000010: 0627 5b3f 3a91 783f 7206 753f 039a 7d3f
00000020: e75f 4a3f dfb2 733f 6f5d 6e3f d9f1 3f3f
00000030: 8747 2c3f fa29 5c3f 3afa 1d3f 8954 293f
00000040: e118 583f 31f1 4f3f d3e3 5d3f 8ad4 343f
00000050: 3776 6e3f 3610 673f 2187 7b3f f72e 6e3f
00000060: 1f79 363f 48b4 8d3f 4b28 683f b270 4b3f
00000070: 23af 6f3f 9529 943f

bias f4 [30]
-1.5015627 -0.34609637 0.28370032 -0.07574339 -0.071305364 0.17989822 -0.3574329 -0.073341504
-0.41651365 0.014378701 -0.12051183 0.0018375543 -0.6031271 0.12684536 -0.7704496 -1.2720109
-0.023230951 0.09522673 -0.15828367 -0.5818522 0.5609535 -0.06685741 0.5416538 -0.17305073
-0.46535206 0.09926116 -0.032382 -0.14417768 -0.062498376 -0.3602101
00000000: 3533 c0bf 8b33 b1be 2b41 913e 5a1f 9bbd
00000010: 8c08 92bd 3d37 383e 7201 b7be 1234 96bd
00000020: 4741 d5be a594 6b3c e8ce f6bd 17da f03a
00000030: 8a66 1abf c0e3 013e 2f3c 45bf 41d1 a2bf
00000040: d64e bebc 3b06 c33d 1d15 22be 44f4 14bf
00000050: a69a 0f3f 8aec 88bd d3a9 0a3f 3634 31be
00000060: a042 eebe 6f49 cb3d fda2 04bd 50a3 13be
00000070: 4cfe 7fbd 756d b8be

running_mean f4 [30]
-0.40835217 0.30263355 -0.58712393 -0.31727058 -0.12390956 -0.41484496 0.32920372 -0.52008533
-0.16927713 -0.09840609 -0.031722132 -0.048836555 -0.21254654 -0.52333224 -0.29888237 -0.35544652
-0.09639843 -0.46853295 -0.58436215 -0.009398682 -0.36936855 -0.03440734 -0.27104566 -0.41064757
-0.11255697 -0.4580636 -0.081707075 -0.15585557 -0.2657337 0.47416663
00000000: 8913 d1be c9f2 9a3e c14d 16bf 4a71 a2be
00000010: 4cc4 fdbd 8f66 d4be 648d a83e 5024 05bf
00000020: fc56 2dbe 2289 c9bd 11ef 01bd d708 48bd
00000030: cda5 59be 1af9 05bf 1c07 99be 16fd b5be
00000040: 8a6c c5bd 8de3 efbe c298 15bf eefc 19bc
00000050: e01d bdbe b6ee 0cbd 7fc6 8abe 6640 d2be
00000060: 4584 e6bd 5087 eabe 0a56 a7bd 9a98 1fbe
00000070: 3f0e 88be f8c5 f23e

running_var f4 [30]
1.1651119 0.5271305 1.0120476 1.049274 0.73616517 1.4498886 0.6115007 0.57610625
1.0861064 0.58158267 0.88701755 0.3650617 0.21816668 0.9808004 0.069241345 0.85741556
0.8453486 1.0404141 0.43813962 0.54779243 0.36636797 0.92887884 0.22584812 0.6083802
0.07050674 1.0922884 1.1075816 0.8701621 0.754556 0.42774174
00000000: 6322 953f 06f2 063f c78a 813f 9c4e 863f
00000010: 5275 3c3f f395 b93f 4f8b 1c3f b37b 133f
00000020: 8905 8b3f 9ae2 143f 9513 633f 5ee9 ba3e
00000030: 1667 5f3e bc15 7b3f 68ce 8d3d 967f 5b3f
00000040: c468 583f 4a2c 853f d653 e03e 203c 0c3f
00000050: 9594 bb3e 01cb 6d3f bb44 673e cebe 1b3f
00000060: d665 903d 1bd0 8b3f 3cc5 8d3f f2c2 5e3f
00000070: 952a 413f f700 db3e

weight f4 [251, 30]
0.18368256 -0.045107532 -0.05717591 -0.28888562 0.18881953 0.12506922 -0.076023415 -0.10265086
0.13582844 -0.03774167 0.02855945 0.014020337 0.15090096 0.077575035 -0.031431165 -0.009554878
-0.20574719 -0.050703913 0.018873477 0.17648508 -0.22973709 0.040918864 0.09882109 0.085427456
-0.01102058 -0.08216592 0.07946435 -0.10811873 -0.055782616 0.03204733 -0.03447947 -0.1246854
-0.085961625 -0.058025137 0.079299234 -0.043503053 -0.13439628 -0.043740597 -0.020828037 -0.033907793
-0.035508655 0.0043249237 0.029325284 0.07994203 -0.17010921 0.055220928 -0.010107875 -0.028979186
-0.034615226 -0.11345117 0.16217113 -0.06522784 -0.11090268 0.04364019 0.006563658 0.11106405
0.028500494 0.06975869 0.089482434 0.19605854 -0.013007679 -0.20987377 -0.11522364 0.08440204
-0.042807464 -0.09979766 -0.17234342 -0.03389258 -0.024569886 -0.115278184 0.04594115 0.089651614
-0.096947104 0.123751536 -0.1530786 0.03925827 0.10788308 0.009873556 -0.087258816 -0.053846657
0.16584952 -0.05861929 -0.10043811 0.077190764 0.01699987 0.15252648 0.040698215 0.03543465
-0.031004839 0.28459528 0.05775499 0.00866027 -0.105139606 0.025479417 0.019914635 -4.8517864e-05
-0.2945659 -0.04305086 -0.037277557 -0.07613223 0.017632209 0.06760729 0.005952672 0.070514604
-0.12210166 -0.05988177 -0.0049367915 -0.062377512 -0.0028755923 -0.102327794 0.16426213 -0.013988932
-0.10936218 -0.008027768 0.010199513 0.14073014 0.08333442 0.14509556 -0.13557817 0.24232325
-0.589186 0.10590863 -0.012916755 0.07839184 -0.09550561 0.104720734 -0.05393946 0.1722178
-0.042264964 0.038376074 -0.0663794 -0.08222092 0.06431128 -0.03837943 -0.013736426 -0.54902345
0.0008647334 -0.100233644 -0.003234954 -0.03309066 0.04013104 0.05460774 -0.04584103 -0.20298646
-0.00015899402 0.09497456 0.049566016 -0.058990035 -0.04759207 -0.08715888 0.036720682 -0.09657414
-0.075811565 -0.09999379 0.18697448 -0.07284864 -0.20372085 -0.029665051 -0.0024477367 -0.029583368
0.01153616 0.011269277 0.004583296 0.0802803 -0.0806545 -0.042776898 -0.04346326 -0.0095842425
0.06523413 -0.088718124 0.15779388 -0.038220868 -0.099795915 -0.049012907 -0.01488783 0.09187306
0.10865477 0.036144953 -0.06997984 0.22282812 -0.63408506 0.109492235 0.030762916 -0.12128265
0.07864865 0.0081046205 -0.034164906 0.11558779 -0.06947689 -0.07802573 0.047213655 0.050607953
0.036326393 0.05282909 0.0040245582 -0.5906163 -0.002466929 -0.06108248 0.04966746 -0.04434323
-0.039653502 -0.07883105 0.04208243 -0.20787472 0.010923681 0.06413969 0.06361514 -0.09439393
0.01141124 -0.07813902 0.010352325 -0.29958618 -0.088374875 0.13515806 -0.048832215 -0.11361723
-0.01723822 0.014439042 -0.00060835574 -0.0586625 0.023039734 0.023531355 0.034598984 0.10976185
-0.16254947 -0.0067196535 0.09073942 -0.03850414 -0.05534637 -0.12205298 0.2114048 -0.2416441
-0.17033783 -0.024744214 0.034579787 0.18243098 0.05081619 0.027755616 0.08470055 0.21756135
0.022608938 -0.009772831 0.29226294 0.0010301371 -0.16169775 -0.18235455 -0.040903322 -0.14888747
-0.122967124 -0.08819251 0.21916145 0.18559687 -0.034269772 -0.14910865 0.082408294 -0.032337934
00000000: 4817 3c3e adc2 38bd 4931 6abd d1e8 93be
00000010: e859 413e 2512 003e 2ab2 9bbd 9d3a d2bd
00000020: 9c16 0b3e 0297 1abd 82f5 e93c 8eb5 653c
00000030: c885 1a3e a9df 9e3d f7bd 00bd 108c 1cbc
00000040: 64af 52be e8ae 4fbd 8d9c 9a3c 81b8 343e
00000050: 3340 6bbe 8a9a 273d b662 ca3d 97f4 ae3d
00000060: aa8f 34bc 9b46 a8bd 35be a23d 5a6d ddbd
00000070: 507c 64bd 1044 033d 583a 0dbd 0f5b ffbd
00000080: a60c b0bd c4ab 6dbd a367 a23d 4230 32bd
00000090: 2e9f 09be 5729 33bd 8f9f aabc e6e2 0abd
000000a0: 8671 11bd 17b8 8d3b 943b f03c a6b8 a33d
000000b0: 1c31 2ebe 572f 623d 809b 25bc c265 edbc
000000c0: b2c8 0dbd 1659 e8bd 3010 263e 2c96 85bd
000000d0: f220 e3bd 0ec0 323d f413 d73b 8c75 e33d
000000e0: de79 e93c a5dd 8e3d 9142 b73d 92c3 483e
000000f0: 291e 55bc 26e9 56be 5ffa ebbd fada ac3d
00000100: e156 2fbd b762 ccbd cb7a 30be f2d2 0abd
00000110: c946 c9bc f816 ecbd ca2c 3c3d 449b b73d
00000120: 348c c6bd 7271 fd3d a3c0 1cbe 48cd 203d
00000130: cef1 dc3d b2c4 213c c0b4 b2bd 508e 5cbd
00000140: 75d4 293e c81a 70bd 7fb2 cdbd 3116 9e3d
00000150: 5043 8b3c e72f 1c3e 2cb3 263d ec23 113d
00000160: dcfd fdbc 79b6 913e 7f90 6c3d cee3 0d3c
00000170: 6f53 d7bd 36ba d03c 0424 a33c a97f 4bb8
00000180: 57d1 96be 1956 30bd 5ab0 18bd 37eb 9bbd
00000190: 6c71 903c b175 8a3d a20e c33b f669 903d
000001a0: 6f10 fabd 9646 75bd cfc4 a1bb 907f 7fbd
000001b0: 6f74 3cbb 3c91 d1bd 5534 283e d531 65bc
000001c0: 47f9 dfbd e686 03bc dc1b 273c 901b 103e
000001d0: 3dab aa3d ee93 143e 01d5 0abe 9623 783e
000001e0: e5d4 16bf a0e6 d83d cca0 53bc e78b a03d
000001f0: 7298 c3bd d377 d63d a0ef 5cbd dd59 303e
00000200: 071e 2dbd 3b30 1d3d ecf1 87bd 7163 a8bd
00000210: a2b5 833d c033 1dbd bf0e 61bc cd8c 0cbf
00000220: 47af 623a 4c47 cdbd 8601 54bb 128a 07bd
00000230: 7260 243d 5eac 5f3d cec3 3bbd afdb 4fbe
00000240: a2b7 26b9 0682 c23d bc05 4b3d 899f 71bd
00000250: e7ef 42bd 5b80 b2bd 6d68 163d aac8 c5bd
00000260: 1843 9bbd 8bc9 ccbd 3d76 3f3e ab31 95bd
00000270: 339c 50be 1f04 f3bc 356a 20bb d258 f2bc
00000280: 2902 3d3c c6a2 383c 792f 963b ff69 a43d
00000290: 302e a5bd d436 2fbd 8806 32bd 3a07 1dbc
000002a0: 7999 853d d9b1 b5bd b894 213e 7c8d 1cbd
000002b0: cd61 ccbd c2c1 48bd 16ec 73bc f127 bc3d
000002c0: 6486 de3d bb0c 143d 9751 8fbd 0e2d 643e
000002d0: 6653 22bf 773d e03d 8302 fc3c 0a63 f8bd
000002e0: 8b12 a13d 3ec9 043c 80f0 0bbd 4bb9 ec3d
000002f0: e649 8ebd f4cb 9fbd 1b63 413d 494a 4f3d
00000300: fcca 143d 5163 583d 71e0 833b a132 17bf
00000310: 33ac 21bb 9f31 7abd 1b70 4b3d 3fa1 35bd
00000320: b66b 22bd 2c72 a1bd a05e 2c3d 1cdd 54be
00000330: 3df9 323c ab5b 833d a848 823d 9b51 c1bd
00000340: 36f6 3a3c 5a07 a0bd cc9c 293c 5c63 99be
00000350: e3fd b4bd e066 0a3e 4a04 48bd 26b0 e8bd
00000360: 2b37 8dbc bb91 6c3c 107a 1fba 1748 70bd
00000370: d3bd bc3c d4c4 c03c aab7 0d3d d2ca e03d
00000380: 5e73 26be 8a30 dcbb 97d5 b93d 84b6 1dbd
00000390: e0b2 62bd eaf6 f9bd 807a 583e 8d71 77be
000003a0: 0a6d 2ebe 61b4 cabc 89a3 0d3d 30cf 3a3e
000003b0: a324 503d bf5f e33c 7b77 ad3d 67c8 5e3e
000003c0: 6136 b93c 391e 20bc 7da3 953e aa05 873a
000003d0: 1894 25be 27bb 3abe 3e8a 27bd f575 18be
000003e0: 30d6 fbbd 469e b4bd dc6b 603e 1b0d 3e3e
000003f0: 765e 0cbd f0af 18be aec5 a83d c874 04bd

bias f4 [251]
-0.103500545 -0.07555162 -0.119885184 0.020897824 0.07997271 0.054729637 0.05204274 -0.12700394
0.02574219 -0.1309763 0.081938945 -0.16712947 -0.036137395 0.17800632 0.03626714 -0.17654414
-0.11570164 -0.012343971 0.10792328 0.02094859 0.13702017 -0.066276595 -0.16299921 -0.018246517
-0.1263626 -0.13148184 -0.142395 -0.19130969 0.09709983 0.118592516 -0.05083402 0.14251815
0.11805467 -0.005122056 0.04961676 -0.004779978 -0.12862371 0.18949363 0.1261704 0.10280702
-0.06803349 0.18723585 0.049683854 0.123115934 -0.132697 0.19565831 0.18378155 0.068334535
-0.0349454 -0.14886838 -0.14387496 -0.011706072 -0.17355287 0.16031249 0.16999544 0.033178676
-0.10468654 0.05757833 0.016413864 0.0758187 -0.08989342 0.09584422 -0.15583964 -0.0644898
-0.06757334 0.053706087 -0.04313723 0.09535797 0.18088432 0.1828985 0.03400057 0.06824683
-0.049486853 -0.08065294 -0.09013101 0.105465196 0.13776346 0.071379796 -0.00946279 0.13155644
-0.03466561 -0.024247801 -0.031950165 0.043866742 0.12506036 0.09334422 -0.06889562 -0.027186224
-0.06342302 0.19330925 -0.10538201 0.08014715 -0.102495685 0.08095287 -0.0386881 -0.1776307
0.084160775 0.014144621 0.048631646 0.1370398 -0.121261746 -0.15227112 -0.0054122163 0.10715725
-0.041871913 0.05111391 -0.06640023 0.032753225 -0.09980661 -0.078585565 0.13748376 0.017300243
-0.16036075 0.046744097 -0.09206674 -0.058292557 0.12642471 -0.12734164 -0.003121919 -0.11482679
0.14927825 -0.03982057 -0.17759912 0.15062127 0.026565934 -0.00016964243 -0.16500726 0.13802171
0.084469795 0.02840499 0.04338593 0.09632436 -0.0023696655 0.038528457 -0.07889874 0.007815928
-0.10548335 -0.030549511 0.09995708 0.086265475 -0.2124051 -0.12682694 -0.13732412 0.189624
0.042068604 -0.13316163 0.14634614 0.11712382 -0.13150772 0.021781238 -0.06805635 0.026883291
-0.048800517 -0.07644164 -0.013192183 0.16926232 -0.13242316 -0.19995506 -0.043461613 0.13161993
-0.051810548 -0.06053295 0.01335712 0.044515397 -0.0776601 0.00040015494 0.08880706 0.0445444
-0.014685564 -0.09678277 0.059007257 -0.081897624 -0.11096182 0.12620628 0.100704305 -0.0061521768
-0.14713387 -0.053292524 -0.041433796 0.07728845 -0.12342087 0.07225498 -0.03486057 -0.01999948
0.039142884 -0.091728546 -0.0589834 0.061127365 0.18398228 0.08552709 -0.07807563 -0.15322797
0.07426894 0.03754253 0.098842695 0.052014943 -0.13056146 -0.15455827 -0.16984588 -0.020634951
0.05648431 -0.06995425 -0.026373766 -0.090997644 0.16411036 -0.006101069 -0.15421379 -0.037706967
0.04289955 -0.06432459 -0.085801676 -0.14004026 0.06389171 -0.1489433 -0.02778061 -0.04144776
0.020489596 -0.023164758 -0.092396565 -0.1690513 0.1426684 0.025142802 0.098325014 -0.1364829
0.17240964 0.087602645 -0.1253727 0.099292 -0.10247174 0.09087456 0.086459585 0.0038846286
-0.019122818 0.0892379 0.089334644 0.18916807 -0.01706648 -0.029652866 0.060980275 -0.016648853
0.15060751 -0.0060996655 0.1425113 -0.04421444 -0.055666182 -0.16441548 0.04616792 0.11356928
-0.052568793 0.010064909 0.15615658
00000000: 18f8 d3bd cfba 9abd 5d86 f5bd ea31 ab3c
00000010: bbc8 a33d 2f2c 603d c52a 553d 520d 02be
00000020: 49e1 d23c a71e 06be 9bcf a73d fd23 2bbe
00000030: ce04 14bd 4a47 363e da8c 143d fdc7 34be
00000040: fbf4 ecbd 5e3e 4abc e106 dd3d 619c ab3c
00000050: 044f 0c3e 06bc 87bd 44e9 26be b879 95bc
00000060: 3365 01be 2da3 06be ffcf 11be b0e6 43be
00000070: 47dc c63d a2e0 f23d 5537 50bd 47f0 113e
00000080: a6c6 f13d ecd6 a7bb f23a 4b3d 5da1 9cbb
00000090: efb5 03be 9e0a 423e d032 013e 7d8c d23d
000000a0: 2455 8bbd c1ba 3f3e 4c81 4b3d 3524 fc3d
000000b0: b9e1 07be a75a 483e 3b31 3c3e faf2 8b3d
000000c0: e822 0fbd f470 18be f553 13be d3ca 3fbc
000000d0: d8b7 31be f528 243e 4913 2e3e 5de6 073d
000000e0: e665 d6bd 41d7 6b3d 5e76 863c d646 9b3d
000000f0: 0b1a b8bd f949 c43d 6d94 1fbe 3a13 84bd
00000100: e463 8abd eafa 5b3d aab0 30bd 0a4b c33d
00000110: bd39 393e bf49 3b3e 2f44 0b3d fec4 8b3d
00000120: bab2 4abd 5e2d a5bd 9b96 b8bd 23fe d73d
00000130: dd11 0d3e 922f 923d d109 1bbc bbb6 063e
00000140: 87fd 0dbd 53a3 c6bc 2dde 02bd 9dad 333d
00000150: d30f 003e 412b bf3d 2619 8dbd a5b5 debc
00000160: eee3 81bd dcf2 453e 86d2 d7bd 3024 a43d
00000170: 42e9 d1bd 9eca a53d 6a77 1ebd d2e4 35be
00000180: 7c5c ac3d d7be 673c fa31 473d 2954 0c3e
00000190: 1458 f8bd f6ec 1bbe f658 b1bb 4375 db3d
000001a0: e281 2bbd d25c 513d d8fc 87bd 3f28 063d
000001b0: 6867 ccbd 78f1 a0bd 8bc8 0c3e 3db9 8d3c
000001c0: 9c35 24be bd76 3f3d 7d8d bcbd 2dc4 6ebd
000001d0: 7b75 013e d965 02be 1c99 4cbb 4f2a ebbd
000001e0: 66dc 183e e51a 23bd 8bdc 35be 763c 1a3e
000001f0: cda0 d93c 0be2 31b9 aaf7 28be 9055 0d3e
00000200: 80fe ac3d 95b1 e83c 72b5 313d b545 c53d
00000210: 644c 1bbb 04d0 1d3d aa95 a1bd 610e 003c
00000220: a807 d8bd f842 fabc 4cb6 cc3d f4ab b03d
00000230: b980 59be ecde 01be b29e 0cbe cb2c 423e
00000240: 2150 2c3d 865b 08be c3db 153e 9dde ef3d
00000250: f6a9 06be 916e b23c 2161 8bbd 593a dc3c
00000260: 0de3 47bd 6f8d 9cbd 0724 58bc 1a53 2d3e
00000270: f099 07be 05c1 4cbe ce04 32bd 60c7 063e
00000280: 4c37 54bd 66f1 77bd d2d7 5a3c c755 363d
00000290: 420c 9fbd e3cb d139 7ae0 b53d 3074 363d
000002a0: b89b 70bc 0b36 c6bd 98b1 713d f1b9 a7bd
000002b0: f33f e3bd 383c 013e 0f3e ce3d 3398 c9bb
000002c0: 43aa 16be 4349 5abd 7cb6 29bd 6849 9e3d
000002d0: 15c4 fcbd 6bfa 933d f5c9 0ebd f3d5 a3bc
000002e0: 4a54 203d 2ddc bbbd 9498 71bd b060 7a3d
000002f0: da65 3c3e d428 af3d 1ee6 9fbd cbe7 1cbe
00000300: 501a 983d 32c6 193d 0a6e ca3d 9f0d 553d
00000310: e7b1 05be 8644 1ebe 14ec 2dbe a10a a9bc
00000320: 185c 673d 2c44 8fbd cc0d d8bc f95c babd
00000330: 8c0c 283e 7aeb c7bb 38ea 1dbe 9f72 1abd
00000340: 70b7 2f3d 9cbc 83bd cab8 afbd b766 0fbe
00000350: a8d9 823d 9884 18be 2994 e3bc 20c5 29bd
00000360: ccd9 a73c 05c4 bdbc 693a bdbd c91b 2dbe
00000370: aa17 123e 47f8 cd3c a05e c93d 2cc2 0bbe
00000380: 278c 303e 0469 b33d b361 00be 9b59 cb3d
00000390: b4dc d1bd 711c ba3d b911 b13d 4195 7e3b
000003a0: 75a7 9cbc 5cc2 b63d 15f5 b63d 46b5 413e
000003b0: 01cf 8bbc 91ea f2bc 74c6 793d 2d63 88bc
000003c0: db38 1a3e b4df c7bb 7bee 113e 331a 35bd
000003d0: 3902 64bd 885c 28be 931a 3d3d 0397 e83d
000003e0: 6052 57bd 4ae7 243c 83e7 1f3e

weight f4 [251]
0.48473272 0.29805505 0.105663635 0.37349972 0.19051705 0.40971997 0.11717116 0.30513835
0.25537607 0.2313735 0.3449729 0.07663703 0.3383191 0.1297149 0.25394592 0.25044468
0.24617812 0.4004591 0.16572227 0.24442972 0.30484533 0.37166977 0.33474633 0.4732072
0.35994422 0.090143725 0.36520344 0.24093017 0.28244612 0.23863676 0.29512286 0.30927888
0.42563996 0.10330675 0.367695 0.33057794 0.34087542 0.34296232 0.37072596 0.3207334
0.16774738 0.2279441 0.3317211 0.33134928 0.3170804 0.305926 0.43368044 0.4510113
0.2329739 0.27054992 0.36982673 0.39827174 0.36014274 0.43247512 0.2261743 0.090534784
0.36789525 0.26645282 0.28960428 0.38511792 0.38431835 0.39201492 0.27757892 0.27072737
0.12466862 0.2933953 0.41523644 0.18222441 0.28449574 0.2352184 0.38964322 0.42404127
0.39626047 0.32898936 0.25860763 0.2938718 0.37674767 0.29228944 0.08045093 0.43310744
0.37641007 0.2846361 0.36698627 0.25754696 0.31522733 0.25239825 0.335815 0.18858947
0.45628792 0.16250284 0.27898854 0.14387679 0.38497898 0.22256756 0.19432592 0.30204564
0.4501844 0.26530066 0.1314087 0.06608944 0.39574495 0.3133468 0.17230408 0.46134445
0.42010298 0.2593622 0.28404525 0.25508597 0.07011856 0.3638966 0.08556915 0.44619182
0.34982884 0.24927513 0.34727648 0.2802223 0.36270595 0.29253054 0.41412508 0.37805024
0.2870055 0.3561019 0.25552818 0.2715627 0.3394771 0.09774103 0.32252786 0.31114995
0.35834426 0.20111527 0.09720112 0.27759156 0.40937328 0.24424748 0.19086556 0.4407597
0.082064666 0.39054173 0.3956806 0.42873666 0.34048954 0.4256052 0.3640689 0.3143703
0.46677116 0.20431322 0.24343929 0.4114422 0.20139857 0.36056322 0.1330823 0.35510254
0.13794506 0.3080839 0.2981471 0.40963107 0.3632051 0.17531013 0.23640412 0.48196554
0.16082512 0.38165626 0.26100075 0.30518654 0.15745485 0.4380302 0.35220382 0.22967958
0.1599512 0.3946553 0.41079494 0.38992986 0.20668569 0.25939494 0.4179926 0.21804206
0.22630285 0.31392512 0.28838432 0.14701667 0.1113837 0.22291617 0.25763553 0.22283526
0.31675044 0.26048678 0.1328595 0.2733275 0.34206575 0.36876696 0.35611588 0.31857362
0.1952079 0.06788211 0.32891127 0.3696161 0.43385756 0.32297707 0.17152652 0.20984477
0.35211194 0.37669423 0.36161906 0.17625393 0.19910197 0.20848459 0.40298104 0.27489126
0.07933338 0.39176056 0.32370377 0.34818214 0.08495401 0.28670508 0.1409342 0.31710407
0.28679892 0.30361053 0.15877439 0.35685343 0.35974905 0.05908112 0.3205713 0.29290837
0.3460975 0.42080715 0.30448034 0.21824591 0.39135623 0.32089493 0.34739408 0.22121254
0.4149941 0.06653067 0.19778311 0.2164286 0.3238264 0.37868688 0.20154051 0.33418852
0.10947338 0.27340463 0.324538 0.40888962 0.28999394 0.2374654 0.2758959 0.091157965
0.4403611 0.33369204 0.3381491
00000000: e32e f83e ac9a 983e 2d66 d83d 5b3b bf3e
00000010: e716 433e d1c6 d13e 6ff7 ef3d 183b 9c3e
00000020: a7c0 823e 2ded 6c3e 4aa0 b03e e0f3 9c3d
00000030: 2938 ad3e fcd3 043e 3305 823e 493a 803e
00000040: 1e16 7c3e fa08 cd3e 19b3 293e c94b 7a3e
00000050: b014 9c3e 804b be3e df63 ab3e 3748 f23e
00000060: 9c4a b83e 469d b83d f2fb ba3e 66b6 763e
00000070: c79c 903e 325d 743e 581a 973e cd59 9e3e
00000080: 7bed d93e 7d92 d33d 8542 bc3e 8341 a93e
00000090: 3987 ae3e c298 af3e cbcf bd3e 2b37 a43e
000000a0: f8c5 2b3e 2e6a 693e 59d7 a93e 9da6 a93e
000000b0: 5d58 a23e 55a2 9c3e 5d0b de3e f4ea e63e
000000c0: b690 6e3e 8585 8a3e ee59 bd3e 46ea cb3e
000000d0: a164 b83e 616d dd3e 3c9a 673e 4d6a b93d
000000e0: c45c bc3e 816c 883e 0347 943e 2d2e c53e
000000f0: 60c5 c43e 2eb6 c83e d31e 8e3e c79c 8a3e
00000100: 4352 ff3d e937 963e df99 d43e 0999 3a3e
00000110: 6da9 913e 18dd 703e 517f c73e f01b d93e
00000120: a7e2 ca3e 4b71 a83e 3868 843e 5d76 963e
00000130: 12e5 c03e f6a6 953e 75c3 a43d 42c0 dd3e
00000140: d2b8 c03e d3bb 913e a0e5 bb3e 32dd 833e
00000150: 7a65 a13e 583a 813e f2ef ab3e 991d 413e
00000160: 929e e93e 2567 263e 96d7 8e3e 7054 133e
00000170: f71b c53e c0e8 633e 60fd 463e baa5 9a3e
00000180: 927e e63e 7dd5 873e 0190 063e e659 873d
00000190: 159f ca3e fe6e a03e 7b70 303e 5735 ec3e
000001a0: bd17 d73e 1fcb 843e 616e 913e a19a 823e
000001b0: 529a 8f3d a850 ba3e e13e af3d 4173 e43e
000001c0: c41c b33e fb41 7f3e 39ce b13e 4c79 8f3e
000001d0: 98b4 b93e 90c6 953e 3408 d43e cd8f c13e
000001e0: 63f2 923e fd52 b63e 97d4 823e 440a 8b3e
000001f0: f1cf ad3e 732c c83d 5f22 a53e 0c4f 9f3e
00000200: e678 b73e 29f1 4d3e 6111 c73d 7b20 8e3e
00000210: 6099 d13e 031c 7a3e 4372 433e 41ab e13e
00000220: 8511 a83d 16f5 c73e a696 ca3e 5f83 db3e
00000230: a554 ae3e ede8 d93e 3d67 ba3e 25f5 a03e
00000240: a1fc ee3e 7c37 513e 2648 793e 8da8 d23e
00000250: 6d3b 4e3e be9b b83e ba46 083e 00d0 b53e
00000260: 7841 0d3e 2cbd 9d3e bda6 983e 2abb d13e
00000270: 05f6 b93e 8084 333e ec13 723e 30c4 f63e
00000280: 57af 243e 7368 c33e e4a1 853e 6941 9c3e
00000290: d83b 213e 7f45 e03e 0f54 b43e 2031 6b3e
000002a0: 3fca 233e 4210 ca3e b753 d23e e3a4 c73e
000002b0: 6aa5 533e 6acf 843e 2003 d63e 6b46 5f3e
000002c0: efbb 673e cbba a03e 1ca7 933e 8a8b 163e
000002d0: 231d e43d 2344 643e cee8 833e ed2e 643e
000002e0: 1d2d a23e 865e 853e 520c 083e 95f1 8b3e
000002f0: 3e23 af3e 06cf bc3e d254 b63e 151c a33e
00000300: 94e4 473e c705 8b3d 0f67 a83e 523e bd3e
00000310: 9422 de3e 405d a53e a6a4 2f3e 8ce1 563e
00000320: 0448 b43e 11de c03e 2226 b93e e97b 343e
00000330: 63e1 4b3e fc7c 553e 8853 ce3e 8cbe 8c3e
00000340: 8a79 a23d d794 c83e 80bc a53e ee44 b23e
00000350: 5efc ad3d 02cb 923e 0e51 103e 775b a23e
00000360: 4fd7 923e d772 9b3e c195 223e 7eb5 b63e
00000370: 0731 b83e 0bff 713d ec21 a43e 16f8 953e
00000380: b133 b13e 0974 d73e d9e4 9b3e db7b 5f3e
00000390: d85f c83e 574c a43e a3dd b13e 8a85 623e
000003a0: 1b7a d43e 3b41 883d a887 4a3e 759f 5d3e
000003b0: 93cc a53e 3fe3 c13e a360 4e3e c21a ab3e
000003c0: 9433 e03d b1fb 8b3e d829 a63e fb59 d13e
000003d0: 167a 943e 212a 733e 3a42 8d3e 07b1 ba3d
000003e0: 0377 e13e afd9 aa3e e121 ad3e

bias f4 [251]
-3.818942 2.241183 2.2831967 2.2225192 2.209422 2.204575 2.265113 2.223109
2.2149136 2.2131276 2.2314782 2.4044564 2.24236 2.2009096 2.2483437 2.2206874
2.2740033 2.2192318 2.1703856 2.2195573 2.254857 2.2234077 2.196035 2.2121537
2.2151697 2.3531892 2.2317429 2.2390332 2.2103686 2.2506692 2.21975 2.2514937
2.2589874 2.2385755 2.2321029 2.2312331 2.220895 2.2582867 2.2436101 2.2056892
2.2007911 2.2003133 2.192846 2.21608 2.216407 2.1883767 2.1994095 2.2456632
2.2042952 2.2522407 2.1900134 2.261331 2.2191095 2.2271707 2.2334385 2.2614067
2.2397697 2.2327502 2.1747456 2.2393508 2.2197962 2.2292783 2.2550428 2.2488554
2.2494233 2.213237 2.2648246 2.288406 2.228725 2.2154045 2.242771 2.2698467
2.259865 2.2383165 2.2313316 2.1928668 2.2212987 2.2088652 2.2933917 2.2415037
2.2316544 2.226746 2.2448251 2.196104 2.214943 2.2105405 2.2202957 2.2098389
2.286163 2.2666106 2.216889 2.2601218 2.1908233 2.1887736 2.2011838 2.220043
2.2581854 2.1901665 2.3033698 2.3488963 2.2439058 2.2574325 2.2252405 2.2467747
2.2638466 2.2127082 2.2213511 2.198028 2.2892234 2.187143 2.2992606 2.2540736
2.1864645 2.2043076 2.1938672 2.2233233 2.2375138 2.2103946 2.2618508 2.1980052
2.1963985 2.2061682 2.2194645 2.1844807 2.192193 2.3135576 2.208247 2.230431
2.2047927 2.211088 2.3501234 2.211035 2.2352495 2.2056608 2.2338645 2.2477996
2.3256688 2.203134 2.2180717 2.227618 2.2464547 2.2637575 2.2200396 2.2018387
2.2209067 2.1754425 2.2196958 2.2313251 2.2270265 2.2118528 2.2678387 2.2511017
2.2159085 2.203226 2.2045257 2.2304747 2.2547126 2.246434 2.217272 2.2565205
2.2313495 2.2407477 2.2725244 2.2056723 2.2525115 2.2377825 2.251116 2.220156
2.2518122 2.2112088 2.262743 2.2652726 2.252988 2.2118723 2.2588317 2.2179837
2.2367272 2.2074354 2.1809726 2.2483664 2.3168015 2.2062147 2.1665387 2.2258945
2.2218046 2.2105293 2.3032742 2.2332463 2.2029564 2.228204 2.2551985 2.2155795
2.21008 2.2712085 2.2135289 2.1824617 2.2414784 2.225355 2.2637458 2.2170463
2.2132356 2.2465482 2.2209904 2.2060869 2.21349 2.2229857 2.2410665 2.2442753
2.2818065 2.2470183 2.2523825 2.2185552 2.2299063 2.205569 2.1772625 2.2275536
2.2448783 2.2055662 2.2829907 2.223304 2.215175 2.2691133 2.2213817 2.1966434
2.2596307 2.246311 2.2022188 2.192797 2.2321534 2.236592 2.2432475 2.2269738
2.2670016 2.3352914 2.2190435 2.2202494 2.2259054 2.2359397 2.202529 2.2158306
2.246277 2.1932337 2.2378585 2.2131977 2.220452 2.1974828 2.2173421 2.2448244
2.2699392 2.1972113 2.2412012
00000000: 8c69 74c0 8b6f 0f40 e51f 1240 c13d 0e40
00000010: 2c67 0d40 c217 0d40 9df7 1040 6b47 0e40
00000020: 25c1 0d40 e2a3 0d40 8ad0 0e40 9de2 1940
00000030: d482 0f40 b4db 0c40 dde4 0f40 be1f 0e40
00000040: 4589 1140 e507 0e40 99e7 0a40 3a0d 0e40
00000050: 944f 1040 504c 0e40 d68b 0c40 ed93 0d40
00000060: 57c5 0d40 a79a 1640 e0d4 0e40 524c 0f40
00000070: ae76 0d40 f70a 1040 6210 0e40 7918 1040
00000080: 4093 1040 d244 0f40 c6da 0e40 86cc 0e40
00000090: 2523 0e40 c587 1040 4f97 0f40 032a 0d40
000000a0: c3d9 0c40 efd1 0c40 9757 0c40 41d4 0d40
000000b0: 9dd9 0d40 5d0e 0c40 20c3 0c40 f2b8 0f40
000000c0: 2c13 0d40 b624 1040 2e29 0c40 a6b9 1040
000000d0: e405 0e40 f789 0e40 a8f0 0e40 e3ba 1040
000000e0: 6358 0f40 61e5 0e40 082f 0b40 8651 0f40
000000f0: 2411 0e40 7fac 0e40 9f52 1040 3fed 0f40
00000100: 8df6 0f40 ada5 0d40 e3f2 1040 3e75 1240
00000110: 6ea3 0e40 30c9 0d40 8f89 0f40 2b45 1140
00000120: a1a1 1040 9440 0f40 23ce 0e40 ee57 0c40
00000130: c229 0e40 0c5e 0d40 eec6 1240 cc74 0f40
00000140: 6dd3 0e40 0283 0e40 37ab 0f40 f88c 0c40
00000150: a0c1 0d40 7f79 0d40 5319 0e40 006e 0d40
00000160: 7f50 1240 2610 1140 82e1 0d40 d6a5 1040
00000170: 7336 0c40 de14 0c40 32e0 0c40 2f15 0e40
00000180: 1c86 1040 b02b 0c40 696a 1340 5154 1640
00000190: 279c 0f40 c679 1040 576a 0e40 28cb 0f40
000001a0: dde2 1040 039d 0d40 9e2a 0e40 7eac 0c40
000001b0: a382 1240 27fa 0b40 1627 1340 be42 1040
000001c0: 09ef 0b40 6013 0d40 5268 0c40 ee4a 0e40
000001d0: 6d33 0f40 1b77 0d40 2ac2 1040 1eac 0c40
000001e0: cb91 0c40 dc31 0d40 b50b 0e40 88ce 0b40
000001f0: e44c 0c40 5411 1440 eb53 0d40 62bf 0e40
00000200: 531b 0d40 7782 0d40 6c68 1640 9981 0d40
00000210: 540e 0f40 8c29 0d40 a3f7 0e40 f3db 0f40
00000220: c2d7 1440 2600 0d40 e3f4 0d40 4b91 0e40
00000230: eac5 0f40 67e1 1040 2115 0e40 edea 0c40
00000240: 5623 0e40 733a 0b40 7f0f 0e40 08ce 0e40
00000250: 9a87 0e40 ff8e 0d40 4524 1140 0d12 1040
00000260: 72d1 0d40 a801 0d40 f316 0d40 19c0 0e40
00000270: 364d 1040 93c5 0f40 c9e7 0d40 d56a 1040
00000280: 6ece 0e40 6968 0f40 0a71 1140 bc29 0d40
00000290: 2629 1040 d437 0f40 4912 1040 0917 0e40
000002a0: b11d 1040 7284 0d40 c8d0 1040 3afa 1040
000002b0: f530 1040 518f 0d40 b390 1040 72f3 0d40
000002c0: 8a26 0f40 9f46 0d40 0e95 0b40 3ce5 0f40
000002d0: 7a46 1440 9f32 0d40 92a8 0a40 0e75 0e40
000002e0: 0c32 0e40 5079 0d40 d868 1340 82ed 0e40
000002f0: 3dfd 0c40 e59a 0e40 2c55 1040 0ecc 0d40
00000300: f371 0d40 7b5b 1140 75aa 0d40 74ad 0b40
00000310: 6274 0f40 376c 0e40 36e1 1040 16e4 0d40
00000320: a7a5 0d40 72c7 0f40 b524 0e40 8730 0d40
00000330: d2a9 0d40 6645 0e40 a26d 0f40 35a2 0f40
00000340: 1e09 1240 26cf 0f40 0927 1040 cffc 0d40
00000350: c9b6 0e40 0b28 0d40 4558 0b40 3d90 0e40
00000360: 16ac 0f40 ff27 0d40 851c 1240 9d4a 0e40
00000370: 6dc5 0d40 2739 1140 1e2b 0e40 ce95 0c40
00000380: ca9d 1040 8fc3 0f40 27f1 0c40 c956 0c40
00000390: 9adb 0e40 5324 0f40 5e91 0f40 bd86 0e40
000003a0: 8e16 1140 6a75 1540 cf04 0e40 9118 0e40
000003b0: 3c75 0e40 a319 0f40 3cf6 0c40 2bd0 0d40
000003c0: 01c3 0f40 f15d 0c40 1339 0f40 08a5 0d40
000003d0: e31b 0e40 8fa3 0c40 efe8 0d40 34ab 0f40
000003e0: af46 1140 1c9f 0c40 d76f 0f40

running_mean f4 [251]
-0.34363407 -0.0062297345 -0.022091046 0.09329415 0.396604 0.11795882 0.409766 -0.05811427
0.009836618 -0.03624893 0.1693004 -0.100329116 0.039233696 0.32655156 0.14427298 0.16421415
-0.12858358 0.053614225 0.4871809 0.12886994 0.11531193 0.023208896 -0.08301131 0.08255915
0.3512057 -0.0473434 -0.15531753 0.22597507 0.08517719 0.11250218 0.2851291 0.12579986
0.10273084 0.34606054 0.16048212 0.3624094 0.23567237 0.168454 0.11965059 0.2080642
0.3681084 0.26153213 0.15055798 0.1272166 0.23134984 0.5621028 0.25929072 0.057291802
0.31270045 -0.16107011 -0.08870025 -0.020060368 0.1846009 0.14890712 0.25091368 0.33846405
0.32079652 0.16435961 0.12960678 0.06954508 -0.08096261 0.14865752 -0.17691843 -0.10001205
0.01759725 0.14863725 -0.0447713 0.19102743 0.2609187 0.24827775 0.025551593 0.075572215
0.03707042 -0.097033486 0.022319743 0.43911853 0.11623119 0.4130571 0.29326138 0.11582513
0.35220602 0.042099994 0.3089903 0.15858777 0.21565424 0.44351488 0.32798308 0.062149946
0.06367754 0.27539566 -0.01343199 0.08037243 -0.04484672 0.19281526 0.32200685 -0.07714711
0.07662614 0.10746085 0.14185578 0.24166209 -0.1466674 -0.06515768 0.3712428 0.0905713
-0.071157716 0.33973157 0.33608606 0.12233692 0.2753877 0.042575255 0.11731959 -0.020615868
0.17807215 0.17607799 0.021825053 -0.059967544 0.18679923 0.22066168 0.11247259 -0.0386067
0.49266803 0.059323937 -0.19617379 0.5493365 0.093815796 -0.016013933 -0.095300786 0.1123457
0.15131241 0.14594895 0.13551216 0.16670214 -0.011067063 0.14743146 -0.084082425 -0.0038351198
0.0009387443 0.057821903 0.17057046 0.095186554 -0.23181903 -0.13067456 -0.01845355 0.26282227
0.1314931 -0.010799764 0.15346311 0.18304992 0.19750346 0.11840628 0.2805217 -0.011978456
0.064761944 0.031565405 0.08393854 0.1763726 -0.13633826 -0.222041 0.04301171 0.19373795
0.03479045 0.02310688 0.0013478438 0.41224837 0.014170201 -0.0018964376 0.062116187 0.13445327
0.093855515 0.2648702 0.049341314 -0.09996766 -0.12869361 0.23641413 0.075564295 0.34146547
-0.13913791 0.027044427 0.29959625 0.183439 -0.05681251 0.15405507 0.07955122 0.062831156
0.041407622 -0.008537054 0.017042551 0.14192529 0.2985581 0.17549592 -0.0005386584 -0.06468739
0.2056422 0.16548182 0.23352122 0.14756258 -0.047471404 -0.08548782 -0.0931113 0.32637185
0.15197314 0.031729463 0.08561231 0.03671985 0.5114384 0.063084304 -0.005555008 0.40003252
0.1619035 -0.07548669 -0.0984421 -0.032074932 0.45623532 0.19532146 0.08932581 0.060023107
-0.003951674 0.046855222 -0.11007936 -0.10131302 0.22881354 0.36726043 0.18017614 0.0375571
0.1678289 0.06357655 -0.01536214 0.47871694 0.011574097 0.05857953 0.08974005 0.31469855
-0.011390001 0.17204079 0.45628777 0.529047 0.082673766 0.06409901 0.42437947 0.095887154
0.539735 0.10709001 0.21818621 0.055582695 -0.068782836 0.20450689 0.12628536 0.21584359
-0.041814797 0.13776332 0.14263648
00000000: cef0 afbe cd22 ccbb 48f8 b4bc 0111 bf3d
00000010: ae0f cb3e 6594 f13d d9cc d13e 3b09 6ebd
00000020: c429 213c c279 14bd 165d 2d3e 5a79 cdbd
00000030: 83b3 203d c431 a73e 4cbc 133e c127 283e
00000040: 6aab 03be 979a 5b3d c66f f93e 7bf6 033e
00000050: a928 ec3d 9520 be3c d501 aabd c614 a93d
00000060: 3cd1 b33e 27eb 41bd 8f0b 1fbe 0266 673e
00000070: 6171 ae3d 8b67 e63d 71fc 913e aed1 003e
00000080: 8c64 d23d d92e b13e 6d55 243e ba8d b93e
00000090: 1954 713e 357f 2c3e 5e0b f53d c80e 553e
000000a0: b478 bc3e 8ae7 853e df2b 1a3e 1245 023e
000000b0: f9e6 6c3e f8e5 0f3f c1c1 843e cfaa 6a3d
000000c0: 461a a03e 90ef 24be 7aa8 b5bd a455 a4bc
000000d0: 0508 3d3e 1c7b 183e c277 803e 294b ad3e
000000e0: 713f a43e e34d 283e a4b7 043e a76d 8e3d
000000f0: bacf a5bd ad39 183e 1b2a 35be 1ed3 ccbd
00000100: 1c28 903c 5d34 183e 1c62 37bd b29c 433e
00000110: 2397 853e 863c 7e3e 9351 d13c 9bc5 9a3d
00000120: 27d7 173d 7eb9 c6bd e5d7 b63c 25d4 e03e
00000130: 9e0a ee3d 387c d33e 5b26 963e ba35 ed3d
00000140: 5954 b43e 0b71 2c3d fa33 9e3e d564 223e
00000150: 77d4 5c3e 6214 e33e 66ed a73e f190 7e3d
00000160: 5f69 823d a900 8d3e d911 5cbc 4d9a a43d
00000170: 32b1 37bd 5d71 453e 15de a43e 4eff 9dbd
00000180: 2aee 9c3d 6f14 dc3d a442 113e 4476 773e
00000190: fb2f 16be 6471 85bd 8913 be3e 727d b93d
000001a0: 23bb 91bd 4cf1 ad3e 7913 ac3e c78b fa3d
000001b0: 9eff 8c3e 6463 2e3d 4145 f03d 9ce2 a8bc
000001c0: 8c58 363e ca4d 343e 74ca b23c 87a0 75bd
000001d0: 4c48 3f3e 23f5 613e 0758 e63d 0f22 1ebd
000001e0: fc3e fc3e a8fd 723d c8e1 48be 51a1 0c3f
000001f0: 7f22 c03d a72f 83bc 0f2d c3bd 8115 e63d
00000200: a4f1 1a3e a473 153e b3c3 0a3e f7b3 2a3e
00000210: a052 35bc 46f8 163e 6833 acbd a256 7bbb
00000220: 1016 763a a9d6 6c3d 06aa 2e3e 2bf1 c23d
00000230: f861 6dbe 8dcf 05be e62b 97bc a490 863e
00000240: 21a6 063e 7ef1 30bc 6f25 1d3e 7071 3b3e
00000250: 593e 4a3e fe7e f23d 8aa0 8f3e 4941 44bc
00000260: e9a1 843d ba4a 013d f8e7 ab3d 059b 343e
00000270: 429c 0bbe b75e 63be 0c2d 303d 3e63 463e
00000280: 6e80 0e3d a44a bd3c 22aa b03a 3812 d33e
00000290: 212a 683c e391 f8ba 8b6d 7e3d 1eae 093e
000002a0: 5237 c03d 119d 873e 1e1a 4a3d d8bb ccbd
000002b0: 42c8 03be 8c16 723e 74c1 9a3d 90d4 ae3e
000002c0: 2b7a 0ebe 468c dd3c ae64 993e 6fd7 3b3e
000002d0: 3cb4 68bd 9dc0 1d3e c0eb a23d 9fad 803d
000002e0: 0a9b 293d 00df 0bbc d29c 8b3c dd54 113e
000002f0: 9bdc 983e 34b5 333e c134 0dba d37a 84bd
00000300: de93 523e 1174 293e 3020 6f3e a51a 173e
00000310: 6071 42bd 3d14 afbd 23b1 bebd 361a a73e
00000320: d99e 1b3e c1f6 013d 8255 af3d 8e67 163d
00000330: a1ed 023f 5832 813d c906 b6bb 10d1 cc3e
00000340: 08ca 253e c498 9abd 039c c9bd 0161 03bd
00000350: ad97 e93e 5902 483e 73f0 b63d cada 753d
00000360: 0b7d 81bb 43eb 3f3d 4a71 e1bd 337d cfbd
00000370: 194e 6a3e 8f09 bc3e 1880 383e 79d5 193d
00000380: 57db 2b3e 6c34 823d 7cb1 7bbc 631a f53e
00000390: 48a1 3d3c 17f1 6f3d a2c9 b73d 2b20 a13e
000003a0: 209d 3abc 762b 303e 8d9e e93e a06f 073f
000003b0: dd50 a93d 5746 833d 4448 d93e 7c60 c43d
000003c0: 132c 0a3f 0252 db3d 356c 5f3e aeaa 633d
000003d0: 04de 8cbd 416a 513e f350 013e 1a06 5d3e
000003e0: fe45 2bbd d411 0d3e 4c0f 123e
