EXP2_dump/bottleneck_model.pth (torch, 77664 bytes, 19 tensors)

weight f4 [30, 251]
00000000: aae1 003d a8ec 2dbc 7291 ce3c 852b 2b3a
00000010: 2ea8 da3d f200 da3c a41d 863b 646d 7dbb
00000020: 3225 a33a 222e 2c3d 5f55 a2ba f93b 373d
00000030: 4909 4d3c 2c44 be3c 755b 4939 382e 133a
00000040: 657f ed3c 1e43 593a 12ea 2cbd 5371 c0bd
00000050: bd96 e83c 3f16 0c3d 3d46 b03c 6e9a cd3a
00000060: 7be5 6bbd af3d 4b3c 8e59 f83c 8aec 1f3b
00000070: 4e40 aabd 7af5 e03d 17e0 673b 3c69 57b7
00000080: 9c52 2c3d c38a 1c3c f304 60bb 9930 b43a
00000090: 7c2c 50bb 8618 da3d b8a5 273d f5d7 723d
000000a0: 2181 893b f884 afbd e56e e13d 6f12 663c
000000b0: 4f84 64bd 93a1 2d3d 8be4 4b3d abb8 2a3d
000000c0: 547f 013d 4759 af3d 1dfb 0f3b 0290 333d
000000d0: a88f debb 0b4e 853b 5df5 653d 4998 323c
000000e0: 67ba 67bc abf5 8d3b de61 093c b863 bbbd
000000f0: 59e9 663a 0dde f5bb aebd 703d 5378 323d
00000100: efd2 cd3d ca66 133c a259 cc3c 827c 65bb
00000110: c26f 99bd f2e4 4e3c 016c 54bd d072 d93d
00000120: 45f0 9ebd e424 843b eac6 d73d 6064 563b
00000130: f38a 33bc eb6f 453b 119d 963c 5678 413d
00000140: b5fa 693b fa57 a23b b0a9 f93a 2c39 c13b
00000150: 30a5 8d3b c31e 143b 8806 553b 554c 403c
00000160: a27b 863c c56f 943c 7b41 823c ca22 ca3c
00000170: 9d93 a4bd 4f5a 033d aba5 11bb c7f6 96bd
00000180: 36d5 d23d adab 9fbd 6755 7d3d 597a 523d
00000190: 84ef aeb9 840c ab3c af91 9c3c d6fc e73b
000001a0: 5045 dd3d 1df7 df3d 41b6 d23d bd9d 153c
000001b0: 2430 9b3c 4686 7c3b 0379 1e3d 7de2 5a3b
000001c0: 7cc3 943c 064a 253d 4f6b 743d ed2d 393e
000001d0: d00e c23c 715f 38bb b169 a0bd 07ab cf3d
000001e0: b443 5e3c 164f 8b3b 4a8c 80bd e906 b33d
000001f0: 9fde 283d c31e a0bd 70d7 b03b e0f1 713c
00000200: 4e51 b03c 2b75 bd3c 0918 163d 1f02 1f3d
00000210: 055e d13b 4a56 733d 77c1 e13d 3a08 163d
00000220: 6e2e 66bd 9979 0dbb 3edd 723d 4f03 8a3c
00000230: 81bb 3d3a 8dad c03d 2a77 793d e16c f83c
00000240: 0749 a23b 3885 fb3c a321 abbd f314 183d
00000250: abda 5bbd dfef ec3d 7b30 ba3c 5dfa 1d3d
00000260: cea5 81bd e109 e33d f54f 913b c51b 743c
00000270: b9b9 7abb 1605 7b3c 6273 3c3c 8b78 cc3b
00000280: 5759 e13c 7a1a ac3d eb57 943b 2a1a ce3b
00000290: 860b aa3c 9374 243d b915 803d 3ec4 45bd
000002a0: 4510 b9bd eba9 ecbb 77e1 d03b e0f0 5f3e
000002b0: ed8a d93d eb1b 453b 8079 723d d3ed 4f3c
000002c0: bcd0 213b c717 d93d 25da 283b 8145 833d
000002d0: be0a 603b 3f93 a23c a548 253e c910 013d
000002e0: e81b d039 e000 103d c724 bc3d d63b 0f3d
000002f0: 5318 623b 3970 5ebd 3562 4d3a 9258 683c
00000300: 4fef 153d 0af8 98bc e79d 753d de8b dc3b
00000310: 98c4 0a3d 352a db3d e42b 023d 068a b33d
00000320: 0794 f53c 2621 793d 0228 d4bb 2dd0 103d
00000330: 98af 933b 2c80 3d3b 4105 033b b50c fe3c
00000340: 00ac 703d d133 0d3e 2f82 393b 5e62 d83d
00000350: 7f6c 623c 3065 e93c 8bd9 a63d 03ad 053b
00000360: 59c3 cb3d 82bc fc3c 5844 b23a 6a99 a63d
00000370: 9202 6c3b 367d a23a 3692 003b 33b3 523c
00000380: 7e7e 2e3b 500e da3d cc6b bb3d d7ad 7c3b
00000390: 131f fb3a a4c4 13b9 1b7e 793d e788 373c
000003a0: a878 023d 6668 cd3b 102e 02bc 7537 2a3d
000003b0: cd00 663d 8f36 233c 8696 923c 1250 0e3d
000003c0: c400 933d 4c60 4a3d 4fbb da3b 4fc3 a53a
000003d0: 9485 f539 9efd 653d 3bb4 ee3c ea57 943c
000003e0: 95a4 04be d8ef 543b 616a 38bc f230 653d
000003f0: 5e27 2cba 09f1 e3bb 1670 063b 37e0 6e3b
0.03146521 -0.010615505 0.025215838 0.0006529617 0.10676609 0.026611779 0.004092889 -0.0038669938
0.0012446998 0.042036183 -0.0012385062 0.04473493 0.012514421 0.023225866 0.00019202924 0.0005614492
0.02899141 0.00082878943 -0.042215414 -0.09396615 0.02839219 0.034200903 0.021517867 0.0015686282
-0.057591897 0.012404843 0.03031614 0.0024402463 -0.083130464 0.10984321 0.003538137 -1.28395e-05
0.04207097 0.009554568 -0.0034182637 0.0013747393 -0.0031764796 0.10649209 0.040929526 0.059287984
0.0041963016 -0.08570284 0.110074796 0.014042481 -0.05579024 0.042390417 0.049778502 0.04168002
0.03161557 0.0856195 0.0021969744 0.04383851 -0.0067920275 0.0040681413 0.0561422 0.010900565
-0.014143563 0.0043322644 0.00838515 -0.09149879 0.0008808575 -0.007503277 0.058774643 0.04357178
0.10049998 0.008996675 0.024945084 -0.003501684 -0.07492019 0.012627827 -0.051860813 0.10617602
-0.077606715 0.004032718 0.10535987 0.0032713637 -0.010958421 0.0030126523 0.018385442 0.047233902
0.0035702412 0.0049543353 0.0019047763 0.005896708 0.0043226704 0.0022601343 0.0032505114 0.011736949
0.016416375 0.018119702 0.015900364 0.024674792 -0.080359675 0.032068547 -0.002222399 -0.07371288
0.10294573 -0.077964164 0.061849024 0.05138621 -0.0003336632 0.020879991 0.019112436 0.007079701
0.10804236 0.10935805 0.102886684 0.009131846 0.018943854 0.0038532182 0.038689625 0.0033399158
0.01815962 0.040353797 0.05967265 0.18083926 0.023688704 -0.002813306 -0.07832659 0.10140043
0.013565946 0.004251371 -0.06276758 0.087415524 0.041227933 -0.07818367 0.005396776 0.01476714
0.021523144 0.02312716 0.036644015 0.038820382 0.006389382 0.059408464 0.110232286 0.03662894
-0.056196623 -0.002158737 0.059293024 0.01684728 0.0007237718 0.09408102 0.06090466 0.030325355
0.004952553 0.030703172 -0.08356025 0.037129354 -0.053675335 0.11569189 0.022728195 0.038568843
-0.06330453 0.110858686 0.0044345804 0.014899199 -0.0038257672 0.015321037 0.011502119 0.006239956
0.02750842 0.084034875 0.004527082 0.00628974 0.020757448 0.040150236 0.06254143 -0.048282854
-0.09036306 -0.0072224042 0.0063745338 0.2186923 0.10622201 0.0030076455 0.059197903 0.012690979
0.0024691066 0.10600238 0.002576479 0.06409741 0.003418609 0.019845603 0.16140993 0.03151015
0.00039693643 0.035157084 0.09186702 0.034969173 0.0034499362 -0.054306243 0.00078347634 0.014181273
0.036605176 -0.018672962 0.05996504 0.0067305407 0.033878893 0.1070141 0.03178014 0.0876656
0.029977812 0.06082263 -0.006474496 0.035354782 0.0045070164 0.0028915508 0.0019992145 0.031011919
0.058757782 0.13789298 0.0028306355 0.10565637 0.013819813 0.028490633 0.08146962 0.0020397312
0.09949369 0.030851606 0.001360069 0.0813473 0.0036012274 0.0012396935 0.0019618399 0.012860107
0.0026625688 0.10647261 0.0915142 0.0038555765 0.0019159041 -0.00014092267 0.06091128 0.011202074
0.031853348 0.006268549 -0.0079455525 0.041556794 0.056153107 0.009961738 0.01789404 0.03474433
0.071778804 0.049408242 0.006675161 0.0012646707 0.00046829565 0.05615007 0.029138675 0.018108327
-0.12953408 0.003249159 -0.011255831 0.05595488 -0.00065671455 -0.006956224 0.0020513586 0.003644956

bias f4 [30]
00000000: 12c1 233c ad52 6bbd c13b 17bd e300 213d
00000010: 0791 d13c dc31 64bd 6907 c0bc 0fe2 16bd
00000020: bb1e ddba 3497 41bd de70 46bd 4d3e 6ebd
00000030: d81d 19bd 49f9 67bd c25a 723d bbd2 983c
00000040: d57e 7b3d e17a 3bbc 59a5 b43c 7aae 3f3d
00000050: 582d 663d 6ef2 4c3d 3e32 11bd d9f5 4f3d
00000060: 49d4 1b3d c931 c2bc 791e d73b 5bfa 5d3d
00000070: 0089 6cbd dc32 7cbd
0.009994762 -0.057451893 -0.03692222 0.039307486 0.02558185 -0.055711612 -0.023441033 -0.03683668
-0.001687012 -0.04726334 -0.048447482 -0.058164883 -0.037381977 -0.05663422 0.059168585 0.018655172
0.061400253 -0.011442871 0.0220515 0.046797253 0.056195587 0.050035886 -0.035448305 0.050771568
0.038044248 -0.02370538 0.006564912 0.054193836 -0.05774784 -0.06157194

weight f4 [30]
00000000: 4e7e bc3e ae30 823f cf95 543f 3a12 403f
00000010: 1fe3 5d3f d07e 4c3f 01a9 403f e700 5d3f
00000020: 33fc 453f ef9a 663f 953d 413f 3c24 433f
00000030: bc52 0f3f 1886 4e3f 0a13 613f e8ff bc3f
00000040: e83e 5e3f b6e5 4a3f 0ae7 623f 5c5b 553f
00000050: ab58 543f 6b42 383f cc76 2f3f 2750 323f
00000060: 83d3 7a3f 07ab 6a3f dd99 783f 435d a63f
00000070: 25e3 4d3f 1b85 623f
0.36815113 1.0171106 0.8304109 0.7502781 0.86674684 0.79881 0.7525788 0.863295
0.7733795 0.9008016 0.7548459 0.76227164 0.5598562 0.8067336 0.87919676 1.4765596
0.8681474 0.7925676 0.8863379 0.8334253 0.82947797 0.71976346 0.68540645 0.6965355
0.9797899 0.91667217 0.97109777 1.2997211 0.8042472 0.8848435

bias f4 [30]
00000000: 584b bebf a6cb 203e 402e 463f 2bc9 313f
00000010: 7ba9 0a3f a846 f83e c894 cc3e 720e 943e
00000020: ba67 ca3e 876a b03d 4efb c13e bcc4 f43e
00000030: dc40 853f 7d47 ee3e 2a91 093d b808 b0be
00000040: c4e0 b93e adca 5e3e e0c2 db3d 040c f93e
00000050: 74d5 843e 5b9c 7abf db7f 5dbf 12de 193f
00000060: ba8f 713e d269 453e d015 393e aacd 13bf
00000070: 8a45 ce3e 61fc 023f
-1.4866743 0.15702686 0.7741432 0.6944758 0.54164857 0.48491406 0.3995726 0.2891727
0.39532262 0.086140685 0.37887043 0.47806346 1.0410419 0.46538916 0.033585705 -0.34381652
0.36304295 0.21757002 0.10730529 0.4864198 0.25944102 -0.9789483 -0.86523217 0.6010448
0.23589984 0.19278648 0.18074727 -0.57735693 0.4028743 0.5116635

running_mean f4 [30]
00000000: c0f8 b73e 9188 9cbe 5007 2e3c e6f2 0ebe
00000010: 0b4b 07be 0bd5 3bbe 51d2 56be 3d38 4abe
00000020: 1eab 25be 2c1e 60be d6c1 88be f171 54be
00000030: 0706 de3b 70e7 6dbe 8113 efbd 0d99 27be
00000040: 15ce c8bd 0df6 35be 9021 f2bd 0da6 00be
00000050: f206 34be 9e56 9c3e 1779 8f3e 5cee fcbd
00000060: f3df 48be d0cf 18be ec3f 21bd 0026 ed3d
00000070: afe4 5ebe dce6 68be
0.3593197 -0.30572942 0.010621861 -0.13959846 -0.1321222 -0.18342988 -0.20978667 -0.19748016
-0.16178557 -0.2188651 -0.26710385 -0.2074659 0.006775621 -0.23232818 -0.11673642 -0.16366978
-0.09804932 -0.17769642 -0.11822808 -0.12563343 -0.17580774 0.30534834 0.28022072 -0.12350151
-0.1961668 -0.14923024 -0.0393676 0.115795135 -0.21766923 -0.22744316

running_var f4 [30]
00000000: 4ecf 2c3d b44f 503d 3a96 1b3d 2e1d 893d
00000010: aa3f 3e3d e906 fb3c ca65 6b3d 416c 1f3d
00000020: 5a04 263d 3e1a 283d e82e 983d 8c6f 2f3d
00000030: 46a2 673d 8bc9 4e3d 3c4b 113d 19dc 083d
00000040: 9826 273d 862b 123d 7678 f83c d16a 433d
00000050: 0ca6 3c3d 46a9 0f3d 9d48 423d 9226 7f3d
00000060: fe36 4a3d c977 f83c bbaa e03c 9faa 093d
00000070: c270 253d af42 3b3d
0.04218989 0.05085726 0.037985064 0.06695019 0.046447434 0.030642943 0.05747012 0.0389216
0.040531494 0.04104065 0.07430822 0.04283099 0.05655124 0.050485175 0.03547214 0.033413026
0.04080829 0.03568604 0.030330878 0.04770929 0.046056792 0.03507354 0.04743253 0.062292643
0.04936885 0.030330556 0.02742516 0.033609983 0.040390737 0.04571789

weight f4 [30, 30]
00000000: 1565 993e dff2 60bc 8622 623e 55fb 263d
00000010: 9cdb 1cbd f584 d0bc d90f af3a 057c 2e3c
00000020: 6a66 733d da30 473b 040d 0b3e c2f6 3ebd
00000030: 5b47 96bb 8a37 cf3d b1c8 ce3d 5b79 90be
00000040: a111 1c3d 254d 9e3d ece9 19bd 9c80 5e3d
00000050: c9a3 423c 734f 893d 2699 c6bd ff69 adbc
00000060: ae43 9f3d 7bb0 833d 0ef9 653b 87f5 a3be
00000070: dcc8 2fbd d74f 6abd 8f3e 523d 0b9a 833d
00000080: 0fd3 123e 028d aabc ac49 ff3c 3486 b3bd
00000090: d761 78bd 08d2 da3d cef1 1e3d 8ce2 4f3d
000000a0: a78f 6bbc bebb 23bc 8d76 2cbd ace8 823d
000000b0: b263 a73d f4ab a1be 0dc7 bebc 366f f73d
000000c0: b07a ff3d a131 c5bd 79c7 ec3c 98f5 e5bc
000000d0: a7b0 a73d 4b34 093e d0f8 d23c 4e05 0c3d
000000e0: 1dd3 ff3c b489 37be 38cc 4e3c 6911 acbd
000000f0: cc77 e7bd d082 063d c305 41bc 7f94 983c
00000100: 675d cc3c b2ea dc3d 1b40 9e3d e83f 89bd
00000110: 0ae3 e2bc cade f83c 0757 c1bd 366c 1bbc
00000120: 70ba b33d 2882 30bc 3585 bf3d a92f 9fbe
00000130: fa10 863b a6b3 a2bc af71 9f3d 25df 18be
00000140: 1381 b0bd e8eb 03be a553 8b3c 7864 3d3d
00000150: d5fd f53d 05d5 223e 811c 6ebd c015 cfbe
00000160: 2cab f8bc 32bc ddbd 3bd7 57be 0251 b63d
00000170: 7d1d 7cbd db34 a23d 24dd d6bd 2ae9 81bd
00000180: 44eb f0bc f359 893b ea47 753c 707b bb3d
00000190: b8cd cf3c 178e 28bc b907 febc 95fa 61bd
000001a0: 684e 613d eef9 a0be 1744 a23c 2ec6 4dbd
000001b0: d6d5 213e 579a 35be aecb 5f3c 23e7 13bd
000001c0: 6043 39be e095 f63c 3c91 183d 1f5a 1a3c
000001d0: 36fa 60bc 62cd 82be ee42 c4bc c972 39bd
000001e0: 42bf 26bd 2910 c73c 09b3 cbbd 478b b43d
000001f0: f434 17bd 3079 c23d be54 4d3d c243 243e
00000200: d09e 42bd 26b4 0a3c ce67 b5bd b555 a8bd
00000210: e7b7 f53c b96b f03b 17bb 01be e93b c9be
00000220: 9fcd 0c3d 112e 283d 71ef a33d 195b 99bd
00000230: c5d6 883d da62 b53d fcc7 52be e254 1abd
00000240: a400 70bd 6fe9 33bc 3649 973d f50c d1be
00000250: e017 a0bd be15 7fbd dc6c d43e d762 7d3c
00000260: 6f76 e4bd e898 a7bc 22fd 09bd c817 b5bc
00000270: ca56 163c 4621 953d 89fd 76bd b14e 873d
00000280: 13fa 663b 169c dfbb b706 2e3c 553d 18bd
00000290: be31 bf3b cd66 1dbe 6861 293e 47ba 4cbd
000002a0: b957 bb3c 801a 983c aab8 6bbd 82d1 023e
000002b0: 3112 643d cb08 ba3d 8643 f03c d69f d0bc
000002c0: 3bc2 c63d f7f7 93be 9d3a 64bd 3890 00bd
000002d0: 7dc9 94bd a96d dcba 8333 e83c 0bdc 693c
000002e0: c1b8 6d3c 4a96 a7bd 2672 ae3d b2d4 f33c
000002f0: 5432 10bd 5026 63bc 9cf3 a7bd 7d8e 033d
00000300: f345 953d 32e0 463d 3377 5bbd 1188 9fbe
00000310: 2bca 2d3d db48 ba3c a58c a2bd ade7 c1bd
00000320: a97a e43d 5ca3 0ebe 9748 bdbe 9b5f a23d
00000330: ec7e bdbd 4d0c 0f3e 9c5b c4bc 81c0 98bd
00000340: 35be 88bd d1e6 083d 62e6 45bd 9e9d 683d
00000350: ffdf e03c 69e8 eb3c a156 a8bc 87a3 32bd
00000360: 9403 c2bb f9a3 8f3d be31 7a3c fd83 743d
00000370: e942 fc3c 86ec 393c f873 0ebd 3447 e0bc
00000380: f3c7 efbd 361c 60be edde 703d ede5 843d
00000390: 0e01 0b3d 30fd 90bd 6584 d0bc b634 27be
000003a0: c336 ae3e eecc 9d3c 1e70 b63d 7a89 fd3c
000003b0: 8c01 3f3e 83da 87be 22a1 fd3d a07a 70bd
000003c0: e013 2a3e f417 853d 9546 02b9 cf93 0dbd
000003d0: 74bc d1bd 3d65 a73d 6fa4 67bc 2e55 383d
000003e0: 566a c83d aa31 983d d6ba 7fbb 9d02 ad3c
000003f0: 4bdd ce3c 53a5 06bd 3e5f 34bd db20 46be
0.29959932 -0.01372978 0.22083482 0.040767033 -0.038295373 -0.025454024 0.0013356163 0.010649686
0.05942384 0.0030394108 0.13579184 -0.046622045 -0.004586143 0.10118015 0.100968726 -0.28217587
0.03810275 0.07729558 -0.0375766 0.05432187 0.01187987 0.06704607 -0.096971795 -0.021168707
0.07776581 0.06430145 0.0035091075 -0.3202326 -0.042916164 -0.057205047 0.05132919 0.06425866
0.14338325 -0.02081919 0.03116306 -0.087658316 -0.060640182 0.106845915 0.03880482 0.05075316
-0.014377511 -0.009993492 -0.042105246 0.06392035 0.08173312 -0.31576502 -0.023288274 0.12081759
0.12474573 -0.096286066 0.02890371 -0.02807121 0.08187991 0.13398854 0.025753409 0.034184746
0.031228596 -0.17923623 0.012621932 -0.08401758 -0.11302146 0.032839596 -0.011781159 0.018625496
0.024946881 0.10786952 0.07727071 -0.06701642 -0.027696151 0.030379672 -0.09440427 -0.009486249
0.087757945 -0.010773219 0.09351579 -0.3109105 0.004091379 -0.019861054 0.07785355 -0.14928873
-0.08618369 -0.1288296 0.017007658 0.046238393 0.12011305 0.15901573 -0.058132652 -0.4044628
-0.030355059 -0.10826911 -0.21078198 0.0890217 -0.06155156 0.07920238 -0.10491398 -0.06343301
-0.029409058 0.004191631 0.014970759 0.09154403 0.025366649 -0.010287783 -0.031009542 -0.055170614
0.055006415 -0.3144068 0.019807858 -0.050237827 0.15804228 -0.17734657 0.013659401 -0.0361091
-0.18092108 0.030100763 0.03724788 0.009420901 -0.01373153 -0.2554732 -0.023957696 -0.045275483
-0.04070974 0.024299698 -0.099462576 0.088156275 -0.036915734 0.09495771 0.050129645 0.16041473
-0.047514737 0.008465802 -0.0885769 -0.08219472 0.029994918 0.0073370603 -0.12669025 -0.3930352
0.034375783 0.041059557 0.08004654 -0.074880786 0.06681589 0.08856745 -0.205841 -0.037678607
-0.05859436 -0.010980948 0.07387011 -0.40830198 -0.07817054 -0.062276594 0.41489303 0.01546546
-0.11155402 -0.020458654 -0.033688672 -0.022106066 0.009175966 0.07281737 -0.060300384 0.06606806
0.003524427 -0.006824027 0.010621718 -0.037167866 0.005834787 -0.15371247 0.16541064 -0.049982335
0.022868978 0.018567324 -0.057549156 0.12775233 0.05568141 0.090837084 0.029329073 -0.02546684
0.09705015 -0.2890012 -0.05571996 -0.031387538 -0.07264993 -0.0016817349 0.028344875 0.014273654
0.014509381 -0.08182962 0.08517866 0.029764507 -0.035204247 -0.013864115 -0.08200762 0.03211831
0.072887324 0.048553653 -0.053580474 -0.31158498 0.04242913 0.022739818 -0.07936982 -0.09468017
0.11156208 -0.13929504 -0.36969444 0.079283915 -0.09252724 0.13969536 -0.023969464 -0.07458592
-0.06676904 0.03342325 -0.048315413 0.05679094 0.02745056 0.028797345 -0.02054912 -0.043612983
-0.0059208367 0.07013697 0.0152706485 0.059696186 0.030793624 0.0113478955 -0.034778565 -0.027377702
-0.11708059 -0.21885762 0.05880635 0.06489167 0.033936553 -0.07079542 -0.025453756 -0.16328701
0.34026155 0.019262757 0.089081034 0.030949343 0.18652934 -0.265339 0.12384249 -0.058710694
0.16609144 0.06498709 -0.0001242406 -0.03456479 -0.10241023 0.081736065 -0.014138325 0.04500311
0.09785907 0.07431348 -0.0039021275 0.02111941 0.025252005 -0.03287251 -0.044036143 -0.19348471

bias f4 [30]
00000000: 220a 363e ec26 28bd d629 203c 8b53 15bc
00000010: 760c 92bd c9ef 2c3e c7de 3bbd cd79 33be
00000020: 3e54 38be aa00 2c3e 5c3d bbbd 817f 2e3e
00000030: 749e 43bc 352b 083e e226 353e 6934 11be
00000040: 326f 64bd 8b0f 1abb 5710 a93d e7bf 9dbd
00000050: 6049 aabd 7cf4 2a3d 9e2c 58bc b87c 253e
00000060: dfcd 2dbe b9df 1ebd 5454 da3c 2810 1dbe
00000070: 6b6e 25bd 9db4 d5bd
0.17777303 -0.041052744 0.009775599 -0.0091141565 -0.07131283 0.16888346 -0.045866754 -0.17526932
-0.18000886 0.16797128 -0.09142563 0.17040826 -0.011939634 0.13297732 0.17690614 -0.14180149
-0.055770107 -0.00235078 0.0825507 -0.07702618 -0.083147764 0.041737065 -0.013194231 0.16160858
-0.16973065 -0.038787577 0.026651539 -0.15338194 -0.040388506 -0.1043484

weight f4 [30]
00000000: 0eb8 813f 2cd2 793f 9789 7a3f fe22 7c3f
00000010: 654b 7a3f 4127 483f dccd 5d3f f25e 6d3f
00000020: 4cdb 4d3f 338c 8b3f bc37 6a3f 6b5d 853f
00000030: d3f8 793f 8f35 6f3f 6bac 843f df7a 893f
00000040: e2dc 5c3f c8e9 683f 66ea 683f 0578 8f3f
00000050: 1086 5c3f f9f6 5e3f d133 5e3f fa49 663f
00000060: b1c7 903f 9b5f 833f 3344 863f 6c48 553f
00000070: 6ac6 753f f3d2 5d3f
1.0134294 0.9758632 0.97866195 0.98490894 0.9777129 0.78184897 0.8664224 0.92723
0.80412745 1.090216 0.91491294 1.0419134 0.976453 0.934411 1.0365118 1.0740622
0.8627454 0.9098172 0.90982664 1.1208502 0.86142063 0.870956 0.86797816 0.8995663
1.1310941 1.0263551 1.0489563 0.8331363 0.9600588 0.8665001

bias f4 [30]
00000000: 5f87 da3d 2c42 893e dc1f 6d3e 7977 983e
00000010: df4d 6b3e 024f 8f3e b568 a53e da74 7e3e
00000020: 3c42 b33e 5ed3 c53e ba59 8d3e 6681 a33e
00000030: 2533 a33e fa92 8f3e 2494 203e 7af2 c43e
00000040: aaa4 8b3e 2cfe 183e 0a29 ba3e 9906 923e
00000050: 40c3 993e a2ff e93e 91fb 723e 7e79 9c3e
00000060: fb1e cd3e db66 913e 166a dc3e 16b3 c33e
00000070: c90b 813e 7df9 3d3e
0.10670351 0.26808298 0.23156685 0.2977865 0.22978924 0.27989966 0.32306448 0.24849263
0.3501147 0.38637823 0.27607518 0.3193466 0.31874958 0.28041822 0.15681511 0.38466245
0.27274066 0.14940709 0.36359435 0.2852066 0.30031776 0.45702845 0.23728777 0.3056144
0.400627 0.28398785 0.43049687 0.3822257 0.25204304 0.18552203

running_mean f4 [30]
00000000: 2a63 c43e 2005 eb3d 7b9b 923c 026b 3fbe
00000010: 6d8c 89be 4c81 8dbd e7dc 983d 44c6 75bd
00000020: 74bc 2bbe b7d7 b23e 5b0b e6bd 9039 ed3e
00000030: f191 2a3e 6f20 173e d681 fa3e 1753 e9be
00000040: f8e5 00be 0032 6a3e 6cbf 95bc 1bb8 6d3e
00000050: dcf8 233e 9337 383e f860 92bd c793 173e
00000060: 630e b4be 4c62 5abe 408b 933e d506 2cbe
00000070: e975 cf3e deee 063f
0.38356906 0.11475587 0.017896404 -0.18693164 -0.2686495 -0.06909427 0.07464009 -0.060003534
-0.16771108 0.34930202 -0.11232635 0.4633298 0.16657235 0.14758466 0.48927182 -0.45571205
-0.12587726 0.22870636 -0.018279754 0.23214762 0.16012901 0.1798995 -0.071474016 0.14802466
-0.35167226 -0.2132656 0.28817177 -0.16799481 0.40519646 0.5270823

running_var f4 [30]
00000000: 764d 183f e6a1 fe3e 4247 553f edd1 213f
00000010: b85c 6b3f ab8f 3b3e f9f7 e13e 5af8 963e
00000020: 551b a33e 8312 523f 847c 083f c7f1 1f3f
00000030: b082 363e 9d48 213f 2a11 fb3e 5bb0 113f
00000040: ea10 1e3f 3cf1 943e 9152 dd3e 68b0 273f
00000050: 94a6 a13e b627 3e3e 8a8b 803f f2c5 9c3e
00000060: 7c27 403f b249 e53e 52b6 2b3f 36ad 833e
00000070: bbdc 2f3f 7b4f 753d
0.59493196 0.49732894 0.83311856 0.63210946 0.9193835 0.18316524 0.441345 0.29486352
0.3185679 0.82059497 0.53314996 0.624783 0.17823291 0.63001424 0.49036533 0.5690972
0.6174456 0.29090297 0.43227056 0.6550355 0.31572402 0.18569836 1.0042584 0.3061977
0.7506025 0.44782788 0.67075074 0.25718087 0.6869618 0.05989025

weight f4 [251, 30]
00000000: ec1a 563d b1a0 a33d b53a bfbb ac1b 1bbe
00000010: b8d3 4c3e 50c3 623d 999a 2bbe d1e1 8c3d
00000020: 5107 a1bd 640e 4d3d e120 943e bdc4 6abe
00000030: 6c5e 3abe e984 833d 52cc a53d c9c2 23be
00000040: c762 843d 56d8 123e d2fa a5bd 0ff8 abbd
00000050: 3b4c 0c3e ff6d 87bd ad5f 5a3e aea0 973d
00000060: 8058 0bbd e6af 54bc 89cd 8abd 7643 a23c
00000070: 8767 ecbd 73e1 e33a 8a62 453c d03f a5bc
00000080: 9581 2bbe bdc1 5bbe b752 c3bd 3350 84bc
00000090: 8869 123e 7042 1fbd 162d 1d3d eec4 473e
000000a0: 7eba 47bd 7de6 a93a 703d 41bd bfb6 30be
000000b0: 3da4 153e 1739 ab3e 90ba 05be f197 753d
000000c0: 508c 99bd 04a6 a53c 76b5 a0bd 1acc 223c
000000d0: a835 923d ace5 093d e7af 033e f4d3 0dbe
000000e0: 0cef 5b3e 1250 bfbd 07b0 5abe adbf 4c3b
000000f0: aef6 81be 4fa2 883d 77a2 fabd 9f5c 603c
00000100: 0706 ffbc 40a8 ff3b 3bf7 0b3c ffb8 d23d
00000110: a665 563e 46eb 55bd 9833 223e 84ca 8a3e
00000120: 61d4 2cbd e7e1 82bc 4047 29bd b2ac 0abe
00000130: 1823 d43a a827 023d be0c 433c 8ea1 4abe
00000140: 6a7f 6cbd ac20 6e3d d5b4 493c ff4d d4bc
00000150: 5cdd ffbd 0888 873d 22d5 06bd 1573 373e
00000160: 1a19 3f3d 43d2 273b 1d78 51be 5db6 9d3d
00000170: 377b aa3d 6042 f9bb 6192 1cbe f050 7a3d
00000180: 27db b4bd e9ad cf3d f3fa a53d 90db 2a3d
00000190: dfa1 193d 48bb 8c3e 9bbe dbbb 4a7a 0b3e
000001a0: a2ee 41bc 85a2 0abe 7303 41bd 9bee 56be
000001b0: cedc 693e ae18 49be 0f6b c43d 4a55 2fbb
000001c0: 0797 a7bd 6841 e7ba 28a0 0dbe 364e f23d
000001d0: 5c1c eabc 180f a63d aa21 b1bd 0eb3 88bb
000001e0: 4d86 19bd 411a cabc 6cb2 cd3c 3f08 8abc
000001f0: 27d1 cebc f5a6 723e 716c 9bbd 799f 2d3e
00000200: 0052 123d e5cb 71bd a377 38bc f5e6 763e
00000210: c0a9 d0bc 181b 53bd 0102 4abe 78d3 2d3d
00000220: cb0f b2bd ddce c3bd 6080 be3d 2a2f 2bbe
00000230: d077 2f3e 94db 263e dad5 9fbd 5fda 0d3e
00000240: 756c d5bd bce3 edbd e918 2fbd 617a 373e
00000250: 0ad0 0ebe 544b 0cbc 56d8 b9bd 3bbf f7bc
00000260: 5b97 8c3c 56d3 cb3c ea2f 50bc e872 ae3d
00000270: 4d3a 26be ead3 563d cf9a f03c a327 cdbd
00000280: 34aa 1a3e d724 273e fb37 8e3e 767d 033e
00000290: ebb2 d7bd 2d41 13be 67bf 15bd d416 573b
000002a0: e8c5 e0bd b7fe cbbd b602 e4bb e69d f4bd
000002b0: 0fa5 46be 3162 223e d3d1 66bc 2785 813d
000002c0: 3ad6 af3b dd4b 923e 01ca a9bd f9fd cbbc
000002d0: b849 c93d 75ab fbbc 32b3 6ebe 5793 8cbd
000002e0: 367e 9a3c 6c5f e5bd b0f3 913e 5b94 febd
000002f0: 43b8 febc 612a 9f3d ae0d 06be 5fe8 30be
00000300: ba12 c2bd 770e 08be 5739 1a3e f784 b63e
00000310: 095f 39bd de5e 1d3e c205 3abe 080e 023e
00000320: a661 c2bd 52c0 f0bc 6d0f 6f3d 07a7 023d
00000330: 4729 8e3d 9cd1 08be 6ccd 0b3e d6e3 fabc
00000340: 1674 a43c 1735 08bc aa38 bf3d 4a02 273d
00000350: 99fd 3bbe 6fa5 3abd 78d8 6bbe c261 473d
00000360: ae21 7fbe 998f c73d 836e b7ba 40b8 cfbd
00000370: 1008 223d 1a50 873e 84e5 b23d b9a6 54be
00000380: 48f3 f4bc 42fc c3bc a2e1 1fbe 5641 213e
00000390: d158 de3d 6041 a53d 8cfd 203e 8b23 ebbd
000003a0: be63 a13c e268 26bd ed9b 5cbd af3a 013e
000003b0: 4238 cf3d b871 8e3d b830 233c eb10 5d3c
000003c0: 91b4 ecbd b1c2 8abd a8a7 4cbe f569 b73a
000003d0: b54d 93bd f689 18be 164a 4f3e 32f9 3fbe
000003e0: d2a8 53be 5a57 0a3e a7fd 89bd dc41 7eba
000003f0: ce7b 83bd 2ed9 e5bd 5a80 aa3c 1beb 4d3e
0.05227177 0.07989634 -0.005835856 -0.15147275 0.2000264 0.055362046 -0.16758193 0.068790086
-0.078627236 0.050062552 0.28931335 -0.22926612 -0.18200082 0.06421835 0.08095612 -0.15992273
0.06464153 0.14340338 -0.08104481 -0.08396923 0.13700955 -0.06612777 0.2132556 0.07403694
-0.034019947 -0.012981391 -0.06777484 0.019807559 -0.11543184 0.0017385915 0.012047419 -0.02017203
-0.1674865 -0.21460624 -0.09537261 -0.016151523 0.1429807 -0.03888172 0.038373075 0.19508716
-0.048761837 0.0012962368 -0.047177732 -0.17257212 0.14613433 0.33441994 -0.13059449 0.059959356
-0.074974656 0.020220764 -0.07847111 0.009936357 0.0713914 0.033666298 0.1286007 -0.13850385
0.21477908 -0.09341444 -0.21356212 0.0031242177 -0.25383514 0.06671583 -0.12238019 0.013693958
-0.031130804 0.0078020394 0.008542831 0.102891915 0.20937213 -0.052226327 0.15839994 0.27107632
-0.042194728 -0.01597686 -0.041327715 -0.1354244 0.0016184775 0.0317761 0.011904893 -0.1978819
-0.0577387 0.058136627 0.01231118 -0.025916098 -0.12493393 0.06617743 -0.032918103 0.17914994
0.046654798 0.0025607503 -0.20455976 0.07700799 0.083242826 -0.0076067895 -0.15290214 0.061112344
-0.088308625 0.101405926 0.081045054 0.041713297 0.037507888 0.27486634 -0.0067060716 0.13620868
-0.01183668 -0.13538559 -0.04712243 -0.20989458 0.22838137 -0.19638321 0.09590732 -0.0026753717
-0.08183103 -0.0017643394 -0.13830626 0.11831324 -0.028577976 0.08108348 -0.08648999 -0.0041717356
-0.037481595 -0.024670722 0.025109492 -0.016849635 -0.025246216 0.23696502 -0.07589043 0.16955365
0.035722733 -0.05903234 -0.011258992 0.2411154 -0.025471568 -0.05153951 -0.19727327 0.042438
-0.086944185 -0.095609404 0.09301829 -0.1671721 0.17135549 0.162947 -0.07804461 0.13852833
-0.10421077 -0.116157025 -0.042748366 0.17917778 -0.13946548 -0.0085628815 -0.09074466 -0.030242553
0.017162016 0.024881046 -0.012706736 0.085180104 -0.16233177 0.05244819 0.029370693 -0.10017326
0.1510399 0.16322647 0.27777085 0.12840828 -0.10532173 -0.14380331 -0.03655949 0.0032820003
-0.109752476 -0.099606924 -0.006958331 -0.11944179 -0.19398902 0.1585777 -0.014088112 0.06324225
0.005366114 0.28573504 -0.08290482 -0.024901377 0.09828514 -0.030721406 -0.23310545 -0.0686404
0.01885901 -0.11199841 0.2850623 -0.1243064 -0.031093722 0.07771755 -0.13091156 -0.17276143
-0.09476228 -0.13286768 0.15060936 0.3564832 -0.04525665 0.1536822 -0.18166259 0.12700665
-0.09491281 -0.02938858 0.05836432 0.03189757 0.06941467 -0.1336121 0.13652581 -0.030626219
0.020074885 -0.008313439 0.0933698 0.040773667 -0.18358459 -0.045567926 -0.23031795 0.048677213
-0.24915192 0.09744186 -0.0013994727 -0.10142565 0.03955847 0.264283 0.08735183 -0.20766725
-0.029901162 -0.023923997 -0.15613416 0.1574758 0.10856784 0.0806911 0.1572172 -0.11481389
0.019700881 -0.040627368 -0.05385964 0.12620042 0.10118152 0.06955284 0.009960346 0.013492803
-0.11557878 -0.06775416 -0.19985831 0.001399337 -0.07192556 -0.14896378 0.20243105 -0.18747404
-0.20669869 0.13509884 -0.067378335 -0.0009699145 -0.06420098 -0.11223064 0.020813156 0.20109217

bias f4 [251]
00000000: 0fde 8abe ed81 343e 614f 1c3e eb6d 903a
00000010: f661 453c aca9 593d 82ac 2d3e 4097 ea3d
00000020: 3c76 b43c ff16 21bd f70e 75bd 7915 ff3d
00000030: c2d3 38bc 9126 0cbe d39b dfbd a333 b83d
00000040: 2b43 913d 70a3 fcbd 35f1 24bd bf93 383d
00000050: 9f27 953c 89d6 413d fe1c a93d e9ca d9bd
00000060: c478 b2bd ca2b 393e 01e7 02be 2fc9 36be
00000070: c642 a3bd 9376 213e 56cd ab3d 9ecd 50bd
00000080: da8d cb3d 41bd 78bd 7c9b bb3c 61e2 eabc
00000090: 7402 383e c301 d5bd 02e5 1a3e 390b 29be
000000a0: ebe1 283e a96a eebd 7748 e2bc aa5e 9abd
000000b0: 60e8 e4bd 0ab5 8bbd 4afb acbc acc2 d33b
000000c0: 59bd bdbd 7623 243e 9629 2f3e 0b05 2e3e
000000d0: 6859 91bd 7c9b 6fbd b403 943d 917b 19be
000000e0: 3018 16be 374e 32be f317 1bbe 5f57 f7bd
000000f0: fad5 173e 7977 ea3c 4133 543d c5ba 013d
00000100: af10 37bd 9ccd b9bd e730 6dbd 5e53 b93c
00000110: a487 d93d c66b cebc 3914 103d e43a 24bc
00000120: e14f dcbd 5f8c fa3c 0a8a 243d 6aa5 9cbb
00000130: f616 ffbd be8e 2cbe 6fa6 1cbe 722e 38be
00000140: 8c82 d03d 7aa7 113d 178d c33c ef0a 22be
00000150: 625f fcbd f70c cebd 5a5a 85bd 4a2b 163e
00000160: 66c4 0a3e 40d1 a3bd b699 80bd 9958 9fbd
00000170: 99c7 b3bc 3890 a4bd 08e5 143e 826e 013d
00000180: ae89 ea3d c251 ecbc 87ad 29be 4216 c83d
00000190: 66ee 18be fc6b 013e aa57 92bd 82f2 943d
000001a0: 79c0 26be 30f3 393e dd34 0f3e ae22 01be
000001b0: 9327 0bbb 7bb0 793d 1a8b cd3c c84b ab3c
000001c0: 7efa c13d c4cb 153d be4a 403d d2cc 813d
000001d0: c879 29be 60f5 dcbd 99d7 9f3c b858 e0bd
000001e0: 9ce4 27bd 7384 7e3d 5698 14be 4c85 103e
000001f0: 9608 0a3e e7ac 653d 31c8 273e af79 ba3d
00000200: d21c 613d f3c1 0c3d fc22 0d3d ef94 a43d
00000210: b64e 0a3e 42a4 2fbe 18e3 b2bd 0c6e b83d
00000220: 4e9d 293d f3c3 1f3e 33bb 253d 1887 acbd
00000230: f1c5 04be 0134 80bd 33be fa3d e612 3e3d
00000240: ea73 d2bd f781 9abd 97f1 993d 5e91 e43d
00000250: 95d7 203d a979 2e3e 0f3a 29bd a9f8 3e3d
00000260: 27d4 b2bd e572 fabb a35b f93d 016c 103e
00000270: c28e 54bc 4bba c73d ec63 bd3d d952 b03b
00000280: 69a9 34be 863b ad3d 0f36 46bd 95c3 e6bd
00000290: 487d c8bd 59a5 27be cb87 ed3d 7cd7 db3d
000002a0: 0e43 f6bd 6190 383e 751e 21bd 4713 12bc
000002b0: a26b 5ebd 6d93 033d fe57 fa3d 295b dcbb
000002c0: a198 ea3c 41a0 b83d 1154 0d3e cba9 8b3b
000002d0: 973d 203e bcf6 d83d f0f8 303e e7f2 cf3d
000002e0: 563a a4bd 8f20 30be f3c1 6b3d 917d 43bd
000002f0: be62 06be 731a 183e 9b49 0a3e 1fb1 153e
00000300: 7127 0dbd 267c 813d d8df dd3d ce2a e2bc
00000310: 74fd 9b3c e851 05bd c43c 37bd dc66 1e3e
00000320: a4b8 373d dd54 82bd 5d12 23bd 0c40 0ebd
00000330: 90e9 323e 0c10 0ebe df18 e63d 24a0 a03d
00000340: e5dc 02be 2a5c dbbd d94c 82bd 719b 1cbd
00000350: 5034 dfbd e54e 19be b4e6 36be 591c cf3a
00000360: 697d 683c d863 b23d a00b a5bb 30b6 debd
00000370: e72e 033e 1b35 8abc 60d3 493d 15ce 003e
00000380: 9b30 05be 036b 203e 000c 083e 8b2d 12bd
00000390: 2879 47bd 05c8 8e3d 49d1 413d b004 f3bd
000003a0: 65d3 fbbd 4e7b 89bd c383 343e b9b2 0abe
000003b0: aa26 bdbd 5bad 0f3e 0490 b53c 5ab8 bbbd
000003c0: fd90 053e b97e e1bd 9386 1bbe d557 2e3e
000003d0: 29cc 963d c598 acbd 1b5d 033e 35af 00be
000003e0: 648e f3bd ce06 c9bd b71b 63bd
-0.27122542 0.17627688 0.15264656 0.0011019086 0.0120472815 0.053140327 0.16960338 0.1145463
0.022029035 -0.03932857 -0.059828725 0.124552675 -0.011280956 -0.13686587 -0.10918393 0.08994224
0.070928894 -0.12335861 -0.040269095 0.045062777 0.01820737 0.047323737 0.08257483 -0.10634405
-0.087144405 0.1808311 -0.12783433 -0.17850183 -0.079717204 0.15767889 0.08388774 -0.05097734
0.099391654 -0.06072736 0.02290129 -0.028672399 0.17969686 -0.10400727 0.15126422 -0.16508187
0.16492431 -0.116414376 -0.027622445 -0.07537587 -0.111771345 -0.0682164 -0.021115918 0.0064624157
-0.09264631 0.16029152 0.17105708 0.16994111 -0.07097131 -0.05849789 0.07227269 -0.14988543
-0.14657664 -0.17412649 -0.15145855 -0.120772116 0.1482772 0.028621422 0.051806692 0.031672258
-0.044693645 -0.0907242 -0.057907965 0.02262276 0.106215745 -0.025197875 0.035175536 -0.010023806
-0.10757423 0.030584512 0.040170707 -0.004780461 -0.12455551 -0.16851327 -0.15297864 -0.17986467
0.1018115 0.03556011 0.023870988 -0.15824483 -0.1232288 -0.100610666 -0.06511374 0.14664951
0.13551483 -0.07998896 -0.06279318 -0.077805705 -0.021945762 -0.0803532 0.14540493 0.03159953
0.114520416 -0.028847579 -0.16570102 0.0976987 -0.14934692 0.12638849 -0.07145627 0.07272817
-0.1628436 0.18159175 0.1398501 -0.12610886 -0.0021233305 0.06095932 0.025090743 0.020910159
0.09471606 0.03657128 0.04694628 0.063378945 -0.16550362 -0.10788989 0.019511985 -0.10954422
-0.040989503 0.062138032 -0.14511237 0.14113349 0.13479838 0.056073096 0.1638496 0.091052406
0.054959126 0.034364652 0.03445719 0.08036219 0.13506588 -0.17152503 -0.08734721 0.09005365
0.041409783 0.15602092 0.04046173 -0.084242046 -0.12966134 -0.06259919 0.12243309 0.04640474
-0.10276015 -0.0754432 0.07516783 0.11160539 0.039268095 0.17038597 -0.041315135 0.04662386
-0.08731871 -0.007643091 0.121756814 0.141037 -0.012973489 0.097523294 0.09247574 0.00538097
-0.1764275 0.08458619 -0.048391398 -0.11267773 -0.097895205 -0.16371669 0.11598166 0.1073446
-0.120245084 0.18023826 -0.039335687 -0.008915729 -0.054301865 0.032123018 0.122238144 -0.0067247343
0.028637232 0.09014941 0.138016 0.0042621843 0.15648495 0.10593936 0.17282462 0.10153752
-0.08018939 -0.1719992 0.05755801 -0.04772717 -0.13123605 0.1485384 0.13504641 0.14618348
-0.034461442 0.063225076 0.108337104 -0.027608301 0.019041754 -0.032548815 -0.044735685 0.15468925
0.04485382 -0.06363843 -0.039812434 -0.03472905 0.1747191 -0.13873309 0.112352125 0.078430444
-0.12779577 -0.10710938 -0.06362314 -0.038234178 -0.1089865 -0.14971502 -0.17861444 0.0015801295
0.014190056 0.0871045 -0.005036786 -0.10874593 0.1281086 -0.016871026 0.04927385 0.12578614
-0.13006823 0.15665822 0.13285828 -0.035687964 -0.048699528 0.069717444 0.04731873 -0.118661284
-0.1229618 -0.06712972 0.17628388 -0.1354474 -0.0923589 0.14030974 0.022163399 -0.09166022
0.1304359 -0.110104986 -0.15188055 0.17025693 0.07363159 -0.08427576 0.12828486 -0.12566836
-0.11892393 -0.09815751 -0.055446353

weight f4 [251]
00000000: be98 0a3f d24c 973e 7fa7 a43e ead4 dc3c
00000010: 2678 bf3e 0d65 953e 1c8a 9d3e 9b3f b53e
00000020: 7ad1 3b3c 0e7b b03e 11af c93e d34a 973e
00000030: c42b f33e 13f1 b63e 91d4 373c 58fc 923d
00000040: c5e7 8c3e 4d3f 053d dee3 d93e 2821 de3e
00000050: 3304 a73e cf76 b33e 03fc 983e 2fd3 533c
00000060: a9b4 ba3e aee0 cc3e e107 a73e 5b6b 69ba
00000070: 7433 ce3e 521f bf3e f1b6 b23c 272c 8fbb
00000080: 8633 913e 416d 8e3e 4cb1 b53e d41a e13c
00000090: 47c1 ba3e 9552 bb3e df8f 973e 211b b83e
000000a0: 2975 a53b 7785 c23e 1b35 c13e f557 df3e
000000b0: 0f4f ab3e 67c5 953e fcab 113f 6e6f a03e
000000c0: 0333 8c3e d177 da3e 1345 0a3d 3e31 d93e
000000d0: 4caf c33d f308 4d3b 7093 ac3e 1129 cf3e
000000e0: cc46 1d3e 7a82 a73c 484b ea3e 79c2 c03e
000000f0: 8cca ca3c 9f6b 213e 9769 fe3e 2d87 cd3e
00000100: 10e4 c73e 2b90 da3e 291c a33e 91fb 163e
00000110: 8531 bc3e 367c cd3e 1dfb c53e 4eab c33e
00000120: 3beb c53e 5a2f 083d 200f bd3e 57f2 893c
00000130: d831 873e 9c04 693c 8b0e 0c3f 114e 933e
00000140: 1695 e43b af19 953b b4d8 0bba c2a9 093c
00000150: f9be 833c ef06 403c 0ed0 ba3e d805 dd3e
00000160: 76f9 a13e 4d64 153f 45eb aa3e a93e 963e
00000170: 8fdd cf3e 496d 943e 1f5b b13e a0f4 cd3e
00000180: 2cfa c03e c5dd c93e 7645 c93e 253d cb3e
00000190: 9699 203b c8ba b03e c57f b83e 4b9c df3b
000001a0: 4a1b a53e 8149 ae3e 58cc c23e 65be b93e
000001b0: 7892 b13e 957d 993c c4a9 983e d162 6d3c
000001c0: 3dae 083e e6a8 b63e 07fb a13e 63cb d73e
000001d0: 9c6e a33e f1d3 0a3e 383e b63e b0e2 e73e
000001e0: 3a0c f93e 8fa8 893b 19e2 e03e bfa2 cb3e
000001f0: 2330 c73e c28d bb3e f2d2 f33b d38b c73e
00000200: 4008 b23e 4521 ad3e f331 b93e 8f56 9f3e
00000210: 3a56 963c 702d a13e 6c2c bf3e 84e6 a43e
00000220: 3140 c33e 20e5 9e3c 5c6e bf3e f0fa a93e
00000230: 8645 af3c c0ee c53e cc60 a63e b369 b33e
00000240: f599 bf3a 4003 8f3e 503b cd3e 55fc a33e
00000250: 22a1 c13e 21bb 003f 70bd c33e 237b 943e
00000260: 15b6 c63e 63e9 b63e 9282 a83c faa0 003f
00000270: b286 b33e 303f e63e 5df5 de3e ff67 6c3c
00000280: c54a ed3e baab d73e 8faa 263c db99 303d
00000290: f1ff b43e 83e8 c13e 3da6 b43e 41de c53e
000002a0: 4a93 be3e bc3f b23e 58a7 073c 50c3 f23e
000002b0: ff42 c93e b803 faba 635a ac3e 8223 f13e
000002c0: 171f 993c 540f ba3e dd76 923c f4ab e93e
000002d0: ccc8 c13e 7aca c33e 876a 013f 74d5 bc3e
000002e0: 15a6 003e 41e1 b73e 6c7e cb3e 6e4a a13e
000002f0: 2909 0a3d 6a64 bd3e eced 593c a3f7 063f
00000300: 3460 a63e 4ca0 c63d 7432 a63e dd7d 9d3c
00000310: 950e a13e 5e00 ca3e db0d 973e 63e0 d03e
00000320: 3d31 8f3e d14f bd3e c7b5 b03e 6af8 b43e
00000330: e555 a13c 048a c13c e5a5 5b3c 89af b93e
00000340: 24a2 b83e c526 ee3e eced e53b ab62 c33e
00000350: ac3c d63e 2409 a03e 8bdb e73e 8a1c c53e
00000360: b20d d03e 8e06 a43e b234 863c 3739 b43e
00000370: cb67 683b 8f48 323b d849 beba ee53 cf3e
00000380: 4e73 b53c ca35 be3e b005 cf3e 01a2 e5bb
00000390: aa12 ae3c 61d0 7a3d 1b46 a03e 6098 e63e
000003a0: 8ab4 983e dade d23e 3a14 d73d b1ee 973e
000003b0: 8f29 bc3e 4a03 ce3e d9ab 933e 4e97 9e3e
000003c0: 94df b93e cb12 c33e 6168 c73c 7c6b 25bb
000003d0: 9a63 cd3e 841d a33e 16c6 9c3e 8b55 b63e
000003e0: b736 cd3e c2fe c53e 58b8 863e
0.54139316 0.29550797 0.3215904 0.026956994 0.37396353 0.29178658 0.30769432 0.3540009
0.011463517 0.34468883 0.39391378 0.29549274 0.47494328 0.357308 0.011220113 0.07177037
0.27520576 0.03253107 0.4255666 0.4338467 0.3262039 0.3505158 0.2987977 0.012928768
0.36465958 0.40015167 0.326232 -0.0008904242 0.4027363 0.37328583 0.021815749 -0.004369277
0.28359622 0.2781773 0.3548683 0.027478613 0.36475584 0.36586443 0.29601952 0.35958198
0.005049367 0.3799245 0.3773583 0.43621793 0.33458754 0.2925217 0.5690305 0.31335014
0.2738267 0.42669538 0.03375728 0.4242038 0.095549196 0.0031285852 0.33706236 0.4046102
0.15359038 0.020447958 0.4576056 0.3764837 0.024754785 0.1576371 0.49689934 0.40142193
0.39041185 0.42688116 0.31857422 0.14744402 0.3675653 0.40133828 0.38668147 0.38216633
0.3865603 0.033248283 0.36925602 0.01683919 0.26405215 0.01422229 0.5470969 0.28770497
0.0069757802 0.004550181 -0.00053347205 0.00840229 0.016082274 0.011720403 0.36486858 0.4316852
0.31635636 0.5835617 0.3338262 0.2934468 0.40598723 0.28989628 0.34639832 0.40225697
0.37690866 0.3942701 0.39310807 0.39695087 0.0024505607 0.34517503 0.3603498 0.0068240515
0.32247382 0.34040454 0.38046527 0.36278072 0.3468206 0.01873664 0.2981702 0.014488892
0.13347717 0.35675734 0.3163683 0.4214736 0.31920326 0.13557412 0.35594344 0.45290136
0.4864214 0.004201002 0.439225 0.39772603 0.38903913 0.3663159 0.007440918 0.38973865
0.3477192 0.33814445 0.3617092 0.31120726 0.018351663 0.3147998 0.3733858 0.3220712
0.38134912 0.019396365 0.37388885 0.33199263 0.021395456 0.38658714 0.32495725 0.3504158
0.0014618026 0.27932167 0.40084314 0.32028452 0.37818247 0.50285536 0.38230467 0.29000196
0.38810793 0.35724935 0.020570073 0.5024563 0.35063702 0.44970083 0.43546572 0.0144290915
0.46346107 0.42123204 0.0101725 0.043115478 0.35351518 0.37872705 0.3528308 0.3864613
0.37221748 0.3481425 0.008279644 0.47414637 0.39308926 -0.0019074595 0.3366271 0.47097403
0.018691583 0.3633982 0.017878944 0.45639002 0.37848508 0.38240415 0.5055317 0.36881602
0.12563355 0.35914043 0.3974489 0.31502098 0.033700142 0.36990672 0.013301354 0.52721614
0.32495272 0.09698543 0.32460368 0.019225055 0.31456438 0.39453405 0.29502758 0.40796193
0.27967253 0.36974958 0.34513685 0.35345775 0.019694278 0.023625381 0.013406252 0.36266735
0.36061203 0.46513954 0.007016888 0.38161215 0.41843164 0.31256974 0.45284685 0.38498336
0.4063545 0.3203625 0.016382549 0.351999 0.0035462256 0.0027203893 -0.0014517857 0.4049372
0.022149708 0.37150413 0.40434027 -0.0070078378 0.021249134 0.06123388 0.31303486 0.45038128
0.2982524 0.41185647 0.10501905 0.29674295 0.36750457 0.40236884 0.28842047 0.3097481
0.3630339 0.38100275 0.024341764 -0.0025241068 0.40115052 0.31858456 0.30619878 0.3561214
0.40080807 0.38670927 0.26312518

bias f4 [251]
00000000: c57c a1c0 639c 4040 667d 4440 801d 3140
00000010: 8287 3c40 ca39 4240 4fe4 4340 80f6 4140
00000020: fab5 3140 ce8d 4640 c914 4840 9a51 4140
00000030: 77a9 4c40 94a8 3d40 f810 3640 0691 3340
00000040: 0c51 3f40 208d 3240 6b99 3d40 de14 4a40
00000050: 3fa4 3f40 6470 4340 6ba5 4140 df7c 3a40
00000060: e2a8 4540 2b37 4140 872a 3a40 63af 3940
00000070: 2c62 4240 2738 4040 e262 3540 8df4 3940
00000080: 39b7 4740 f6a4 4440 f9fb 4140 87a5 3540
00000090: c82b 4240 c91b 3f40 0d52 3f40 4ef0 4040
000000a0: 961b 3e40 a144 4640 03ad 4040 a5b7 4140
000000b0: cb34 4640 7d57 4440 4247 4c40 8dac 4340
000000c0: a978 3f40 f670 3f40 9c0c 3540 21ba 4340
000000d0: 16d4 3440 060d 3640 02b2 3840 bbf9 4340
000000e0: c8f5 3b40 0758 3440 ce26 4c40 3ec9 4540
000000f0: 140e 3340 a243 3a40 c519 4b40 7117 4940
00000100: 660d 4140 b957 4440 9cb2 3940 2b33 3b40
00000110: 3cf2 4840 4d56 4140 0b6f 4440 cf6f 3f40
00000120: f422 4940 e8fc 3340 eb88 3e40 dbd2 3340
00000130: 1c5a 4240 cebf 3740 bb5d 4740 de48 4340
00000140: 2f27 3540 cfdf 3240 f1a6 3440 0036 3740
00000150: d0df 3440 9c51 3740 400d 3f40 557c 4b40
00000160: 1f0f 4240 d608 4640 f1c7 4040 2593 3f40
00000170: fc4f 4040 a5ad 3e40 33cb 4140 ba27 4640
00000180: a7cd 4440 66ca 4a40 2761 3b40 8b46 4840
00000190: 7d93 3740 1705 4740 f50e 4440 576b 2f40
000001a0: 4384 3f40 04a8 4240 4a43 3e40 29ed 4440
000001b0: e718 4240 5708 3940 1524 4240 917a 3440
000001c0: 1d75 3a40 281e 4640 d9ee 4040 0e7f 7140
000001d0: dd3d 3d40 9f3f 3b40 018f 4a40 2181 4340
000001e0: 848f 4b40 f506 3740 a92c 4840 ca6a 4640
000001f0: 7c0d 4940 9e95 4d40 410d 3540 a7eb 3c40
00000200: b36b 4040 1ba4 4240 1040 3f40 b952 4740
00000210: bafe 2f40 9a2c 3d40 40f8 4140 45d3 3f40
00000220: d6e1 4340 d859 3740 b9ec 4040 549a 4040
00000230: cd0b 3340 4c40 4440 8c89 3d40 76c3 3f40
00000240: 6d41 3740 4537 3e40 93e0 4240 b1fb 4040
00000250: b5dd 4340 11cc 4740 a737 4340 3fb0 4340
00000260: d66e 4840 d72b 3c40 cc8b 3740 2f45 4a40
00000270: fde4 4340 6396 4a40 7d4c 4d40 7e7e 3540
00000280: 74fa 4740 0ce5 3c40 0a10 3640 2d73 3140
00000290: 3db7 4440 3ecc 4840 c87b 4440 cb73 4140
000002a0: 6101 4740 e85e 3f40 a260 3340 6c1f 6b40
000002b0: afed 3c40 5965 3440 3a78 3b40 10bd 4b40
000002c0: 4b5d 3b40 af60 3d40 3f39 3740 7301 4940
000002d0: 620f 3d40 817c 4740 0b32 4b40 59fd 4040
000002e0: f067 3940 7e57 3f40 a8ef 4240 890d 4240
000002f0: 60cf 3340 44c4 4640 efa9 3640 eb1d 4840
00000300: e635 3d40 8278 3340 7c9b 3c40 4988 3540
00000310: 6f6e 4140 9d6d 3b40 6f40 3940 9214 4340
00000320: 4dfd 3e40 1de5 4340 b349 4240 96e1 3f40
00000330: 9b66 3340 82f8 3540 4d2c 3740 e101 4040
00000340: 830a 4140 549f 4a40 b0e0 3440 2715 4340
00000350: f5e0 4240 7e61 3e40 10fe 4640 9afc 4440
00000360: c89c 3d40 4350 3b40 8b14 3740 ecbb 4440
00000370: f633 3340 c76a 4040 399d 3c40 1d77 4240
00000380: 8107 3a40 16c3 4440 4a77 4340 2d1a 3c40
00000390: bc1f 3340 fde2 2d40 611e 4040 b051 3d40
000003a0: 77b7 3a40 c6e3 4040 37ef 3b40 aa70 4140
000003b0: d33b 4040 7dc4 4440 165f 4640 2937 3b40
000003c0: 349b 4440 4e5b 4740 2be6 3340 25fd 3c40
000003d0: 5aa4 4140 f7a4 3e40 7d92 4140 7e77 4240
000003e0: 59d8 4240 41e8 4540 89b9 3e40
-5.0464807 3.009545 3.0701537 2.7674255 2.9457707 3.0347772 3.0608099 3.0306702
2.776732 3.102405 3.1262686 3.0206056 3.1978433 2.9634142 2.8447857 2.8057265
2.9893217 2.7898636 2.962489 3.1575236 2.9943998 3.0537348 3.0257213 2.9138715
3.0884328 3.0189922 2.9088457 2.9013298 3.037242 3.0034273 2.8341603 2.9055512
3.120558 3.0725684 3.0310042 2.838228 3.0339222 2.9860709 2.989383 3.014667
2.9704337 3.0979388 3.0105598 3.0268338 3.0969722 3.0678399 3.1918492 3.0574067
2.9917395 2.9912696 2.8288946 3.0582354 2.8254447 2.844545 2.8858647 3.0621173
2.9368763 2.8178728 3.1898685 3.0904078 2.7977343 2.910378 3.1734478 3.1420557
3.0164428 3.0678542 2.9015265 2.924998 3.1397848 3.0208924 3.0692775 2.9911993
3.1427584 2.8123112 2.9771068 2.8097446 3.0367498 2.8710818 3.1150959 3.0513225
2.8305166 2.7949102 2.8226893 2.862671 2.8261604 2.864356 2.9851837 3.1794636
3.032173 3.0942893 3.0122035 2.993356 3.0048819 2.9793484 3.0280273 3.0961747
3.075052 3.1686034 2.9278047 3.1293056 2.868377 3.1096857 3.063413 2.7409265
2.9924476 3.0415049 2.972857 3.076975 3.03277 2.891134 3.0334523 2.8199809
2.913398 3.0955906 3.014578 3.7733798 2.9569008 2.9257581 3.1649783 3.0547564
3.1806345 2.8597996 3.1277258 3.100268 3.141448 3.212257 2.828934 2.951883
3.0065734 3.0412662 2.988285 3.114424 2.7499223 2.9558473 3.030777 2.9972699
3.060659 2.8648586 3.0144484 3.0094194 2.7975953 3.0664244 2.9615202 2.996305
2.8633683 2.9721234 3.044957 3.015362 3.060407 3.1218302 3.0502717 3.0576322
3.131765 2.9401758 2.8679075 3.1604726 3.0608513 3.1654289 3.2077935 2.8358455
3.1246614 2.95148 2.844729 2.7726548 3.073684 3.137466 3.070055 3.0226924
3.1094592 2.9901676 2.802773 3.6737928 2.952007 2.8186858 2.929213 3.1834145
2.9275692 2.959026 2.862869 3.1407135 2.954064 3.116974 3.1749294 3.015463
2.8969688 2.989715 3.0458775 3.0320761 2.8095322 3.105729 2.854122 3.126826
2.9564147 2.8042302 2.94699 2.8364432 3.0223653 2.9285653 2.8945577 3.0481305
2.9842103 3.060859 3.0357482 2.9981437 2.8031375 2.8432927 2.862079 3.0001147
3.0162666 3.1659746 2.8262138 3.048166 3.0449803 2.9747005 3.1092567 3.0779176
2.9626942 2.9267738 2.8606288 3.0739698 2.8000464 3.0065172 2.947096 3.03852
2.906708 3.074407 3.0541558 2.9390976 2.798812 2.7169793 3.0018542 2.9581108
2.9174478 3.0139022 2.9364755 3.0225015 3.0036514 3.0744927 3.0995536 2.9252417
3.0719728 3.1149478 2.8109233 2.9529507 3.0256562 2.9788187 3.024566 3.0385432
3.0444548 3.0923007 2.9800742

running_mean f4 [251]
00000000: 8c68 a8be 7447 563e 9420 653e ee1b 6b3d
00000010: d2d4 f63d 73c1 e63d 71fe 293e 98eb 0e3e
00000020: 438d 503d d390 f23c edec 7fbc 248a 313e
00000030: 4de4 0d3e 2625 9bbd 1fae 7dbd b685 8e3d
00000040: 21ce b93d 550f e1bd e4a4 c13c 362a a43d
00000050: 9664 b53d 3ead cb3d ad20 1f3e c6e0 cbbd
00000060: 8406 3cbd 8c9c 7d3e ede0 97bd add5 31be
00000070: c3eb 66bd 565f 7c3e 3635 f23d f08a 093d
00000080: dda1 023e 5735 4d3b 1d76 093d 1fef 8abd
00000090: 9fef 3d3e dd9f 45bc 28fe 473e 268d eabd
000000a0: afb0 1b3e 104c bdbd 0d75 323d dd60 16bc
000000b0: 8575 9dbd 7d07 a8bc 2d23 ed3d 9a93 af3d
000000c0: 6081 7bbc 8be8 633e 46ba 313e 23e1 6e3e
000000d0: 9130 eabd 5aa8 283d 8cb9 053e c68f bbbd
000000e0: 230e febd e27f 3dbe 0545 a3bd ea84 acbd
000000f0: 87b5 233e cc38 263d a343 f83d 4090 b73d
00000100: 502f 1c3c a42e a7bc 0f1d d53b d91b 7c3d
00000110: 2466 d53d 2c67 7e3b d57e 9e3d a6c1 5a3d
00000120: 382c 82bd 21ed 523d 0cbe 033e b448 303d
00000130: b2dd ecbd db95 36be 6805 67bd c595 04be
00000140: 67ce cf3d d300 b83c a8cc 4d3c 04bf febd
00000150: 17c3 f9bd 3887 7abd 7ad7 70bd 1a1e 8d3e
00000160: ad1c 583e 89f9 1a3c 8bdd c3bc 6411 57bd
00000170: c92d b5bc 19f5 1dbd ee56 253e 0c0d 8c3d
00000180: 9640 2e3e 23f8 163c 9184 d8bd 72da 3d3e
00000190: 2b2f 33be 1fa6 313e 2dda e8bc 231c d53d
000001a0: 6652 b0bd ad3f 543e 704d 723e 7761 81bd
000001b0: 5888 503d 7662 9b3d 1678 a33d 0a5e 213d
000001c0: 8209 a63d 1ec3 7d3d d859 be3d a99d 883e
000001d0: 1298 d8bd 607c 9ebd 62d3 183d 07cf f3bc
000001e0: be23 863d 88a7 c03d d843 d0bd 3971 3c3e
000001f0: 869d 473e 67d0 9d3d 6c8d 2b3e 54f2 fd3d
00000200: bec3 fe3d ccad 9c3d ee02 d13d 9311 033e
00000210: 5c46 413e 86ec d9bd 23a0 5cbd 2fc4 143e
00000220: 43e0 c33d 4ec0 313e 4022 b63d 9921 19bd
00000230: a878 cbbd 6985 303b 5c68 2f3e b06c d63d
00000240: 9adb 97bd e531 14bd c39a d53d ec61 233e
00000250: e2b5 af3d 0843 743e 78a9 10bc 4e0d a83d
00000260: b259 cdbc 18d3 8b3d a7ba 103e 87de 963e
00000270: f8f3 10bc 56aa 6d3e aad5 463e 3e36 cf3c
00000280: 14e0 12be 0d35 1a3e 4a85 25bd cc8c dfbd
00000290: a8b8 21bd 8e20 a0bd 4bf3 323e 7135 2f3e
000002a0: 68b6 d7bd 7445 493e 8e25 a7bc 0020 0a3e
000002b0: 8df3 8c3c 2351 bd3d 8936 243e 2571 a13d
000002c0: 3762 1f3d 3c50 333e 4245 2b3e 63ba a23d
000002d0: 76df 113e ae0c 0d3e a375 863e 87f0 253e
000002e0: ac8f 0bbd a498 00be 906d c83d bbe6 ca3c
000002f0: daae 05be 3039 263e baeb 013e a9c3 543e
00000300: abc8 383c 596a 8c3d 75ec 393e 35d3 b7ba
00000310: cb1d 8b3d 9929 3e3d 9d9f c5bb 0599 6a3e
00000320: ddc0 b73d 0bba 14bc d7d6 93bc 9b35 093c
00000330: 601a 4a3e c829 07be ca4f ff3d 711c 133e
00000340: 20d4 96bd 0c77 57bd 35a2 e0bd 0f83 123d
00000350: 2d2c 45bd 7b97 96bd df4f c1bd c6dc 2f3d
00000360: 5b67 a03d 53a3 2b3e 7868 9c3c d011 80bd
00000370: fa68 073e c2bf 9c3c 17bd 113e a9b6 2c3e
00000380: 6552 dcbd 51f0 563e e42e 3b3e 1933 9e3c
00000390: d884 59bd 4fd8 2a3d a042 d33d 8065 3abd
000003a0: bfc4 98bd 8942 a7bc 514e 593e fb4c a6bd
000003b0: c134 1cbd 5406 593e 19de 5e3d 3aec 89bc
000003c0: ccab 483e 0428 24bd 625c 1dbe 6b27 353e
000003d0: 299a d53d 69a5 01bd 0217 443e eb4c 9fbd
000003e0: ad63 aabd c35c 82bd 7aa9 5fbd
-0.32892263 0.20925695 0.22375709 0.057399683 0.12052311 0.11267366 0.16600968 0.1395706
0.050915968 0.029610073 -0.015620452 0.17337853 0.13856621 -0.07575445 -0.061933633 0.06959097
0.09072519 -0.109892525 0.023638196 0.080158636 0.08857076 0.09945153 0.15539809 -0.099549815
-0.04590465 0.24766749 -0.07415948 -0.17366667 -0.056377184 0.24645743 0.118265554 0.033579767
0.12757058 0.003131231 0.033559907 -0.0678389 0.1854844 -0.01206204 0.19530547 -0.11452703
0.15204118 -0.092430234 0.04356866 -0.009178367 -0.07688431 -0.020511383 0.11578975 0.08573075
-0.01535067 0.22256677 0.17356214 0.2332807 -0.114350446 0.041176178 0.13059062 -0.09158282
-0.1240504 -0.18505815 -0.07972149 -0.08423789 0.15987216 0.04058151 0.12122276 0.089630604
0.009532765 -0.020407982 0.006503708 0.061549995 0.104198724 0.003881882 0.07739035 0.053407334
-0.0635609 0.051495675 0.12865466 0.043038085 -0.115657225 -0.17830603 -0.05640164 -0.12947758
0.1014679 0.02246133 0.012561001 -0.12438777 -0.121954136 -0.06116411 -0.058799244 0.27562028
0.21104689 0.009458908 -0.02390935 -0.05250682 -0.022116559 -0.03856382 0.16146442 0.06838426
0.17016825 0.009214434 -0.1057216 0.18540362 -0.17498462 0.17348526 -0.028424347 0.10405757
-0.08609466 0.20727415 0.23662353 -0.06317418 0.050911278 0.07587139 0.07981889 0.039396323
0.08107282 0.061953656 0.0929448 0.26682785 -0.1057588 -0.077385664 0.037310965 -0.029761804
0.06549786 0.09406954 -0.1016919 0.18402566 0.19493684 0.07705765 0.16753167 0.12399736
0.124396786 0.076503366 0.10205637 0.12799673 0.18874496 -0.106408164 -0.053863656 0.14527963
0.09564259 0.17358515 0.088932514 -0.037385557 -0.09935123 0.0026934987 0.17129654 0.10469949
-0.074149325 -0.036180396 0.10429909 0.15955323 0.08579613 0.23853695 -0.008829467 0.08205663
-0.025067184 0.06827372 0.14133702 0.2946665 -0.008847229 0.23209509 0.19417444 0.02529442
-0.14343292 0.150593 -0.040410317 -0.10915527 -0.039482743 -0.07818709 0.17475621 0.1711023
-0.10532838 0.196554 -0.02040365 0.1348877 0.017205978 0.09243991 0.16036429 0.07882909
0.038912024 0.17511076 0.16725639 0.07945707 0.142454 0.13774368 0.26261625 0.16205035
-0.034072563 -0.12558228 0.097865224 0.024768224 -0.13054982 0.16232753 0.12687579 0.20777763
0.011278312 0.06856222 0.18156607 -0.0014024737 0.06792792 0.04642639 -0.0060309903 0.22909935
0.089723326 -0.009077559 -0.01804678 0.008374597 0.19736624 -0.13199532 0.124663904 0.14366318
-0.073646784 -0.052603766 -0.109684385 0.03576952 -0.048137832 -0.07353111 -0.09439062 0.042935155
0.078322135 0.16761522 0.019092783 -0.062533975 0.13223639 0.019134406 0.14232288 0.16866554
-0.10757903 0.20990111 0.18279606 0.019311475 -0.053105205 0.041710194 0.10315442 -0.045506954
-0.07459401 -0.020417469 0.21221282 -0.081201516 -0.038136248 0.2119382 0.054411028 -0.016836274
0.19596785 -0.040077224 -0.15367272 0.17690818 0.10429794 -0.031651888 0.19149402 -0.07778343
-0.08319793 -0.06365349 -0.054604985
