EXP1_dump/bottleneck_model.pth (torch, 8928 bytes, 19 tensors)

weight f4 [5, 11]
00000000: c69e 803e 819b b4bc 89fa 08bc ed68 15bc
00000010: 0201 c23c 185c 313d d2ed 51bc b0fc 7dbc
00000020: 6b4c 7cbd b783 49bf da80 c1bc f0c3 683e
00000030: 8f38 bcbd 5861 34bc 4c46 eaba 47fb 603d
00000040: 466d e2b9 717a 0ebd c194 07be 8f8e 27be
00000050: f777 0c3f f401 aabc 6028 d9bc 56ae c43b
00000060: 963e 4a3b 5443 50bb d00f 013e 5b64 2dbe
00000070: b500 9d39 ba70 8dbb acf6 1cbc 4d0c 02bf
00000080: ee57 fabb f04d ee3d b382 bcbc d131 f3bb
00000090: 5a18 28bc baff 403d 0871 4ebd 4240 53bc
000000a0: 7674 a1bc 4f94 763d 2774 14bf 9581 bcbc
000000b0: 8410 573e 67e3 e93c dede 2c3c b0a5 013c
000000c0: 0b96 283e 9d47 613d 0969 d63c 289f 1d3d
000000d0: 700e 243d 3543 e3be 3f2e 3b3c
0.25121135 -0.022046806 -0.0083605135 -0.009119255 0.023682121 0.043300718 -0.012813048 -0.01550214
-0.061596315 -0.78716606 -0.023621012 0.22730994 -0.09190475 -0.011009537 -0.0017873733 0.054927137
-0.00043187494 -0.034784738 -0.13240339 -0.16362976 0.5487055 -0.020752884 -0.02650851 0.006002228
0.0030860058 -0.0031778412 0.12603688 -0.16932814 0.000299459 -0.0043164166 -0.0095802955 -0.5080002
-0.0076398766 0.11635959 -0.023011541 -0.00742171 -0.010259712 0.04711888 -0.050400764 -0.012893738
-0.019708853 0.06020003 -0.57989734 -0.023011008 0.21002394 0.028550817 0.010551183 0.007913038
0.16463487 0.054999936 0.026173132 0.03848186 0.04005283 -0.44387212 0.0114246

bias f4 [5]
00000000: be7b 5fbe fd32 07be c6b9 073c 8398 83be
00000010: 1865 8a3e
-0.21824548 -0.13203044 0.008284038 -0.25702295 0.27030253

weight f4 [5]
00000000: d7ea ab3f 53f7 403f 5293 563f 720b 6f3f
00000010: 5152 5b3f
1.3431042 0.75377387 0.8381854 0.9337684 0.8567248

bias f4 [5]
00000000: b70b a2bc d102 90bd f137 3ebe ace1 8ebd
00000010: b081 9bbd
-0.019780977 -0.07031787 -0.18576027 -0.06976637 -0.07593095

running_mean f4 [5]
00000000: 18f2 26bf 74dd 6cbd 675e 8cbe 2939 10bf
00000010: e364 763e
-0.65213156 -0.05782838 -0.27415773 -0.5633722 0.24061923

running_var f4 [5]
00000000: a24c 213e cba1 b63d db0f 9b3d a179 b13d
00000010: 6d7c 723d
0.1575189 0.08917578 0.075713836 0.08665777 0.059200693

weight f4 [5, 5]
00000000: ac8f 4dbd 91c3 6a3c bc9e 763e 4d68 513b
00000010: fa5c 06bf a6ad 163d 23e0 3c3d bf33 09bf
00000020: 8590 b93d bae9 48be 895e ec3e 1922 253e
00000030: 0e92 f73c 9381 073e d689 8fbd b04c 5a3e
00000040: ee91 203e 3d10 cfbd 94e3 d23e 88db d9bc
00000050: 27fe 023f 7703 573d 7da2 0bbe 9239 183f
00000060: 0346 f8bd
-0.050185844 0.014328853 0.2408399 0.0031953037 -0.5248562 0.036786698 0.04611219 -0.53594583
0.09060768 -0.1962041 0.46165875 0.16126288 0.030221011 0.13233022 -0.07008712 0.21318316
0.15680668 -0.10110519 0.41189253 -0.026593938 0.51169056 0.05249354 -0.13636203 0.59462845
-0.12122729

bias f4 [5]
00000000: 5854 2e3d 3cdf 063c 45d9 a0be 14a5 69be
00000010: e625 07be
0.042560905 0.008231934 -0.31415763 -0.22816879 -0.13198051

weight f4 [5]
00000000: 84a5 583f 7e98 663f abc9 633f d972 6f3f
00000010: 15bd 8b3f
0.84627557 0.90076435 0.88979596 0.9353462 1.0917078

bias f4 [5]
00000000: b586 dbbe a68e a3be 4218 afbe 6c1a f8be
00000010: f35d 2bbe
-0.4287621 -0.3194477 -0.34198195 -0.48457658 -0.16735058

running_mean f4 [5]
00000000: d542 95bd 94f0 babd 8a94 babb b0d4 d73c
00000010: 16fa 8f3e
-0.07288138 -0.09127918 -0.005693977 0.026346534 0.28120488

running_var f4 [5]
00000000: 2993 453d cd2d 9a3d 6c13 043e d339 9d3d
00000010: e423 b43e
0.048236046 0.07528267 0.12898034 0.07677045 0.35183632

weight f4 [11, 5]
00000000: bdff a93e 64ff fd3c 7e62 cb3d 3483 2dbe
00000010: 5e57 763e 5435 003f 6e09 b7bd e186 843c
00000020: 7db4 4abe b6da 9f3e 9e4c 243e aa35 8e3d
00000030: 3e1a c7bd ddf3 55be 3c02 9d3e aea4 87be
00000040: eb3a 8bbc 9d6c e1be 572a 903e 3948 54be
00000050: 01c0 b8bc 118a dcbd cab4 0b3e 11aa 6d3e
00000060: fa21 9cbe 5698 afbe 57c2 ed3e 1363 8c3d
00000070: 327f b3bd 146f 0c3e 7a89 d33e 99d2 46be
00000080: 4367 7cbd d190 a73b 8f91 f13d 940f 633e
00000090: d8bf bf3d 9d80 14be 672f a9be 5692 e63e
000000a0: 15a8 bd3c 0dbe 7b3c 2678 1dbf e0b5 ed3e
000000b0: e61f a23d 5e8c 583d 46b4 ed3c 9c6c 4d3e
000000c0: 60bf 933e 017a a4be 889c da3e 2d79 3fbe
000000d0: 4011 a33d ac7c 29be e5bf 4f3e
0.33202925 0.031005569 0.09930895 -0.16944581 0.24056765 0.5008137 -0.089373454 0.016177597
-0.19795413 0.3122155 0.16044852 0.06943829 -0.09721802 -0.20893808 0.30665767 -0.26492828
-0.016995868 -0.44028178 0.28157303 -0.20730676 -0.022552492 -0.107685216 0.13643184 0.23209406
-0.30494672 -0.3429591 0.46437332 0.068548344 -0.08764495 0.13714248 0.41315824 -0.19416274
-0.061621916 0.005113699 0.11795341 0.22173911 0.09362763 -0.14502187 -0.33043978 0.4503352
0.023151437 0.015365136 -0.61511457 0.46427822 0.079162404 0.05286824 0.029016625 0.20060962
0.28856945 -0.32124332 0.4269755 -0.18698569 0.079622746 -0.16551465 0.20288046

bias f4 [11]
00000000: 90e2 ab3c 5ca3 563e 55db dcbe 2a0a 793e
00000010: 3d5d 8bbe 1146 90bc f24c ebbe b785 693d
00000020: 5aea d6be bce1 363e f33b f7bb
0.020982057 0.20960754 -0.43136087 0.24320284 -0.27219573 -0.017611535 -0.45957142 0.057012286
-0.4197567 0.17859548 -0.0075449883

weight f4 [11]
00000000: 5b86 3c3e 9a4e 0f3e d818 503f 7c1b 26bf
00000010: b1ee 863f cf7d a53f 9d6a d33e 8a15 e43e
00000020: 72e1 9d3f c018 db3f f0cf e43e
0.18410628 0.13994828 0.8128791 -0.6488569 1.0541593 1.2929019 0.41292277 0.44547683
1.2334425 1.7116928 0.44689894

bias f4 [11]
00000000: 1f0d 063f 5b8e f6bf 48c2 6fc0 5997 72c0
00000010: f79b 12c0 ce59 35c0 ac72 1fc0 d7aa 06c0
00000020: 799e 25c0 62ac 43c0 0756 20c0
0.5236377 -1.9262193 -3.746233 -3.7904875 -2.2907693 -2.8336062 -2.491374 -2.1041772
-2.5877974 -3.0573964 -2.5052507

running_mean f4 [11]
00000000: e9f3 ea3d 9b1c 9b3e 8a77 b1be 2b77 fd3d
00000010: 9c10 b3be c954 a03d 640b e2be 1070 363e
00000020: 5dfc e2be 6eed 013e 567d 413d
0.114723034 0.30295262 -0.34661514 0.12376245 -0.3497361 0.078286715 -0.44149315 0.17816186
-0.44333163 0.12688228 0.04723867

running_var f4 [11]
00000000: aa27 7d3b 57e8 c73b ca5f 753a 8b7c a03c
00000010: a116 073a 9413 a63b c4b1 6d3b eeed ed3a
00000020: 6733 ac3b dd49 ca3a 599f d33b
0.0038628378 0.006100695 0.0009360282 0.019590637 0.0005153213 0.005068252 0.0036269287 0.0018152574
0.005255151 0.001543339 0.0064582047

weight f4 [1, 2]
00000000: e395 8b40 ef86 8f40
4.3620467 4.4852214
