EXP1_dump/bottleneck_model.pth (torch, 8928 bytes, 19 tensors)

weight f4 [5, 11]
00000000: 9802 0e3d 4774 923d 5276 8d3d 5f93 a13d
00000010: 2c89 0abb 4fcd ea3d 605a 9dbe 8ddd ba3d
00000020: 960e 7d3d c3de 9c3e 89c6 643d d8c5 31bd
00000030: d89f 183d c36f 4e3d 4644 c13d f275 c0bc
00000040: 8cc0 003e 0977 f33e 68a1 da3d f18b 1f3d
00000050: 855f bd3d d516 5a3d e049 943d 2adb 5fbc
00000060: bbd1 2fbc fa59 28bc 6fc8 cd3b b4ed 5cbd
00000070: 5ccf 5a3d a3de 86bd 82d5 1cbd 997f fe3c
00000080: 3fd4 cebe 30d6 a2bd b50f 92bd a4d5 89bd
00000090: ea31 d0bd 6f1d f2be a08a 61bd cf4e b7bc
000000a0: 7143 aebd 011b 9bbd 226f 54bd 5466 41bd
000000b0: 8c31 663e ef4a 99bc 8a18 87bd ff41 8cbd
000000c0: 357c d63b 3788 2cbf c23f 4b3d 1409 97be
000000d0: e28d ebbc 90e4 9d3d bf76 603e
0.034670442 0.071510844 0.069073334 0.07889437 -0.002113889 0.11464941 -0.30733013 0.09124289
0.06178149 0.30638704 0.0558534 -0.04340157 0.037261814 0.050399553 0.0943685 -0.02349374
0.12573451 0.47551754 0.10675317 0.038951818 0.092467345 0.05324443 0.07240653 -0.013663093
-0.010731156 -0.010275358 0.006279997 -0.05393763 0.05342041 -0.06585433 -0.038289554 0.031066703
-0.40396306 -0.07951009 -0.07131902 -0.06730202 -0.1016577 -0.4728808 -0.055063844 -0.022376446
-0.08508957 -0.0757351 -0.051863797 -0.04721673 0.22479838 -0.018712489 -0.06596477 -0.06848525
0.0065455684 -0.6739535 0.04962135 -0.29499114 -0.028754178 0.077096105 0.21920298

bias f4 [5]
00000000: 6a4d 2cbe 2393 053e 41d0 54bd 6f98 993e
00000010: d691 25be
-0.16826406 0.1304441 -0.05195642 0.2999911 -0.16168913

weight f4 [5]
00000000: 46fe 3d3f 6e68 4c3f c5dc 4a3f 3da0 913f
00000010: 778e 5f3f
0.74216115 0.7984685 0.7924312 1.1377026 0.8732676

bias f4 [5]
00000000: 7e47 563f 66b8 343f 9f2b e438 c876 96be
00000010: 9ce1 b4be
0.8370284 0.7059387 0.00010880012 -0.29387498 -0.35328376

running_mean f4 [5]
00000000: 2f81 ca3d 674d 293f ae86 9cbe eda2 68be
00000010: d3d4 0fbf
0.09887921 0.6613373 -0.30571502 -0.22718401 -0.5618412

running_var f4 [5]
00000000: 2acb 6d3d 3bc8 903d 2e44 343d 3a48 863d
00000010: 877c 1a3e
0.05805508 0.07069441 0.044010334 0.06556745 0.15086566

weight f4 [5, 5]
00000000: ca27 e1bd 9322 07be a44a 263e 25e3 91bc
00000010: a8c3 043f efad 43bd fee7 89bc 2793 663b
00000020: 5fa1 26bf 3837 8fbc 3568 e4be 5c2a 8abe
00000030: c09e a0bd ddee 083d 13a0 0bbe 20c3 ee3c
00000040: 24be 5fbf c32a 03bd 53e0 a83d 7247 34be
00000050: ebfa 54bd fe79 42bd 7b0c c33e e499 06bb
00000060: 8447 2abe
-0.10993917 -0.13196783 0.1623941 -0.017808506 0.5186105 -0.047773298 -0.016834255 0.0035182924
-0.6508998 -0.017482385 -0.44610754 -0.26985443 -0.07842779 0.033430923 -0.13635282 0.029145777
-0.87399507 -0.032023203 0.082459114 -0.17605379 -0.051997107 -0.047479622 0.3809546 -0.0020538503
-0.16628844

bias f4 [5]
00000000: 6e03 dc3c 0d76 963e 6e4a 69be aaf8 b13e
00000010: 1cdc b13d
0.026857104 0.2938694 -0.22782299 0.34760028 0.08684561

weight f4 [5]
00000000: 51a3 913f b1a3 573f 53ba 733f f7d3 383f
00000010: 99b1 5b3f
1.1377965 0.8423415 0.95206183 0.7219843 0.8581787

bias f4 [5]
00000000: cb47 1dbf ba88 19be 86c8 3dbf 1928 8fbe
00000010: f753 17bf
-0.6143767 -0.14993563 -0.741341 -0.2796028 -0.59112495

running_mean f4 [5]
00000000: f7a1 8cbd baf9 a03d 2f21 5bbf 15c1 9bbe
00000010: f66b d13d
-0.0686683 0.078601316 -0.8559751 -0.30420747 0.1022567

running_var f4 [5]
00000000: d495 a03d feb5 1a3e 1923 a43d 3aa1 cf3e
00000010: c2d8 393d
0.078410774 0.15108487 0.08014507 0.40552694 0.045372732

weight f4 [11, 5]
00000000: c8a9 053e 3599 8ebe bdd0 853e 2042 a13e
00000010: f6d8 7b3e 2539 39bb d421 0cbf 13b2 b23e
00000020: acc6 0f3e 8a0c b53d e138 983d d864 0bbf
00000030: ad4c ab3e 99f6 ab3d 835f c83c 204f 7e3e
00000040: 0650 dcbd b9be 953e 4fbb 0b3e e351 473d
00000050: 13e6 a83d 13b7 203f e751 6e3e a6bc 1e3e
00000060: e8ae d23d 62af eebe a4a8 aabc df37 083e
00000070: 69b2 ae3d 5c39 ed3d 06da 783c c380 95bd
00000080: df14 db3d 23e6 debe c972 183d 3bb4 6bbe
00000090: 2726 0ebd 6e0c 193e 6990 a03e 39c5 503e
000000a0: 6c73 b73d 45f3 68be d051 333c 3ba8 473e
000000b0: 6263 a83e bc18 9a3d 4d0c 8cbd eef4 ecbe
000000c0: 017e 6e3e 2d0c 5d3e 7d77 89bc 821c ddbc
000000d0: 9e51 b03d 9588 d73c d558 04bf
0.13053048 -0.27851263 0.26135817 0.31495762 0.24594483 -0.002826282 -0.5473912 0.34901485
0.14040631 0.08840282 0.07432724 -0.5445075 0.33456936 0.08396644 0.024459606 0.24834871
-0.10757451 0.29247072 0.13645671 0.048662078 0.08247008 0.6277935 0.23273431 0.15501651
0.10287267 -0.4661818 -0.020832367 0.13302563 0.08530123 0.11583206 0.0151887 -0.0729995
0.1069734 -0.43534955 0.037218843 -0.23017971 -0.034704354 0.14946148 0.31360176 0.20387734
0.08957562 -0.2274905 0.010944799 0.19497769 0.32888323 0.07524249 -0.06838284 -0.46280617
0.23290254 0.21586676 -0.01678061 -0.026991133 0.08609317 0.026310245 -0.51698047

bias f4 [11]
00000000: c322 e3bd af15 c6be 3896 b83d 3cb6 babe
00000010: 795a 56be ebc9 fc3d fc7d 99bc fd55 d43e
00000020: 6a73 85be eee8 cf3e 17ce 55be
-0.11090615 -0.38688418 0.09013027 -0.3646716 -0.2093295 0.123432 -0.018736832 0.41471854
-0.26064616 0.406074 -0.20879398

weight f4 [11]
00000000: 721b 253e e385 383f 8eab 013f e74e 3a3e
00000010: b9ce 863f e279 a23f f20e 9f3f 4084 263f
00000020: 78fe 3b3f 36de 1b3f d5e4 bb3f
0.16123751 0.72079295 0.50652397 0.18194161 1.0531837 1.2693446 1.2426436 0.6504555
0.73435163 0.6088594 1.4679209

bias f4 [11]
00000000: cf91 063f 51f2 54c0 7ee4 52c0 c513 2bc0
00000010: 2f34 4ac0 e97d 58c0 7e0c 6fc0 6f15 34c0
00000020: 35f1 4ec0 b959 38c0 50f1 6dc0
0.52566236 -3.3272898 -3.295196 -2.6730816 -3.159435 -3.382685 -3.7351375 -2.8138082
-3.233472 -2.8804762 -3.7178535

running_mean f4 [11]
00000000: c1d2 12be 5c12 02bf 6062 e2bc 982f bdbe
00000010: a79c 95bd 18ec 9c3d 23ba afbd 30cb d03e
00000020: 669b 91be cc3b e63e 96b8 57be
-0.14338209 -0.50809264 -0.0276348 -0.36950374 -0.0730527 0.07662219 -0.08580425 0.4078002
-0.28438872 0.44967496 -0.21066508

running_var f4 [11]
00000000: a3ee 8f3d 96e6 a63d eb97 a63d 0779 623d
00000010: 2b36 803d 8f40 953d 7601 9d3c 8068 053d
00000020: 026b 033d 57f9 983c 50b2 c13c
0.07027938 0.081494495 0.08134445 0.055291202 0.06260332 0.07287704 0.019165736 0.032570362
0.032084472 0.018673582 0.023644596

weight f4 [1, 2]
00000000: 84b2 8a40 98fc 9f40
4.3342915 4.999584
