EXP1_dump/bottleneck_model.pth (torch, 8928 bytes, 19 tensors)

weight f4 [5, 11]
000000 dc 96 3b 3e c4 91 e3 bc 1d a9 65 bd 0a fc 8c bd
       0.18319267 -0.027779467 -0.056069482 -0.0688401
000010 4b 41 a9 bd 66 2c 32 bd 40 ac b9 bd 8c f9 78 bd
       -0.08264407 -0.043499373 -0.09066057 -0.06078486
000020 3b 5b e9 bd 3e bb 3c bd a1 25 e2 be 10 88 10 3e
       -0.11394354 -0.046077006 -0.44169334 0.14114404
000030 1a f2 19 3e f1 59 13 be 9e 38 e1 bc 4c 80 dd be
       0.1503376 -0.14389779 -0.027492817 -0.43261945
000040 de 22 29 be c9 cf 1a be a8 5e 68 be 89 82 54 bd
       -0.16517207 -0.15118326 -0.22692358 -0.0518823
000050 9b d3 18 be 5e f2 56 3e c4 44 77 bd 34 87 fc be
       -0.14924471 0.20990893 -0.060368314 -0.49321902
000060 e3 4c 13 bb e0 ba 3e 3e e4 b6 bc bc 24 2d 08 bd
       -0.0022476248 0.18625975 -0.023036428 -0.033246174
000070 60 ac 8d bc 13 6d 07 bd b8 87 9c bd b6 ea bc ba
       -0.017294109 -0.033063006 -0.07643074 -0.0014413211
000080 dc 7e fd 3b 2a 8f 46 be 1e f0 4e bd a3 6c fa bc
       0.00773607 -0.1939055 -0.050521962 -0.03056938
000090 69 30 fb bd 3d 5e e2 3a b1 f9 46 bd 35 7a 33 bd
       -0.12265093 0.0017270517 -0.048577968 -0.043817718
0000a0 0b 57 ac bd f1 80 ff be 8e 40 01 bd 18 e0 11 3d
       -0.0841504 -0.49903062 -0.031555705 0.035614103
0000b0 ea bc 2a 3e f2 db e4 3d bb e6 e5 bc 31 53 03 3f
       0.16673627 0.11174764 -0.028064122 0.51298815
0000c0 9d fd cc 3c 9f 1c 74 3c 85 e3 00 bd 9e 31 97 3b
       0.025023276 0.014899402 -0.03146698 0.004614069
0000d0 7f eb ac 3c bf 22 3d 3c 3e 59 f2 bb
       0.021108387 0.011543929 -0.0073958924

bias f4 [5]
000000 ab 87 b4 bd cd ed 92 bd 24 a2 4e 3e 26 51 9b 3d
       -0.08814939 -0.07174263 0.20179039 0.07583837
000010 ba 9a 23 be
       -0.15976992

weight f4 [5]
000000 0e a0 3a 3f 43 8e 65 3f d4 85 89 3f 6b 72 15 3f
       0.72900474 0.896702 1.0743966 0.5837771
000010 c1 fd ec 3e
       0.4628735

bias f4 [5]
000000 a8 8f 37 be 54 80 26 be 30 eb aa be d5 f3 14 bf
       -0.17925894 -0.16259891 -0.3338256 -0.5818456
000010 e2 80 52 3f
       0.8222791

running_mean f4 [5]
000000 f2 65 1a bf 6c 64 11 bf 65 70 2f bd 1c a1 b9 be
       -0.60311806 -0.56793857 -0.042831797 -0.3625573
000010 06 6c 1f 3e
       0.15568551

running_var f4 [5]
000000 35 65 74 3d 5a 02 d1 3d 5e 1e 94 3d 7b 6c 90 3d
       0.05966683 0.10205527 0.072323546 0.07051941
000010 79 54 8d 3d
       0.069008775

weight f4 [5, 5]
000000 5c 4f 9c bc 55 4c 4b 3a 69 7b 07 3d c4 4e 1a 3f
       -0.01908081 0.000775521 0.033076677 0.60276437
000010 31 ff 5b 3d 4b 9b cb bc 6e 32 93 be 74 15 ba 3e
       0.053710166 -0.024854323 -0.28749412 0.36344492
000020 0b 3d 4e bd db bb 98 be 5c 85 45 3c ba 4b 30 bd
       -0.050351184 -0.29830822 0.012055721 -0.04304097
000030 fb c1 f4 be a1 60 3e 3e ac e7 6c be a7 9f 33 bf
       -0.47804245 0.18591549 -0.23135251 -0.70165485
000040 a7 45 1d 3d bc a2 93 3b d2 43 02 3e 16 c3 04 bd
       0.038396504 0.0045054834 0.12721184 -0.03241261
000050 4e ae 11 3d a3 4a ea 3d 35 a4 1b 3e 84 fe 2e be
       0.03556662 0.11440017 0.15199359 -0.17089278
000060 6b d2 ef be
       -0.46840224

bias f4 [5]
000000 a6 42 19 3e c8 61 a4 3e a5 ae 0a be 48 23 76 be
       0.1496683 0.3210585 -0.13543184 -0.24036896
000010 33 9c 71 be
       -0.23594742

weight f4 [5]
000000 f3 f1 7f 3f 60 79 81 3f 1d 29 82 3f aa 18 fc 3e
       0.9997856 1.0115166 1.0168797 0.49237567
000010 c4 b4 25 3f
       0.6472895

bias f4 [5]
000000 17 78 d1 3c bf 43 1a bd da 6b 3d 3e 5f bb ab 3f
       0.025569959 -0.037662264 0.18498173 1.3416556
000010 a0 fc 92 3f
       1.1483345

running_mean f4 [5]
000000 32 5e 13 3e d6 7c b7 3d 25 d0 e2 be 1b 14 c3 be
       0.14391401 0.089593574 -0.44299427 -0.38101277
000010 84 f5 0b bf
       -0.546715

running_var f4 [5]
000000 05 c8 19 3c ed 68 9b 3d 64 8c bc 3d 51 87 96 3d
       0.009386067 0.075883724 0.09206465 0.07350028
000010 42 dc 38 3d
       0.04513193

weight f4 [11, 5]
000000 37 fc 46 be 64 5b 54 3e 15 0d 3c 3e 63 05 94 3e
       -0.1943215 0.20737988 0.18364365 0.2891036
000010 34 47 9c be 4d 54 45 bb 9d 9b e6 3e e9 50 18 be
       -0.30523074 -0.0030110062 0.450406 -0.14874615
000020 3d 33 17 3d 02 e8 7b 3d 29 66 1f 3e 67 a7 8e bd
       0.0369141 0.061500557 0.15566315 -0.06965523
000030 da 20 39 bd 4c 50 97 be d0 59 a7 3c 6b 89 68 bd
       -0.045197345 -0.2955345 0.020428568 -0.056771677
000040 70 b1 1d 3e 38 21 14 3f 54 65 be 3d ac 70 79 3e
       0.15399718 0.5786319 0.092966706 0.24359387
000050 22 2a 28 be f4 d6 e0 be 7c f7 bf be eb 77 f3 3d
       -0.16422322 -0.43913996 -0.37493503 0.11888107
000060 a6 97 b9 3e f3 f8 6b be f1 d2 b5 3e 2e ea 3f bd
       0.3624851 -0.23044185 0.35512498 -0.04685419
000070 29 b4 9c 3e 24 bf 26 bf 0f 3e 3f be 40 d0 87 bd
       0.306062 -0.6513541 -0.18676017 -0.066315174
000080 38 20 14 bd ab cd c5 3e c9 c4 42 3d e3 ed 47 be
       -0.03616354 0.38633475 0.04755095 -0.1952434
000090 e5 51 82 3d 42 a5 dd bb 0c 26 3e 3e 60 3f ef be
       0.063632764 -0.006764085 0.18569201 -0.4672804
0000a0 7a 6b 4c 3f b2 e0 a2 3c 63 d3 52 3e fd 6b b0 3d
       0.79851496 0.019882534 0.2058845 0.08614347
0000b0 02 5a 14 be 78 06 a3 bd 71 6f 6f 3e 57 c7 23 3e
       -0.1448746 -0.07960218 0.23382355 0.15994011
0000c0 bb a7 85 3e 0f e0 66 be 37 18 35 bd 36 68 a4 3d
       0.2610453 -0.22546409 -0.044212546 0.08027689
0000d0 c1 81 6d 3d db 59 89 bf 5d fe a0 bd
       0.05798507 -1.0730547 -0.07861016

bias f4 [11]
000000 3c b9 94 bd fc 39 49 bc bf a6 94 3c 4c 4f 33 be
       -0.07261893 -0.012281891 0.018145917 -0.17510718
000010 f5 33 03 be 68 13 1a be f1 96 a1 3e 68 58 2c 3e
       -0.12812789 -0.15046465 0.31560472 0.168306
000020 74 91 04 be 45 01 a9 3e 68 1e 22 be
       -0.12946111 0.3300878 -0.15831912

weight f4 [11]
000000 65 95 b9 3f 1a c9 83 3f 7a d4 31 bc c5 93 8d 3f
       1.4498717 1.0295746 -0.010853881 1.1060721
000010 49 d9 0a 3e 80 1a 86 3e a1 db 23 3e 8f e5 bd 3e
       0.1355945 0.26192093 0.1600175 0.37089202
000020 14 3a 7c 3f 1b 26 97 3e b1 8c 13 3f
       0.9852612 0.2952126 0.57636553

bias f4 [11]
000000 f9 d8 a7 bf 73 9a 32 40 5e 37 fb 3f 40 b4 32 40
       -1.311309 2.7906768 1.9626272 2.7922516
000010 2f b5 f3 3f 35 ce 02 40 d5 3a f7 3f 4f 23 f5 3f
       1.9039668 2.0438359 1.9314829 1.91514
000020 e8 6f 1f 40 00 66 0e 40 88 c8 1b 40
       2.4912052 2.2249756 2.4341145

running_mean f4 [11]
000000 9a 8b 3c 3d ec 57 3a 3e c1 f1 ae be 9d d3 07 3f
       0.046031572 0.18197602 -0.3416882 0.5305727
000010 de f7 92 3d dd 6e f6 be 9e 72 48 3f cb 5a 32 be
       0.07176183 -0.48131457 0.7829989 -0.17417447
000020 84 61 56 3e dd 9b 0a 3f 74 3b d3 bf
       0.20935637 0.5414408 -1.6502519

running_var f4 [11]
000000 dd af 9e 3d 57 47 c9 3d cb be 0c 3d bf cd 29 3e
       0.07748387 0.0982806 0.03436164 0.16582392
000010 99 98 59 3d 87 aa 7e 3e 91 28 66 3d ca 7a 0c 3e
       0.053124044 0.24869739 0.05619103 0.13718715
000020 d4 ee 91 3e 3d fa 1a 3d a6 b5 8f 3e
       0.28502524 0.037836302 0.28068274

weight f4 [1, 2]
000000 89 99 04 c0 e3 73 96 40
       -2.071871 4.7016463
