EXP11-sample_dump/bottleneck_model_second.pth (torch, 77664 bytes, 19 tensors)

weight f4 [30, 251]
0.01519426 0.3530049 0.39789477 -0.23770267 -0.020901944 -0.011462927 0.04815848 -0.22362997
0.020421702 -0.3381422 -0.05784347 0.062220212 0.16362783 -0.24819398 -0.08963626 -0.14757468
0.33945605 0.082939744 0.35412428 -0.0051127784 0.20150012 0.38058063 -0.23590484 -0.0823196
0.21816581 0.09680633 0.3637339 0.016632874 0.059468538 0.45840278 0.05902519 -0.16648807
0.124382794 0.40373775 0.14778441 0.027451606 0.076139666 -0.073717326 0.38297585 -0.19862255
0.11866967 0.23366901 -0.30191496 0.42766327 0.1663962 0.33911067 0.14071123 0.064284496
0.052269913 0.19564272 -0.36054197 -0.057410706 0.45699123 0.39078712 -0.2211982 0.38003516
0.052431684 0.08345924 0.23043954 -0.07518669 -0.050326426 0.013891698 0.09568194 0.11616246
0.127457 -0.09373236 0.060842603 0.1791169 0.1055881 0.09105548 0.19925575 -0.19164096
0.091691084 -0.07942084 -0.18837842 -0.15555656 0.14815773 0.28773716 -0.12894554 0.006929953
-0.24164659 -0.27196977 -0.22593188 0.07700977 -0.12158652 -0.075765364 -0.17920774 0.4142354
-0.13151062 0.14693594 -0.26865065 0.45103952 -0.12751694 0.16179547 0.02468771 -0.21302333
0.018364107 -0.10978885 0.010134061 0.3928175 -0.15263541 0.09671416 0.08304765 -0.03014334
-0.2727448 0.48165625 -0.15909742 0.22222191 -0.23713861 0.13185267 0.09933895 -0.22250415
-0.06170097 0.10931429 -0.11577432 -0.020290527 0.12579988 0.44829905 0.089054674 -0.06933817
-0.26486248 0.15276363 0.3771003 0.13243231 0.14034408 0.12766169 -0.19040109 0.1706313
-0.21521474 -0.10618269 0.0063789 0.27287656 -0.17853935 -0.12541981 0.26648358 -0.03113931
0.09615785 0.088971116 0.3668917 -0.18476254 0.16803792 -0.19647992 0.020866035 0.12016871
-0.2101031 0.26772752 0.0626633 -0.09537381 -0.049716413 -0.081557326 0.11633497 -0.15423048
0.12975729 -0.16176641 0.16634585 0.20770511 0.041231632 -0.09144898 -0.16545531 0.12906685
0.19180538 0.09686534 -0.050058026 -0.18674655 0.048843224 -0.058902483 0.052160684 0.027875397
0.3710355 -0.066045344 -0.01404152 0.030739447 0.21937333 0.037074927 -0.2305693 0.02457942
-0.098775804 -0.15330538 -0.15976031 0.028516067 0.41047674 -0.007904151 0.34681156 0.03369806
0.1406057 -0.02871529 -0.06342479 -0.40920487 0.13474578 0.0015298219 0.32665774 -0.18263644
0.068128705 0.23789157 0.17767146 -0.15212026 -0.09477944 0.033915322 -0.020334037 0.11235999
-0.02495795 -0.3306247 0.028824091 0.08862029 -0.0883051 -0.11049845 -0.1429312 -0.018521104
-0.059182405 0.00093060697 0.074152604 -0.048279475 0.053544514 0.022645263 -0.14695717 0.013596386
0.054786287 -0.14252044 0.32181445 -0.052384276 -0.18740265 0.20959303 0.11625019 -0.09428164
-0.17544845 0.24010195 -0.17016228 0.23322976 0.08974533 0.24666876 0.24317752 -0.09540293
-0.1936099 0.030331297 0.2182103 -0.1711881 0.43795773 0.04335369 0.113492966 -0.2247482
-0.028202923 0.13667437 0.065029316 0.30792826 -0.25977963 0.08739127 0.25299063 0.18210083
-0.07382046 0.17173332 0.4732297 0.0026294366 0.13463908 0.2703747 -0.037489526 -0.30429572
00000000: 58f1 783c 0fbd b43e ddb8 cb3e 5468 73be
00000010: 8e3a abbc 00cf 3bbc d441 453d 41ff 64be
00000020: 6a4b a73c f920 adbe 46ed 6cbd 9fda 7e3d
00000030: 0e8e 273e 9026 7ebe 3793 b7bd d11d 17be
00000040: 2fcd ad3e 50dc a93d c74f b53e 1889 a7bb
00000050: 0c56 4e3e 77db c23e 0a91 71be 2e97 a8bd
00000060: dc66 5f3e 6642 c63d 543b ba3e aa41 883c
00000070: 4895 733d c5b3 ea3e 66c4 713d d97b 2abe
00000080: 68bc fe3d b7b6 ce3e cc54 173e 31e2 e03c
00000090: 1def 9b3d 1cf9 96bd 6915 c43e b663 4bbe
000000a0: 1509 f33d ee46 6f3e 9994 9abe aef6 da3e
000000b0: c463 2a3e ea9f ad3e 9b16 103e 97a7 833d
000000c0: fa18 563d 9156 483e f598 b8be 7d27 6bbd
000000d0: c1fa e93e 4015 c83e c881 62be f893 c23e
000000e0: 9bc2 563d aeec aa3d 58f8 6b3e 7bfb 99bd
000000f0: 1523 4ebd 019a 633c e5f4 c33d 95e6 ed3d
00000100: 1684 023e c0f6 bfbd 1836 793d 6c6a 373e
00000110: 933e d83d 4c7b ba3d b309 4c3e 873d 44be
00000120: 89c8 bb3d 65a7 a2bd 46e6 40be 384a 1fbe
00000130: a9b6 173e 4952 933e 4d0a 04be a914 e33b
00000140: 3472 77be 9f3f 8bbe b05a 67be 4cb7 9d3d
00000150: 5a02 f9bd df2a 9bbd 3c82 37be aa16 d43e
00000160: b8aa 06be 6076 163e 948c 89be a7ee e63e
00000170: cd93 02be b6ad 253e e13d ca3c ca22 5abe
00000180: 5370 963c fad8 e0bd 5509 263c 601f c93e
00000190: 754c 1cbe 1312 c63d e314 aa3d 2aef f6bc
000001a0: 35a5 8bbe a69b f63e 6fea 22be 248e 633e
000001b0: 77d4 72be 6304 073e 3872 cb3d 21d8 63be
000001c0: 28ba 7cbd 2ce0 df3d 161b edbd 5238 a6bc
000001d0: afd1 003e 7487 e53e 4c62 b63d 2c01 8ebd
000001e0: 0e9c 87be 126e 1c3e 4a13 c13e 569c 073e
000001f0: 5cb6 0f3e bfb9 023e 81f8 42be f9b9 2e3e
00000200: 4161 5cbe 4f76 d9bd 1706 d13b 7ab6 8b3e
00000210: 05d3 36be 0d6e 00be 8970 883e de17 ffbc
00000220: 68ee c43d 7d36 b63d 3bd9 bb3e 6432 3dbe
00000230: 2212 2c3e 0832 49be 3fef aa3c 031b f63d
00000240: 4425 57be 9513 893e 9e55 803d 5853 c3bd
00000250: 70a3 4bbd 8707 a7bd 0741 ee3d 98ee 1dbe
00000260: 18df 043e 18a6 25be 9156 2a3e a6b0 543e
00000270: 80e2 283d 9a49 bbbd 1e6d 29be 1a2a 043e
00000280: a168 443e 5661 c63d a509 4dbd 7d3a 3fbe
00000290: d50f 483d bb43 71bd 71a6 553d f25a e43c
000002a0: 5df8 bd3e c842 87bd 670e 66bc 4bd1 fb3c
000002b0: 67a3 603e e1db 173d 5c1a 6cbe c85a c93c
000002c0: f84a cabd 16fc 1cbe 3598 23be 879a e93c
000002d0: 022a d23e 6a80 01bc 4991 b13e fa06 0a3d
000002e0: f1fa 0f3e 543c ebbc dbe4 81bd 4d83 d1be
000002f0: ccfa 093e 4e84 c83a af3f a73e 0c05 3bbe
00000300: 1087 8b3d d999 733e 82ef 353e 6ac5 1bbe
00000310: b91b c2bd cbea 0a3d 9193 a6bc ff1c e63d
00000320: 9d74 ccbc a447 a9be 8020 ec3c 8e7e b53d
00000330: 4ed9 b4bd 034d e2bd 8e5c 12be 92b9 97bc
00000340: 4069 72bd faf3 733a 52dd 973d b3c0 45bd
00000350: 7e51 5b3d 8f82 b93c f17b 16be 60c3 5e3c
00000360: 9667 603d e1f0 11be ddc4 a43e e590 56bd
00000370: 7be6 3fbe 8e9f 563e 9414 ee3d bc16 c1bd
00000380: c2a8 33be 49dd 753e 053f 2ebe c8d3 6e3e
00000390: 66cc b73d bc96 7c3e 8703 793e 9d62 c3bd
000003a0: ac41 46be 5779 f83c 8572 5f3e ef4b 2fbe
000003b0: ff3b e03e a493 313d 006f e83d 6424 66be
000003c0: d109 e7bc 5ef4 0b3e 172e 853d c6a8 9d3e
000003d0: d601 85be 32fa b23d fd87 813e a478 3a3e
000003e0: 2e2f 97bd dcda 2f3e 2a4b f23e a052 2c3b
000003f0: d4de 093e 8d6e 8a3e 9e8e 19bd a6cc 9bbe

bias f4 [30]
-0.086437196 0.06596869 -0.14028573 0.042743076 -0.07763099 -0.0034501804 -0.0794976 0.10638209
0.10966469 0.037838645 0.041297182 0.03637177 -0.056088015 -0.05250663 0.069906846 0.06557074
-0.016951952 0.05752264 0.045674432 -0.010743514 0.0029980424 0.007444333 0.0032508108 -0.0639473
0.022196308 0.033023074 0.08842186 0.077595904 0.05840108 0.029275399
00000000: fc05 b1bd 981a 873d 10a7 0fbe 5d13 2f3d
00000010: fffc 9ebd 6c1c 62bb a3cf a2bd dade d93d
00000020: e297 e03d b2fc 1a3d 3c27 293d 91fa 143d
00000030: 8cbc 65bd 3111 57bd 522b 8f3d f449 863d
00000040: d2de 8abc dc9c 6b3d 1d15 3b3d 9005 30bc
00000050: ce7a 443b 97ef f33b 8e0b 553b cdf6 82bd
00000060: 08d5 b53c 3443 073d 8516 b53d 9aea 9e3d
00000070: f935 6f3d f6d2 ef3c

weight f4 [30]
0.71871686 0.6085739 1.0841336 0.6863582 1.0513074 1.0703534 1.0691682 0.72820216
1.0973562 0.67996204 1.0558503 1.1043591 0.73080754 1.0994066 1.0698161 0.6490129
0.6226974 1.0527011 1.049556 1.0323194 0.67458504 1.0795883 1.0745407 1.0847591
1.106975 0.6928782 0.9983021 0.67777324 1.0585203 0.6747235
00000000: d4fd 373f 80cb 1b3f e4c4 8a3f 2cb5 2f3f
00000010: 3e91 863f 5701 893f 81da 883f 756b 3a3f
00000020: 2b76 8c3f fe11 2e3f 1a26 873f a45b 8d3f
00000030: 3416 3b3f 5bb9 8c3f bcef 883f b625 263f
00000040: 1969 1f3f e9be 863f da57 863f 0b23 843f
00000050: 9bb1 2c3f f32f 8a3f 8d8a 893f 63d9 8a3f
00000060: 5bb1 8d3f 7760 313f ba90 7f3f 8c82 2d3f
00000070: 987d 873f aeba 2c3f

bias f4 [30]
0.9567005 1.0046751 0.0129400045 0.9589105 0.108754724 0.181861 0.041119244 0.77175045
0.09061603 0.94637454 0.040851004 0.092684545 0.80971825 -0.057912394 0.03832192 0.98972213
1.0939599 0.118489675 0.04342683 0.17014389 0.8549436 0.050696332 0.055906318 0.019671824
0.025728837 0.9667202 0.085756116 0.84562176 0.1260986 1.0528942
00000000: 53ea 743f 3299 803f 5002 543c 297b 753f
00000010: ccba de3d c539 3a3e a76c 283d 7091 453f
00000020: e694 b93d 9a45 723f 6253 273d 65d1 bd3d
00000030: b249 4f3f 8c35 6dbd 72f7 1c3d 6e5e 7d3f
00000040: e106 8c3f b7aa f23d 55e0 313d 333a 2e3e
00000050: 95dd 5a3f f5a6 4f3d 06fe 643d ce26 a13c
00000060: 48c5 d23c fa7a 773f e7a0 af3d ab7a 583f
00000070: fe1f 013e 3dc5 863f

running_mean f4 [30]
9.814312 -1.74778 -9.790869 5.7062926 -15.053469 -15.186729 -11.016735 8.731917
-10.739385 -3.4286356 -9.79464 -10.118212 5.012317 -5.8676214 -10.403147 11.20313
7.281958 -13.277486 -9.208948 -13.9516535 3.3595364 -10.75302 -9.57535 -8.855795
-10.718741 5.678625 -11.179932 10.17142 -14.481447 9.027315
00000000: 6c07 1d41 41b7 dfbf 66a7 1cc1 f399 b640
00000010: 02db 70c1 d8fc 72c1 8c44 30c1 efb5 0b41
00000020: 85d4 2bc1 c46e 5bc0 d8b6 1cc1 32e4 21c1
00000030: e764 a040 8ec3 bbc0 4a73 26c1 0540 3341
00000040: cd05 e940 9570 54c1 da57 13c1 f939 5fc1
00000050: a502 5740 5f0c 2cc1 a234 19c1 56b1 0dc1
00000060: f77f 2bc1 4cb7 b540 00e1 32c1 23be 2241
00000070: 02b4 67c1 e26f 1041

running_var f4 [30]
0.033871472 0.027488537 0.029248292 0.029261993 0.029672801 0.027110312 0.027982507 0.033235464
0.028031474 0.025337731 0.030402131 0.032269713 0.029747808 0.029384917 0.032050755 0.029748047
0.028631337 0.029469652 0.029299943 0.028287437 0.030711701 0.03107854 0.034528237 0.027689049
0.028842982 0.03212656 0.029582884 0.034759145 0.028404532 0.03225746
00000000: d0bc 0a3d a42f e13c 1d9a ef3c d9b6 ef3c
00000010: 6014 f33c 7216 de3c 923b e53c e921 083d
00000020: 43a2 e53c 1391 cf3c e40d f93c 3f2d 043d
00000030: adb1 f33c a3b8 f03c a747 033d 2db2 f33c
00000040: 448c ea3c 576a f13c 6f06 f03c 0ebb e73c
00000050: 1b97 fb3c 6c98 fe3c 7b6d 0d3d 25d4 e23c
00000060: 1e48 ec3c 2497 033d ce57 f23c 9b5f 0e3d
00000070: 9fb0 e83c 6620 043d

weight f4 [30, 30]
0.15657108 0.28586996 -0.2802424 -0.26726893 -0.119953066 0.124733664 0.19070439 -0.06350042
-0.14787816 0.48139003 -0.16279441 -0.1492554 -0.052940078 0.11227738 -0.039558675 0.017909909
0.24395643 0.28211698 -0.26007962 -0.19714378 0.2149307 0.3327836 -0.19746593 0.018777536
0.056904208 0.14916559 0.2419954 -0.13682514 0.1859526 0.17463353 -0.1095234 -0.1514006
-0.36975512 -0.13423306 0.16164218 -0.0005330471 0.24515529 -0.16235006 -0.17159988 -0.15965194
-0.0937228 0.06787557 0.19700135 0.07850897 0.135071 0.2710002 -0.15262808 -0.03135038
-0.50430673 0.46227643 -0.027506925 -0.15326175 -0.22857988 -0.29916084 0.05920416 -0.19478224
-0.05891804 -0.012055441 0.020386161 -0.04504731 0.05109123 0.03819272 -0.106812865 -0.15773901
0.15318865 -0.3432725 0.32911637 0.12327616 -0.29713136 -0.051975425 0.021982705 -0.0055929986
-0.1659937 -0.15035518 0.042667132 -0.2518071 0.31718248 -0.11851478 0.2732635 0.18849917
0.37262967 -0.26092213 0.062300153 -0.088341884 -0.3092044 -0.023749316 -0.12121357 -0.27833313
0.147535 0.14799795 0.14853767 -0.08171366 0.04053766 0.2622278 0.14437237 0.2502108
0.12959908 -0.17259748 0.016346514 0.040119484 -0.026245108 0.14446963 -0.26807275 -0.2995826
0.10306504 -0.12596793 -0.26637954 0.33076188 -0.017515058 0.35694128 0.31125236 -0.08458003
0.05340071 0.07640124 0.09686616 0.5239057 0.13489035 0.27586517 -0.06685272 0.023493111
-0.09978327 0.10697913 0.15010531 -0.18483539 0.00330529 -0.049151257 0.22781979 -0.2198803
0.08854637 -0.06162985 -0.08485282 0.3310728 0.0012423093 -0.14930543 -0.32160938 -0.03735162
-0.17743817 0.20861308 0.2323671 -0.05131173 0.12777989 0.15126505 0.24108773 -0.4348763
0.011215758 -0.21846598 0.47342783 -0.005823558 0.041268237 -0.18277614 -0.38761684 0.112871766
-0.40874577 0.16635671 0.089694135 0.06253494 0.08719993 -0.27610496 -0.10848488 -0.12172852
-0.056958046 0.13820483 -0.04951257 -0.11865689 -0.10047723 0.21495767 0.25969037 0.19539216
0.054336283 -0.12690727 -0.12453701 -0.063082226 0.34761038 0.2433714 0.07979715 0.02762748
-0.25484708 0.11244363 0.326109 0.22604656 -0.010698707 -0.07988013 -0.19950427 0.39357638
0.100575835 0.26560962 -0.39856938 -0.20404314 0.21101324 0.1329552 -0.17026591 0.05026445
-0.24079722 0.0293007 -0.1651012 -0.30162904 0.3203577 -0.10825033 -0.08770231 0.10367138
-0.018927619 -0.16823988 -0.23807858 -0.3154115 0.028066846 -0.17044437 0.120242625 -0.0781196
0.07736899 -0.08178295 -0.2104808 -0.065871485 0.17629442 -0.051180515 -0.26332715 0.007267042
0.2544089 -0.07477775 -0.0040109265 0.11454898 -0.07755805 0.48965636 -0.17012994 -0.066014096
0.06410293 0.074413836 0.1027485 -0.33586338 0.07264617 -0.03807424 -0.08763663 -0.02312173
-0.40827525 0.29642776 0.20650077 0.121165715 -0.075804636 -0.13904846 0.17421946 -0.18896173
0.04026467 0.3322599 0.08563914 0.32352248 0.084161066 -0.01547418 0.17075628 0.0024978113
-0.21800734 0.13982458 -0.32114664 -0.0014751833 -0.13266122 0.025934242 0.2589827 -0.100179985
00000000: 2b54 203e 8c5d 923e ef7b 8fbe 79d7 88be
00000010: f4a9 f5bd 5d74 ff3d 0348 433e 820c 82bd
00000020: 5f6d 17be c178 f63e 94b3 26be 68d6 18be
00000030: b2d7 58bd aff1 e53d 4708 22bd cdb7 923c
00000040: b7cf 793e a371 903e 2829 85be 0fe0 49be
00000050: cb16 5c3e 9d62 aa3e 8234 4abe 59d3 993c
00000060: 6314 693d ddbe 183e a4cd 773e e41b 0cbe
00000070: 5c6a 3e3e 22d3 323e ce4d e0bd c208 1bbe
00000080: 8b50 bdbe 6474 09be 8785 253e 2fbc 0bba
00000090: fd09 7b3e 183f 26be e1b7 2fbe cc7b 23be
000000a0: bdf1 bfbd 5902 8b3d b9ba 493e 50c9 a03d
000000b0: 0d50 0a3e 8ac0 8a3e 894a 1cbe 4269 00bd
000000c0: 3f1a 01bf 7faf ec3e 3456 e1bc a6f0 1cbe
000000d0: d810 6abe 9c2b 99be 1080 723d ff74 47be
000000e0: 0b54 71bd 2f84 45bc e100 a73c 8783 38bd
000000f0: 0a45 513d f86f 1c3d b4c0 dabd 5686 21be
00000100: 7cdd 1c3e 6ac1 afbe f181 a83e 3678 fc3d
00000110: 9a21 98be 2fe4 54bd 1315 b43c 7945 b7bb
00000120: 41fa 29be b5f6 19be bbc3 2e3d dcec 80be
00000130: be65 a23e e1b7 f2bd 32e9 8b3e ed05 413e
00000140: 51c9 be3e 9697 85be 722e 7f3d 97ec b4bd
00000150: 0a50 9ebe ed8d c2bc d23e f8bd ae81 8ebe
00000160: 6a13 173e c68c 173e 421a 183e 7e59 a7bd
00000170: d10a 263d b942 863e 5ad6 133e a11b 803e
00000180: 9fb5 043e 65bd 30be 20e9 853c 5454 243d
00000190: fbff d6bc d9ef 133e d540 89be e462 99be
000001a0: c413 d33d bdfd 00be e662 88be 9f59 a93e
000001b0: bd7b 8fbc 02c1 b63e 785c 9f3e 4b38 adbd
000001c0: b4ba 5a3d 4178 9c3d c461 c63d af1e 063f
000001d0: b220 0a3e 333e 8d3e 14ea 88bd a074 c03c
000001e0: 2c5b ccbd e017 db3d 35b5 193e 7d45 3dbe
000001f0: 909d 583b d452 49bd 9749 693e 4d28 61be
00000200: cd57 b53d 956f 7cbd 51c7 adbd 6082 a93e
00000210: fcd4 a23a 86e3 18be fca9 a4be 03fe 18bd
00000220: 5ab2 35be ab9e 553e a4f1 6d3e 402c 52bd
00000230: bbd8 023e 3ae5 1a3e b4df 763e 1ba8 debe
00000240: 4cc2 373c 8cb5 5fbe 2265 f23e 8cd3 bebb
00000250: e208 293d ab29 3bbe b775 c6be 5029 e73d
00000260: 2047 d1be 6a59 2a3e 8fb1 b73d 5212 803d
00000270: e095 b23d a15d 8dbe 522d debd cd4c f9bd
00000280: d74c 69bd 9185 0d3e b1cd 4abd 6202 f3bd
00000290: 02c7 cdbd dd1d 5c3e 23f6 843e e214 483e
000002a0: b98f 5e3d fbf3 01be 430d ffbd 4131 81bd
000002b0: fdf9 b13e 5a36 793e b06c a33d 0653 e23c
000002c0: 517b 82be d948 e63d c2f7 a63e c078 673e
000002d0: a149 2fbc 3298 a3bd d94a 4cbe d882 c93e
000002e0: b4fa cd3d fcfd 873e 4911 ccbe aff0 50be
000002f0: db13 583e 6825 083e 305a 2ebe 19e2 4d3d
00000300: 8c93 76be 0608 f03c 4a10 29be 1f6f 9abe
00000310: ed05 a43e 59b2 ddbd 459d b3bd a951 d43d
00000320: 180e 9bbc 1347 2cbe dfca 73be 9e7d a1be
00000330: 71ec e53c f888 2ebe c441 f63d 2bfd 9fbd
00000340: a273 9e3d d27d a7bd 4788 57be a1e7 86bd
00000350: 8686 343e a9a2 51bd d1d2 86be 5e20 ee3b
00000360: e241 823e 1425 99bd 176e 83bb a898 ea3d
00000370: c1d6 9ebd 3db4 fa3e 8b36 2ebe 6632 87bd
00000380: 6648 833d 4866 983d ce6d d23d 49f6 abbe
00000390: 84c7 943d bcf3 1bbd d57a b3bd c869 bdbc
000003a0: 7409 d1be 61c5 973e f074 533e bb25 f83d
000003b0: 763f 9bbd b862 0ebe 9666 323e 2f7f 41be
000003c0: 91ec 243d f81d aa3e 9363 af3d bda4 a53e
000003d0: a35c ac3d 6a87 7dbc bcda 2e3e 52b2 233b
000003e0: 513d 5fbe 2d2e 0f3e 556d a4be f05a c1ba
000003f0: 58d8 07be 0c74 d43c 6199 843e 2a2b cdbd

bias f4 [30]
-0.0022065372 0.170433 0.10639448 0.0907567 -0.15192302 0.016656969 -0.17776957 0.16131103
-0.15736376 0.12958989 -0.017451866 0.11821287 0.03129945 0.118260056 0.18123756 -7.2321156e-05
0.1317729 -0.040823802 0.10509069 -0.010982809 0.029823544 -0.11904451 0.09310771 0.17310312
0.088241026 -0.002825729 0.1730798 0.06633993 -0.10946178 0.13511963
00000000: 8d9b 10bb fd85 2e3e 59e5 d93d a6de b93d
00000010: b591 1bbe 3274 883c 3a09 36be b82e 253e
00000020: f723 21be 36b3 043e 37f7 8ebc 9719 f23d
00000030: da33 003d 5432 f23d 5796 393e 20ab 97b8
00000040: 7aef 063e dc36 27bd ca39 d73d 3df1 33bc
00000050: 8150 f43c 9ccd f3bd 41af be3d f241 313e
00000060: b6b7 b43d de2f 39bb d53b 313e 3bdd 873d
00000070: 7f2d e0bd cd5c 0a3e

weight f4 [30]
0.7177781 0.7301185 0.716708 0.80339855 0.795574 0.71594936 0.7397129 0.74258614
0.6943055 0.78773594 0.6909237 0.7293541 0.760765 0.7344389 0.8307984 0.87516016
0.73405266 0.8539828 0.73623085 0.8528623 0.7028697 0.75172514 0.71743125 0.8297628
0.86553025 0.7542043 0.8272095 0.7229831 0.7517101 0.7492052
00000000: 4ec0 373f 0ce9 3a3f 2d7a 373f 87ab 4d3f
00000010: bdaa 4b3f 7548 373f d35d 3d3f 201a 3e3f
00000020: 01be 313f 10a9 493f 60e0 303f f3b6 3a3f
00000030: 7fc1 423f 3004 3c3f 34af 543f 7f0a 603f
00000040: e0ea 3b3f 9e9e 5a3f a079 3c3f 2f55 5a3f
00000050: 45ef 333f 0f71 403f 93a9 373f 566b 543f
00000060: 6493 5d3f 8813 413f 00c4 533f 6c15 393f
00000070: 1370 403f e9cb 3f3f

bias f4 [30]
1.0597286 1.061652 1.2968707 0.55182546 0.5890566 1.1683598 1.1268115 1.0046223
0.768927 0.60530907 1.2472361 1.0355366 0.7839176 1.0154376 0.7550385 0.83881927
1.0086572 0.5626386 1.3654053 0.5326064 1.1181626 1.1513196 1.2465564 0.7711065
0.34601995 0.9391651 0.7431691 1.1266595 0.84096396 1.0943812
00000000: 30a5 873f 36e4 873f dcff a53f 6f44 0d3f
00000010: 6acc 163f d08c 953f 5c3b 903f 7797 803f
00000020: 66d8 443f 89f5 1a3f 6fa5 9f3f 778c 843f
00000030: d3ae 483f dcf9 813f 344a 413f dcbc 563f
00000040: ae1b 813f 1509 103f 9ac5 ae3f e558 083f
00000050: f41f 8f3f 715e 933f 298f 9f3f 3c67 453f
00000060: 8729 b13e 206d 703f 5540 3e3f 6136 903f
00000070: 6a49 573f af14 8c3f

running_mean f4 [30]
1.2431113 -0.7216169 0.032091126 1.3198 -0.6725661 0.45380223 -0.6848089 -0.194713
-0.40808532 0.14816579 -1.2907913 -0.68842053 -0.111080945 -0.5233067 -0.039070178 1.4565381
-0.801641 -0.32556248 -0.14906344 1.271012 -0.80561787 0.5737079 0.4680005 0.6326172
-0.015122399 -0.6409555 1.7239076 0.21049438 -0.028421892 0.11443623
00000000: 451e 9f3f e3bb 38bf fc71 033d 35ef a83f
00000010: 4b2d 2cbf c458 e83e a34f 2fbf d862 47be
00000020: 8ff0 d0be c6b8 173e a638 a5bf 543c 30bf
00000030: 687e e3bd 6ef7 05bf 0d08 20bd d76f ba3f
00000040: 5838 4dbf 20b0 a6be 16a4 18be 85b0 a23f
00000050: f93c 4ebf 85de 123f c39d ef3e 33f3 213f
00000060: f0c3 77bc a915 24bf 01a9 dc3f d78b 573e
00000070: 07d5 e8bc 8b5d ea3d

running_var f4 [30]
0.47380525 0.44512486 0.4760171 0.46592772 0.394612 0.43951577 0.41920686 0.39105424
0.39703384 0.41708452 0.48391527 0.39823204 0.43552637 0.4920061 0.49262887 0.50483286
0.43606105 0.50427175 0.5058131 0.39174682 0.5350177 0.5199251 0.39902407 0.46453866
0.4448396 0.42331427 0.4290526 0.44340447 0.43599176 0.46445158
00000000: 9a96 f23e 68e7 e33e 83b8 f33e 148e ee3e
00000010: 960a ca3e 3608 e13e 48a2 d63e 4338 c83e
00000020: 0548 cb3e 1a8c d53e bec3 f73e 12e5 cb3e
00000030: 50fd de3e 39e8 fb3e da39 fc3e ba3c 013f
00000040: 6543 df3e f417 013f f87c 013f 0a93 c83e
00000050: ecf6 083f d019 053f e24c cc3e 03d8 ed3e
00000060: 04c2 e33e a6bc d83e c8ac db3e e905 e33e
00000070: 503a df3e 99cc ed3e

weight f4 [251, 30]
0.10037563 0.27390352 0.18409817 -0.077602156 0.19433121 -0.18555802 0.17981805 0.0057731434
0.052422322 -0.15690911 -0.20306733 -0.20763278 0.1533959 -0.13745904 0.25820607 0.032727454
-0.12375876 0.13753699 0.05455338 0.25395477 0.38086712 -0.09383628 0.1008321 0.07574586
0.03286389 0.80864525 0.16168055 -0.07793751 0.2920279 0.13212013 0.19876644 0.3295732
-0.41127014 0.23085476 -0.023414966 0.36018693 0.16562632 0.21261276 -0.23042235 0.31280023
-0.18515293 -0.16569026 0.13290918 -0.36202452 -0.010330575 0.11163133 0.1497791 -0.13184609
0.041195955 0.33455685 -0.22435741 0.09587396 0.17970918 -0.10186935 0.10266774 -0.006918867
0.13969265 0.10241448 0.08583868 -0.038664445 0.22666298 -0.3877259 -0.1553953 -0.046364233
-0.15959568 -0.13381885 -0.17961867 0.16458668 0.15480706 0.21134403 0.04229115 -0.024367342
0.07091703 -0.052648447 0.112949125 -0.04167696 -0.19302647 -0.26484463 0.040072173 0.11547083
0.30258954 -0.32801405 0.19889951 0.23060316 0.2641805 -0.33721557 0.19210622 -0.19315739
0.08887193 0.42953184 0.2274107 -0.14074814 0.2441876 0.2547499 0.07840674 0.3492571
-0.37471431 0.16372518 -0.0083861 0.119137555 -0.035737306 -0.09014081 -0.32914102 -0.043012396
0.056589108 -0.07509381 0.027795006 0.06644914 0.47484827 0.11625325 0.1310924 0.13193482
-0.022289895 0.43654704 -0.14740871 -0.06345846 -0.24518982 -0.10945086 -0.24391785 -0.011249047
0.045012265 -0.29251346 -0.32592967 -0.23466873 0.18556884 -0.085549645 -0.22266912 0.14898814
0.2809494 0.83986175 -0.22142534 0.16898485 0.08173612 -0.027193135 0.23102875 -0.08466965
-0.17840287 -0.1589087 -0.14039305 -0.1889683 -0.001192665 0.022602467 0.015819224 0.12268501
0.40051287 0.1280376 0.0089626955 -0.3130489 -0.04278384 0.047207743 0.11505067 -0.11202411
0.097772665 0.24069487 0.2462249 0.18079972 -0.066233695 0.0897937 0.0821978 -0.23537672
-0.1739544 -0.036991056 0.16340746 -0.19295269 -0.119461976 -0.09891505 -0.20938464 -0.045287248
0.124196395 0.1343897 0.4696802 -0.26857203 0.4369519 -0.078997314 0.32016525 0.03389178
0.2953479 0.44948292 0.19877684 0.033083215 0.02027657 0.10219551 -0.19677484 0.0123114325
0.1383691 -0.17714794 0.066001564 -0.16338588 0.27153084 0.52320474 0.115421295 -0.12630251
-0.11190899 -0.039766204 -0.11556432 -0.2636557 -0.010041689 -0.119163066 -0.055154886 0.23709217
-0.01908842 -0.21559258 0.0863039 0.40186736 0.10548294 0.03776946 0.3365609 -0.23551579
-0.1522253 0.45234436 0.25974447 0.11660754 0.054604854 0.10922967 0.24184707 0.08879266
0.10444812 0.008639249 0.19087559 0.01848599 -0.1865026 0.19771285 0.43705767 -0.1357968
0.058620173 0.5052917 0.17349513 0.17590725 0.4189331 0.27215746 -0.03467209 -0.20848984
0.106381215 0.134163 -0.1906492 -0.12335209 -0.22813687 -0.15032367 0.046655282 -0.03298663
0.08532904 0.03482068 0.067082666 0.17315237 -0.16549104 0.09280848 0.028325217 0.32019213
0.48920116 -0.18877697 -0.065582305 0.0109494245 -0.4603356 -0.26855054 0.3349177 0.11753464
00000000: bd91 cd3d 153d 8c3e 3b84 3c3e e1ed 9ebd
00000010: c3fe 463e ec02 3ebe 3922 383e a32c bd3b
00000020: cab8 563d c8ac 20be e2f0 4fbe b09d 54be
00000030: d113 1d3e 10c2 0cbe 9633 843e 390d 063d
00000040: 3c75 fdbd 7fd6 0c3e 5d73 5f3d 5c06 823e
00000050: 0401 c33e 3c2d c0bd 0f81 ce3d a520 9b3d
00000060: 499c 063d 6003 4f3f 968f 253e b49d 9fbd
00000070: ae84 953e 804a 073e 6e89 4b3e d2bd a83e
00000080: 0092 d2be 3165 6c3e bed0 bfbc 6c6a b83e
00000090: f299 293e 29b7 593e d6f3 6bbe 5a27 a03e
000000a0: bb98 3dbe b5aa 29be 5819 083e 475b b9be
000000b0: 9241 29bc f79e e43d b15f 193e a902 07be
000000c0: 17bd 283d 094b ab3e f3bd 65be 9159 c43d
000000d0: af05 383e e1a0 d0bd 7743 d23d aab7 e2bb
000000e0: 970b 0f3e afbe d13d 31cc af3d 9c5e 1ebd
000000f0: 571a 683e 0284 c6be f21f 1fbe 6ce8 3dbd
00000100: 0d6d 23be cf07 09be f5ed 37be 6989 283e
00000110: be85 1e3e 926a 583e 7c39 2d3d 059e c7bc
00000120: f33c 913d e6a5 57bd df51 e73d 76b5 2abd
00000130: bba8 45be b799 87be b822 243d f87b ec3d
00000140: 04ed 9a3e 75f1 a7be 50ac 4b3e 3c23 6c3e
00000150: ab42 873e 85a7 acbe 7eb7 443e 0dcb 45be
00000160: 7d02 b63d 99eb db3e 5ade 683e 4820 10be
00000170: 500c 7a3e 946e 823e b793 a03d d4d1 b23e
00000180: 8eda bfbe 93a7 273e da65 09bc 64fe f33d
00000190: 4861 12bd bf9b b8bd 2c85 a8be c42d 30bd
000001a0: fbc9 673d c9ca 99bd 5ab2 e33c 7d16 883d
000001b0: 501f f33e 2f16 ee3d 163d 063e ec19 073e
000001c0: 4c99 b6bc 1883 df3e 4ff2 16be 82f6 81bd
000001d0: 0a13 7bbe c627 e0bd 9ac5 79be ec4d 38bc
000001e0: c85e 383d 53c4 95be 41e0 a6be 004d 70be
000001f0: c205 3e3e a734 afbd 6003 64be 5990 183e
00000200: 9ad8 8f3e 2e01 573f 53bd 62be 5d0a 2d3e
00000210: 4465 a73d 23c4 debc cd92 6c3e 4867 adbd
00000220: 3eaf 36be f6b8 22be 32c3 0fbe e880 41be
00000230: 3253 9cba cf28 b93c 5197 813c 4742 fb3d
00000240: 0610 cd3e 4a1c 033e 45d8 123c f247 a0be
00000250: 1c3e 2fbd e85c 413d b09f eb3d e66c e5bd
00000260: 093d c83d b778 763e 6122 7c3e 9023 393e
00000270: 88a5 87bd c2e5 b73d 5257 a83d 9806 71be
00000280: 1a21 32be ef83 17bd 4954 273e 6495 45be
00000290: 7ba8 f4bd f993 cabd ed68 56be 1f7f 39bd
000002a0: ae5a fe3d 749d 093e ec79 f03e 4682 89be
000002b0: 29b8 df3e 58c9 a1bd b3ec a33e 1bd2 0a3d
000002c0: d737 973e a022 e63e 288c 4b3e 4482 073d
000002d0: 0d1b a63c e14b d13d 587f 49be e4b5 493c
000002e0: a1b0 0d3e 4566 35be d42b 873d a14e 27be
000002f0: 1706 8b3e bff0 053f 0062 ec3d 7255 01be
00000300: 8a30 e5bd e3e1 22bd fcac ecbd e1fd 86be
00000310: e585 24bc c40b f4bd 17ea 61bd 4ac8 723e
00000320: 515f 9cbc 4dc4 5cbe 19c0 b03d 8fc1 cd3e
00000330: 7107 d83d 26b4 1a3d b651 ac3e 0d2b 71be
00000340: f3e0 1bbe ae99 e73e 3afd 843e efcf ee3d
00000350: 57a9 5f3d ceb3 df3d c2a6 773e edd8 b53d
00000360: e5e8 d53d a38b 0d3c e474 433e ee6f 973c
00000370: 8afa 3ebe 3d75 4a3e 06c6 df3e 510e 0bbe
00000380: b51b 703d cc5a 013f b5a8 313e 0821 343e
00000390: 667e d63e 3958 8b3e 5204 0ebd 5c7e 55be
000003a0: 65de d93d 0762 093e 8b39 43be 05a0 fcbd
000003b0: b69c 69be 73ee 19be 9c19 3f3d fd1c 07bd
000003c0: fec0 ae3d 21a0 0e3d a362 893d db4e 313e
000003d0: 7c76 29be 5f12 be3d 490a e83c 39f0 a33e
000003e0: 9378 fa3e c04e 41be 0450 86bd 3765 333c
000003f0: 1cb1 ebbe 757f 89be 557a ab3e 00b6 f03d

bias f4 [251]
0.15651637 0.15172955 -0.106289 0.0022190777 0.009010582 0.09928245 -0.0825244 0.05545411
-0.08506807 0.04214733 -0.0013936377 -0.030262599 0.0056363055 0.1734572 -0.13725625 -0.070087165
-0.040195342 0.07212059 -0.112829715 -0.07977459 -0.082440116 -0.022647858 0.068016276 -0.15395002
0.11051982 -0.063888155 0.0977939 0.12114936 0.03838485 0.047370464 -0.103901125 -0.091670215
-0.14531806 -0.10455795 -0.092609294 0.10039747 0.044186015 -0.08970352 -0.03777073 0.16748028
0.108495384 0.09093002 -0.046142932 -0.1422458 0.08417074 0.1813373 0.025521237 0.049711116
0.1053021 -0.12442655 0.16135333 -0.056092717 0.07074801 0.08735131 0.009832267 -0.104024865
0.02787473 -0.054495934 -0.053079925 -0.036450226 0.15189327 -0.035510935 0.10706909 0.012280633
-0.01557108 0.16685866 0.042600613 -0.07205096 -0.098923914 -0.089402646 -0.076029986 0.08196954
-0.044545177 0.18661132 -0.16230488 -0.09960819 -0.072854266 -0.13593207 -0.0959877 0.06182922
0.17416224 0.093782604 -0.021069843 0.0747009 0.14263542 -0.13381755 -0.0664487 -0.02317482
0.14956364 -0.090603895 0.112323955 0.03878071 -0.008322655 0.17956187 -0.17887196 0.064995944
-0.094804786 0.041656155 -0.13932836 0.13779819 -0.09927541 0.011899415 0.13948882 -0.16236763
-0.15181285 0.16090037 -0.080084614 0.12438202 0.112542436 0.1252702 0.11657059 -0.13881412
0.01017318 0.17772003 0.037375417 -0.10495912 0.117931664 -0.05698869 0.076437086 -0.016067991
0.0820962 0.061489284 0.0704726 0.037499588 0.10230119 -0.01896013 -0.02974998 -0.09131234
-0.017641418 -0.029884292 -0.053727638 -0.14691783 0.00818832 -0.1247303 -0.14469655 -0.15799724
-0.10799468 -0.04223037 -0.04080293 0.1870114 0.15131007 -0.08052913 0.14819044 0.12364148
0.18811475 0.05189615 0.06562795 0.09066969 0.1769882 -0.14938381 0.04856494 -0.0037292019
0.04291419 0.18930902 -0.017163489 0.0045398753 0.14793599 -0.149281 0.058557287 0.16642329
-0.041240685 0.08294835 0.17254065 0.07718399 -0.10202713 0.07544884 -0.11224772 -0.13615483
0.17182963 -0.11555152 0.15858345 0.067179464 -0.16529837 -0.07900265 -0.05471757 0.009862566
0.13076214 -0.1404421 -0.09724346 0.09237532 0.13282746 0.07306078 0.17883238 -0.053084463
0.069981076 -0.102131926 0.18199684 -0.055973988 0.08837882 -0.13267553 0.110369205 -0.031795576
0.06134934 0.10684645 -0.16705696 0.17181057 -0.073072664 -0.069221355 0.15419932 0.12272617
-0.14019412 0.15728383 0.12988721 0.1813643 0.07045552 0.052527566 0.052123036 0.10942942
-0.17012073 0.021325702 -0.040493514 -0.162098 -0.089074425 0.17690778 -0.018211503 0.06394767
0.14052089 -0.050818402 0.11296425 0.16348651 0.16274573 -0.101886675 0.122043915 0.09183225
0.16151714 0.060708787 0.18272164 0.079274006 0.17221074 0.060171172 0.13811915 0.093327105
0.16979018 0.13102235 0.06970532 -0.10635193 0.077247865 -0.055433434 -0.032011867 0.17565118
-0.102843344 0.10956453 -0.0955252 0.17405063 -0.14741981 0.1075048 0.18464789 0.028342143
0.046944223 -0.12111676 0.05363831
00000000: d445 203e fe5e 1b3e 0cae d9bd f26d 113b
00000010: 1fa1 133c 9954 cb3d 8d02 a9bd d923 633d
00000020: 2b38 aebd aea2 2c3d b9aa b6ba 45e9 f7bc
00000030: c2b0 b83b c49e 313e e78c 0cbe dc89 8fbd
00000040: dfa3 24bd f6b3 933d 4413 e7bd dc60 a3bd
00000050: 5dd6 a8bd 0088 b9bc 1e4c 8b3d 13a5 1dbe
00000060: 3758 e23d cbd7 82bd 2b48 c83d 281d f83d
00000070: 6f39 1d3d 8807 423d 1dca d4bd 98bd bbbd
00000080: 42ce 14be 7a22 d6bd f1a9 bdbd 309d cd3d
00000090: 65fc 343d 7bb6 b7bd 7bb5 1abd f37f 2b3e
000000a0: d432 de3d 8539 ba3d 5f00 3dbd e2a8 11be
000000b0: b561 ac3d 7cb0 393e ea11 d13c e29d 4b3d
000000c0: a1a8 d73d 59d3 febd cf39 253e 7ac1 65bd
000000d0: 55e4 903d 3ee5 b23d 8417 213c fd0a d5bd
000000e0: 8c59 e43c 2137 5fbd 566a 59bd d54c 15bd
000000f0: e989 1b3e ea73 11bd 0a47 db3d b534 493c
00000100: d81d 7fbc ffdc 2a3e fb7d 2e3d 748f 93bd
00000110: 9f98 cabd bc18 b7bd 9cb5 9bbd a5df a73d
00000120: 0175 36bd 0a17 3f3e 4033 26be 61ff cbbd
00000130: 9e34 95bd c731 0bbe 3395 c4bd a340 7d3d
00000140: 9657 323e 1811 c03d aa9a acbc c9fc 983d
00000150: 050f 123e 7807 09be 4216 88bd 1fd9 bdbc
00000160: 3627 193e 898e b9bd 1a0a e63d 86d8 1e3d
00000170: bf5b 08bc 11df 373e 362a 37be 981c 853d
00000180: 0329 c2bd a59f 2a3d 18ac 0ebe f81a 0d3e
00000190: e850 cbbd c4f5 423c 28d6 0e3e b343 26be
000001a0: d474 1bbe 11c3 243e 6703 a4bd 00bc fe3d
000001b0: a67c e63d d546 003e 90bc ee3d 4a25 0ebe
000001c0: 69ad 263c 3dfc 353e f716 193d cff4 d6bd
000001d0: 2886 f13d f96c 69bd 0c8b 9c3d 05a1 83bc
000001e0: 0d22 a83d 30dc 7b3d f053 903d 2b99 193d
000001f0: 4983 d13d 4652 9bbc 3bb6 f3bc f701 bbbd
00000200: bc84 90bc e7cf f4bc 8311 5cbd a171 16be
00000210: 4e28 063c 9972 ffbd 552b 14be 07ca 21be
00000220: 512c ddbd c1f9 2cbd f920 27bd eb7f 3f3e
00000230: 07f1 1a3e 75ec a4bd 3cbf 173e bf37 fd3d
00000240: 27a1 403e 0f91 543d f267 863d 08b1 b93d
00000250: 653c 353e 12f8 18be 08ec 463d a065 74bb
00000260: cac6 2f3d 39da 413e 729a 8cbc 3cc3 943b
00000270: 887c 173e 1edd 18be c4d9 6f3d de6a 2a3e
00000280: feeb 28bd d3e0 a93d 7fae 303e a412 9e3d
00000290: 9af3 d0bd ec84 9a3d 22e2 e5bd 2c6c 0bbe
000002a0: 1bf4 2f3e 46a6 ecbd b363 223e 6395 893d
000002b0: fa43 29be 24cc a1bd 881f 60bd 9a96 213c
000002c0: 83e6 053e 0ed0 0fbe 9427 c7bd 462f bd3d
000002d0: ec03 083e e4a0 953d d61f 373e 186f 59bd
000002e0: 3d52 8f3d 8b2a d1bd 615d 3a3e fb44 65bd
000002f0: f4ff b43d 18dc 07be 4009 e23d 143c 02bd
00000300: 7249 7b3d 50d2 da3d fb10 2bbe 1cef 2f3e
00000310: 1fa7 95bd edc3 8dbd 6de6 1d3e dc57 fb3d
00000320: 0c8f 0fbe 030f 213e 2701 053e 90b7 393e
00000330: fc4a 903d 2527 573d f77e 553d 881c e03d
00000340: 2134 2ebe 3db3 ae3c 87dc 25bd 05fd 25be
00000350: a76c b6bd 5027 353e 4a30 95bc fff6 823d
00000360: b5e4 0f3e f526 50bd cd59 e73d 0269 273e
00000370: d1a6 263e f6a9 d0bd 29f2 f93d 8c12 bc3d
00000380: c064 253e c7a9 783d 621b 3b3e 695a a23d
00000390: 0358 303e 0c76 763d 1b6f 0d3e 4822 bf3d
000003a0: 7add 2d3e b92a 063e aac1 8e3d 0acf d9bd
000003b0: 2134 9e3d 2b0e 63bd e01e 03bd e7dd 333e
000003c0: 889f d2bd 5e63 e03d b7a2 c3bd 543a 323e
000003d0: 38f5 16be 7a2b dc3d 5614 3d3e c82d e83c
000003e0: 9648 403d 100c f8bd d8b3 5b3d

weight f4 [251]
0.8811424 1.2441915 1.3089949 1.2703632 1.2357312 1.2109538 1.3780545 1.2171901
1.2528439 1.2270501 1.3851037 1.3218961 1.2498424 1.2611797 1.1650494 1.224826
1.2705519 1.3720719 1.3215475 1.3111364 1.2618991 1.2832555 1.1960841 1.1185015
1.3133572 1.3618734 1.1376232 1.1781299 1.4340518 1.3828894 1.2642901 1.2631248
1.2568146 1.3209664 1.2056884 1.2040489 1.1263852 1.0541669 1.2481759 1.2377813
1.284397 1.2635107 1.3294003 1.2593507 1.2126077 1.3221173 1.3076376 1.1388763
1.297579 1.311006 1.4819121 1.206377 1.286894 1.131289 1.4367266 1.2651523
1.2535976 1.1923311 1.3698355 1.1919677 1.2099729 1.2419283 1.2406831 1.311864
1.2466666 1.242788 1.3226781 1.3171084 1.39612 1.1224836 1.1222163 1.3188288
1.3027967 1.1429311 1.1040962 1.3145508 1.1997089 1.2192545 1.4560115 1.3394592
1.1190528 1.175235 1.1911905 1.2267001 1.176592 1.4921691 1.186751 1.3741956
1.2299813 1.1947316 1.1878079 1.1973664 1.321403 1.3125364 1.1640446 1.2489468
1.489899 1.3130189 1.2884091 1.1310999 1.2602354 1.267921 1.2144322 1.2685472
1.276257 1.2290201 1.1298454 1.1149898 1.2449033 1.2284964 1.0842856 1.3035238
1.219287 1.3586779 1.1843054 1.4596403 1.3771468 1.2752758 1.2317709 1.3379185
1.2065206 1.5286238 1.2239841 1.2863172 1.2382834 1.266402 1.2275816 1.2797015
1.4370056 1.249209 1.2599504 1.1465641 1.0807328 1.3060154 1.1223339 1.14126
1.2796714 1.1498296 1.276104 1.2349688 1.3182596 1.1988326 1.1469281 1.2353772
1.0913975 1.3937961 1.0823491 1.3032683 1.1455604 1.2535242 1.2592046 1.2952839
1.2892962 1.3726099 1.2269704 1.1714276 1.1557174 1.2312282 1.1511331 1.1475002
1.1677899 1.330634 1.2870198 1.1866075 1.32143 1.3332739 1.195567 1.2826312
1.2532735 1.1831033 1.1718929 1.1765933 1.2353034 1.3148268 1.1730376 1.3471323
1.2541578 1.0522611 1.1789416 1.2330319 1.3082558 1.0888802 1.240459 1.2792364
1.2833651 1.2265464 1.3058311 1.0775203 1.142151 1.2209631 1.2206335 1.3422904
1.3068203 1.1563002 1.2616947 1.2260534 1.2121499 1.2622108 1.2719089 1.2331831
1.2336208 1.0592545 1.325058 1.2535022 1.2818761 1.1905464 1.1288544 1.299575
1.095815 1.2038794 1.2199908 1.1778451 1.3032926 1.1060747 1.3710579 1.2302387
1.2104759 1.215095 1.2387522 1.265591 1.1565443 1.1977346 1.1708679 1.1882602
1.2593975 1.3161747 1.2722508 1.1098738 1.2302201 1.2793131 1.3260164 1.2637773
1.1180612 1.1639184 1.3070164 1.2513323 1.2423104 1.0866449 1.2173547 1.2271246
1.2069935 1.2220953 1.168307 1.241255 1.2159245 1.1415675 1.2661551 1.3173954
1.1269604 1.0502691 1.290085
00000000: 8c92 613f ab41 9f3f 258d a73f 439b a23f
00000010: 712c 9e3f 8900 9b3f 1764 b03f e3cc 9b3f
00000020: 305d a03f fa0f 9d3f 144b b13f e433 a93f
00000030: d6fa 9f3f 566e a13f 5720 953f 19c7 9c3f
00000040: 72a1 a23f 0da0 af3f 7828 a93f 51d3 a73f
00000050: e985 a13f b741 a43f 4919 993f 0f2b 8f3f
00000060: 171c a83f de51 ae3f a39d 913f f6cc 963f
00000070: 028f b73f 8502 b13f 42d4 a13f 13ae a13f
00000080: 4ddf a03f 6d15 a93f ff53 9a3f 461e 9a3f
00000090: 642d 903f f1ee 863f 3ac4 9f3f 9e6f 9e3f
000000a0: 1f67 a43f b8ba a13f ca29 aa3f 6732 a13f
000000b0: bb36 9b3f 243b a93f ab60 a73f b3c6 913f
000000c0: 1217 a63f 0bcf a73f 4caf bd3f 906a 9a3f
000000d0: f1b8 a43f 14ce 903f a8e6 b73f 83f0 a13f
000000e0: e375 a03f 4e9e 983f c556 af3f 6692 983f
000000f0: 64e0 9a3f 82f7 9e3f b4ce 9e3f 29eb a73f
00000100: c592 9f3f ad13 9f3f 844d a93f 0297 a83f
00000110: 0fb4 b23f 8bad 8f3f c9a4 8f3f 62cf a83f
00000120: 0bc2 a63f 914b 923f 0653 8d3f 3343 a83f
00000130: 1090 993f 8810 9c3f 965e ba3f 6673 ab3f
00000140: 1f3d 8f3f 1a6e 963f ee78 983f 8204 9d3f
00000150: 919a 963f 66ff be3f 75e7 973f a4e5 af3f
00000160: 0770 9d3f f7ec 983f 170a 983f 4d43 993f
00000170: bc23 a93f 3101 a83f 6aff 943f 7ddd 9f3f
00000180: 03b5 be3f 0111 a83f 97ea a43f e2c7 903f
00000190: 654f a13f 3c4b a23f 8472 9b3f c15f a23f
000001a0: 645c a33f 8850 9d3f c69e 903f fcb7 8e3f
000001b0: fe58 9f3f 5f3f 9d3f dfc9 8a3f ded9 a63f
000001c0: 9911 9c3f 28e9 ad3f 5297 973f 7ed5 ba3f
000001d0: 5946 b03f 3d3c a33f abaa 9d3f ea40 ab3f
000001e0: 446f 9a3f f2a9 c33f 83ab 9c3f 0ba6 a43f
000001f0: 1280 9e3f 7619 a23f 6521 9d3f 42cd a33f
00000200: cdef b73f 15e6 9f3f 0e46 a13f 9dc2 923f
00000210: 7455 8a3f 832b a73f a3a8 8f3f cf14 923f
00000220: 46cc a33f 9e2d 933f 6057 a33f 7513 9e3f
00000230: bbbc a83f 5973 993f 8ace 923f d720 9e3f
00000240: eab2 8b3f e967 b23f 6a8a 8a3f 7fd1 a63f
00000250: b9a1 923f 7b73 a03f 9e2d a13f ddcb a53f
00000260: a807 a53f aeb1 af3f 5e0d 9d3f 57f1 953f
00000270: 8cee 933f e398 9d3f 5458 933f 49e1 923f
00000280: 247a 953f 3752 aa3f 11bd a43f c1e2 973f
00000290: 9e24 a93f b8a8 aa3f 5708 993f 422d a43f
000002a0: 446b a03f ee6f 973f 9600 963f 9c9a 963f
000002b0: 6c1e 9e3f 3f4c a83f 1926 963f d56e ac3f
000002c0: 3e88 a03f 7eb0 863f 8fe7 963f fdd3 9d3f
000002d0: ed74 a73f 6d60 8b3f 5cc7 9e3f 05be a33f
000002e0: 4f45 a43f 79ff 9c3f 7925 a73f 2fec 893f
000002f0: 0132 923f 8548 9c3f b83d 9c3f 2cd0 ab3f
00000300: e345 a73f a501 943f 367f a13f 51ef 9c3f
00000310: ba27 9b3f 2090 a13f e9cd a23f f2d8 9d3f
00000320: 49e7 9d3f a795 873f 809b a93f c372 a03f
00000330: 8414 a43f d363 983f 4d7e 903f 7958 a63f
00000340: aa43 8c3f b818 9a3f a928 9c3f a1c3 963f
00000350: 4bd2 a63f db93 8d3f d37e af3f 7678 9d3f
00000360: e0f0 9a3f 3c88 9b3f 6f8f 9e3f e3fe a13f
00000370: a509 943f 5e4f 993f 00df 953f e918 983f
00000380: f033 a13f 6a78 a83f 1dd9 a23f 5810 8e3f
00000390: da77 9d3f 88c0 a33f e8ba a93f 74c3 a13f
000003a0: a11c 8f3f 47fb 943f 504c a73f a82b a03f
000003b0: 0704 9f3f 2e17 8b3f 47d2 9b3f 6b12 9d3f
000003c0: c37e 9a3f 9e6d 9c3f 158b 953f 72e1 9e3f
000003d0: 6aa3 9b3f e21e 923f 5f11 a23f 6aa0 a83f
000003e0: 3d40 903f 386f 863f 8121 a53f

bias f4 [251]
1.4840592 1.7070842 1.735533 1.7888352 1.7055774 1.5316366 1.9125473 1.8513238
2.1940033 1.6111406 1.8627268 1.7984184 2.0082545 1.85045 1.6844119 2.1690314
1.7929415 2.3046913 1.8154678 1.7202295 1.7407744 1.6255567 1.5396655 1.6402899
1.7663748 1.8281765 1.5251431 1.6687012 1.8832182 1.8643479 1.5657681 1.7591257
1.7950277 1.9237351 1.6834558 1.7699758 1.8694417 1.7090129 1.9061664 1.6709443
2.0092947 1.7539473 1.6653477 1.7261194 1.7405369 1.8312358 2.1467178 1.7094857
1.7343572 2.2037666 2.06636 1.6957365 1.7288115 1.8403438 2.1008573 1.6959314
2.0726192 1.9635903 1.7779027 1.7809737 1.624721 1.6705376 1.7116412 1.9643735
1.896998 1.8157341 1.6869586 1.7607585 1.7350831 1.6503483 1.7871733 1.6376134
1.9247329 1.5942852 1.6102463 1.9202302 1.8958625 1.8209059 2.2281044 2.0273535
1.7789111 1.6909811 1.6994351 1.7081804 1.4737674 2.2000165 1.6244655 1.8455541
1.6415455 1.8324682 2.0736809 1.8055714 1.6702042 2.1030433 2.1149526 1.656289
2.3349745 2.2770834 1.7069057 2.0619526 1.7652489 1.7125062 1.9476793 2.0510783
1.7778941 1.760375 1.6150943 1.5445943 2.0377245 1.731476 1.7072693 1.9977453
1.6682464 1.7463642 1.7033573 1.8932599 1.9472913 1.8715054 1.5965697 1.7923383
1.9036143 2.2100198 1.5722 1.9249119 1.5888128 1.6921533 2.063651 1.6865387
1.8821143 1.8419862 1.9169858 1.7867532 1.605419 1.8038464 1.898092 1.5864247
1.902392 1.7432342 1.6324149 1.6356418 2.0178993 1.8216704 1.9210669 1.7804557
1.4879999 2.0342493 1.6857986 1.7944689 1.6787246 1.7678255 2.0625544 1.8095418
1.8795493 1.7544818 1.7339784 1.7947981 1.5751743 1.6085963 1.6615758 1.7452031
1.6291606 1.868789 1.7052393 1.5712492 1.667171 1.7664264 1.6570966 1.9347197
1.8682597 1.6063161 1.5540717 1.7161175 1.6943256 1.8357036 1.9049278 1.7423015
1.7930084 1.5661714 1.853215 1.7106891 2.2165446 1.5431763 2.2623706 1.6046023
1.8421017 1.5918132 1.7489578 1.5771296 1.8264717 1.8993115 1.6524312 1.7680666
1.8685504 1.6326451 1.7765301 1.7887667 2.0346422 1.8330439 1.6859875 1.7483553
1.6755917 1.6887276 1.6804007 2.033241 1.8179197 1.7448227 1.6934737 1.8205851
1.7712631 1.6353215 1.8423364 1.7840395 1.7139126 1.8080229 1.935442 1.6853563
1.7907727 1.847156 1.619045 1.7554382 1.7467946 1.796392 1.5742924 1.6633567
1.6665914 1.6502146 1.5352025 1.5941842 1.8900791 1.639001 1.7504824 1.7976391
1.7043213 1.7301255 1.8604126 1.8387767 1.7589638 1.7519886 1.5907843 1.8752033
1.9742035 1.9393651 1.5815749 1.9374744 1.7299969 1.7844199 1.5839106 1.7117448
1.6538186 1.7658355 1.8759757
00000000: a7f5 bd3f bc81 da3f f225 de3f 8df8 e43f
00000010: 5c50 da3f ab0c c43f 5ace f43f 2ef8 ec3f
00000020: 8d6a 0c40 db39 ce3f d56d ee3f 9332 e63f
00000030: 3e87 0040 8cdb ec3f cf9a d73f 69d1 0a40
00000040: 1b7f e53f 1080 1340 4061 e83f 7b30 dc3f
00000050: b2d1 de3f 3e12 d03f c213 c53f 05f5 d13f
00000060: 9218 e23f b001 ea3f e437 c33f 0098 d53f
00000070: 4b0d f13f f4a2 ee3f 176b c83f 082b e13f
00000080: 78c3 e53f f43c f63f 7b7b d73f 918e e23f
00000090: de49 ef3f efc0 da3f 43fd f33f 81e1 d53f
000000a0: 4998 0040 5881 e03f 1d2a d53f 7bf1 dc3f
000000b0: eac9 de3f ef65 ea3f d363 0940 6dd0 da3f
000000c0: 6bff dd3f 830a 0d40 3e3f 0440 e50d d93f
000000d0: b249 dd3f 6390 eb3f 7274 0640 4814 d93f
000000e0: cba5 0440 ed56 fb3f 5192 e33f f2f6 e33f
000000f0: dcf6 cf3f 2dd4 d53f 0f17 db3f 9770 fb3f
00000100: d5d0 f23f fa69 e83f 42ee d73f 8960 e13f
00000110: 3417 de3f 9d3e d33f 18c2 e43f 519d d13f
00000120: a65d f63f 8a11 cc3f 8d1c ce3f 1aca f53f
00000130: 9fab f23f 7213 e93f 4399 0e40 29c0 0140
00000140: 5cb3 e33f 1272 d83f 1787 d93f a8a5 da3f
00000150: 69a4 bc3f 12cd 0c40 7cee cf3f 1e3b ec3f
00000160: 2a1e d23f 518e ea3f 30b7 0440 f71c e73f
00000170: 40c9 d53f 4398 0640 625b 0740 4701 d43f
00000180: 3970 1540 bcbb 1140 e37b da3f 08f7 0340
00000190: adf3 e13f 6733 db3f 8e4d f93f de44 0340
000001a0: 0992 e33f f853 e13f 69bb ce3f 44b5 c53f
000001b0: 146a 0240 01a1 dd3f cd87 da3f 1eb6 ff3f
000001c0: 1989 d53f dd88 df3f 9d07 da3f 5756 f23f
000001d0: d740 f93f 7d8d ef3f 655c cc3f 576b e53f
000001e0: a2a9 f33f f770 0d40 d93d c93f 8363 f63f
000001f0: 385e cb3f 7b98 d83f dc12 0440 80e0 d73f
00000200: 1fe9 f03f 34c6 eb3f ca5f f53f 54b4 e43f
00000210: 5f7e cd3f 70e4 e63f aef4 f23f f70f cb3f
00000220: 9581 f33f 4c22 df3f f9f2 d03f b65c d13f
00000230: 4325 0140 7f2c e93f 85e5 f53f f9e5 e33f
00000240: c876 be3f 2431 0240 40c8 d73f 28b1 e53f
00000250: 73e0 d63f 1b48 e23f e400 0440 119f e73f
00000260: 1295 f03f dc92 e03f 01f3 dd3f f2bb e53f
00000270: 509f c93f 7ce6 cd3f 84ae d43f d162 df3f
00000280: 5688 d03f 7a34 ef3f 4845 da3f b21e c93f
00000290: dc65 d53f 431a e23f be1b d43f e5a4 f73f
000002a0: 2223 ef3f c49b cd3f d2eb c63f bda9 db3f
000002b0: a9df d83f 56f8 ea3f add4 f33f bc03 df3f
000002c0: 4d81 e53f 4e78 c83f 2636 ed3f dcf7 da3f
000002d0: dedb 0d40 cd86 c53f aeca 1040 9c63 cd3f
000002e0: fdc9 eb3f 89c0 cb3f d9dd df3f 62df c93f
000002f0: d3c9 e93f a41c f33f de82 d33f 0250 e23f
00000300: a92c ef3f 84fa d03f 5765 e33f 4ff6 e43f
00000310: 9437 0240 2fa1 ea3f 70ce d73f 1bca df3f
00000320: ca79 d63f 3a28 d83f 5f17 d73f 9f20 0240
00000330: 98b1 e83f 5a56 df3f bfc3 d83f ef08 e93f
00000340: c0b8 e23f 3752 d13f aed1 eb3f 685b e43f
00000350: 7d61 db3f 4b6d e73f 90bc f73f c1b9 d73f
00000360: 0a38 e53f 9c6f ec3f de3c cf3f 33b2 e03f
00000370: f796 df3f 2cf0 e53f 6a82 c93f dfe8 d43f
00000380: de52 d53f 3b3a d33f 8481 c43f 3a0e cc3f
00000390: 1dee f13f c9ca d13f cf0f e03f 0a19 e63f
000003a0: 3327 da3f c174 dd3f 0022 ee3f 095d eb3f
000003b0: ba25 e13f 2a41 e03f d29e cb3f a906 f03f
000003c0: b3b2 fc3f 1e3d f83f 0c71 ca3f 29ff f73f
000003d0: 8a70 dd3f df67 e43f 95bd ca3f 741a db3f
000003e0: 54b0 d33f e606 e23f f91f f03f

running_mean f4 [251]
2.4838202 1.2220168 -0.01600883 1.1212205 -0.5505965 2.0263834 0.3004009 2.2702823
0.79493606 1.1436019 1.9052676 1.7482909 0.4947094 0.70171785 -0.15331413 -2.1307564
0.14390439 0.7611407 -0.49474335 0.49856126 0.35965666 1.733702 0.33512738 0.38946366
1.7600222 2.5128808 0.9146181 -0.84337753 1.790818 1.3595943 -0.63710946 0.045201525
0.18261549 1.2977892 2.4048095 3.9812813 1.2462133 1.5464649 -0.44718874 0.017720673
1.4501005 1.07465 0.5663513 -0.42754441 0.58848155 0.1919686 -0.028602457 -0.7025937
1.0004876 -1.2094451 0.5075228 -0.011765114 -1.9058466 -0.5919132 1.2970481 -1.0054145
0.12979783 -1.5054703 1.1365483 1.210134 -0.55604064 0.70886004 1.3900406 0.18535493
1.7451344 0.8115302 0.33275372 -0.5429589 -0.56269276 0.120990574 0.32771462 0.60760367
0.778529 1.4287905 -0.3351639 1.3691204 1.1923397 -0.13432886 1.2169646 0.78669024
1.0223758 1.560689 0.7779785 2.0643125 0.47101972 -0.48077896 0.08667805 1.7296324
-0.71638036 -1.354377 -0.18097982 -0.3468276 2.253399 0.52401686 0.66557914 2.1024122
2.9573903 0.1476861 0.52641225 -0.014994409 -0.9075533 2.5141158 0.5161033 -2.4365485
0.66642016 1.0855324 0.3219664 1.2141557 -0.20479274 1.0665574 -0.35092792 0.9822111
2.2083688 0.49062833 0.04830029 1.8537785 0.5050276 1.1275247 1.0211024 2.0713108
-1.0313289 -0.42917803 1.3431249 2.6655211 -0.14715761 0.58617926 -1.3030975 0.94534904
1.0725116 1.4085437 -0.29682034 0.947171 2.0037541 0.042581506 0.87837905 -1.6694133
-0.14023018 1.3291377 0.28868517 3.1150658 1.8979129 0.17446515 1.4727371 2.0824716
0.38616034 1.2590121 0.8206502 0.026417859 1.2001714 -1.2211022 1.03091 0.03593672
2.3296359 -0.6310202 0.6395641 1.3030518 -0.2651235 -0.1227967 1.6529101 0.7283302
2.965613 1.7913734 2.6052017 0.40496558 1.9767642 0.59201664 0.6426275 1.082518
-0.28475252 -0.034165524 1.5748268 0.07001905 1.5947065 1.2906282 -0.51681733 -0.018620156
3.9517488 0.19079715 1.602364 1.4487959 1.549574 0.1346445 0.98143524 -0.39277422
1.7527506 1.1605248 1.9806314 0.5604815 1.1873763 1.1072729 2.1477997 1.4935422
1.3139213 1.0419022 -1.139085 1.302175 0.24678372 0.51157254 1.421749 1.4189589
0.22201556 -0.60835177 -0.006639541 2.1211615 2.1104238 3.4918334 0.1283227 0.29013768
1.1550895 1.3302757 1.3945134 1.286836 -0.5480921 0.2448426 -0.12523413 2.0979133
-0.49479848 0.74852 0.7361282 1.3606881 1.5904824 1.4490862 2.3293476 1.1225908
1.2287613 1.5599458 0.18535905 0.043514177 1.7152399 0.72070396 0.70387304 1.2199237
0.43524623 1.9080293 1.9935607 0.51849556 0.94712293 1.161467 0.08163411 -0.79172856
1.4672829 0.6060798 0.55262476 -0.671113 -0.097649254 2.1759968 -0.08923122 0.7359254
1.6075935 1.0960034 2.214335
00000000: e9f6 1e40 0c6b 9c3f f324 83bc 2784 8f3f
00000010: e4f3 0cbf 44b0 0140 26ce 993e 4e4c 1140
00000020: ee80 4b3f 8c61 923f cfdf f33f ffc7 df3f
00000030: 8d4a fd3e c8a3 333f 61fe 1cbe 505e 08c0
00000040: ac5b 133e 1eda 423f 004f fdbe 6c43 ff3e
00000050: eb24 b83e f2e9 dd3f d195 ab3e c867 c73e
00000060: 6848 e13f 0ad3 2040 6924 6a3f 97e7 57bf
00000070: 8639 e53f 3007 ae3f 9b19 23bf 3c25 393d
00000080: 8eff 3a3e f51d a63f 66e8 1940 50cd 7e40
00000090: eb83 9f3f 90f2 c53f ecf5 e4be f22a 913c
000000a0: e59c b93f 228e 893f 66fc 103f 1ae7 dabe
000000b0: baa6 163f 6b93 443e b34f eabc 2edd 33bf
000000c0: fa0f 803f 19cf 9abf 04ed 013f 77c2 40bc
000000d0: c8f2 f3bf a087 17bf ac05 a63f 6cb1 80bf
000000e0: b9e9 043e 40b3 c0bf 6a7a 913f ace5 9a3f
000000f0: ae58 0ebf da77 353f daec b13f afcd 3d3e
00000100: 9060 df3f 71c0 4f3f b25e aa3e 5bff 0abf
00000110: a20c 10bf e8c9 f73d 36ca a73e ea8b 1b3f
00000120: ad4d 473f 9be2 b63f 9a9a abbe 563f af3f
00000130: 969e 983f 818d 09be 7fc5 9b3f 8864 493f
00000140: 36dd 823f a8c4 c73f 9929 473f b21d 0440
00000150: 7f29 f13e a928 f6be 4384 b13d 9864 dd3f
00000160: b464 37bf 3a5c adbf c652 39be 6393 b1be
00000170: b037 1040 f825 063f 6563 2a3f ec8d 0640
00000180: e245 3d40 063b 173e f4c2 063f 1cab 75bc
00000190: 6a55 68bf 46e7 2040 591f 043f 69f0 1bc0
000001a0: 839a 2a3f baf2 8a3f c8d8 a43e 7469 9b3f
000001b0: 30b5 51be f484 883f d3ac b3be 3072 7b3f
000001c0: ea55 0d40 a333 fb3e 86d6 453d 9d48 ed3f
000001d0: 7d49 013f bb52 903f 7cb3 823f 5b90 0440
000001e0: 9602 84bf 39bd dbbe 84eb ab3f e697 2a40
000001f0: 7cb0 16be d80f 163f e6cb a6bf 6502 723f
00000200: 0f48 893f 294b b43f d6f8 97be cc79 723f
00000210: 823d 0040 f269 2e3d 73dd 603f 56af d5bf
00000220: 8098 0fbe 2f21 aa3f 8bce 933e 3d5d 4740
00000230: cfee f23f fea6 323e a682 bc3f 3747 0540
00000240: cfb6 c53e 4f27 a13f 2216 523f 446a d83c
00000250: 379f 993f 144d 9cbf dcf4 833f 6232 133d
00000260: c118 1540 8a8a 21bf 79ba 233f 67ca a63f
00000270: 44be 87be d67c fbbd 8f92 d33f d973 3a3f
00000280: 9acc 3d40 b94b e53f a0bb 2640 a657 cf3e
00000290: 9c06 fd3f 678e 173f 3c83 243f f38f 8a3f
000002a0: 15cb 91be 26f1 0bbd ed93 c93f 2666 8f3d
000002b0: 581f cc3f 4e33 a53f 244e 04bf 4c89 98bc
000002c0: 74e9 7c40 5460 433e 431a cd3f 2572 b93f
000002d0: 7158 c63f 3fe0 093e 573f 7b3f b419 c9be
000002e0: 225a e03f 148c 943f 5485 fd3f b77b 0f3f
000002f0: f2fb 973f 1ebb 8d3f 8d75 0940 642c bf3f
00000300: 932e a83f 0d5d 853f 8acd 91bf acad a63f
00000310: dfb4 7c3e 6bf6 023f dffb b53f 72a0 b53f
00000320: 0c58 633e f1bc 1bbf 8290 d9bb 1cc1 0740
00000330: 2f11 0740 337a 5f40 0767 033e ed8c 943e
00000340: f9d9 933f 7946 aa3f 6a7f b23f 0bb7 a43f
00000350: c44f 0cbf 05b8 7a3e 603d 00be 3644 0640
00000360: 3a56 fdbe 029f 3f3f e672 3c3f 072b ae3f
00000370: ed94 cb3f a87b b93f 0814 1540 0eb1 8f3f
00000380: 0d48 9d3f 4eac c73f c3ce 3d3e ec3b 323d
00000390: fb8c db3f 0e80 383f 0631 343f 7626 9c3f
000003a0: 98d8 de3e 4e3a f43f ff2c ff3f 20bc 043f
000003b0: a676 723f f3aa 943f c92f a73d b9ae 4abf
000003c0: edcf bb3f 0c28 1b3f d178 0d3f 10ce 2bbf
000003d0: 55fc c7bd 8843 0b40 dcbe b6bd 9b65 3c3f
000003e0: a0c5 cd3f d749 8c3f aab7 0d40
