EXP11-sample_dump/bottleneck_model.pth (torch, 77664 bytes, 19 tensors)

weight f4 [30, 251]
000000 80 ad f7 3c 96 e0 38 3e 14 6a aa be 44 a6 85 bd
       0.030234098 0.18054423 -0.33284056 -0.06525853
000010 77 1a c9 3c f3 31 ae 3e ca 3d 83 3e 5e 6b 6a be
       0.024548752 0.34022483 0.2563308 -0.2289252
000020 17 0b ac 3e 9c a1 06 3e 6f 45 16 3e d7 00 33 be
       0.3360221 0.13147587 0.14674924 -0.17480789
000030 1e 04 0d bf b7 9c ff bd 9f 79 58 be ff 33 be bd
       -0.5508441 -0.12481063 -0.21140145 -0.09287261
000040 70 8e 12 3b a2 36 ff 3d 39 ed 56 be f3 0e 13 bd
       0.0022362731 0.12461592 -0.20988931 -0.03590293
000050 0c af 90 bd 3c 7b ed 3e be 8f 92 3e 56 75 2e 3c
       -0.070646375 0.46383083 0.28625292 0.010648092
000060 44 ea 9b 3d 45 89 09 3e 52 cc e6 3d bc 34 18 3e
       0.07613042 0.1343127 0.1126944 0.14863867
000070 7b 73 2e 3e c1 09 a3 3c 38 75 8b 3e d9 89 c3 bd
       0.1703624 0.019902112 0.27237868 -0.09547777
000080 62 2e 98 bd 5c c0 8a bd 3e 44 e6 bc ff ab 15 3d
       -0.07430722 -0.06774971 -0.028108712 0.03654098
000090 67 96 2a 3e 0b 05 8c be 0c 6d 0f 3e 5b 5a 1d be
       0.16658936 -0.27347597 0.14006442 -0.15366499
0000a0 15 88 4a 3d a9 b7 b4 3e b1 0c 3d 3e f3 0c 90 3e
       0.049446184 0.35296372 0.18461873 0.2813488
0000b0 ed f6 70 3e 42 95 05 3e 89 85 1f bd 66 20 77 bd
       0.23531695 0.13045219 -0.03894571 -0.060333632
0000c0 ce 3e 9e be 5f c9 d1 bc 54 a4 6b be 48 40 02 be
       -0.3090729 -0.025608717 -0.23011905 -0.12719834
0000d0 e8 21 92 be f4 14 57 3e 18 a8 8a 3d 7c af 82 3e
       -0.28541493 0.21004087 0.067703426 0.2552451
0000e0 f8 7d 3e 3d 93 e9 f0 3d 88 ee a0 3d a7 17 e9 bd
       0.046506852 0.11763301 0.07857996 -0.113814645
0000f0 d0 2d ca 3d 17 20 17 3e da 7a 4c bc a6 73 01 be
       0.09872019 0.14758335 -0.012480462 -0.12641773
000100 9c 27 83 be 0a 1e a7 3e fb fe bc bd 03 51 52 3e
       -0.25616157 0.32640105 -0.09228321 0.20538716
000110 9b 85 00 3e fb 95 eb 3d 56 46 82 bd 4b 85 8a bc
       0.12550966 0.11503216 -0.06361072 -0.016909262
000120 d7 4c 86 be ff 06 59 3e 30 46 2b 3e 98 9e de bd
       -0.262305 0.21194075 0.16725993 -0.10870093
000130 86 8f 1d be 8c c3 ab bd 26 dc 8f be d7 8b 0a 3e
       -0.15386781 -0.08386907 -0.28097647 0.13529907
000140 55 62 da 3b 0b c0 b2 3c 72 d3 44 bd 74 f9 d1 3d
       0.006664554 0.021820089 -0.048053212 0.102526575
000150 a9 ac 25 be 6e a3 04 3e e4 b1 95 3d 28 fe 2e 3c
       -0.16179146 0.12952968 0.073093206 0.010680713
000160 02 9a 25 be 7a 09 7d 3d c0 09 49 3e 1e 3d 99 be
       -0.1617203 0.061776616 0.19632626 -0.2992944
000170 35 d0 8d 3e e3 6a 9e 3d 95 a8 fe 3d df a1 66 be
       0.27697912 0.07735231 0.12434498 -0.22522686
000180 5a 7b 02 be 94 09 05 3d 54 2f 29 3b f1 df 6e be
       -0.12742367 0.032479838 0.0025815563 -0.23327614
000190 a2 55 88 3e 77 b9 22 be 5a 8d 26 bd 40 47 c8 3d
       0.26627833 -0.15891062 -0.040662147 0.09779215
0001a0 9f c7 22 be 92 f2 1f be 6c 7c a7 3d 3b e9 93 3e
       -0.15896462 -0.15619877 0.081780285 0.28888878
0001b0 87 1d ef bd ad 0c b0 3d 97 f9 e0 3d 93 a2 2b bd
       -0.11675554 0.08596168 0.109851055 -0.04190309
0001c0 05 de c6 bd 07 4a 3c be f0 95 1c be 3c 8e 7a 3e
       -0.097103156 -0.18387614 -0.15291572 0.2446832
0001d0 b7 e4 f2 3d 78 19 7a be 8e 15 62 3b 0a f0 c4 ba
       0.1186003 -0.24423778 0.003449771 -0.001502515
0001e0 94 d9 cd 3d c5 12 31 3e b4 d1 52 be 0c 07 36 3e
       0.10051265 0.17292316 -0.20587808 0.17776126
0001f0 df d4 c3 be 8c f0 0b be dd 92 14 bd 2b d4 dc bd
       -0.38248345 -0.1366598 -0.036272872 -0.10782655
000200 a3 4a d9 3d b2 14 68 3d 73 90 5c 3d a8 3e d8 3d
       0.10609939 0.05666036 0.053848695 0.10558826
000210 6c f1 68 3e 92 43 80 be 82 85 1b be ac 26 c2 3d
       0.22748345 -0.25051552 -0.15187648 0.09480032
000220 1d aa 2a 3e 59 57 e9 bd fa 29 71 3e 4d a0 48 3e
       0.16666456 -0.11393613 0.23551169 0.195924
000230 96 3f 2f be 6c 7f 99 bb c2 b1 fa 3c 18 f6 19 3e
       -0.171141 -0.0046843793 0.03060234 0.15035284
000240 e2 55 ac 3e b3 fb 56 be da 6c e6 3b 86 4a 88 3e
       0.33659273 -0.20994453 0.007032019 0.26619357
000250 1a eb 9d bd 07 2c 78 3d 21 cd 10 3e 34 ab 96 3d
       -0.07710858 0.060588863 0.1414075 0.07356873
000260 c5 0a 37 be bb be f3 3d f6 6a 9c bc b2 d5 67 3e
       -0.17875202 0.11901613 -0.019093972 0.22640112
000270 35 34 45 be a7 6c d4 3d e6 43 bd be b6 15 22 3e
       -0.19258197 0.10372286 -0.36965865 0.15828595
000280 ec 1a 9b 3c 0e 82 67 be 27 18 7b 3d 6f 7c 21 3e
       0.018933736 -0.22608206 0.06130233 0.15770124
000290 0c a1 f4 3b 25 c3 4b 3e 93 bf 07 be 3b 70 ea 3c
       0.0074654873 0.1989866 -0.13256674 0.028617969
0002a0 20 97 4f 3d 54 6f eb 3e 23 23 f8 3d f1 38 ff bd
       0.050681233 0.45983374 0.12116077 -0.124620326
0002b0 24 96 cd be 59 53 66 be d0 79 09 be 3b 2b b0 bd
       -0.4015361 -0.22492732 -0.13425374 -0.086019956
0002c0 0b a3 85 bc cc ce d4 be 59 ca 8e 3e 44 72 17 be
       -0.016313097 -0.41564023 0.27888754 -0.14789683
0002d0 a0 bb cf be cd c4 fb bd 42 36 eb be 97 21 07 be
       -0.40572834 -0.12293396 -0.45939833 -0.13196407
0002e0 09 34 de 3d fa 98 29 3e ed 26 c5 3c c0 d7 4b be
       0.10849769 0.16562262 0.024066413 -0.19906521
0002f0 77 f9 1e be e7 3b 2f bd d3 88 fb 3c 63 d0 51 39
       -0.15524851 -0.042781737 0.030704891 0.00020009423
000300 e9 9a 65 3e e0 94 27 3e 29 7a 0a 3b 60 7c a7 3d
       0.22422375 0.16365385 0.0021129942 0.081780195
000310 cc f1 d4 3d be 0b 26 3e 40 ca 49 3e 02 d1 81 3d
       0.103976816 0.16215417 0.19706059 0.06338693
000320 74 b5 e1 bd e5 6c d5 bd 97 74 fa 3d e7 39 86 be
       -0.110209376 -0.104211606 0.12229269 -0.2621605
000330 a2 31 80 3e c6 a7 ce 3d 66 3b f5 3d 94 65 4e 3d
       0.25037867 0.10090594 0.1197422 0.05038984
000340 f5 97 74 bd 22 dd 10 be af 12 8d bc 6e 5e 1d 3e
       -0.05971523 -0.14146855 -0.017220823 0.15368053
000350 45 1a 8a 3c 53 e5 83 bd 20 e7 b4 bd 1b ff 1c 3e
       0.01685823 -0.064402245 -0.08833146 0.1533169
000360 1d 6a 05 3d fc 02 84 3e 9c 1a e0 bd 3f 38 ca 3d
       0.0325719 0.25783527 -0.10942575 0.09874009
000370 94 78 96 bd a9 c3 d6 bd 8a 6d 79 3e 0f 58 91 3e
       -0.07347217 -0.10486538 0.24358192 0.28387496
000380 7b df de 3e 62 24 fb bd ec 50 34 bd 5d 75 b8 3d
       0.43529877 -0.12262799 -0.044022486 0.0900676
000390 b8 16 4f 3e 4a c2 86 3d 5b fe d5 bd d4 04 b6 be
       0.2022351 0.065800264 -0.10448905 -0.3555056
0003a0 e6 f4 1b be 72 51 c9 bd 30 e5 ce bc f4 9b 24 3d
       -0.1523014 -0.098299876 -0.02525577 0.04018779
0003b0 61 d1 5c be a5 6b 36 bc 7c 11 fb bc 01 a0 0a bd
       -0.21564247 -0.011134063 -0.030647986 -0.033843998
0003c0 70 12 a1 3e 11 95 c5 bb 62 2c 22 be ac 12 bb 3e
       0.3145938 -0.006029733 -0.15837243 0.36537683
0003d0 e1 27 50 3e f7 b7 a0 bd 00 3f 25 3e 3d 6a e2 bc
       0.20327713 -0.078475885 0.16137314 -0.027638549
0003e0 ef 85 1a be 71 23 a8 3d 7e d0 66 3d f4 d7 77 bc
       -0.15090154 0.08209885 0.056351177 -0.015127171
0003f0 99 b3 e2 3c 25 f5 64 3e 52 83 7b be 67 13 40 be
       0.02767353 0.2235914 -0.24561813 -0.18757401

bias f4 [30]
000000 5f c8 53 bd c4 8b 4b bd 87 d1 fb bc 63 98 36 3d
       -0.05170476 -0.049693838 -0.030739559 0.04457892
000010 b6 85 fb bc 23 9a 6a bd 76 70 3a 3c cd 87 68 bd
       -0.030703407 -0.057275902 0.011379352 -0.056770135
000020 a2 ca a8 bc 11 4e ae 3c 04 78 a9 3b 7a 02 e7 3b
       -0.020604435 0.02127746 0.0051717777 0.007049856
000030 b5 f6 31 3d b8 ad 37 bd 4a 41 83 3d 2a 81 ad 3c
       0.04344817 -0.044843405 0.06408937 0.021179754
000040 5e aa 21 3d 75 70 f5 bc a9 80 57 bd 63 a5 4b bd
       0.039469115 -0.02996085 -0.052612934 -0.049718272
000050 9f 5b 67 3d f3 c7 08 3d 0e 02 cc 3c 6b b9 1c 3c
       0.05648386 0.03339381 0.024903324 0.009565691
000060 25 dd 6d 3d cf b4 fc bc 3a 30 72 bd ed 45 31 3d
       0.058072228 -0.030847935 -0.059128024 0.043279577
000070 11 90 88 3c bd 87 6a bd
       0.016670259 -0.057258356

weight f4 [30]
000000 f8 3d 7f 3f 75 94 61 3f 71 6c 82 3f ec a2 82 3f
       0.9970393 0.8811715 1.0189344 1.020597
000010 76 5c 81 3f a6 20 8b 3f ee 85 71 3f d1 db 84 3f
       1.0106342 1.0869339 0.94344985 1.0379583
000020 25 d2 81 3f 33 1e 93 3f eb 5f 6f 3f cf 67 85 3f
       1.0142256 1.1493591 0.93505734 1.0422305
000030 90 19 80 3f 81 55 7b 3f 5f 46 76 3f d0 37 8d 3f
       1.0007801 0.98177344 0.9620113 1.1032658
000040 d6 d5 69 3f 8a 86 6a 3f 6c 9b 74 3f fc 5f 87 3f
       0.9134191 0.9161154 0.95549655 1.0576167
000050 f9 7a 87 3f ef 05 5c 3f 02 0e 66 3f 90 a3 5c 3f
       1.0584403 0.85946554 0.89865124 0.86187077
000060 e1 0d 80 3f ce b0 85 3f da 91 89 3f 67 a1 81 3f
       1.0004236 1.0444582 1.0747635 1.0127381
000070 1f 31 8c 3f 6e da 91 3f
       1.095249 1.1394784

bias f4 [30]
000000 e7 91 42 be c4 23 a9 be 18 cb 82 be 69 35 94 be
       -0.1900097 -0.330351 -0.25545573 -0.28947
000010 92 00 28 3d ea bc 9e be 25 6c 2b 3d 91 b8 1b be
       0.04101617 -0.31003505 0.04185118 -0.15207125
000020 22 00 f1 be 00 d8 86 be be 72 14 be 90 0c 37 3e
       -0.47070414 -0.2633667 -0.14496896 0.17875886
000030 fb 32 6e be d9 94 b3 3c fd 7d 4b be ed cc ee be
       -0.23261635 0.021921562 -0.1987228 -0.4664072
000040 72 27 5f 3e 33 43 cf bc bb 46 0b be 82 d6 42 be
       0.21792391 -0.025300598 -0.136012 -0.1902714
000050 23 f7 8d bd eb 1c 25 3e 9b 08 6f 3e 0e ff f3 3d
       -0.06931903 0.16124313 0.23343126 0.11913882
000060 65 4e 21 be f2 f0 24 bc 54 a5 ec bd bd 95 af be
       -0.15752561 -0.010067211 -0.11554971 -0.3429393
000070 d9 3d 22 be d9 25 bb bd
       -0.15843906 -0.09138078

running_mean f4 [30]
000000 cf 93 a3 3f 07 29 61 3f f0 9c df 3f c6 06 fd 3f
       1.2779483 0.8795323 1.7469769 1.9767692
000010 6f 86 96 3f 2d 19 cb 3f 55 43 a2 3f b5 3e d9 3f
       1.1759776 1.5867058 1.2676798 1.6972262
000020 d7 70 c3 3f b8 bf 23 c0 45 4e d8 3e e0 55 c1 3f
       1.5268811 -2.5585766 0.42247215 1.5104332
000030 72 36 d7 3f 63 49 e1 3f f5 8a 03 40 78 9e 57 c0
       1.681349 1.7600521 2.0553563 -3.3690472
000040 68 2a 6b 3f 22 33 9b 3f c4 f8 c3 3f c8 f3 d6 3f
       0.9186158 1.212498 1.5310292 1.6793146
000050 19 59 d2 3f f4 5d d8 3e 36 3c 6d bf 8e f3 26 3f
       1.643344 0.4225918 -0.9267 0.65215385
000060 db c9 f6 3f 2e 6b e9 bf 54 73 bf 3f d7 59 aa 3f
       1.9280351 -1.8235834 1.495707 1.3308667
000070 b6 91 03 40 1b 57 bc 3f
       2.0557685 1.4714082

running_var f4 [30]
000000 f5 8c f8 3f 00 8a c4 3f 02 da 18 40 61 22 22 40
       1.9418017 1.5354614 2.3883061 2.5333483
000010 eb 5f d4 3f aa 89 0c 40 66 74 e6 3f 01 a4 12 40
       1.6591772 2.1959023 1.8004272 2.29126
000020 42 3c 04 40 2f 31 5f 40 76 be aa 3f be b7 09 40
       2.0661778 3.487377 1.3339374 2.1518397
000030 80 67 0c 40 50 1a 1a 40 15 ac 23 40 38 41 a3 40
       2.1938171 2.407856 2.557378 5.1017113
000040 de 50 cc 3f 6f dc eb 3f b6 38 12 40 1b 18 11 40
       1.5962179 1.8426646 2.2847114 2.2670963
000050 ca 6c 06 40 b5 30 a8 3f a2 7b bc 3f 18 74 b9 3f
       2.10039 1.3139864 1.472523 1.4488554
000060 3a 39 1a 40 9c 2d 1c 40 1b 8f 0b 40 d0 42 f7 3f
       2.4097428 2.4402838 2.1806095 1.9317265
000070 54 f4 2b 40 18 89 0b 40
       2.6867876 2.1802425

weight f4 [30, 30]
000000 80 1e ba be 5f 67 07 3d 40 87 0b bd 9a 98 68 3d
       -0.36351395 0.033057567 -0.03406453 0.056786157
000010 49 06 3f 3e f1 27 a9 be f4 fe a2 3c 79 4d 92 3e
       0.18654741 -0.33038285 0.019896962 0.28574732
000020 e5 19 9b be e9 9c 2e bd 3f a1 b4 be 4b 05 6b 3d
       -0.30293193 -0.04263011 -0.3527927 0.057378095
000030 0d 0a e2 bd e5 b0 3e be 53 60 22 bd 8c 57 a7 bd
       -0.11037073 -0.18622167 -0.039642643 -0.08170995
000040 9b d6 e7 bc 1f fb 13 bd 35 fa f8 3d 8b a7 9e bb
       -0.028300574 -0.03612816 0.12157098 -0.00484175
000050 ae 91 9e be 46 7c 41 3c 4a b6 2f be aa eb ae 3e
       -0.3097052 0.011809414 -0.17159382 0.34164172
000060 37 5a 37 3d a5 47 8a 3e 24 52 41 3e 10 53 4c 3d
       0.04476377 0.27007785 0.1887899 0.049883902
000070 c3 f5 d0 3e 6f 49 9e 3d ea a9 b3 3e 2c cb 65 3c
       0.408125 0.0772885 0.35090572 0.014025491
000080 13 f0 58 3d 02 74 05 be 15 e4 09 3e 6b 4f 87 be
       0.052963328 -0.13032535 0.13465913 -0.2642778
000090 e5 22 83 3e 40 97 40 be c6 ec f2 3d fa 20 8a 3d
       0.2561256 -0.18807697 0.11861567 0.06744571
0000a0 a3 85 9d 3d 6a 34 30 be 5e 39 48 bc b1 8a 23 3e
       0.07691505 -0.17207494 -0.012220709 0.15970875
0000b0 ed bf cb bb c1 53 66 bd 65 54 a2 3e 04 71 f1 3d
       -0.0062179477 -0.056232218 0.31705013 0.11789134
0000c0 36 ab cf 3d 99 6a 98 3d eb a0 6a be 26 f5 03 bf
       0.10140078 0.07442207 -0.22912948 -0.5154594
0000d0 3c 68 be 3d 63 02 3b 3d 8e c7 b1 be cd 2d 80 be
       0.09297225 0.045656573 -0.3472256 -0.25034943
0000e0 4b 1b 56 be 45 7e 43 bd 51 f4 28 be 9c 93 04 3d
       -0.20908849 -0.047727842 -0.1649945 0.032367334
0000f0 dd cb f3 3c da c2 99 be 9a 49 1d 3e 12 83 68 3e
       0.029760296 -0.30031472 0.15360108 0.2270625
000100 e4 00 9f 3d 0c 39 96 be cb 70 dd 3d 77 22 4e be
       0.07763842 -0.29340398 0.10812529 -0.20130335
000110 82 c3 e8 3b a0 e7 a0 3e b9 15 0d bd dc 29 10 bd
       0.0071033845 0.31426716 -0.034444544 -0.03519617
000120 e4 8b b2 3d 6d 8c 9d be 12 a5 8c 3e dc 1c 4b 3d
       0.08718088 -0.307712 0.2746969 0.04958807
000130 a7 db 16 3e e9 28 92 3e 88 d6 cc bd 09 8e 55 be
       0.14732228 0.28546837 -0.10001856 -0.20854963
000140 51 1c 8e 3e 9e d6 f1 3c d1 01 61 bd ea 5f 61 be
       0.2775598 0.029521283 -0.054933373 -0.22009245
000150 f5 93 9e bd 39 66 95 bd 07 80 b6 3e 7d af d1 bd
       -0.07743064 -0.07294888 0.35644552 -0.1023855
000160 cf 29 a3 be 6c fd 71 3e a1 78 5f bd 07 5f df 3e
       -0.31867835 0.23631829 -0.0545584 0.43627188
000170 4e 92 43 be 1f 0d b1 3e 68 3c 73 3e 3a 9e e8 bc
       -0.1909878 0.34580323 0.23753512 -0.02839576
000180 4f 39 02 bd 9f 67 2f be 38 d9 16 be b4 5d 8a 3e
       -0.031792935 -0.17129372 -0.147313 0.27024615
000190 8a e4 8a bd 7c da 7d 3d 81 7b 1d be 32 93 bc 3c
       -0.067818716 0.06197594 -0.15379144 0.023019407
0001a0 09 28 23 bc ec 00 5f be a0 da 9f be e3 5b 26 be
       -0.009958276 -0.21777695 -0.31221485 -0.1624599
0001b0 f9 d5 13 3e 2f aa c3 3d ba f2 2d be ad 90 51 be
       0.14437093 0.09553944 -0.16987124 -0.20465346
0001c0 30 46 03 bd 17 67 40 be 0f c3 0b 3e 8d 26 1e be
       -0.032049358 -0.18789326 0.13648628 -0.15444393
0001d0 34 72 f0 3e 97 a5 db bc 62 9b 8f bd 15 31 da bd
       0.4696213 -0.026812358 -0.07012059 -0.10653893
0001e0 fa 3a 58 be 66 57 1e 3d 1f a8 03 3e 0f 2f 07 bd
       -0.21116248 0.03865757 0.12857102 -0.033003863
0001f0 79 ec 62 3e f6 6d b0 3c 66 fb 83 3e df 6f 34 be
       0.2216052 0.021536808 0.2577774 -0.176208
000200 7e e9 39 3a 38 d3 40 3e 04 74 11 3e e3 91 10 3d
       0.0007091983 0.18830574 0.14204413 0.03529538
000210 4b 07 bb 3d f5 ae bd 3c 4a c6 ff be 9a b2 65 3d
       0.091322504 0.023154715 -0.4995597 0.05607853
000220 aa 16 13 be ce df 33 3e b5 10 d3 3d 1b ef 94 3e
       -0.14364114 0.17565843 0.10305921 0.29088673
000230 d9 e3 8c be 25 da 35 3e 49 39 3d 3e b5 8f 9b 3e
       -0.27517584 0.17758997 0.18478884 0.30383077
000240 a6 9c 7d be f7 71 a9 be 42 70 ac 3d ac 2b fd bd
       -0.24766788 -0.3309476 0.08419849 -0.123618454
000250 fd bd 55 be 44 86 9d 3e 7a 3c 87 3d 2c ac 34 3d
       -0.20873256 0.307665 0.06603332 0.04410951
000260 be 6d cb 3d bf 86 07 3e d2 86 ab be 5f a3 05 3d
       0.09933041 0.13234995 -0.33501297 0.032626506
000270 8f 46 36 3d 6e c2 86 bd e6 53 a5 bd a9 3c 3f 3e
       0.044500884 -0.06580053 -0.08072643 0.18675484
000280 85 ff 44 be 53 ad d6 3e 06 77 81 bd ff f2 b2 be
       -0.19238098 0.4192911 -0.0632153 -0.34951016
000290 64 5d bb 3e 12 07 31 bd 65 cf 05 3e 62 13 31 bd
       0.3659469 -0.043219633 0.13067396 -0.043231376
0002a0 f9 c2 f7 be c3 5d fe bb 62 36 4d bd f4 68 c8 bd
       -0.4839094 -0.007762642 -0.05010069 -0.09785643
0002b0 1b 74 f5 bd 15 bc dd 3d a3 bd 6a 3e 0f 6e 84 be
       -0.11985036 0.108268894 0.22923903 -0.25865218
0002c0 b9 35 58 3e b5 41 34 3e d3 03 72 be fe b3 dc bd
       0.21114244 0.1760319 -0.23634271 -0.10776518
0002d0 b9 8e 80 3c da 1d b4 bd 78 c4 06 3e c4 a5 cb bd
       0.015693055 -0.08794756 0.13160884 -0.09943727
0002e0 22 0f 40 bc 87 3e 7f be a5 d8 ea 3b 71 3b 79 3e
       -0.011722358 -0.24926196 0.0071669393 0.24339081
0002f0 d0 95 43 3e d4 f2 bd bd e5 da 2e 3e dd 53 9d bd
       0.19100118 -0.092748314 0.17075689 -0.07682011
000300 03 77 75 be da c4 ae 3e 87 4f 52 bc be ab 8a be
       -0.2397118 0.3413456 -0.012836344 -0.27084154
000310 e8 86 0a bd 09 80 d5 be fa 0f 08 3e 89 82 11 3e
       -0.033820063 -0.41699246 0.13287345 0.14209951
000320 4d 29 cd 3e b3 5e 87 bd 4a 87 54 be f5 a1 79 bd
       0.40070572 -0.06609859 -0.20754734 -0.06094547
000330 7e c3 32 be aa f8 e6 3b 89 10 c9 be 1b b2 b4 3c
       -0.17457387 0.007048686 -0.39270428 0.022057584
000340 34 58 d2 be d3 19 94 3e ae da 74 3d 99 c8 a8 be
       -0.4108292 0.28925952 0.05977886 -0.32965544
000350 46 28 88 be 05 f6 27 3e 7b 65 1f bf 16 dc 0a be
       -0.26593226 0.16402443 -0.6226422 -0.13560519
000360 d2 e8 c1 3d ab 98 15 3e 26 79 76 3e 71 8a 75 3c
       0.09468235 0.1460902 0.24069652 0.01498662
000370 56 3d 43 3d 88 06 70 3e 9c cd a7 3e 5f d8 05 be
       0.047665916 0.23439991 0.32774055 -0.1307082
000380 73 76 b0 3e 50 bc a8 3d b7 e9 68 be 9d 25 4a 3e
       0.3446537 0.08239043 -0.22745405 0.19740911
000390 28 6b e7 bd 1c 0f 67 3c 50 34 be bd 75 6b 76 3d
       -0.11299735 0.014102723 -0.092873216 0.060161073
0003a0 2a a7 e9 3d 63 c1 9e 3d 38 9d 86 bd ed 33 93 be
       0.11408837 0.07751729 -0.06572956 -0.28750554
0003b0 ad ae 3b be 11 12 a0 bd df 1c d5 3d 4c 8c 7f 3d
       -0.18328352 -0.07815946 0.10405897 0.062389657
0003c0 32 00 1c bd 60 a2 8a 3e ff b5 38 3e 49 3f bf bd
       -0.038086124 0.27077007 0.18038176 -0.093382426
0003d0 b2 37 06 bd 4c 85 e1 3d cb 06 c4 be e3 c8 d0 bd
       -0.03276796 0.110117525 -0.38286433 -0.10194566
0003e0 f4 e3 b0 bd 17 ce b6 3d 43 84 d9 3d 38 25 8b bc
       -0.086372286 0.08926027 0.1062093 -0.01698552
0003f0 5c d9 4f bc f6 ba 0f 3e df e7 3f be d0 3e 25 be
       -0.0126861 0.14036164 -0.18740796 -0.16137242

bias f4 [30]
000000 4e c7 bb bc 50 8c 3c bc 27 c7 d4 3c 37 3d 1e be
       -0.022922184 -0.0115080625 0.02597387 -0.15453039
000010 9e 3f 18 be 76 8a 92 3c 46 b9 aa bd 64 a7 e0 3d
       -0.14868018 0.017888289 -0.08336119 0.10969427
000020 ea f4 a9 3d 9b 58 38 be 57 92 80 bd b3 04 47 3d
       0.08298667 -0.1800255 -0.06277912 0.048588466
000030 ef 76 b0 3d b4 9f 32 bd 68 0d 78 bd 52 51 98 3c
       0.08616435 -0.043609336 -0.06055966 0.018593464
000040 dd 9c b7 3c af 6a f8 bd de 5f 09 be db d4 e8 3d
       0.022413665 -0.12129723 -0.13415477 0.11368724
000050 c3 1e c3 bd 1e da 5d 3d 2e d5 f0 3d 0f 93 e3 3c
       -0.09527352 0.05416309 0.11759411 0.027780084
000060 e4 75 b9 bd ca 6b 02 3e ec 5a f6 3d 41 09 9b bb
       -0.09055689 0.12736431 0.12029061 -0.0047313278
000070 77 67 21 3d 67 6c 16 be
       0.039405312 -0.1468979

weight f4 [30]
000000 2b cf 90 3f c4 9a 81 3f 7f 16 82 3f 30 ff 7a 3f
       1.1313223 1.0125356 1.0163115 0.98045635
000010 74 91 7f 3f 82 d4 85 3f ec ba 82 3f 9f 74 8c 3f
       0.9983132 1.0455477 1.0213294 1.097309
000020 31 42 87 3f 50 ed 7f 3f ea bc 85 3f ac 29 80 3f
       1.0567075 0.99971485 1.0448277 1.0012717
000030 42 71 8c 3f ea a2 5a 3f b2 f6 76 3f 62 d0 70 3f
       1.0972064 0.8540484 0.9647018 0.94067967
000040 bc 54 8b 3f 59 61 89 3f 69 59 87 3f 5e 0a 8f 3f
       1.0885234 1.0732833 1.0574161 1.1175039
000050 84 a5 7a 3f f4 71 73 3f 2d 4e 86 3f 77 76 7a 3f
       0.97908807 0.95095754 1.0492607 0.97837013
000060 f6 b7 72 3f 90 82 83 3f 58 2d 79 3f 33 f6 84 3f
       0.9481195 1.027422 0.97334814 1.0387634
000070 f4 03 8f 3f d2 57 83 3f
       1.1173081 1.0261176

bias f4 [30]
000000 cf a5 63 be f8 35 dc 3a 3a b7 1b be fc 92 3f 3e
       -0.2223122 0.0016800752 -0.15206614 0.18708414
000010 91 e5 92 bd 27 c7 00 be 82 d5 2c be cd 24 26 be
       -0.071726926 -0.1257597 -0.16878322 -0.16224976
000020 33 6a a8 bd df 75 3b 3c f6 58 b8 bd 5a b2 13 bd
       -0.08223381 0.011441677 -0.09001343 -0.03605876
000030 21 0d 56 3d 61 e5 74 3e 7d 9e 01 3e 38 7d 9f 3d
       0.052258614 0.23915626 0.12658115 0.077875555
000040 5a 50 44 bd 66 a7 e4 bd b3 ce 0b be ea 61 0f be
       -0.04792819 -0.11164741 -0.13653068 -0.14002195
000050 bf 31 8a 3d 8c 3e c1 3c c2 fd 4a 3c 45 77 0f be
       0.067477696 0.023589395 0.012389602 -0.14010341
000060 71 b4 9d 3d 0e fb b9 bc 9f 6b c2 bd be 2b 19 be
       0.07700432 -0.02270272 -0.09493183 -0.14958093
000070 dd fb 08 bb 35 f5 07 3d
       -0.0020902075 0.033192832

running_mean f4 [30]
000000 18 2e 7c 3d 64 7e 31 be d0 d1 22 3e bb fb aa be
       0.061567396 -0.1733337 0.1590035 -0.3339518
000010 5e 38 c1 3d 28 20 ba bd 5c 23 95 be 80 69 19 3c
       0.09434579 -0.090881646 -0.2912854 0.009363532
000020 d1 7f a8 bd 61 34 31 be 49 58 44 bf ef 71 9d 3e
       -0.08227504 -0.17305137 -0.7669721 0.30750987
000030 1d e9 55 bd 08 78 71 3e 6b 0a ca bd 3a 55 20 3f
       -0.052224267 0.23580945 -0.09865268 0.62630045
000040 f8 11 25 bf 16 aa 8f ba 21 5a 56 bd d7 4a 52 bc
       -0.64480543 -0.0010960724 -0.052332047 -0.012835226
000050 e5 f0 ea 3d b8 95 95 3e f9 62 c4 3e 39 83 b3 bc
       0.11471728 0.2921579 0.3835676 -0.021913158
000060 bd 11 6c bd 28 ae 63 3d b9 a3 c1 3e 17 21 30 be
       -0.057634104 0.05558601 0.37820223 -0.17200123
000070 36 de ca 3e 56 5f 2a 3d
       0.39622658 0.041594826

running_var f4 [30]
000000 ee f4 39 3e 39 27 5d 3e a7 84 84 3e dc a4 4c 3e
       0.1815984 0.21596994 0.25882456 0.19984764
000010 28 b6 51 3e 84 4e 2c 3e 52 a5 80 3e 08 95 60 3e
       0.20479643 0.16826826 0.2512613 0.21931851
000020 aa 92 5f 3e e2 3b 3a 3e ad 25 6a 3e 3d 44 2d 3e
       0.21833292 0.18186906 0.22865935 0.16920562
000030 f4 db ca 3e 0d 6f 8b 3e 54 26 55 3e 3b de 9e 3e
       0.39620936 0.27233163 0.20815402 0.31028923
000040 12 75 4c 3e 36 7c 2b 3e 44 9c 32 3e 3c ef 4c 3e
       0.19966534 0.16746601 0.17442423 0.20013136
000050 d1 f1 80 3e 4d fd 4f 3e 31 3f a1 3e 3e 71 7c 3e
       0.2518449 0.2031147 0.31493524 0.24652573
000060 6e 37 58 3e 2d 53 47 3e cc fe 63 3e cf 83 3d 3e
       0.21114895 0.19465323 0.22265166 0.18507312
000070 92 02 a2 3e 39 b1 4f 3e
       0.31642586 0.20282449

weight f4 [251, 30]
000000 8f f7 8c 3d c4 bc 0d 3e ba 7e 76 3e 4e 1e 52 3e
       0.068831556 0.1384154 0.2407178 0.20519373
000010 62 e9 1b be 18 48 dd 3d 3b e2 f2 bd a0 cb 23 3e
       -0.15225747 0.108047664 -0.11859556 0.15995646
000020 6c 45 d7 3d f7 ff 3b 3e 65 15 09 bf f9 73 90 be
       0.10511288 0.18359362 -0.5354827 -0.2821348
000030 4a cd 42 3e d1 c2 8a 3c 78 0b a3 3d 19 9a ae be
       0.19023624 0.016938599 0.07961172 -0.34101942
000040 c5 9f 09 be d8 82 a0 be 09 e4 26 bd 41 57 8a be
       -0.13439853 -0.31349826 -0.040744815 -0.27019694
000050 37 90 e6 bc 10 58 c9 bd d4 90 48 3e c4 46 c0 be
       -0.028144939 -0.0983125 0.19586498 -0.3755399
000060 08 71 ee bb a2 26 86 3d 9e 08 4d bb 1f 90 10 bf
       -0.007276658 0.065503374 -0.0031285654 -0.5646991
000070 63 4e 79 be ee ad ae bd 1c 69 ae be 7d cc 20 be
       -0.24346308 -0.08529268 -0.34064567 -0.15703006
000080 3c a4 d6 be 19 65 7f 3e b6 56 ae 3d 4a 03 1f be
       -0.41922176 0.2494091 0.085126325 -0.15528598
000090 74 26 8d 3c ad 8c 94 3e 3f 4d 23 3e f3 67 af 3d
       0.01723025 0.29013577 0.15947436 0.085647486
0000a0 9f 56 0a be 21 bd a6 3d 8c 9a 62 be de fb 7e be
       -0.13509606 0.08141542 -0.22129267 -0.24900767
0000b0 41 04 04 3e 30 0e 30 be 7f 1f c1 bc d5 c4 12 be
       0.12892248 -0.17192912 -0.023574589 -0.14332898
0000c0 8b 6f 5f bd 05 a6 5b be b7 ce 10 bf 90 52 7a be
       -0.054549735 -0.2145005 -0.5656542 -0.24445558
0000d0 03 66 7e 3d 10 de d6 bd 9e 2f 85 be 3c f7 08 be
       0.062109005 -0.10491574 -0.26012892 -0.13375562
0000e0 3d 70 79 be 50 11 ac bd a8 79 72 be fd b0 07 be
       -0.24359222 -0.084017396 -0.2367922 -0.1325111
0000f0 6c 24 bf be 58 c7 99 be 54 40 50 be 02 5f 4c be
       -0.37332475 -0.300349 -0.20337039 -0.19958118
000100 a6 1d b2 3d ab c0 b4 3e 05 d7 ce 3d 1f 16 b1 bc
       0.08697061 0.35303244 0.100996055 -0.021616993
000110 2a ff e9 bd 40 7e 73 bd 40 4e ea 3c 72 f4 c0 bc
       -0.11425622 -0.059446573 0.028601766 -0.02355406
000120 23 00 33 3e 72 af 07 be ae 5a 8c 3e 8b a6 97 3e
       0.17480521 -0.13250521 0.27412933 0.2961925
000130 28 e6 95 be 33 99 a4 bd 30 7b ef bc b6 f0 32 be
       -0.29277158 -0.08037033 -0.029233545 -0.17474636
000140 e4 4e 01 bf d4 4c 25 bd c2 23 3e be aa 5c 7e bd
       -0.50511 -0.040356472 -0.18568328 -0.06210009
000150 d4 2a fe bd 75 28 18 bd d8 de e0 be 03 ea 3e 3e
       -0.124105126 -0.037147958 -0.43920016 0.18643956
000160 04 ee 60 bd bf a4 fc bd 4b c5 b4 be a6 b7 5e 3e
       -0.05491449 -0.1233611 -0.35306773 0.21749744
000170 ed d9 88 be c8 56 7e 3e c5 c4 83 3d d6 cb d0 be
       -0.26728764 0.24837792 0.06434015 -0.40780514
000180 85 78 09 3d 30 27 8e bd c7 b5 16 bd ea 7d 80 3e
       0.033562202 -0.06941068 -0.03679445 0.25096065
000190 be 86 b9 be 4c 5c 5a be 9d 91 8d 3e 3f 92 8b 3e
       -0.36235613 -0.21324271 0.27650157 0.27260014
0001a0 96 1f 6a bd 93 21 0f be 01 04 ff 3d 52 e2 ae bd
       -0.05715903 -0.13977651 0.124519356 -0.08539261
0001b0 71 e0 46 bd b5 ae 57 be 27 85 65 3d 11 8b 95 bd
       -0.048553888 -0.21062739 0.056035187 -0.073019154
0001c0 56 25 a5 bd 46 a5 01 be 0b 47 a7 be 87 d3 4f 3d
       -0.08063762 -0.12660703 -0.3267139 0.050738838
0001d0 d0 0b a2 be 3f f1 de bd e7 d8 7c 3e 74 a2 5a be
       -0.31649637 -0.10885858 0.24692117 -0.21351033
0001e0 fb 39 00 be 9b c1 a7 bd 97 bb 6a 3e c2 81 8b bd
       -0.12522118 -0.08191224 0.22923122 -0.06811859
0001f0 34 59 60 be 27 b6 45 be b3 e7 72 be f1 8b d4 be
       -0.21909028 -0.19307767 -0.23721199 -0.41513017
000200 12 60 05 be da f7 00 3d 90 a1 b0 3d 27 f6 ac bd
       -0.13024929 0.03148637 0.086245656 -0.08445387
000210 59 aa 65 3e fb 0d 94 be f0 c3 a3 bd a2 3d 22 3d
       0.22428264 -0.28916916 -0.079963565 0.03960956
000220 8f ab f6 bd 58 7a 68 bd 8b 6e 16 3e 0f ea 3e 3e
       -0.12044441 -0.0567573 0.14690606 0.18643974
000230 6c 43 ba bc 59 9f 42 be 19 f7 40 3e 67 16 6a 3d
       -0.022737227 -0.19006099 0.1884426 0.05715027
000240 2b 9c 2a 3e fd ac 13 be e5 f2 88 3e b7 56 1c bc
       0.16661136 -0.14421459 0.26747814 -0.009542159
000250 a6 95 39 bf b2 f3 d5 be 17 25 68 3d a9 77 02 3e
       -0.7249397 -0.41787487 0.056675997 0.12740959
000260 8f 35 c9 bc 36 10 2c 3d ae ef 73 be 70 4f 5f bd
       -0.024561672 0.042007647 -0.238219 -0.054519117
000270 7e 7f 6f be a4 fb 1b 3d d0 06 13 3e 81 c5 01 bc
       -0.23388478 0.03808178 0.14358068 -0.007920624
000280 66 8a df bc 32 5a 06 bf 44 55 c4 3e a4 d2 d9 be
       -0.027287673 -0.5248138 0.38346303 -0.4254352
000290 b0 55 bf 3b ac 35 9c bc 9f 42 12 bf 53 c5 07 3c
       0.005839072 -0.019068561 -0.57132906 0.008286792
0002a0 0f 63 b9 3d c9 6b 18 3e 38 41 a8 bd 2c cc 8b 3d
       0.09052097 0.14884867 -0.082155645 0.06826052
0002b0 95 82 a3 3d 5f 7e 30 bc e5 63 57 3d e6 01 49 bd
       0.07983891 -0.010772317 0.0525855 -0.049074076
0002c0 24 b4 2a 3e 16 e0 23 bf aa 27 43 be a1 96 25 be
       0.1667028 -0.64013803 -0.190581 -0.16170742
0002d0 8c 20 b7 bd d2 4a 38 3e 1e 5d 80 be e7 e7 ec bc
       -0.08941755 0.17997292 -0.25071043 -0.028919173
0002e0 31 a4 e6 be 0c 8b 98 3d 07 2b 35 bd 1e a0 7d bd
       -0.45047143 0.07448396 -0.044230487 -0.061920278
0002f0 a3 c3 0c be cd af b2 be 83 db d9 be a0 53 65 be
       -0.13746504 -0.3489975 -0.42550287 -0.22395182
000300 5e dd 07 bf 86 ab 01 3c 5b 6c 88 bd 1c 97 64 be
       -0.53072155 0.0079144295 -0.06661292 -0.22323269
000310 d8 94 46 bd c0 63 47 be f5 23 1f be 17 ab 8e be
       -0.048481792 -0.19471645 -0.1554106 -0.27864906
000320 53 ea 0a be 43 ff 2e 3e 12 42 91 be 80 1d 3f be
       -0.1356595 0.17089562 -0.2837072 -0.18663597
000330 5f c2 4a be 4f 70 2b 3c cc ca dc bd 1b 2b ea 3d
       -0.19800709 0.010463788 -0.10780868 0.11434003
000340 df fe 46 3e fa ea 72 3d e1 9d e6 bd a4 d5 20 3e
       0.19433163 0.059306122 -0.11260582 0.15706497
000350 07 6c 69 be 17 39 32 be 91 51 4e be f9 a9 81 3d
       -0.22795115 -0.1740459 -0.20148303 0.06331248
000360 b0 a3 73 bc 44 c2 5b bd 6e d3 1f bd 87 6d 2c 3e
       -0.014870569 -0.053652063 -0.039019994 0.16838656
000370 6a 36 79 be d4 22 9e be fe 6e c1 3e 92 31 38 3e
       -0.24337164 -0.30885947 0.37779993 0.1798766
000380 8e 46 8d be 92 ca 58 3d 31 1f 1d 3e 5e 55 35 bd
       -0.2759289 0.05292756 0.1534393 -0.044270866
000390 cf 80 f4 bc 61 29 64 bd 88 1c 1a 3c c1 45 98 be
       -0.029846577 -0.055703525 0.009406216 -0.29740718
0003a0 a5 a5 03 3e e3 85 9b be 26 54 a6 bd 39 29 63 3e
       0.12856157 -0.30375585 -0.08121519 0.22183694
0003b0 f4 fb 93 be fa 8e 51 be 95 8e 0d 3c 38 33 1a bf
       -0.28903162 -0.20464697 0.008639951 -0.60234404
0003c0 22 ad a2 be ed 1a 1c bf b4 04 65 be 2b 5f 0a bd
       -0.31772715 -0.60978585 -0.22365075 -0.033782165
0003d0 a2 55 2d 3d fe 87 df bd 12 61 9a bc 3f da 47 3d
       0.042317994 -0.1091461 -0.018845115 0.04879212
0003e0 e8 29 81 be 95 06 0c 3e 4e 1c 8b bd 9c b4 d2 3c
       -0.25227284 0.13674386 -0.06792508 0.025720887
0003f0 9f 08 e4 3e 33 0c 7a 3e 1c 2b 99 be 67 39 19 3e
       0.44537827 0.24418716 -0.29915702 0.14963304

bias f4 [251]
000000 f1 0e 7b 3d fd 0a e5 3d 0e b6 3a be 26 7a 35 3d
       0.061293546 0.111837365 -0.18233511 0.044305943
000010 e4 ae e9 3d 2e e5 0a be e4 93 49 bd e1 40 fa bd
       0.11410311 -0.13563988 -0.049213305 -0.12219406
000020 d5 65 28 be 5d 23 a3 bd a5 b7 27 be e3 bd dd 3d
       -0.16445096 -0.079657294 -0.16378649 0.10827234
000030 82 b1 98 3d 87 1e 90 3d f3 fb 83 3d 72 49 c8 bc
       0.07455732 0.07037073 0.0644454 -0.024449084
000040 65 25 16 3e d4 1f ec bb b4 61 e2 3d 1a 52 e1 bd
       0.14662702 -0.0072059426 0.11053792 -0.11001988
000050 e9 e0 c5 bd 25 37 92 bd 6a 65 ec bd 15 42 26 3e
       -0.09662039 -0.07139424 -0.11542781 0.16236146
000060 f4 76 2c be 78 e9 19 3e ba 9b 3a be e1 47 2a be
       -0.16842252 0.15030468 -0.18223467 -0.16628982
000070 20 15 eb 3d ee 82 12 3d 82 70 fc bd 17 d9 e1 bd
       0.11478639 0.035769396 -0.12326147 -0.11027735
000080 09 0e b1 3c 44 64 7b 3d 98 db 8a bd 97 a3 ba 3d
       0.021613138 0.061374918 -0.067801654 0.091132335
000090 89 8c 43 3d 0c 7b 94 3d 66 67 26 3d 82 b8 ab bd
       0.047741447 0.07250032 0.040625952 -0.083848014
0000a0 83 dc 88 bc 8a 55 99 3d cf 01 d0 3d 48 0d 91 bc
       -0.01670671 0.074870184 0.10156595 -0.017706528
0000b0 58 4d 19 3c 12 86 bb bc a8 bd 28 3e 83 cb 2d 3e
       0.009356819 -0.022891078 0.16478598 0.16972165
0000c0 d6 86 30 3e 81 b8 9e bd 0c 43 93 3d ad 0e 47 3c
       0.17238936 -0.07750035 0.071905226 0.012149495
0000d0 57 10 17 bd fe a1 aa ba 98 8d e0 bb 13 fc da 3d
       -0.036880817 -0.0013018248 -0.006852817 0.106926106
0000e0 f9 c5 99 bd 86 d2 c2 bd 71 30 23 bd 54 20 c1 3d
       -0.075084634 -0.095128104 -0.03984112 0.09429994
0000f0 8b 3c 5c 3d 06 41 b8 bd 95 4b d0 bd 53 9c 83 bd
       0.053768676 -0.08996777 -0.10170666 -0.06426301
000100 99 9a f2 bc bf f5 d9 bd ef c6 19 3e b8 10 a7 3d
       -0.029614734 -0.106425755 0.15017293 0.08157486
000110 27 38 88 bd 4b 64 ad bd f0 0d b8 3c c9 b8 1d 3e
       -0.06651335 -0.08466395 0.022467583 0.15402521
000120 5a b6 34 3d f9 6f 41 be c5 4a 9c 3c f0 b9 19 be
       0.044119217 -0.1889037 0.019078622 -0.15012336
000130 10 f5 93 bd 99 f0 e8 bd 84 1d 72 bd 02 56 d0 3d
       -0.07224476 -0.11374015 -0.05911018 0.10172655
000140 95 68 d8 3d 95 98 e3 bd 54 76 92 bd 18 9d 2c 3e
       0.105668224 -0.11113087 -0.071514755 0.16856802
000150 15 42 57 bd e0 46 d8 3d e8 19 35 3d de 1a 26 bd
       -0.052553255 0.10560393 0.04421416 -0.040552966
000160 bb bd ed bd ae 3a e7 3d 6f 2e ed bc d6 ea 1e be
       -0.11608454 0.11290489 -0.028952805 -0.1551927
000170 7a 41 13 be e7 6a ab bd 33 ab 0d be ad b9 80 3b
       -0.14380446 -0.083699994 -0.13834839 0.0039283843
000180 85 01 1a bd ff 45 39 be ad 3e 97 bd 53 f2 3e bd
       -0.037599105 -0.18093108 -0.07385001 -0.046617817
000190 0d f2 9a 3d ce db 8c 3d 3d ae 1b be 99 b6 7d bd
       0.07565699 0.06877862 -0.15203185 -0.061941717
0001a0 d5 66 54 bd 6a ee 29 3e c5 a9 fd bc 2f 1d 24 bd
       -0.05185588 0.16594854 -0.030964741 -0.040066894
0001b0 e3 21 28 be e2 42 d1 bc 75 34 b0 3c 1e 20 aa bd
       -0.16419177 -0.025544588 0.021509388 -0.08306907
0001c0 5f 2f a8 bd fc 71 01 be ac 29 c0 3d 60 42 bd bd
       -0.0821216 -0.12641138 0.09382948 -0.09241176
0001d0 27 08 c2 3d 9a ad 23 bd 60 37 7b bd ff ce 99 3d
       0.09474211 -0.03996048 -0.061332107 0.075101845
0001e0 41 a5 e8 3c 93 45 fe 3c ed 76 0b bc ee 3c 15 be
       0.028399112 0.031039035 -0.008512241 -0.14574024
0001f0 59 6c f4 bd b5 6e 21 be 56 bb 0a 3e 14 04 0f 3c
       -0.11934728 -0.15764888 0.13548025 0.008729
000200 7e 4b 12 3d 61 09 c2 bd 0f a1 27 be 4f 5a 6a bc
       0.035716526 -0.09474445 -0.16370033 -0.014303758
000210 fe 3f 15 be 9d f7 9a bd 7b f1 e3 3d a5 ab 0a 3e
       -0.14575192 -0.0756676 0.11130043 0.1354204
000220 df 61 bb bc f1 72 2c bd a7 0f 8c bd 9d 70 d8 3c
       -0.022873817 -0.042101804 -0.06838923 0.026420886
000230 13 71 83 3d fb 68 4f 3d e4 93 10 be 53 5d 22 3e
       0.064180516 0.050637227 -0.14118916 0.15855913
000240 9f ec 7d 3b 29 b0 39 be 3e be 37 3e 0e 80 2f be
       0.0038745773 -0.18133606 0.17943665 -0.17138693
000250 e7 fb 0c be ee 7e ef 3d c9 31 84 3a db 55 0f be
       -0.13767968 0.11694132 0.0010085638 -0.13997595
000260 df 15 32 be f5 ff ee bd a1 4f f7 3d 12 bf eb bd
       -0.17391156 -0.11669914 0.12075735 -0.11511053
000270 44 a0 35 3e a1 21 88 bd 51 37 b3 bd 14 f4 06 3d
       0.17736918 -0.06647039 -0.08750785 0.032947615
000280 a0 97 92 3d d1 91 57 3c 86 a6 3e 3d 4a 77 89 bd
       0.071578264 0.013157324 0.046545528 -0.06712206
000290 b5 9a 9c bd 6b 4b 0e be b6 59 81 bd ed e7 89 3d
       -0.076466955 -0.13895957 -0.06315939 0.067336895
0002a0 2d d8 8c bd ee 78 f7 3d 91 5b 95 bd 52 c1 b4 3d
       -0.0687717 0.120836124 -0.072928555 0.088259354
0002b0 a9 dd a0 3d ca 60 c3 bd e7 7a 0a bc f5 11 e7 bc
       0.07854778 -0.095399454 -0.008452154 -0.028206805
0002c0 00 6a 96 3d c9 32 28 3e 37 e2 d7 3b 66 bc 0e 3e
       0.07344437 0.16425623 0.006588246 0.13939056
0002d0 cd f7 0b bc 17 ae 83 bc 83 f4 c2 bd b0 66 d1 bc
       -0.008542967 -0.016074223 -0.09519293 -0.02556166
0002e0 b6 9f e4 3d 3c 2c 1f be 08 2c 83 bd af fb e8 bc
       0.11163275 -0.15544218 -0.06404883 -0.028440325
0002f0 18 44 86 bd 2d 05 c2 3d c1 47 33 be 9c c7 c4 bd
       -0.065559566 0.094736435 -0.1750784 -0.09608385
000300 35 58 2e be b1 f8 0a be f6 9a 3d be 63 67 52 bd
       -0.17025836 -0.1357143 -0.18516144 -0.05136813
000310 22 08 32 be 55 7d 2e 3d 46 29 81 3d b6 89 0c 3e
       -0.17385915 0.042599995 0.063067004 0.13724408
000320 a6 e0 95 3c 1a 6a 8d bd a3 7e d3 bc df 16 a5 bd
       0.018295597 -0.06905003 -0.025817221 -0.08061003
000330 af be bd bd dc f3 12 bd 42 9f 19 bd db ba 8f bd
       -0.09264886 -0.035877094 -0.037505396 -0.07018062
000340 ef e8 b5 3d d7 d3 be bd b4 fa fb bd 8b 4f 37 bd
       0.08882319 -0.09317749 -0.12303677 -0.044753592
000350 4b 2e 11 3d b7 7e c1 3d a1 64 31 3e bf 12 0e 3e
       0.03544454 0.09447997 0.17323543 0.13874339
000360 e9 08 14 be 08 4a 42 be ed 04 8c bd fe b9 fc 3c
       -0.14456524 -0.18973553 -0.06836877 0.030850407
000370 ed 24 a9 3d 69 41 22 be 6a 9e e9 3d 4b 13 dd bd
       0.08258996 -0.15845264 0.11407168 -0.107946955
000380 a4 1b 98 3d 6d 99 21 be 72 bf 79 bd c3 62 9e bd
       0.07427147 -0.15781184 -0.060973592 -0.07733681
000390 24 20 e6 3b f8 1c 5b bc cd f6 0e bb 6e 23 1a be
       0.0070228744 -0.013373606 -0.0021814585 -0.15052578
0003a0 f6 75 f8 3d 77 04 86 bd e9 f4 9e bd 1d f0 d9 3c
       0.12131874 -0.0654382 -0.07761557 0.026603753
0003b0 9a 4d 16 3c 59 69 9e bd ee 46 ec bc 62 76 38 3d
       0.009173775 -0.07734937 -0.028842416 0.045034774
0003c0 78 c7 08 bd d7 fe a8 bc f3 2a 1d bc 58 4f d3 bd
       -0.033393353 -0.02062933 -0.009592759 -0.10317868
0003d0 7b 9d c7 bd 14 00 99 3d 47 39 d1 3d 11 6a 32 be
       -0.09746834 0.07470718 0.10216003 -0.17423274
0003e0 92 37 27 3e b6 0a 11 3d 94 8f 9b b9
       0.16329792 0.035410605 -0.00029670878

weight f4 [251]
000000 c0 a1 8d 3f 35 b7 f0 3f c7 8d aa 3f 51 4b b9 3f
       1.1064987 1.880591 1.3324517 1.447611
000010 c2 98 ee 3f be 60 e4 3f 8c 52 02 40 8c 34 f1 3f
       1.8640368 1.7842023 2.0362883 1.8844161
000020 f4 a6 bc 3f ec 34 f4 3f 82 2a dc 3f 71 1b d2 3f
       1.473845 1.907865 1.7200472 1.6414624
000030 ca f9 ca 3f 5d e8 ce 3f 78 e1 e7 3f e8 be ef 3f
       1.585748 1.6164662 1.8115683 1.8730135
000040 a6 07 d7 3f d7 3c f6 3f 1b 0a d4 3f 22 73 e9 3f
       1.6799209 1.9237317 1.6565584 1.8238261
000050 b0 b3 d4 3f bb cc d4 3f 6e 23 ee 3f 8f 01 d3 3f
       1.6617336 1.6624979 1.8604562 1.6484851
000060 c2 86 e3 3f d6 db b8 3f 11 75 cd 3f 8a 50 d8 3f
       1.77755 1.4442089 1.6051351 1.6899579
000070 1f 1f b9 3f 22 02 ef 3f 0a 32 d7 3f d6 88 e2 3f
       1.4462622 1.8672526 1.6812146 1.7698009
000080 41 04 06 40 b8 f6 c9 3f 83 95 fc 3f a4 3f f9 3f
       2.0940096 1.5778418 1.9733127 1.9472547
000090 49 c3 e7 3f 14 17 c7 3f 00 b6 9b 3f 68 fd ff 3f
       1.8106471 1.5553918 1.2164917 1.9999208
0000a0 b1 72 fd 3f 4d 5b c0 3f 93 a6 84 3f fd cc d0 3f
       1.9800626 1.5027863 1.0363334 1.6312557
0000b0 09 de eb 3f 41 be 05 40 2f 9a c7 3f dc 88 b1 3f
       1.8427135 2.0897372 1.5593928 1.3869891
0000c0 37 11 b5 3f d4 5c ff 3f e7 57 cb 3f 27 5a d6 3f
       1.4145879 1.9950204 1.5886201 1.6746262
0000d0 ac 84 de 3f fc 3d db 3f cc 5c e9 3f df 69 d6 3f
       1.7384238 1.7128291 1.8231444 1.6751059
0000e0 7e 31 e9 3f 42 ca d5 3f 9b b5 ea 3f 68 c7 fb 3f
       1.8218229 1.6702349 1.8336672 1.9670229
0000f0 1c d9 c8 3f 59 2b be 3f 87 94 d8 3f d4 6b b5 3f
       1.5691257 1.4856979 1.6920327 1.4173532
000100 77 b5 fd 3f 0b 19 c7 3f 1e 3b c4 3f d2 52 dc 3f
       1.9821004 1.5554518 1.5330541 1.7212775
000110 33 42 cb 3f 71 04 c8 3f 31 5c e9 3f 27 7f c3 3f
       1.5879577 1.5626355 1.823126 1.5273179
000120 e8 b2 ee 3f fd a1 04 40 a9 13 b7 3f c7 aa b2 3f
       1.8648348 2.072387 1.4302875 1.3958367
000130 c7 c7 11 40 65 cb cd 3f 08 ba be 3f 47 d6 de 3f
       2.2778184 1.6077696 1.4900522 1.7409142
000140 05 ad 9d 3f d2 c4 e0 3f e7 12 d9 3f 7c 8b d5 3f
       1.2318426 1.7560065 1.6958894 1.6683192
000150 45 21 d3 3f 9b d3 d4 3f e2 57 f3 3f a7 ec c4 3f
       1.6494528 1.6627077 1.9011195 1.538472
000160 7f b2 c1 3f 83 25 f2 3f 24 2b c9 3f e7 1d fe 3f
       1.5132598 1.8917698 1.571629 1.9852875
000170 d9 76 c7 3f a0 9e d2 3f f6 98 d3 3f d1 4e f3 3f
       1.5583144 1.6454659 1.6531055 1.9008428
000180 86 e6 eb 3f d2 41 d3 3f 96 5d f1 3f df 8b e1 3f
       1.8429725 1.6504462 1.8856685 1.762081
000190 67 98 d9 3f cf 4b e5 3f e0 c5 cf 3f c5 f9 05 40
       1.6999635 1.791376 1.6232262 2.0933697
0001a0 b1 5d fb 3f e9 13 eb 3f 08 46 a4 3f 04 20 b1 3f
       1.9637967 1.8365451 1.2833872 1.3837895
0001b0 51 96 07 40 dc a3 b8 3f 53 a0 0b 40 c7 47 d4 3f
       2.1185496 1.4425006 2.1816604 1.6584405
0001c0 f8 17 d8 3f fd dd db 3f 1e bd b7 3f 8c f8 c6 3f
       1.6882315 1.717712 1.4354589 1.55446
0001d0 a2 5f ef 3f 18 0e c9 3f c0 b5 d7 3f bc bb ec 3f
       1.870106 1.5707426 1.6852341 1.8494792
0001e0 cc 33 f5 3f 58 46 dc 3f 76 d7 d8 3f 88 f2 e7 3f
       1.9156432 1.7208967 1.6940753 1.812089
0001f0 25 71 86 3f de 75 ee 3f 35 c8 b8 3f 15 1b d3 3f
       1.0503279 1.862972 1.4436098 1.649264
000200 6b 53 f0 3f b9 aa e6 3f b6 be bd 3f 79 8b eb 3f
       1.8775457 1.802085 1.4823825 1.8401939
000210 17 4a ea 3f 70 65 da 3f ba 14 dd 3f b8 78 ee 3f
       1.830386 1.7062206 1.727195 1.863059
000220 80 45 d4 3f 68 78 de 3f 2e 15 c2 3f 32 23 d1 3f
       1.658371 1.7380495 1.5162714 1.6338866
000230 a2 72 c9 3f 3c 93 ef 3f f6 5c b5 3f a8 c8 e8 3f
       1.5738108 1.8716807 1.4168994 1.8186235
000240 0a 00 c8 3f 5b c3 e5 3f a6 26 a9 3f 42 e6 c7 3f
       1.5625012 1.7950243 1.321492 1.5617144
000250 cb 03 eb 3f 8e 1d f6 3f dc cc da 3f b3 87 aa 3f
       1.8360533 1.9227769 1.7093768 1.3322662
000260 3b 6c d6 3f a5 be bc 3f a6 cd c8 3f b4 0a f6 3f
       1.6751779 1.474568 1.5687759 1.9222016
000270 59 eb d1 3f 5e 43 c9 3f f3 6b 04 40 f9 90 aa 3f
       1.6399947 1.5723684 2.0690887 1.3325492
000280 82 3b f0 3f c0 e3 c8 3f 73 e3 c7 3f 4b 8e b6 3f
       1.876816 1.5694504 1.5616287 1.4262174
000290 33 74 dd 3f 42 33 d7 3f 67 8d 05 40 7d 85 c1 3f
       1.7301086 1.6812518 2.0867555 1.5118862
0002a0 71 2a 9e 3f e2 d6 b9 3f 27 c4 cc 3f d9 4f c1 3f
       1.2356702 1.4518702 1.5997361 1.5102493
0002b0 5a 6a ca 3f ca 07 c5 3f 28 48 bb 3f 3f 9b c6 3f
       1.5813706 1.5393002 1.4631395 1.5516127
0002c0 38 8e d9 3f fb cf 02 40 3c 37 dc 3f 53 33 fa 3f
       1.6996527 2.0439441 1.7204356 1.9546913
0002d0 ab 12 cc 3f 59 61 d6 3f 99 4a dd 3f b0 d6 e9 3f
       1.5943197 1.6748458 1.728839 1.8268642
0002e0 de 8f e9 3f bc 96 bb 3f 1d 25 c5 3f 75 f7 8c 3f
       1.824703 1.4655375 1.5401951 1.1013018
0002f0 24 a7 fc 3f 45 0e dc 3f 15 0d ba 3f 72 a2 f5 3f
       1.9738507 1.7191855 1.4535242 1.9190199
000300 cd ea b2 3f ed 2b bb 3f 94 e4 f9 3f 63 64 ec 3f
       1.3977906 1.462278 1.9522882 1.8468136
000310 fb f6 ca 3f ed 86 f2 3f 0e d2 cc 3f d1 29 ee 3f
       1.5856622 1.8947426 1.6001604 1.8606511
000320 a4 c4 cc 3f bf e0 dd 3f d4 ac f4 3f b5 09 da 3f
       1.599751 1.7334212 1.9115243 1.7034212
000330 f4 b1 f7 3f ed 69 c6 3f b2 89 bc 3f 57 2b ae 3f
       1.9351182 1.5501076 1.4729521 1.3606976
000340 33 24 a4 3f f9 d8 ed 3f a8 80 ef 3f 82 03 d6 3f
       1.2823547 1.858184 1.8711138 1.671982
000350 b1 f6 c5 3f 23 70 b6 3f 68 30 f5 3f d8 ae ef 3f
       1.5465909 1.4252971 1.9155397 1.8725233
000360 f9 7a e8 3f 56 ac 01 40 74 3e a6 3f c0 e6 01 40
       1.8162528 2.0261436 1.2987809 2.0297089
000370 40 4a d2 3f b0 5a 0a 40 65 fe ce 3f d7 9d e8 3f
       1.6428909 2.1617851 1.6171385 1.8173169
000380 0f b0 b2 3f a0 0e d7 3f a7 d5 c3 3f ca d5 fa 3f
       1.3959979 1.6801338 1.5299577 1.9596493
000390 69 37 d2 3f db 8d da 3f cd 01 cb 3f 5e c9 e4 3f
       1.642316 1.7074541 1.5859925 1.7873952
0003a0 f1 f9 e2 3f 26 c4 d9 3f 30 47 f9 3f f0 76 e8 3f
       1.7732526 1.7012985 1.947485 1.8161297
0003b0 b7 dc df 3f 86 e1 e6 3f da 44 d0 3f 83 8c be 3f
       1.7489232 1.8037574 1.6271012 1.4886631
0003c0 64 91 d8 3f 85 04 d1 3f 64 25 ec 3f a1 b1 e7 3f
       1.691937 1.6329504 1.8448911 1.8101083
0003d0 d0 0a e4 3f 38 d1 a4 3f bd 93 dc 3f 8e 90 cf 3f
       1.78158 1.2876348 1.7232586 1.621599
0003e0 47 c5 be 3f 30 43 f3 3f 3d b9 02 40
       1.4903954 1.9004879 2.042556

bias f4 [251]
000000 d5 be a1 be e5 47 2c c0 89 2b de bf af e6 ee bf
       -0.31590906 -2.691888 -1.7357036 -1.8664149
000010 67 0f 1c c0 e2 15 1a c0 b5 96 51 c0 05 86 29 c0
       -2.43844 -2.4075856 -3.2748234 -2.648805
000020 50 22 0c c0 7a 16 1c c0 19 6d 10 c0 e5 40 14 c0
       -2.1895943 -2.4388719 -2.2566588 -2.3164608
000030 5b 00 05 c0 94 04 00 c0 0d 51 28 c0 23 a8 35 c0
       -2.0781467 -2.0002794 -2.629947 -2.8383873
000040 23 99 26 c0 83 75 28 c0 b9 6d 11 c0 c9 49 0c c0
       -2.6030967 -2.6321723 -2.272322 -2.1920035
000050 15 ac 08 c0 cb 6e 15 c0 51 75 07 c0 d5 fb 16 c0
       -2.135503 -2.3348873 -2.1165354 -2.3591206
000060 d4 de 26 c0 a3 41 e4 bf 48 a3 fe bf ad 5a 14 c0
       -2.6073503 -1.7832531 -1.989358 -2.3180344
000070 e1 74 02 c0 42 ed 2b c0 31 de 22 c0 49 c5 0a c0
       -2.0383837 -2.686356 -2.5448115 -2.1682913
000080 59 c9 53 c0 0b f5 23 c0 2e a7 42 c0 2f 1b 28 c0
       -3.3091643 -2.5618312 -3.0414538 -2.6266592
000090 a4 cf 18 c0 63 b9 09 c0 fe 0e d8 bf 2f 3b 29 c0
       -2.3876734 -2.15194 -1.6879575 -2.6442373
0000a0 b4 ec 1f c0 88 d9 ef bf e9 0c a7 bf a7 c6 1b c0
       -2.4988222 -1.873826 -1.3050815 -2.4339998
0000b0 9a fd 33 c0 82 2e 30 c0 7b 3b 0a c0 55 94 0a c0
       -2.8123536 -2.7528386 -2.1598804 -2.1653035
0000c0 a2 44 ee bf bc c8 32 c0 eb 5b 27 c0 a9 6e 0a c0
       -1.8614695 -2.7935019 -2.6149852 -2.1630042
0000d0 4c bc 27 c0 34 ca 27 c0 28 d5 3d c0 90 b9 19 c0
       -2.6208677 -2.6217165 -2.966135 -2.4019508
0000e0 60 fc 1e c0 a3 ea 14 c0 f6 8c 28 c0 db 19 31 c0
       -2.4841537 -2.326821 -2.6336036 -2.767203
0000f0 d8 8d 05 c0 e8 70 0b c0 29 01 18 c0 0f b4 f1 bf
       -2.0867825 -2.1787663 -2.3750708 -1.8883075
000100 bc b5 13 c0 ef 1e 07 c0 98 68 10 c0 cb 3e 29 c0
       -2.3079672 -2.111263 -2.256384 -2.6444576
000110 ff bf 0b c0 7a 4c 15 c0 b9 92 17 c0 d5 67 f5 bf
       -2.1835935 -2.3327928 -2.3683302 -1.9172312
000120 3a 96 22 c0 e2 54 26 c0 9e 11 fa bf ce 84 fa bf
       -2.540419 -2.5989308 -1.9536626 -1.9571779
000130 7f 4c 63 c0 3e c4 0a c0 ec 9d 1b c0 f2 09 32 c0
       -3.551544 -2.1682277 -2.4315138 -2.781857
000140 b8 df c3 bf 3d 42 4c c0 f5 c6 18 c0 b6 99 08 c0
       -1.5302649 -3.1915429 -2.3871434 -2.1343818
000150 cb 8d 19 c0 f2 f0 2d c0 c7 74 21 c0 67 90 1a c0
       -2.3992794 -2.7178311 -2.5227525 -2.4150636
000160 48 7a 03 c0 3b ef 22 c0 45 4b 0e c0 ce c7 57 c0
       -2.0543385 -2.5458515 -2.223344 -3.37157
000170 f4 74 16 c0 4e 98 28 c0 67 d6 27 c0 13 65 3d c0
       -2.3508883 -2.634296 -2.622461 -2.959294
000180 20 db 44 c0 ac e6 0e c0 29 95 2d c0 72 5b 19 c0
       -3.0758743 -2.232829 -2.712229 -2.3962064
000190 09 8e 11 c0 00 f7 1f c0 87 e2 15 c0 e2 1d 45 c0
       -2.2742941 -2.4994507 -2.3419511 -3.079949
0001a0 f9 a7 28 c0 ea a9 27 c0 91 f5 ca bf 0b ee d3 bf
       -2.6352522 -2.6197457 -1.5856191 -1.655702
0001b0 af d1 2e c0 94 35 02 c0 49 31 2f c0 85 39 03 c0
       -2.731548 -2.0345201 -2.7373831 -2.0503857
0001c0 60 a4 0c c0 6a dc 1c c0 59 17 05 c0 27 8a 11 c0
       -2.1975327 -2.450953 -2.07955 -2.2740571
0001d0 bf dd 33 c0 d8 dc d9 bf 8e 03 30 c0 f6 a5 46 c0
       -2.8104093 -1.7020521 -2.750217 -3.1038795
0001e0 24 4f 18 c0 80 68 19 c0 46 89 1b c0 f4 b2 18 c0
       -2.3798304 -2.3970032 -2.4302535 -2.3859224
0001f0 13 31 95 bf f7 df 24 c0 8f ec e1 bf fb 1f 27 c0
       -1.1655601 -2.5761697 -1.7650317 -2.611327
000200 1a 03 27 c0 5e a3 35 c0 0d 58 06 c0 b7 c9 23 c0
       -2.6095643 -2.8380961 -2.0991242 -2.5591867
000210 b1 b6 26 c0 9b b4 2f c0 12 8d 21 c0 e9 20 16 c0
       -2.6049006 -2.7453983 -2.5242352 -2.3457587
000220 dc a5 23 c0 8e fe 0b c0 bc f7 11 c0 48 88 14 c0
       -2.5569983 -2.1874118 -2.2807455 -2.320818
000230 2d c3 06 c0 13 47 43 c0 7d 68 17 c0 57 5f 34 c0
       -2.1056626 -3.051213 -2.3657525 -2.818319
000240 e9 88 00 c0 a8 96 28 c0 11 c0 e7 bf d5 ab f2 bf
       -2.0083563 -2.6341953 -1.8105489 -1.8958689
000250 5a b8 17 c0 62 1a 2f c0 98 b8 20 c0 35 17 d4 bf
       -2.370627 -2.7359853 -2.5112667 -1.6569582
000260 30 89 33 c0 5c 2d f3 bf ab 14 15 c0 6c c2 17 c0
       -2.8052483 -1.8998218 -2.3293865 -2.3712416
000270 86 9d 0f c0 3e 47 ec bf e0 9d 22 c0 75 6d e9 bf
       -2.2439895 -1.8459241 -2.540886 -1.8236529
000280 19 e3 1f c0 d9 7d 0f c0 cc d2 00 c0 a1 12 e4 bf
       -2.498236 -2.2420561 -2.012866 -1.7818185
000290 0e 9b 1c c0 d8 73 14 c0 fe 7b 51 c0 00 8e 24 c0
       -2.4469638 -2.3195705 -3.273193 -2.571167
0002a0 ab c2 ec bf cb 4a 1b c0 cd b5 00 c0 9e 7e 16 c0
       -1.8496908 -2.42644 -2.0110962 -2.351478
0002b0 35 1c fd bf 82 08 0b c0 3e cb f2 bf f8 ad 01 c0
       -1.9774233 -2.1723943 -1.8968275 -2.0262432
0002c0 a6 25 1f c0 04 72 45 c0 7a b8 19 c0 db f6 21 c0
       -2.4866729 -3.085084 -2.4018846 -2.5306919
0002d0 10 31 0d c0 aa c9 06 c0 87 e6 0c c0 0f 8a 14 c0
       -2.2061195 -2.1060586 -2.2015703 -2.3209264
0002e0 dd 39 28 c0 2f fd 09 c0 74 61 17 c0 da 4a ae bf
       -2.6285317 -2.156078 -2.365323 -1.3616593
0002f0 c5 b9 41 c0 51 a8 25 c0 62 a8 08 c0 69 7a 1d c0
       -3.0269635 -2.5883982 -2.1352773 -2.4605963
000300 4f 18 e9 bf f1 2e 21 c0 d3 0c 31 c0 c4 7f 21 c0
       -1.8210543 -2.51849 -2.7664077 -2.5234232
000310 77 bd 18 c0 e4 84 25 c0 25 d3 f8 bf bf d3 22 c0
       -2.386564 -2.586236 -1.9439436 -2.544174
000320 cd cf 18 c0 89 04 10 c0 86 9f 26 c0 3e ba 17 c0
       -2.3876832 -2.2502768 -2.6034865 -2.3707423
000330 95 e0 26 c0 0e 0f fc bf 16 d0 09 c0 db 70 eb bf
       -2.6074574 -1.9692094 -2.1533256 -1.8393816
000340 b1 17 cd bf 14 ef 1b c0 7d 72 2f c0 a6 13 29 c0
       -1.6022855 -2.4364672 -2.7413628 -2.6418242
000350 7d 2d 0d c0 90 26 f9 bf a2 c5 27 c0 6e 4d 2a c0
       -2.2059014 -1.9464893 -2.6214375 -2.660976
000360 56 76 2b c0 1d 5f 34 c0 04 b8 e1 bf bb 37 29 c0
       -2.6790977 -2.8183053 -1.7634282 -2.6440265
000370 85 99 10 c0 74 96 3b c0 5f 90 08 c0 a0 08 3e c0
       -2.25937 -2.931058 -2.1338117 -2.9692764
000380 6b a2 e5 bf 07 d0 2b c0 47 66 09 c0 33 2b 2c c0
       -1.7940191 -2.684572 -2.1468675 -2.6901367
000390 4d 5d 0e c0 37 12 08 c0 d7 e0 26 c0 19 99 1a c0
       -2.2244446 -2.1261117 -2.6074731 -2.4155943
0003a0 50 15 16 c0 27 8b 0f c0 4d 16 37 c0 2c 38 1f c0
       -2.3450508 -2.2428682 -2.8607361 -2.4878035
0003b0 da 6a 1d c0 19 01 1a c0 a8 6c 06 c0 0c aa 02 c0
       -2.4596467 -2.406317 -2.1003819 -2.0416288
0003c0 52 67 2c c0 b6 3a 16 c0 82 1e 15 c0 aa 97 17 c0
       -2.6938062 -2.3473334 -2.329987 -2.3686318
0003d0 36 36 16 c0 74 c8 d2 bf ec 08 1a c0 89 82 07 c0
       -2.3470588 -1.6467423 -2.4067945 -2.1173422
0003e0 36 ea 07 c0 b1 b7 46 c0 37 56 2d c0
       -2.12367 -3.1049616 -2.7083871
