EXP13_dump/DNN2_model.pth (torch, 111547 bytes, 12 tensors)

weight f4 [50, 251]
0	0x3c6d27d0	0.014474824
1	0xbd205c96	-0.039150797
2	0xbebdf745	-0.37102714
3	0x3cbff32a	0.02343138
4	0xbd63ab7e	-0.05558347
5	0x3d8654e9	0.06559164
6	0x3d128791	0.035773817
7	0x3df1eba1	0.11812521
8	0xbebdda5f	-0.37080666
9	0xbdaab097	-0.08334463
10	0xba8d23c3	-0.0010768104
11	0xbdffab89	-0.124838896
12	0x3e9e9dec	0.3097986
13	0xbde79ad5	-0.11308829
14	0xbe00949a	-0.12556687
15	0xbd836f9b	-0.064177714
16	0x3da3d1f4	0.0799903
17	0xbd815fde	-0.06317113
18	0xbe01bfd9	-0.1267084
19	0xbd9480a8	-0.07251102
20	0xbcab514b	-0.020912787
21	0x3e30ac5e	0.17253253
22	0xbdcd5bc7	-0.10027271
23	0xbd9c92f6	-0.07645218
24	0xbd4d8544	-0.05017592
25	0x3d5defbf	0.054183718
26	0x3d3a7aee	0.04552739
27	0xbe18820d	-0.1489336
28	0x3d513ce1	0.05108345
29	0xbe417305	-0.18891533
30	0xbe3f0256	-0.18653235
31	0x3da6aabc	0.08138034
32	0x3e3bee00	0.18352509
33	0x3d15953e	0.03651928
34	0x3e2acc6c	0.16679543
35	0xbe6c23ab	-0.23060481
36	0xbd1bcd71	-0.03803772
37	0x3df98447	0.12183433
38	0xbda595b6	-0.08085196
39	0x3c8bc8d4	0.017063536
40	0x3cfbee8f	0.030753402
41	0xbd264d43	-0.040601026
42	0x3eb56e08	0.3543551
43	0x3be78000	0.0070648193
44	0x3c87ca8f	0.01657608
45	0x3ec002ed	0.37502232
46	0x3e29b610	0.16573358
47	0x3d2d6e1c	0.042341337
48	0x3c4cebb2	0.012507366
49	0x3e6afb0f	0.22947334
50	0x3dc5f005	0.09664921
51	0xbe87dbc3	-0.26534852
52	0xbd72dc7c	-0.0592923
53	0x3de28ee8	0.110624135
54	0xbdb498a7	-0.088181786
55	0x3e0e99a2	0.13925794
56	0x3b6e5a1d	0.003636963
57	0xbe0ab5be	-0.13545892
58	0x3e43858c	0.19093913
59	0xbe26f051	-0.16302611
60	0xbdfb9316	-0.12283914
61	0xbe0c9e99	-0.13732375
62	0xbe160198	-0.14649045
63	0x3e6912e6	0.22761115
64	0xbe076ee0	-0.13225889
65	0xbe9ada06	-0.30244464
66	0x3e8c12f4	0.2735821
67	0xbdd4e8bd	-0.10395954
68	0xbd9f2744	-0.07771161
69	0x3e52e304	0.20594412
70	0x3d0b0475	0.033939797
71	0x3d84c55b	0.06482955
72	0x3d86616f	0.06561553
73	0x3cdcac4e	0.02693763
74	0x3cca48d8	0.024692938
75	0x3e1bcc84	0.15214735
76	0xbe6a0875	-0.22854789
77	0xbcdb1a1c	-0.026745848
78	0xbe7d6a7d	-0.24747653
79	0xbdbc863e	-0.09205292
80	0x3e74c0ea	0.23901716
81	0x3df021f8	0.11725229
82	0xbd6648bb	-0.056221705
83	0x3ea4bf5a	0.3217724
84	0x3ecd5f41	0.40111735
85	0xbd2fe69a	-0.04294453
86	0x3d21f689	0.039541755
87	0x3e1c201a	0.15246621
88	0x3d3f61fe	0.046724312
89	0xbe71755e	-0.23579928
90	0xbda586f9	-0.080823846
91	0xbde7e015	-0.11322037
92	0xbc66acbb	-0.014079268
93	0xbd75bdf2	-0.0599956
94	0xbd80f5b0	-0.06296861
95	0x3dbb172c	0.09135279
96	0xbe921fe5	-0.2853996
97	0x3e8f6b32	0.2801147
98	0xbd17b279	-0.03703544
99	0xbd6f63fa	-0.058444954
100	0xba8eae00	-0.0010885596
101	0x3e3e4084	0.18579298
102	0xbe0e773b	-0.1391267
103	0x3d9d9dce	0.076961145
104	0x3d800f84	0.06252959
105	0xbbf3b671	-0.00743752
106	0xbc6766ed	-0.0141236605
107	0x3ea86022	0.32885844
108	0xbd85573b	-0.065107785
109	0x3d793cca	0.06084899
110	0x3e843387	0.25820562
111	0x3dfbb32c	0.12290034
112	0xbd1b910a	-0.037980117
113	0x3d9b3b26	0.07579641
114	0xbea58641	-0.3232899
115	0x3da11b3e	0.07866524
116	0x3e67f6f0	0.22652793
117	0xbdb8461e	-0.08997749
118	0xbe8bbd96	-0.2729308
119	0xbc9a6b35	-0.018849948
120	0x3c16a793	0.009195226
121	0x3e3d6bd7	0.18498169
122	0xbcc0c41f	-0.023531018
123	0xbd24e52f	-0.04025763
124	0x3e3f491f	0.18680237
125	0x3dce0db8	0.100612104
126	0xbdb25baa	-0.0870889
127	0xbe36338f	-0.17793106
128	0xbd8570af	-0.06515633
129	0x3d6c2738	0.05765459
130	0xbe40ba01	-0.18820955
131	0x3d8de5e1	0.069286115
132	0xbed6d630	-0.41960287
133	0x3e03bfb3	0.12866096
134	0xbe4bcce1	-0.19902374
135	0xbea3981c	-0.31951988
136	0x3e3b679a	0.1830124
137	0xbe638662	-0.22219232
138	0x3e8356cd	0.2565216
139	0x3e5d66b7	0.21621214
140	0xbda08c52	-0.07839264
141	0x3e9933da	0.29922372
142	0xbc82605c	-0.015915088
143	0xbccc5420	-0.024942458
144	0x3e43309b	0.1906151
145	0xbe78a9d6	-0.24283537
146	0x3c60105f	0.013675778
147	0x3d95df8e	0.0731803
148	0xbd4adf9a	-0.04952965
149	0x3e06656b	0.13124625
150	0x3de9284e	0.11384641
151	0xbe936afc	-0.2879256
152	0xbcb88950	-0.022526413
153	0xbe328af5	-0.1743582
154	0x3d1b992c	0.037987873
155	0x3d7a66b0	0.061133087
156	0x3e4d1be7	0.20030175
157	0x3cf1e529	0.029528217
158	0xbe15a789	-0.14614691
159	0xbe180fe7	-0.14849816
160	0xbea5de2d	-0.3239607
161	0xbc4104e0	-0.011780947
162	0xbe931f77	-0.28734943
163	0xbd2f41b0	-0.042787254
164	0x3c18018f	0.009277715
165	0xbce1b259	-0.027550863
166	0xbe98e055	-0.29858652
167	0xbea07fbe	-0.3134746
168	0xbe00fb01	-0.1259575
169	0xbe33d56d	-0.17561884
170	0xbe2615b7	-0.16219221
171	0x3dd62d70	0.10457885
172	0x3db65941	0.089037426
173	0x3e4ab0b4	0.1979397
174	0xbe313e21	-0.17308857
175	0xbd31e349	-0.043429647
176	0xbd59e577	-0.05319735
177	0xbdb1f44e	-0.086891755
178	0x3c95afd4	0.018272318
179	0xbd4298d3	-0.047509026
180	0xbd523d39	-0.051327918
181	0x3e1d5b94	0.15366966
182	0xbe386fb2	-0.18011358
183	0x3c9180cd	0.017761612
184	0x3ea32ffe	0.31872553
185	0x3e2212a7	0.15827428
186	0x3e061269	0.1309296
187	0x3c8f9ff4	0.017532326
188	0xbd471bbb	-0.04861043
189	0x3e23932b	0.15974109
190	0xbe5c8244	-0.21534067
191	0xbdeccf3e	-0.11562966
192	0x3d9fa79d	0.077956416
193	0x3e1c0da1	0.15239574
194	0x3d813dc6	0.063106105
195	0xbec3db34	-0.38253176
196	0xbe3bfb7d	-0.18357654
197	0x3d9f8899	0.07789726
198	0xbe0e6d74	-0.1390894
199	0x3d6089b6	0.05481883
200	0xbc731af8	-0.014837973
201	0xbda69f45	-0.08135847
202	0xbe36c3f1	-0.17848183
203	0xbe75977d	-0.2398357
204	0x3b692d52	0.0035579992
205	0xbc3b2e19	-0.011424565
206	0x3c0b42a0	0.008499771
207	0x3c4a9664	0.0123649575
208	0xbdf905c8	-0.12159306
209	0x3de0b757	0.10972469
210	0xbcf7c4a7	-0.030245138
211	0x3e0bdca6	0.1365839
212	0x3e915a7b	0.28389344
213	0x3e842b39	0.25814226
214	0xbe8e7f04	-0.2783128
215	0xbcb51d74	-0.02210877
216	0x3ec604f3	0.3867565
217	0x3da546fa	0.08070178
218	0x3e14d4cc	0.145343
219	0x3c7a1a7d	0.015265104
220	0xbdb60f58	-0.08889645
221	0xbd395c11	-0.045253817
222	0x3ec7bd68	0.39011693
223	0x3c978790	0.018497258
224	0xbda04e76	-0.07827465
225	0xbe0452df	-0.12922238
226	0x3dd8e945	0.10591368
227	0x3dc2644b	0.094917856
228	0x3e79873f	0.24367999
229	0xbe921eda	-0.28539163
230	0xbd7f2fbe	-0.06230139
231	0xbd889646	-0.066692874
232	0x3e525967	0.20541917
233	0x3ecdf102	0.40222937
234	0x3ec37bdb	0.38180432
235	0x3cf4bc5d	0.029874975
236	0xbc4c5ba5	-0.012473022
237	0xbec23556	-0.37931317
238	0x3e9a0ae2	0.30086428
239	0x3e1acdb3	0.1511753
240	0x3e345c31	0.17613293
241	0x3df4eae8	0.11958867
242	0xbd3588ea	-0.044320025
243	0xbe559596	-0.20857844
244	0x3e0926e8	0.13393748
245	0xbecb530b	-0.39711794
246	0xbd00f217	-0.031480875
247	0xbd86648a	-0.06562145
248	0x3d11b160	0.03556955
249	0x3cea382d	0.02859124
250	0xbddc1cd3	-0.10747685
251	0xbd326f92	-0.043563433
252	0x3e682f9f	0.22674416
253	0x3d01d4a1	0.03169692
254	0xbe236eeb	-0.1596028
255	0x3cf1c792	0.029514108

bias f4 [50]
0	0xbb1537e3	-0.0022768907
1	0x3d3ad485	0.04561283
2	0x3cb4c6d3	0.022067463
3	0x3d0b20a7	0.033966687
4	0x3ce775c1	0.028254392
5	0xbd5088e0	-0.050911784
6	0x3aaa0052	0.0012970066
7	0xbd5e8638	-0.05432722
8	0xbd0e51d5	-0.03474601
9	0xbb047dce	-0.0020216587
10	0x3c9c2936	0.01906262
11	0xbd7c17db	-0.061546188
12	0xbc7ebc7f	-0.015547871
13	0xbcd69843	-0.02619565
14	0x3d7beaca	0.06150321
15	0x3d059cd8	0.03262028
16	0xbbcaa45f	-0.0061841453
17	0xbd432796	-0.047645174
18	0xbcb9d710	-0.022685558
19	0xbd31cfa1	-0.0434109
20	0x3cc734f7	0.024317248
21	0xbc8f17cc	-0.017467402
22	0x3c72f69e	0.014829306
23	0x3d164a4f	0.03669196
24	0xbd22e84f	-0.039772328
25	0x3cbe63ff	0.023241041
26	0x3d5f882f	0.054573234
27	0x3d146a96	0.03623446
28	0xbd558529	-0.052128945
29	0x3d2d59b4	0.042321876
30	0xbd6c1f33	-0.05764694
31	0xbc72b931	-0.014814661
32	0x3d80803c	0.06274459
33	0xbc82c90f	-0.015965013
34	0x3bc55ff6	0.0060234023
35	0x3cfdd723	0.030986374
36	0x3d2a3d17	0.041562166
37	0xbd80f45c	-0.06296608
38	0xbd27c66e	-0.04096072
39	0xbd45c29f	-0.04828131
40	0xbc9968c0	-0.018726707
41	0xbc03a36b	-0.008034567
42	0xbc46b438	-0.012127928
43	0xbb3fc12b	-0.0029259424
44	0x3b4286ea	0.0029682466
45	0xbc8f5f2a	-0.017501432
46	0x3d7a80d2	0.06115801
47	0xbb8fa11c	-0.0043832194
48	0xbcc5ba9e	-0.024136838
49	0x3d760231	0.060060684

weight f4 [50]
0	0x3d2bfb51	0.04198772
1	0x3d1260b9	0.035736773
2	0x3d0a93e5	0.03383245
3	0x3d18ed2d	0.037335563
4	0x3d1dee48	0.03855732
5	0x3d40a6f9	0.047034238
6	0x3d2cba90	0.042170107
7	0x3d11ee39	0.035627577
8	0x3f242727	0.6412224
9	0x3d309fee	0.04312127
10	0x3d282b1a	0.04105673
11	0x3d1e5ce7	0.038662817
12	0x3edbfcbb	0.42966256
13	0x3d06c5d9	0.032903526
14	0x3d22733f	0.03966069
15	0x3d101c0f	0.03518301
16	0x3d1867cb	0.03720836
17	0x3d047b22	0.03234399
18	0x3d0d5c23	0.034511697
19	0x3d0783db	0.03308473
20	0x3d096afe	0.0335493
21	0x3d1e7f7c	0.038695797
22	0x3d1a90e8	0.03773585
23	0x3d078349	0.033084188
24	0x3cea9f5c	0.028640442
25	0x3cf97f35	0.030456165
26	0x3d21cca0	0.039501786
27	0x3cf962c8	0.03044261
28	0x3d167ffd	0.036743153
29	0x3d0e3203	0.034715664
30	0x3d0a87b1	0.03382081
31	0x3d0127ad	0.03153198
32	0x3d1785a3	0.03699268
33	0x3d04c8a2	0.0324179
34	0x3d029a1f	0.031885263
35	0x3d01a5af	0.03165215
36	0x3d208af1	0.039195005
37	0x3d31bff1	0.04339594
38	0x3d1b3eab	0.03790156
39	0x3d146a86	0.0362344
40	0x3d18ed89	0.037335906
41	0x3d15bbc2	0.036556013
42	0x3d076c0a	0.03306202
43	0x3d3526e5	0.044226546
44	0x3d1a8174	0.037721112
45	0x3d9f7131	0.077852614
46	0x3d0ed131	0.03486747
47	0x3d4036b1	0.046927158
48	0x3d192e1a	0.03739748
49	0x3d3f841d	0.046756852

bias f4 [50]
0	0x3f3a16ce	0.7269105
1	0x3f4d00ec	0.8007953
2	0x3f2e66bc	0.6812551
3	0x3f3c8e04	0.736542
4	0x3f541e82	0.8285905
5	0x3f3e0073	0.74219435
6	0x3f2f96ee	0.68589675
7	0x3f4bc61a	0.79599154
8	0xbffe7ecb	-1.9882444
9	0x3f370eca	0.7150694
10	0x3f4b9b07	0.7953343
11	0x3f54c8e0	0.8311901
12	0xbfbe540d	-1.48694
13	0x3f52772e	0.82213104
14	0x3f2e1fda	0.6801735
15	0x3f319b38	0.6937747
16	0x3f43984a	0.7640425
17	0x3f44073c	0.7657354
18	0x3f3e1245	0.7424663
19	0x3f3cfa34	0.7381928
20	0x3f32c21e	0.6982745
21	0x3f32da25	0.6986411
22	0x3f373ae9	0.71574265
23	0x3f3fe5ee	0.7496022
24	0x3f45314a	0.77028334
25	0x3f36c0f3	0.7138817
26	0x3f3d042e	0.738345
27	0x3f34227c	0.7036512
28	0x3f475c4c	0.7787521
29	0x3f387909	0.72059685
30	0x3f4216f8	0.758163
31	0x3f40bc9b	0.7528779
32	0x3f45e5c5	0.77303725
33	0x3f3d6374	0.7397988
34	0x3f3f80ab	0.74805707
35	0x3f32cf5a	0.69847643
36	0x3f3ad16f	0.7297582
37	0x3f4f0c20	0.80877876
38	0x3f4507ce	0.76965034
39	0x3f328af0	0.6974325
40	0x3f47d2b6	0.78055894
41	0x3f4041d7	0.75100464
42	0x3f42bf2e	0.7607297
43	0x3f445ff1	0.76708895
44	0x3f51c9ff	0.81948847
45	0x3d8ab224	0.06772259
46	0x3f3fad4c	0.74873805
47	0x3f41d7d9	0.7571998
48	0x3f3f72df	0.74784654
49	0x3f4700ac	0.777354

running_mean f4 [50]
0	0xbc832b6e	-0.01601192
1	0x3bee76bb	0.0072773374
2	0x3d1a8c1b	0.03773127
3	0xbb7c59a7	-0.0038505585
4	0x3c482358	0.012215458
5	0xbd4ff9cd	-0.050775338
6	0x3b825831	0.0039777984
7	0xbe018d4a	-0.12651554
8	0xbdad6184	-0.08465865
9	0xbb842b7c	-0.004033504
10	0x3d2f0e4f	0.042738255
11	0xbd6ac3dd	-0.057315696
12	0x3fb5c000	1.4199219
13	0xbced58b5	-0.028972963
14	0x3d6b750d	0.057484675
15	0x3deaad02	0.1145878
16	0x3cef89e0	0.029240549
17	0x3d8e1b1d	0.06938765
18	0x3d0885d6	0.03333076
19	0xbcfecc70	-0.031103343
20	0x3db21c48	0.086968005
21	0xbd47fca2	-0.048824914
22	0x3d999648	0.07499367
23	0xbc36f7c3	-0.011167469
24	0xbdb7d48e	-0.089760885
25	0x3d12fcc2	0.03588558
26	0x3e201fb7	0.15637098
27	0xbd728acb	-0.059214395
28	0x3d70d1f9	0.058793996
29	0x3d93428e	0.07190429
30	0xbca4a4a7	-0.020098044
31	0x3cb8ebaa	0.02257331
32	0x3953bc54	0.00020192686
33	0xbdbc1151	-0.0918299
34	0x3c75ff13	0.015014428
35	0xbc9a9ded	-0.018874133
36	0x3c8e9dd4	0.017409243
37	0xbd41af88	-0.04728654
38	0xbd0a6886	-0.033791088
39	0xbd4f0726	-0.050543927
40	0xbc075992	-0.008261101
41	0x3d5dabda	0.05411897
42	0x3d8558b7	0.06511062
43	0x3d9517a3	0.07279899
44	0x3de185b0	0.11011827
45	0xbe961f91	-0.29320958
46	0x3c2551a4	0.010090265
47	0xbda6c173	-0.08142366
48	0xbdaba3af	-0.083808295
49	0x3e463ccc	0.1935913

running_var f4 [50]
0	0x3edc33bc	0.4300822
1	0x3f2d85d4	0.6778233
2	0x3f0d8c0e	0.5529183
3	0x3f2879af	0.65810674
4	0x3f230746	0.63682973
5	0x3f29bcee	0.6630391
6	0x3f354917	0.7081465
7	0x3f1c2f5e	0.61009777
8	0x3f9c44e4	1.2208524
9	0x3f404f17	0.7512068
10	0x3f3667f3	0.71252364
11	0x3f19d1fc	0.60086036
12	0x3f0a615d	0.54054815
13	0x3f27b0cf	0.65504164
14	0x3f0b1e69	0.5434328
15	0x3f0de8d0	0.5543337
16	0x3f265823	0.64978236
17	0x3f07ed62	0.5309659
18	0x3f249d2d	0.6430233
19	0x3f1901a8	0.5976815
20	0x3f17d77e	0.5931319
21	0x3f347a6b	0.70499295
22	0x3f098200	0.5371399
23	0x3f2d972c	0.67808795
24	0x3eea7922	0.45795542
25	0x3f252380	0.64507294
26	0x3f35677c	0.7086103
27	0x3f1f37a6	0.6219429
28	0x3f04a845	0.5181926
29	0x3f2bb402	0.67071545
30	0x3f360d20	0.7111378
31	0x3f18f8db	0.59754723
32	0x3f23ec7e	0.64032733
33	0x3f256644	0.6460917
34	0x3f0fbfcf	0.5615205
35	0x3f311f61	0.69188505
36	0x3f0c076f	0.5469884
37	0x3f078978	0.52944136
38	0x3f30bb17	0.69035476
39	0x3ef67a70	0.48140287
40	0x3f254c55	0.645696
41	0x3ef1acd2	0.47202164
42	0x3f1a04b7	0.60163444
43	0x3f417cf6	0.755813
44	0x3f059611	0.5218211
45	0x3f368c5d	0.7130793
46	0x3f2a495f	0.66518205
47	0x3f055a9c	0.52091384
48	0x3f28eaee	0.65983474
49	0x3f3c1995	0.73476535

weight f4 [251, 50]
0	0xbcc8b370	-0.024499625
1	0xbc9f8178	-0.019470915
2	0x3ca39bbe	0.019971725
3	0xbba27b4e	-0.0049585467
4	0x3bfe9752	0.0077695036
5	0xbbf8e2f2	-0.0075954134
6	0x3b80e92c	0.0039340463
7	0xbc9edcc8	-0.019392386
8	0xc095626b	-4.668264
9	0xbbb7512f	-0.0055943946
10	0x3a66a8de	0.0008798967
11	0x3b494339	0.0030710234
12	0x3c2852f0	0.01027368
13	0x3c6e6ffb	0.014553065
14	0xbcbb52c2	-0.02286661
15	0xbb26dfd0	-0.0025462992
16	0x3baec4a4	0.0053335
17	0x3cae3cc8	0.021269217
18	0x3ca8a240	0.02058518
19	0x3958b6a8	0.0002066741
20	0x3cb65c12	0.0222607
21	0x3ba18b23	0.0049299165
22	0xbc7a3210	-0.015270725
23	0xbc9277f6	-0.017879467
24	0x3cbdb458	0.023157284
25	0xbc2888c9	-0.010286518
26	0xbc939dca	-0.018019576
27	0xbcb25b8a	-0.021772165
28	0x3c8eb9e5	0.017422626
29	0xbc5a439a	-0.0133217815
30	0xbc55837b	-0.013031836
31	0xbbedc4d4	-0.0072561298
32	0xbbf4712d	-0.0074597807
33	0xbcb2b1a3	-0.02181322
34	0xbca651e2	-0.020302717
35	0xbcacd63f	-0.021098254
36	0x3b8d6662	0.0043151835
37	0x3cc9e875	0.024646977
38	0xbb91178a	-0.004427855
39	0x3cc389db	0.023869446
40	0x3c24b681	0.010053278
41	0x3cbabff4	0.022796609
42	0x3ca7487d	0.020420307
43	0x3c2f91f8	0.010715954
44	0x3cadbb98	0.021207616
45	0x3bfb513b	0.0076695955
46	0xbcb465d4	-0.022021212
47	0xbb9f0b38	-0.0048536323
48	0xbc130d8c	-0.008975398
49	0x3aa5cf93	0.0012650363
50	0xbcb8586e	-0.022503104
51	0x3e90d758	0.28289294
52	0x3e4cd27a	0.20002165
53	0xbe413adf	-0.18870114
54	0xbe2d93e2	-0.16950944
55	0xbe59fd83	-0.21288113
56	0xbcdc685d	-0.026905233
57	0x3e166e17	0.14690433
58	0xbc97354d	-0.018458033
59	0xbec56859	-0.38556173
60	0x3d611943	0.054955732
61	0xbe96753b	-0.29386315
62	0xbd3d14c9	-0.0461624
63	0x3e056c1b	0.1302952
64	0xbe07a96f	-0.13248228
65	0xbdca08ba	-0.09864946
66	0x3df4c004	0.119506866
67	0x3eec5598	0.46159053
68	0x3e8fa9f4	0.2805935
69	0xbbca5acd	-0.006175375
70	0xbe02c5e5	-0.12770803
71	0xbe4920f9	-0.19641484
72	0xbd05dbbd	-0.032680262
73	0x3e681461	0.22664024
74	0x3e67d5c9	0.22640146
75	0xbd51a4db	-0.05118261
76	0x3eb25ad3	0.34834918
77	0xbe019b49	-0.12656893
78	0x3d4ceadf	0.050028678
79	0x3e13b09c	0.1442284
80	0x3e87b506	0.26505297
81	0xbde12044	-0.10992482
82	0xbcd34c71	-0.025793286
83	0x3c732aed	0.014841777
84	0x3ea7df20	0.32787418
85	0xbe860c76	-0.26181382
86	0x3ea79ad8	0.32735324
87	0x3d5d4416	0.05402001
88	0x3e76fe75	0.24120505
89	0x3db7b98d	0.08970938
90	0x3e4f938c	0.20271128
91	0x3eb7822d	0.35841504
92	0x3ea86ad1	0.32893994
93	0xbbae6639	-0.0053222445
94	0x3d22e230	0.03976649
95	0x3dd8d361	0.10587192
96	0xbe5c8b00	-0.215374
97	0xbcfcaa09	-0.030842798
98	0xbe798e16	-0.24370608
99	0x3e03f6de	0.12887141
100	0xbecb98c2	-0.39764982
101	0x3c8bf1aa	0.017083008
102	0x3dd0bea0	0.10192609
103	0xbe982ccb	-0.29721674
104	0xbe156fab	-0.14593379
105	0xbdfece09	-0.12441642
106	0x3e3f117f	0.18659018
107	0x3d2257b4	0.03963442
108	0x3c89a8fc	0.01680421
109	0xbecc0faa	-0.398557
110	0x3e0efa48	0.13962662
111	0xbd6aa0b6	-0.057282172
112	0xbdfadd82	-0.122492805
113	0xbe4c245a	-0.19935742
114	0x3e3a7844	0.1820994
115	0x3f0abcb0	0.54194164
116	0x3ed9d219	0.42543104
117	0x3cdc819a	0.026917268
118	0xbedd6c21	-0.43246558
119	0x3ef39593	0.47575054
120	0xbe001eb1	-0.12511708
121	0xbe0ea256	-0.13929114
122	0xbdecaa90	-0.1155597
123	0x3cfcd2c5	0.030862221
124	0x3de35040	0.11099291
125	0xbdfea485	-0.12433723
126	0x3f1240e7	0.57130283
127	0x3def0779	0.11671347
128	0x3d1716b2	0.03688688
129	0xbd080505	-0.033207912
130	0x3eefd721	0.46843818
131	0x3e3c782d	0.18405218
132	0x3eaccb97	0.33749077
133	0x3d0f8d0c	0.035046622
134	0x3ea87210	0.32899523
135	0xbdc24086	-0.09484963
136	0xbe3dc5da	-0.18532506
137	0x3dc26bb2	0.094931975
138	0xbe7f8254	-0.2495206
139	0xbed317ca	-0.41229087
140	0x3e9f05a8	0.31059003
141	0x3d927816	0.07151811
142	0x3e3eddee	0.18639347
143	0xbd12d27a	-0.035845257
144	0x3e82a1ce	0.25514072
145	0xbd296ca7	-0.041363385
146	0xbdc0d9a3	-0.09416511
147	0x3b0c5899	0.0021415113
148	0xbb6a3a36	-0.0035740263
149	0xbe7d5006	-0.24737558
150	0x3db23d19	0.0870306
151	0xbe76f61e	-0.24117324
152	0xbda19210	-0.07889187
153	0xbd4e0683	-0.05029918
154	0xbd9c1837	-0.07621806
155	0x3da5dd6b	0.08098873
156	0xbd658979	-0.056039307
157	0xb927a3e8	-0.00015987421
158	0x3c31771e	0.010831622
159	0x3ec48246	0.3838064
160	0xbe103fbd	-0.14086814
161	0xbe7496f9	-0.23885716
162	0x3e57aca2	0.21061948
163	0xbdbd0699	-0.09229774
164	0xbd94322c	-0.07236132
165	0x3dd0d5d0	0.101970315
166	0xbcca9a97	-0.024731917
167	0x3e5ad75d	0.21371217
168	0xbda9f056	-0.082977936
169	0x3ee15e46	0.44017237
170	0xbe4e08de	-0.2012057
171	0xbeb6bfa7	-0.35693094
172	0x3e923537	0.28556225
173	0xbcd424a9	-0.025896387
174	0xbd8e7f53	-0.06957879
175	0xbe4ff080	-0.20306587
176	0x3e6b8c27	0.23002683
177	0xbd3b6dfb	-0.045759182
178	0x3ee6b371	0.45058778
179	0x3e6ba938	0.2301377
180	0x3c50b96b	0.01273952
181	0xbe3b21b7	-0.1827458
182	0x3ea5a9f3	0.32356223
183	0x3d199ccf	0.03750306
184	0x3e9e81a8	0.30958295
185	0x3da84f9a	0.08218308
186	0x3c64de36	0.013968995
187	0x3db0b740	0.08628702
188	0xbea4b3c0	-0.32168388
189	0xbccaa0be	-0.024734851
190	0x3d7d0e1f	0.061781045
191	0x3d7f0d2e	0.06226843
192	0xbe611a60	-0.21982718
193	0xba5f5dbb	-0.0008520742
194	0xbdc602a4	-0.096684724
195	0x3dc1f192	0.09469904
196	0x3dd29356	0.10282008
197	0x3e8f767c	0.28020084
198	0xbe00d498	-0.12581098
199	0x3e6f2ede	0.23357722
200	0xbdc6eb9d	-0.097129084
201	0x3d35c3c6	0.044376157
202	0x3cf45881	0.029827358
203	0x3eb07639	0.34465197
204	0xbc124dfa	-0.008929724
205	0xbdb24247	-0.08704048
206	0xbcc5568a	-0.024089117
207	0x3e2f3e51	0.17113616
208	0xba913bb5	-0.0011080416
209	0xbcef019a	-0.029175568
210	0x3d70d037	0.05879232
211	0x3ce9fe31	0.02856359
212	0x3ed6979a	0.41912538
213	0x3de00c39	0.10939831
214	0xbe340807	-0.17581187
215	0xbc94d211	-0.018166574
216	0x3cd6e267	0.026231004
217	0x3eb60374	0.3554951
218	0x3d1b60e6	0.037934206
219	0xbdaac100	-0.08337593
220	0xbbe1f19f	-0.0068952586
221	0xbea98707	-0.3311083
222	0xbe9c81ed	-0.30567876
223	0x3e55be6f	0.20873426
224	0x3e126b65	0.1429878
225	0xbe9b3cb8	-0.30319762
226	0x3d1427f4	0.036170915
227	0xbe6c1831	-0.23056103
228	0x3e32bc8f	0.17454742
229	0x3e8c7fac	0.27441156
230	0x3f11abbd	0.56902677
231	0x3df0815b	0.117434226
232	0xbd68c479	-0.056827996
233	0x3dd9dc06	0.10637669
234	0xbd964e8a	-0.07339199
235	0xbd5a57d9	-0.053306434
236	0x3e739b09	0.2378961
237	0x3dfc94f7	0.123331
238	0xbdba87ab	-0.09107908
239	0x3d97ce30	0.07412374
240	0x3dcc5185	0.09976486
241	0x3dabb5c4	0.083842784
242	0x3e494233	0.19654159
243	0x3e4d6b56	0.20060477
244	0x3da6d518	0.08146113
245	0xbe0daf5b	-0.13836424
246	0x3e373179	0.17889966
247	0xbe76efc0	-0.24114895
248	0xbe1aca5e	-0.1511626
249	0x3da042ee	0.07825266
250	0x3d245ee6	0.040129565
251	0x3eaacd9b	0.3335999
252	0x3e010efa	0.1260337
253	0x3d5cf304	0.053942695
254	0x3cc1f014	0.023674048
255	0xbc2319f4	-0.009954918

bias f4 [251]
0	0x3d8d9ce1	0.06914688
1	0x3e109230	0.14118266
2	0xbde884ab	-0.113534294
3	0x3c87466f	0.016513078
4	0xbe064ec8	-0.1311599
5	0xbda08591	-0.07837976
6	0x3cb4d542	0.022074345
7	0x3d88c4d1	0.06678165
8	0xbd7dff37	-0.06201097
9	0xbd779ae9	-0.06045047
10	0xbc227f70	-0.009918079
11	0xbdfaa000	-0.12237549
12	0x3d99e4b7	0.07514327
13	0xbd367c3f	-0.044552084
14	0x3e0e3416	0.13887057
15	0x3dcbb254	0.09946123
16	0xbc32a566	-0.010903692
17	0xbc0f16f3	-0.008733499
18	0x3dc569d3	0.09639325
19	0x3cf8c40f	0.030366926
20	0x3dad8db9	0.08474297
21	0x3cea8aaf	0.028630583
22	0x3dc1b481	0.094582565
23	0xbe0394ec	-0.12849778
24	0xbc30564c	-0.010762762
25	0xbc061e33	-0.008185911
26	0x3ccfa202	0.025345806
27	0xbdfc0076	-0.123047754
28	0x3dadd86c	0.08488545
29	0x3dfc0e97	0.1230747
30	0x3afba956	0.0019200246
31	0x3df37590	0.11887658
32	0x3cf4bbf6	0.029874783
33	0x3db8c322	0.09021594
34	0x3d81d9e9	0.06340391
35	0xbdbea481	-0.093087204
36	0x3dd50d49	0.104029246
37	0x3df25c3a	0.11833997
38	0xbcf49979	-0.029858338
39	0x3d773a6e	0.060358457
40	0x3c2b4b9c	0.010455038
41	0x3d113f4d	0.03546076
42	0xbdadb350	-0.08481467
43	0x3b426faf	0.002966862
44	0xbb1d1044	-0.0023965994
45	0x3e0f80e9	0.14014019
46	0x3cc9e0cb	0.024643322
47	0xbd18d2c0	-0.03731036
48	0x3d5e653d	0.054295767
49	0x3d92132e	0.071325645
50	0x3de870af	0.11349618
51	0x3dc5c132	0.0965599
52	0xbdaad688	-0.083417
53	0x3d446b84	0.047954097
54	0x3e020231	0.12696148
55	0xbd98079e	-0.07423328
56	0x3d2a5ffb	0.04159544
57	0xbc8df5b5	-0.017329076
58	0x3e02dca0	0.12779474
59	0xbe03973d	-0.12850662
60	0x3c8900ec	0.016724072
61	0x3d81677b	0.063185655
62	0x3d60204b	0.054718297
63	0x3ca70ce9	0.020391898
64	0xbd5b6e2f	-0.053571876
65	0x3df181d3	0.1179234
66	0x3de092f9	0.10965533
67	0x3d1182bf	0.03552508
68	0x3def2d4b	0.11678561
69	0x3cbc47c8	0.022983447
70	0x3e0544b7	0.13014494
71	0x3dd7d7e1	0.105392225
72	0x3b3d3fac	0.0028877063
73	0xbe18dc69	-0.1492783
74	0xbd6d30ed	-0.057907987
75	0xbb686075	-0.0035457883
76	0xbdb3df5e	-0.08782838
77	0x3ced8387	0.028993381
78	0xbda38d98	-0.07985991
79	0xbc7dd967	-0.015493727
80	0x3d2add16	0.04171475
81	0x3dc3304a	0.09530695
82	0x3cea2e41	0.028586509
83	0xbda4fad7	-0.080556564
84	0x3d24b6ad	0.040213276
85	0x3afe87b3	0.0019419104
86	0xbc97e108	-0.01853992
87	0xbd2b4992	-0.04181821
88	0xbd5715b4	-0.052510932
89	0x3da3f858	0.08006352
90	0x3de885d3	0.1135365
91	0x3dee8b6a	0.11647685
92	0x3dff3cf9	0.124628015
93	0xbd890470	-0.066902995
94	0xbd89783b	-0.06712385
95	0x3da9b593	0.08286586
96	0xbd184d99	-0.037183378
97	0xbe050db1	-0.12993504
98	0xbd544f26	-0.051833294
99	0x3c8e5a28	0.017376974
100	0xbc654051	-0.013992385
101	0x3de8673a	0.11347814
102	0xbc809fa6	-0.015701126
103	0xbd17008e	-0.036865763
104	0xbc9221b0	-0.01783833
105	0x3cfbbadd	0.030728752
106	0xbd7c5a9c	-0.06160985
107	0xbd758b87	-0.059947517
108	0xbdb0b92c	-0.08629069
109	0xbd96e9ad	-0.07368789
110	0x3dd556e2	0.10416962
111	0xbdcf5d09	-0.10125167
112	0x3df643d3	0.12024655
113	0x3d80cd0e	0.06289111
114	0x3d2634dd	0.040577758
115	0xbe0efa2c	-0.1396262
116	0x3d54a76a	0.05191747
117	0x3c8faf66	0.017539691
118	0x3da44cad	0.08022437
119	0xbcccb37f	-0.024987934
120	0x3d4fb682	0.050711162
121	0xbd1a79f5	-0.037713964
122	0xbd035bfa	-0.032070138
123	0xbcba6403	-0.022752767
124	0xbe087e6a	-0.13329473
125	0x3c7f09b8	0.015566282
126	0xbda09659	-0.078411765
127	0xbd8d32f4	-0.06894484
128	0xbd94811c	-0.07251188
129	0xbd83958f	-0.064250104
130	0x3d1bf756	0.038077675
131	0xbd622814	-0.055214003
132	0xbd33d467	-0.043903735
133	0x3e101cff	0.14073561
134	0x3d25e79f	0.040504094
135	0xbd0a242f	-0.033725914
136	0x3cc71165	0.024300287
137	0x3d74f0b7	0.059799876
138	0x3cbcd96c	0.023052894
139	0xbdbab6e6	-0.09116916
140	0xbd8adef5	-0.06780807
141	0x3d5d5098	0.05403194
142	0x3dc856b1	0.0978216
143	0x3d288751	0.041144673
144	0xbda4c0c9	-0.08044583
145	0xbd3bb9c2	-0.04583145
146	0xbd0698ba	-0.032860495
147	0xbdcfb04e	-0.10141049
148	0x3c868e53	0.016425287
149	0xbdb0f047	-0.08639579
150	0xbdfe2370	-0.12409103
151	0xbe154a4a	-0.1457912
152	0x3bd2e8c1	0.006436438
153	0x3e01e924	0.12686592
154	0xbd86a4f3	-0.0657443
155	0xbd1540a6	-0.036438607
156	0xbd8f8209	-0.07007224
157	0xbd085833	-0.03328724
158	0xbc0fecbf	-0.008784472
159	0xbdacbbff	-0.08434295
160	0x3d93d11e	0.0721762
161	0xbdd65d15	-0.10466973
162	0xbc808f71	-0.015693398
163	0x3db1e0cd	0.086854555
164	0x3dbd0242	0.09228946
165	0x3db1672e	0.08662258
166	0xbdd9fe83	-0.106442474
167	0x3c7f5de5	0.015586351
168	0xbd9eecea	-0.077600315
169	0xbe0f966b	-0.14022224
170	0x3d832a0b	0.064045034
171	0x3d072ff4	0.033004716
172	0xbccd8911	-0.025089772
173	0xbd653b73	-0.0559649
174	0x3dc2c43d	0.09510086
175	0x3e0162c0	0.12635326
176	0x3c182b8a	0.009287724
177	0xbd0ebb79	-0.034846757
178	0x3b017573	0.0019753843
179	0xbd1eb43b	-0.0387461
180	0xbde7ef88	-0.11324984
181	0xbd503301	-0.05082989
182	0xbb6ee344	-0.003645138
183	0xbcb48b46	-0.022039067
184	0x3da9f2f6	0.08298294
185	0xbdfc91fe	-0.12332533
186	0xbe0f9ca0	-0.14024591
187	0x3dcdc10f	0.10046589
188	0xbddbd84b	-0.10734614
189	0x3e03889d	0.12845083
190	0x3d99e002	0.07513429
191	0x3df63bc5	0.12023119
192	0xbdb65531	-0.08902968
193	0xbd994153	-0.07483163
194	0xbd237313	-0.039904665
195	0x3db0792c	0.08616862
196	0xbdf4a4bf	-0.11945485
197	0xbd5f04bb	-0.05444787
198	0x3cd2433f	0.025666831
199	0x3d80cec1	0.06289435
200	0xbc679250	-0.014134005
201	0x3d00c5ba	0.031438567
202	0x3de98e0b	0.11404046
203	0xbde6e4d8	-0.11274117
204	0x3debde6d	0.11517034
205	0xbbad871e	-0.0052956482
206	0xbe087082	-0.13324168
207	0x3d8ec73c	0.06971595
208	0x3d9ab4af	0.07553994
209	0xbe042440	-0.12904453
210	0xbdfc91e6	-0.123325154
211	0xbd64be6f	-0.055845674
212	0x3dc05d63	0.09392812
213	0x3c3a6616	0.011376878
214	0xbd00ef39	-0.03147814
215	0x3c04d4c3	0.008107367
216	0xbd6c5ca6	-0.057705544
217	0x3ce47278	0.027886614
218	0xbdbce412	-0.092231885
219	0xbd70dfc9	-0.05880717
220	0x3da86b9d	0.082236506
221	0x3dc5c4e2	0.09656693
222	0x3e08bb7e	0.13352773
223	0xbcca7d53	-0.024717962
224	0x3da80e55	0.082058586
225	0x3d47594d	0.04866915
226	0x3d9a72f5	0.075414576
227	0xbd483393	-0.04887731
228	0xbbac3fe9	-0.005256642
229	0xbc3fbaaa	-0.011702219
230	0xbc763703	-0.015027764
231	0xbd59bbae	-0.0531575
232	0xbc473a5a	-0.012159908
233	0x3dc311b5	0.09524862
234	0xbdaf53a8	-0.08560878
235	0xbdc0fa08	-0.0942269
236	0x3d53b354	0.051684693
237	0xbda9c7f8	-0.08290094
238	0xbbf048a3	-0.0073328777
239	0xbd937c34	-0.07201424
240	0xbca9ba88	-0.020718828
241	0x3dceb960	0.10093951
242	0xbd0196a7	-0.031637814
243	0xbdb76999	-0.08955688
244	0xbb07a44f	-0.00206973
245	0x3e095826	0.13412532
246	0x3e007904	0.12546164
247	0xbd1868f2	-0.03720946
248	0x3dd6aee2	0.10482575
249	0xbcbd1340	-0.023080468
250	0x3dd381fe	0.103275284

weight f4 [251]
0	0x404e5675	3.224027
1	0x3fa8f97e	1.3201139
2	0x3fc29d19	1.5204192
3	0x3f8f8595	1.1212641
4	0x3f2ea82a	0.6822535
5	0x3fc8f68e	1.5700243
6	0x3fcab350	1.5835972
7	0x3fb74ffc	1.4321284
8	0x3fd37d5a	1.6522629
9	0x3fc80c31	1.562872
10	0x3f39d171	0.7258521
11	0x3fd09bda	1.6297562
12	0x3fbddbd2	1.4832709
13	0x3f952b43	1.1653827
14	0x3fc53a52	1.5408423
15	0x3f874bc4	1.0569997
16	0x3fc5c399	1.5450317
17	0x3fc33670	1.5250988
18	0x3fc8cad4	1.5686898
19	0x3fc6406c	1.548841
20	0x3fc9f75a	1.5778611
21	0x3fc5ac64	1.5443234
22	0x3fcf61c5	1.6201712
23	0x3fac8c02	1.3480227
24	0x3fcf5cf5	1.6200243
25	0x3fb8df5e	1.4443166
26	0x3fc962c8	1.5733271
27	0x3fce9504	1.6139226
28	0x3fca3388	1.5796976
29	0x3fcb82f8	1.5899343
30	0x3f85e095	1.0459162
31	0x3fcc6d7c	1.5970912
32	0x3fc9b45b	1.5758165
33	0x3fc40033	1.5312561
34	0x3fcf9959	1.6218673
35	0x3fca5b8a	1.5809186
36	0x3fc2c503	1.5216373
37	0x3fccb16b	1.5991644
38	0x3fa0baaa	1.2556965
39	0x3fa1c514	1.2638268
40	0x3fbb0a86	1.4612586
41	0x3fd15154	1.6352944
42	0x3fd206dc	1.6408343
43	0x3fc9df8d	1.5771347
44	0x3fc9f734	1.5778565
45	0x3fc69e50	1.5517063
46	0x3fc79231	1.5591489
47	0x3fc726bc	1.5558696
48	0x4017b845	2.370622
49	0x3fc26768	1.5187807
50	0x3fac40e7	1.3457307
51	0x3fc98174	1.5742631
52	0x3fcaa28e	1.5830858
53	0x3fcc022c	1.5938163
54	0x3fb3f732	1.4059813
55	0x3faf2cbd	1.3685528
56	0x3f387112	0.7204753
57	0x3fb1bfd3	1.3886665
58	0x3fc4d1f5	1.5376574
59	0x3fcc776c	1.5973945
60	0x3fc884bb	1.5665506
61	0x3fcdc74b	1.6076444
62	0x3fc1ef28	1.515111
63	0x3fc775bb	1.5582803
64	0x3fc8a695	1.5675837
65	0x3fcb9443	1.5904621
66	0x3fd0b073	1.6303848
67	0x3fa94c9b	1.3226503
68	0x3fc5de3e	1.5458448
69	0x3fc501e9	1.5391208
70	0x3fa7957b	1.3092493
71	0x3fb9ab9e	1.4505498
72	0x3fc084bd	1.5040509
73	0x3fcc351f	1.5953711
74	0x3fc8e2b1	1.5694181
75	0x3fb04812	1.3771994
76	0x3fca88ea	1.5823033
77	0x3fccd6bb	1.600303
78	0x3fc2db36	1.5223148
79	0x3fb410f1	1.406767
80	0x3fcd792f	1.6052607
81	0x3fccd16d	1.6001412
82	0x3fb8017a	1.4375451
83	0x3fcc5394	1.5963006
84	0x3fcdc307	1.6075143
85	0x3fc07c7b	1.5037988
86	0x3fcac1bc	1.5840373
87	0x3fac0790	1.3439808
88	0x3fc5b214	1.544497
89	0x3fbc3821	1.4704629
90	0x3fbb8708	1.4650583
91	0x3fcb6b92	1.5892203
92	0x3fcbd58b	1.5924543
93	0x3f149b7f	0.5804977
94	0x3fc6df25	1.5536848
95	0x3fcc8062	1.5976679
96	0x3fd31315	1.6490198
97	0x3fc4424a	1.533273
98	0x3fc49993	1.5359367
99	0x3fcd1850	1.6023045
100	0x3f8bda72	1.0926039
101	0x4013dbe7	2.3102968
102	0x3fcfc016	1.6230495
103	0x3fb94413	1.44739
104	0x3fcf505d	1.61964
105	0x3fbfdbac	1.4988914
106	0x3fc60d42	1.5472796
107	0x3fcb485a	1.5881455
108	0x3fca3d0d	1.5799881
109	0x3f96b01b	1.1772493
110	0x3fcf918b	1.6216291
111	0x3fb8a557	1.4425458
112	0x3fb5b86b	1.4196905
113	0x3f83a451	1.028452
114	0x3fc5b401	1.5445558
115	0x3fcb623d	1.5889355
116	0x3fb1e60e	1.3898332
117	0x3fb203b4	1.390738
118	0x3fce5bd7	1.6121777
119	0x3fb7e314	1.4366174
120	0x3fa8f071	1.3198377
121	0x3fabee81	1.3432161
122	0x3fbc6156	1.4717205
123	0x3f46442a	0.7744776
124	0x3fae7995	1.3630854
125	0x3f97d7e7	1.1862763
126	0x3fae0522	1.3595316
127	0x40110b24	2.266305
128	0x3fbd86fa	1.4806817
129	0x3fc50ee5	1.539517
130	0x3fcaf617	1.5856351
131	0x3fc74eb4	1.5570893
132	0x3fcc6bd3	1.5970405
133	0x3fc78b3f	1.558937
134	0x3fa0c6ec	1.2560706
135	0x3fcb9985	1.5906225
136	0x3fb38d2b	1.4027456
137	0x3fce0519	1.6095306
138	0x3fc66850	1.5500584
139	0x3fc091ec	1.5044532
140	0x3faf890b	1.3713697
141	0x3fcbf010	1.5932636
142	0x3fb8d00b	1.443849
143	0x3fba5168	1.4556093
144	0x3fc72a88	1.5559855
145	0x3fcf23c6	1.6182792
146	0x3fb72759	1.4308883
147	0x3fb8d038	1.4438543
148	0x3fbcb97e	1.4744108
149	0x3fd215f0	1.6412945
150	0x3fc624da	1.5479996
151	0x3fc975b3	1.5739044
152	0x3fc99096	1.5747249
153	0x3fc8b6f3	1.5680832
154	0x3fc9df54	1.5771279
155	0x3f66eceb	0.9020526
156	0x3fc97bf5	1.5740954
157	0x3fc9a037	1.5752019
158	0x3fa47b44	1.2850118
159	0x3fd36000	1.6513672
160	0x3fc8d429	1.5689746
161	0x3fcacbc6	1.5843437
162	0x3fd24b99	1.642932
163	0x3fcf26d9	1.618373
164	0x3f9c95c4	1.2233205
165	0x3fc45a33	1.5340027
166	0x3f98da05	1.1941534
167	0x3fc6cbe8	1.5530977
168	0x3fbc6e35	1.4721133
169	0x3fc72f23	1.556126
170	0x3fb1a9a1	1.3879892
171	0x3fc97e40	1.5741653
172	0x3fd0b8c5	1.6306387
173	0x3fcb575a	1.5886033
174	0x3fc6fdf6	1.5546253
175	0x3fc31ab4	1.5242524
176	0x3fbfa40e	1.497194
177	0x3fa6bb7c	1.3025966
178	0x3fd06c4e	1.6283052
179	0x3f5487db	0.830198
180	0x3fcb2f6b	1.5873846
181	0x3fb6533a	1.4244149
182	0x3fcc7a50	1.5974827
183	0x3fce5fa1	1.6122934
184	0x3fbbdb25	1.4676253
185	0x3fccccb0	1.5999966
186	0x3fc85a78	1.5652609
187	0x3fbe01c9	1.4844295
188	0x3fbd5d7a	1.4794152
189	0x3fc0ea8c	1.5071578
190	0x3fbb0f9d	1.461414
191	0x3f662bb9	0.89910465
192	0x3f94ed36	1.1634891
193	0x3fcf4519	1.6192962
194	0x3fa206a1	1.2658273
195	0x3fcd0e62	1.6020014
196	0x3fb53073	1.415541
197	0x3fc6362f	1.5485286
198	0x3fcb94ba	1.5904763
199	0x3f2d4d92	0.6769649
200	0x3fa3ebcb	1.2806333
201	0x3fbdc2fe	1.4825132
202	0x3fc0eceb	1.5072302
203	0x3fcde6db	1.6086076
204	0x3fc86594	1.5655999
205	0x3fcb1d9a	1.5868409
206	0x3fcd3c27	1.6033982
207	0x3f38aa55	0.72134906
208	0x3fcafd86	1.5858619
209	0x3fa2e675	1.272658
210	0x3fb87a2d	1.4412285
211	0x3faa336a	1.329694
212	0x3fd06f89	1.6284038
213	0x3fccdd13	1.6004966
214	0x3fc4e701	1.5382997
215	0x3fcb7f53	1.5898231
216	0x3fc91b7b	1.5711511
217	0x3fa80417	1.3126248
218	0x3fd0cfbd	1.6313397
219	0x3fb58f55	1.4184366
220	0x3f9f20e5	1.2431914
221	0x3fc8ad7f	1.5677947
222	0x3fcc5893	1.5964531
223	0x3fcb5141	1.5884172
224	0x3fcc6cad	1.5970665
225	0x3fc2c755	1.5217081
226	0x3fcb2434	1.5870423
227	0x3f99a703	1.2004093
228	0x3fcead03	1.6146549
229	0x3fcdaf3a	1.60691
230	0x3eb73875	0.3578526
231	0x3fae8fe3	1.3637661
232	0x3fc25a46	1.5183799
233	0x3fc844d7	1.5646008
234	0x3fc9d66a	1.5768559
235	0x3fc16aad	1.511068
236	0x3fc791d3	1.5591377
237	0x3fd26ebb	1.6440042
238	0x3fcff87b	1.6247705
239	0x3facfc46	1.3514488
240	0x3fcc6a78	1.5969992
241	0x3fca50d1	1.5805913
242	0x3fa8a9fa	1.3176873
243	0x3fcc2408	1.5948496
244	0x3fb45d62	1.4090998
245	0x3fcc209b	1.594745
246	0x3fc9aae1	1.5755273
247	0x3fc5fea0	1.546833
248	0x3fa730df	1.3061789
249	0x3fc5314b	1.5405668
250	0x3fb3378c	1.4001327

bias f4 [251]
0	0x406f2396	3.736547
1	0xc06c377b	-3.6908863
2	0xc06e2a3a	-3.7213273
3	0xc05ff8d7	-3.499563
4	0xc0542c06	-3.315187
5	0xc06fc0c9	-3.7461417
6	0xc07297f0	-3.7905235
7	0xc06e632d	-3.7248032
8	0xc0730bc4	-3.797593
9	0xc06f78bd	-3.7417443
10	0xc0555bbd	-3.3337243
11	0xc0742847	-3.8149583
12	0xc0745358	-3.817587
13	0xc06252c2	-3.5363011
14	0xc071375b	-3.7690036
15	0xc05f594d	-3.4898255
16	0xc0705461	-3.75515
17	0xc06ec2c2	-3.730637
18	0xc0718e2e	-3.774303
19	0xc06edec7	-3.7323472
20	0xc06fef2b	-3.7489727
21	0xc0723bf6	-3.7849097
22	0xc07267ab	-3.7875774
23	0xc06b0201	-3.6719973
24	0xc076017a	-3.8438401
25	0xc06f2588	-3.7366657
26	0xc072dcd6	-3.7947288
27	0xc0764e60	-3.8485336
28	0xc075d3b0	-3.8410454
29	0xc07546f7	-3.8324564
30	0xc05f6b63	-3.4909294
31	0xc0747c9c	-3.8201056
32	0xc0740649	-3.8128836
33	0xc070cc13	-3.7624557
34	0xc07147d0	-3.770008
35	0xc07243c8	-3.785387
36	0xc06ce354	-3.701375
37	0xc0709628	-3.7591648
38	0xc067479a	-3.6137452
39	0xc066acf4	-3.6043062
40	0xc06e7741	-3.7260287
41	0xc075294f	-3.8306463
42	0xc075b9f3	-3.8394744
43	0xc07197b0	-3.7748833
44	0xc06fcc0f	-3.7468297
45	0xc072b1bd	-3.7920983
46	0xc0752df4	-3.8309298
47	0xc0766dc2	-3.850449
48	0xc090dfe0	-4.5273285
49	0xc073f237	-3.8116586
50	0xc0680365	-3.6252072
51	0xc06f1687	-3.73575
52	0xc0707484	-3.7571115
53	0xc0733cd8	-3.8005886
54	0xc06bc81a	-3.6840882
55	0xc06abcef	-3.6677816
56	0xc0565243	-3.3487709
57	0xc069608b	-3.6465175
58	0xc0715d60	-3.7713242
59	0xc071eed1	-3.7802012
60	0xc072f35d	-3.7961037
61	0xc075e7e2	-3.842278
62	0xc073eb08	-3.8112202
63	0xc0754ac6	-3.8326888
64	0xc0715193	-3.770604
65	0xc06edb72	-3.7321439
66	0xc0721b06	-3.7828994
67	0xc069db80	-3.6540222
68	0xc0733e75	-3.800687
69	0xc070db43	-3.7633827
70	0xc069aa7b	-3.6510303
71	0xc06ea252	-3.7286572
72	0xc06f6e0e	-3.7410922
73	0xc071840c	-3.7736845
74	0xc075246e	-3.8303485
75	0xc06c8cfa	-3.6961045
76	0xc070d8cd	-3.7632325
77	0xc0741bc1	-3.814194
78	0xc0720ae2	-3.7819142
79	0xc06fea43	-3.7486732
80	0xc071a3b9	-3.7756178
81	0xc07326a6	-3.799234
82	0xc06fc9ac	-3.746684
83	0xc070c0f8	-3.7617779
84	0xc06d9b6d	-3.7126114
85	0xc06f405e	-3.7383037
86	0xc07018f1	-3.7515223
87	0xc06cc7e6	-3.6997008
88	0xc073a156	-3.8067222
89	0xc06ecfca	-3.7314324
90	0xc0703691	-3.7533305
91	0xc06ff207	-3.7491472
92	0xc071487e	-3.7700496
93	0xc0528d49	-3.2898734
94	0xc06fbb83	-3.7458198
95	0xc0717c3a	-3.7732072
96	0xc0728766	-3.789514
97	0xc073ae9f	-3.807533
98	0xc0733945	-3.8003705
99	0xc072cc9e	-3.7937388
100	0xc05ebbb0	-3.4802055
101	0xc08b3449	-4.3501325
102	0xc073a348	-3.806841
103	0xc06e2d97	-3.7215326
104	0xc06f850a	-3.742495
105	0xc0723e1d	-3.785041
106	0xc07152c5	-3.7706769
107	0xc06e0da9	-3.7195837
108	0xc0746e13	-3.8192184
109	0xc0629917	-3.5405939
110	0xc06f5eb7	-3.740156
111	0xc06f6018	-3.74024
112	0xc06c78e8	-3.6948795
113	0xc05b4a42	-3.4264073
114	0xc0723eaa	-3.7850747
115	0xc0707495	-3.7571156
116	0xc06edc2c	-3.7321882
117	0xc06a0407	-3.6564958
118	0xc07478c9	-3.8198721
119	0xc070a216	-3.759893
120	0xc06c72da	-3.69451
121	0xc06a95d1	-3.665394
122	0xc06f90f5	-3.7432225
123	0xc0583170	-3.3780174
124	0xc06bece5	-3.686334
125	0xc05fd872	-3.4975858
126	0xc069f8c1	-3.6558077
127	0xc08b9d7e	-4.362975
128	0xc0717fe7	-3.7734315
129	0xc071899b	-3.7740238
130	0xc071f229	-3.7804053
131	0xc06f6724	-3.7406702
132	0xc073c22d	-3.8087265
133	0xc071d5bf	-3.778671
134	0xc0643ebf	-3.5663297
135	0xc06de018	-3.7168026
136	0xc06ce3a7	-3.7013948
137	0xc074becd	-3.8241456
138	0xc0730850	-3.7973824
139	0xc071825a	-3.773581
140	0xc06ce7b7	-3.7016428
141	0xc06e3aea	-3.7223458
142	0xc06e5707	-3.7240617
143	0xc0704294	-3.7540636
144	0xc0722791	-3.783665
145	0xc072ebe1	-3.795647
146	0xc06f1862	-3.7358632
147	0xc06e91e3	-3.7276542
148	0xc0712b9e	-3.7682872
149	0xc0706bfe	-3.7565913
150	0xc06cf638	-3.702528
151	0xc0709266	-3.7589355
152	0xc071d19a	-3.778418
153	0xc07200c6	-3.7812972
154	0xc073d78a	-3.8100305
155	0xc05967d1	-3.3969615
156	0xc06e4325	-3.7228482
157	0xc07055d2	-3.755238
158	0xc066c932	-3.60603
159	0xc0771356	-3.8605552
160	0xc0735b4d	-3.8024476
161	0xc071fd3a	-3.7810807
162	0xc07242c5	-3.7853253
163	0xc06f687e	-3.7407527
164	0xc063fff6	-3.5624976
165	0xc0739b49	-3.8063529
166	0xc0661a1e	-3.595344
167	0xc072c6f9	-3.7933943
168	0xc06d55b6	-3.7083564
169	0xc070fc9a	-3.7654176
170	0xc06cc343	-3.6994178
171	0xc072dd00	-3.7947388
172	0xc0723f0a	-3.7850976
173	0xc070b299	-3.7609007
174	0xc0701c56	-3.7517295
175	0xc070499e	-3.7544932
176	0xc06dec4e	-3.717548
177	0xc06840b4	-3.6289492
178	0xc07043ac	-3.7541304
179	0xc056f805	-3.358888
180	0xc070eb08	-3.7643452
181	0xc06f5c84	-3.7400217
182	0xc06f7d1a	-3.7420106
183	0xc06bcbbb	-3.6843097
184	0xc06e83b6	-3.726789
185	0xc06f8db4	-3.7430239
186	0xc0717974	-3.773038
187	0xc070dd8a	-3.7635217
188	0xc0727323	-3.7882774
189	0xc0712f48	-3.7685108
190	0xc06df2ba	-3.7179399
191	0xc0597614	-3.397832
192	0xc063b9cd	-3.5582154
193	0xc06f4ef2	-3.7391934
194	0xc06791e8	-3.6182804
195	0xc0737e5c	-3.8045874
196	0xc06f574e	-3.7397037
197	0xc06c1913	-3.6890304
198	0xc06ecc34	-3.7312136
199	0xc0523e1b	-3.2850406
200	0xc06783e9	-3.6174262
201	0xc0713aed	-3.7692215
202	0xc073cb99	-3.8093016
203	0xc0721865	-3.782739
204	0xc071d473	-3.7785919
205	0xc075155e	-3.8294291
206	0xc0736184	-3.802827
207	0xc056419e	-3.347755
208	0xc071f7bf	-3.7807462
209	0xc0659afe	-3.587585
210	0xc06db0a0	-3.7139053
211	0xc069814f	-3.6485174
212	0xc0767916	-3.8511405
213	0xc06eb545	-3.7298138
214	0xc0743ca0	-3.8162003
215	0xc06e407a	-3.7226853
216	0xc0709dbd	-3.7596276
217	0xc0664718	-3.5980892
218	0xc0739f72	-3.8066068
219	0xc06ff3d2	-3.7492566
220	0xc0644d6f	-3.5672262
221	0xc072ff4b	-3.7968318
222	0xc0706a56	-3.7564902
223	0xc06f3518	-3.7376156
224	0xc074d796	-3.8256583
225	0xc074dc48	-3.825945
226	0xc0721e97	-3.783117
227	0xc0645c2c	-3.5681257
228	0xc06f8aa5	-3.7428372
229	0xc0701b7e	-3.751678
230	0xc052d79a	-3.2944093
231	0xc06a7adc	-3.6637487
232	0xc06d621d	-3.7091134
233	0xc06bb41e	-3.6828685
234	0xc0746f1b	-3.8192813
235	0xc071bd55	-3.777181
236	0xc072493c	-3.7857199
237	0xc071803c	-3.7734518
238	0xc075508e	-3.8330417
239	0xc06b7016	-3.6787162
240	0xc06c7ca1	-3.6951067
241	0xc06fe1b2	-3.7481503
242	0xc066cbd2	-3.6061902
243	0xc07049a9	-3.7544959
244	0xc06d15ea	-3.7044625
245	0xc071776d	-3.7729142
246	0xc06d0b84	-3.7038279
247	0xc0714779	-3.7699873
248	0xc066b234	-3.6046267
249	0xc06ea061	-3.7285388
250	0xc06c84c5	-3.6956036

running_mean f4 [251]
0	0x3d774d28	0.060376316
1	0x3fe5840c	1.7930923
2	0x3f6e1136	0.9299501
3	0x3f4d25d9	0.80135876
4	0x3fa94a4c	1.3225799
5	0x3e3c96d5	0.18416913
6	0xbf0d6f73	-0.55248183
7	0xbf1425a7	-0.5786995
8	0x3fbf2d83	1.4935764
9	0xbff85deb	-1.9403661
10	0x3e3aff32	0.18261412
11	0xbf2af747	-0.66783565
12	0x3ebbfa2a	0.36714298
13	0x3e16f1dd	0.14740701
14	0x3fb138bf	1.3845443
15	0x3eaeba41	0.34126475
16	0x3fb4b717	1.4118375
17	0xbdfcaa62	-0.123371854
18	0xbf5d15c7	-0.86361355
19	0x3e82652c	0.25467813
20	0x3c9f8b32	0.019475553
21	0x3f11e20a	0.56985533
22	0x3fcfc78e	1.6232774
23	0x3f18b018	0.596437
24	0xbf6e742d	-0.9314602
25	0x3e9f2d95	0.31089464
26	0x4004c9aa	2.0748086
27	0x3cc36b46	0.023854863
28	0x3de1667f	0.11005878
29	0x3feae55d	1.8351246
30	0x3ec31ba0	0.38107014
31	0xbe82e0cd	-0.25562134
32	0xbfa93032	-1.3217833
33	0x3f0a5521	0.54036146
34	0xbf62423f	-0.88382334
35	0xbe3e7deb	-0.18602721
36	0x3f12238a	0.5708548
37	0x3f65a4e4	0.8970473
38	0xbf708e06	-0.9396671
39	0x3f846023	1.0341839
40	0x3fd47e4e	1.6601045
41	0xbea4a961	-0.32160476
42	0xbfa88fdc	-1.3168902
43	0x3fa96409	1.3233653
44	0x3fb8f74f	1.4450473
45	0x3f9b0f02	1.2113955
46	0x400e38b1	2.2222102
47	0xbfd2bf5e	-1.6464651
48	0xbef5f08f	-0.48035094
49	0x3e716a01	0.23575594
50	0x3ed74671	0.4204593
51	0xbf7e4e53	-0.99338263
52	0xbf78b30c	-0.97148204
53	0x3fc6b5c1	1.5524217
54	0x3e80c9bb	0.25153908
55	0x3d96d8c2	0.07365562
56	0x3fff71d3	1.9956611
57	0x3edfdcfb	0.43723282
58	0xbf0e2e61	-0.5553952
59	0xbe02d149	-0.12775148
60	0xbf2099bc	-0.6273458
61	0x3f03f0ba	0.51539195
62	0xbfcc3422	-1.595341
63	0xbf391429	-0.72296387
64	0x3f3b27af	0.7310743
65	0x3f914d21	1.1351663
66	0xbf2970a5	-0.66187507
67	0x3f972efa	1.1811211
68	0x3fb152ef	1.3853434
69	0xbec5165f	-0.3849363
70	0x3f5ca25b	0.86185235
71	0x3fb89e6d	1.4423348
72	0xbfd12700	-1.6340027
73	0xbfe80008	-1.812501
74	0x3e410e12	0.18853024
75	0x3f487770	0.7830725
76	0x3f555002	0.8332521
77	0x40024c38	2.035902
78	0xbfb4ccae	-1.4124963
79	0x3f9dafc6	1.2319267
80	0x4007e3de	2.123283
81	0x3e395147	0.18097411
82	0x3c682e05	0.014171128
83	0xbf65d3a0	-0.8977604
84	0xbfa262b5	-1.2686373
85	0xbfc5d4ea	-1.5455601
86	0xbfa8685f	-1.3156852
87	0x3fad4ee9	1.3539706
88	0xbf92ac89	-1.1458904
89	0xbf489c59	-0.7836357
90	0x3dd55fa5	0.10418633
91	0xbf5be7af	-0.85900396
92	0x3e85b733	0.26116332
93	0x3efd88b5	0.49518362
94	0xbf347738	-0.70494413
95	0x3e006b58	0.12540948
96	0x3f552653	0.83261603
97	0x3f8bdbd5	1.0926462
98	0xbf3e08cc	-0.7423217
99	0xbf866be0	-1.0501671
100	0x3f8e0d34	1.1097779
101	0x3f2925dc	0.66073394
102	0x3e67eaf4	0.22648221
103	0x3f1c26a3	0.60996455
104	0xbf82f8bc	-1.0232158
105	0xbf2ec964	-0.6827605
106	0xbf0de9b5	-0.55434734
107	0x3f8413f5	1.031859
108	0xbf1ec217	-0.6201491
109	0x3f7ebe50	0.99509144
110	0x3fd8875b	1.6916307
111	0x3e9d9242	0.30775648
112	0xbfa5e3dd	-1.2960163
113	0x3fdd1cf2	1.7274458
114	0xbff53bb3	-1.9158844
115	0xbf623fcb	-0.8837859
116	0x3ef659b0	0.481153
117	0xbf1d8008	-0.61523485
118	0x3f68652e	0.9077939
119	0x3e3fea45	0.1874171
120	0xbf9f2052	-1.2431738
121	0x3f811c59	1.0086776
122	0xbf697a08	-0.9120183
123	0xbb25befe	-0.0025290842
124	0x403b060e	2.9222445
125	0x3e92a927	0.28644678
126	0x3fc3692a	1.5266469
127	0xbf23345b	-0.63751763
128	0xbf6ebaf3	-0.9325401
129	0x40612385	3.517793
130	0xbe7a2bc8	-0.24430764
131	0x3e832eca	0.25621635
132	0xbf9b401f	-1.2128943
133	0xbf199453	-0.5999195
134	0x3f18123b	0.5940282
135	0x3f37200d	0.7153328
136	0xbf7ec566	-0.99519956
137	0x40072328	2.1115208
138	0x3f06ee0c	0.5270698
139	0x401532cf	2.331226
140	0x3e41f51c	0.18941158
141	0x3e4fa810	0.20278955
142	0x3eb51c70	0.3537326
143	0x3f1264bc	0.5718496
144	0xbf2a8d9e	-0.6662234
145	0xbe6b919f	-0.23004769
146	0x3df6c7a4	0.12049797
147	0x3f3d4f2f	0.7394895
148	0x3f8b6691	1.0890676
149	0x3d7f3717	0.062308397
150	0x3eac66c1	0.33672145
151	0x4012c266	2.2931151
152	0xc08127ce	-4.036109
153	0x3ee2d3cb	0.4430221
154	0xbe7b5b3e	-0.24546525
155	0x3f2851d5	0.65749866
156	0xc01351c7	-2.3018663
157	0xbfce494c	-1.6116118
158	0xbf7dd997	-0.9916014
159	0xbfd8bca8	-1.6932573
160	0xbedd0071	-0.431644
161	0x3e678530	0.22609401
162	0x3f48409e	0.782236
163	0xbfa0506d	-1.2524544
164	0x3ef794cb	0.48355708
165	0x4033537f	2.8019712
166	0xc009a4da	-2.1506867
167	0xbed8be7b	-0.42332825
168	0xbed2f20f	-0.412003
169	0xbfce1808	-1.6101084
170	0xbef5f12e	-0.48035568
171	0xbfd1d76b	-1.6393865
172	0x3f87d7cd	1.0612732
173	0x3f01d75e	0.5071925
174	0x3e759510	0.23982644
175	0xbecee8bb	-0.40411934
176	0x3e0ba5c8	0.1363746
177	0xbf06d794	-0.52672696
178	0x3f027f6b	0.50975674
179	0xbdb07ae5	-0.0861719
180	0xbd6c0392	-0.057620592
181	0x3fb1083b	1.3830637
182	0x3f13e986	0.57778203
183	0x3fa9a4ee	1.3253458
184	0xbf6b1f41	-0.91844565
185	0x3f3443ea	0.7041613
186	0x3f2d93c5	0.67803603
187	0xbe43cb34	-0.19120485
188	0x3f115f9d	0.5678652
189	0x3eee19ad	0.46503964
190	0x3ea9b4f5	0.33145872
191	0x3fc74b70	1.5569897
192	0x3fd76de9	1.6830417
193	0xbef2ed9b	-0.47446904
194	0x3f4a1a78	0.7894664
195	0x3f2fe47f	0.6870803
196	0x3f07fb3f	0.53117746
197	0xbf36aa68	-0.7135377
198	0xbfd9d678	-1.7018576
199	0x3fbe4ca6	1.4867141
200	0x3f1e854b	0.6192214
201	0x3f46e02d	0.77685815
202	0xbf0e4029	-0.5556665
203	0xbebf0fda	-0.3731678
204	0xbf7ab268	-0.97928476
205	0xbfcc5e00	-1.5966187
206	0xbe874bf4	-0.26425135
207	0x3efa462d	0.48881665
208	0x3fa7f5a9	1.3121845
209	0x3d0949e7	0.033517744
210	0xbfa17eec	-1.2616858
211	0xbf37606e	-0.71631515
212	0x3e62565e	0.22103259
213	0x3d1a9fc0	0.037750006
214	0xc039e5ac	-2.904643
215	0xbefc3314	-0.4925772
216	0xbe8a726d	-0.27040425
217	0x3ff3a654	1.9035134
218	0xbfcf7200	-1.6206665
219	0xbde5bd26	-0.11217718
220	0xbf045f9c	-0.5170839
221	0x3f595f3b	0.84910935
222	0x3f60a978	0.8775859
223	0xbe5e782e	-0.21725532
224	0xbe645319	-0.22297324
225	0xbed39c9a	-0.41330415
226	0xbfcf708e	-1.6206224
227	0xc005cc8f	-2.0906103
228	0x3e6dcf8f	0.23223709
229	0xc0026f02	-2.0380254
230	0xbe8bea84	-0.2732736
231	0xbe94192f	-0.28925464
232	0x3fdeb665	1.7399412
233	0x3ffc1d5d	1.9696461
234	0x3da674d5	0.08127753
235	0xbf5e2a32	-0.86783135
236	0x3eb66868	0.3562653
237	0xbf97dbea	-1.1863987
238	0x3f168f94	0.5881283
239	0x3f484c66	0.78241575
240	0xbf0ba1fa	-0.5454403
241	0x3e959bc3	0.292204
242	0x3dbe4c9e	0.09291957
243	0xbf182b51	-0.59441096
244	0x3e087d2b	0.13328998
245	0xbebe81a5	-0.37208286
246	0xbfff9a3f	-1.9968947
247	0x3fb3f3e3	1.4058803
248	0xbd56eb48	-0.052470475
249	0xbf059e1c	-0.5219438
250	0x3fdc7b9c	1.7225223
