EXP13_dump/DNN2_model.pth (torch, 415611 bytes, 12 tensors)

weight f4 [200, 251]
0	0x3cc45ee8	0.023971036
1	0xbd945e78	-0.07244581
2	0x3e51525b	0.20441572
3	0x3d6e967e	0.05824899
4	0xbd8d7bfc	-0.06908414
5	0x3b2e4422	0.0026590903
6	0xbe31868a	-0.17336479
7	0x3e23b7b8	0.15988052
8	0x3dc0d475	0.09415523
9	0x3e90606f	0.28198573
10	0xbdbac19b	-0.091189586
11	0x3e018259	0.1264738
12	0xbb0b5795	-0.002126192
13	0xbd815a93	-0.06316104
14	0xbe4349fd	-0.19071193
15	0xbdf69dcd	-0.12041817
16	0x3b093d9e	0.0020941268
17	0x3e74c38c	0.2390272
18	0xbe69d943	-0.22836785
19	0x3e8fd2a0	0.28090382
20	0x3d486ba3	0.048930775
21	0x3e4609dc	0.19339699
22	0x3d54ec4b	0.05198316
23	0x3b83dfa5	0.0040244632
24	0x3eaf435f	0.34231088
25	0x3dcb70a2	0.099335924
26	0x3e8a41ff	0.27003476
27	0x3b54b477	0.0032456198
28	0x39c8ba4c	0.00038285775
29	0x3bb629d0	0.0055591837
30	0x3d49da6a	0.04928056
31	0x3e56d5c9	0.2097999
32	0x3c9423cb	0.018083474
33	0xbeb5fe5f	-0.35545632
34	0x3e90801b	0.28222737
35	0xbd1f0811	-0.038826052
36	0x3bd6af6d	0.006551674
37	0x3cb4b731	0.022060009
38	0x3ee994da	0.45621377
39	0x3e8c9d48	0.27463746
40	0x3ee79dba	0.45237523
41	0x3d880069	0.06640703
42	0x3cb1e96f	0.021717755
43	0x3ccb0623	0.0247832
44	0x3d7723d2	0.060336895
45	0x3a7ff822	0.00097644527
46	0x3c2845e5	0.01027057
47	0xbd6dcfea	-0.05805961
48	0xbade7897	-0.0016973194
49	0xbe375de7	-0.17906915
50	0xbe27e5b1	-0.16396214
51	0x3e5cb4c8	0.21553338
52	0xbe44ea06	-0.19229898
53	0x3ec670f0	0.3875804
54	0xbdc74b14	-0.09731117
55	0x3c1042eb	0.008805017
56	0x3bdd9106	0.006761673
57	0xbb4552b2	-0.0030109105
58	0xbe30039e	-0.1718888
59	0x3d85b4f5	0.065286554
60	0x3bd7d7ba	0.006586996
61	0xbe5333d3	-0.20625238
62	0x3ddcae4e	0.107754335
63	0xbbfeedf2	-0.00777983
64	0x3adc6a8a	0.0016816419
65	0xbbc8b854	-0.0061254892
66	0x3e300526	0.17189464
67	0x3ece22a9	0.4026082
68	0xbcae9212	-0.021309886
69	0xbd9b0e3b	-0.075710736
70	0x3e588524	0.21144539
71	0xbd1dd1c3	-0.038530122
72	0xbe4626a4	-0.19350678
73	0x3e663ba6	0.22483692
74	0xbea00587	-0.31254217
75	0xbce9c9e5	-0.028538654
76	0xbdaea7a3	-0.08528068
77	0xbed895ca	-0.4230178
78	0x3b2a388a	0.0025973641
79	0xbdd8b93c	-0.10582206
80	0x3d961e41	0.07329989
81	0xbe9e15cd	-0.30876008
82	0x3e0b28de	0.13589808
83	0xbddc1792	-0.10746683
84	0x3ea1705e	0.31531042
85	0xbd040b41	-0.032237295
86	0xbe9367de	-0.28790182
87	0x3ea11324	0.31459916
88	0x3bba395c	0.0056831073
89	0x3beddfd5	0.007259349
90	0xbdee2133	-0.11627426
91	0xbe95a559	-0.29227713
92	0x3b47b582	0.0030473177
93	0xbed7c8f5	-0.42145506
94	0x3e7e6142	0.24841788
95	0x3badeacc	0.005307531
96	0xbe1c94b6	-0.15291104
97	0xbe9802df	-0.2968969
98	0xbe026058	-0.12732065
99	0x3dde30d3	0.10849156
100	0xbd921ace	-0.07134019
101	0x3bbe8ab4	0.0058148745
102	0xbe7cb2ba	-0.24677554
103	0x3ec0f3b6	0.37685937
104	0x3b4fd3ee	0.0031712013
105	0x3bc9149d	0.0061364905
106	0xbd9a2aca	-0.075276926
107	0xbb450042	-0.0030059968
108	0x3b809c04	0.0039248485
109	0xbeb44a11	-0.35212758
110	0x3ca28d8b	0.019842884
111	0x3d1e1d12	0.038601942
112	0xba929d8a	-0.0011185866
113	0x3d32c005	0.043640155
114	0x3e1faf48	0.15594208
115	0x3e899b17	0.26876137
116	0xbcbdbdfb	-0.023161879
117	0xbd0ab4ec	-0.033863947
118	0xbe209f7a	-0.15685835
119	0x3b9c1d12	0.0047642076
120	0xbea2793c	-0.3173312
121	0xbef9dd1e	-0.48801512
122	0x3e84c780	0.25933456
123	0x3e373806	0.17892465
124	0x3b8ecb66	0.004357743
125	0x3bef9df8	0.0073125325
126	0x3f2eadcb	0.6823394
127	0x3e99d8f1	0.30048326
128	0x3e1e8a4a	0.1548244
129	0xbee48110	-0.44629717
130	0x3dfa8421	0.12232233
131	0x3eb17dca	0.34666282
132	0x3e4499ce	0.19199297
133	0xbd106a7c	-0.0352578
134	0x3e80600d	0.2507328
135	0x3e4a79ac	0.19772977
136	0x3b630f4e	0.0034646573
137	0xbd228311	-0.039675776
138	0xbdd63cac	-0.10460791
139	0x3e7d01c1	0.247077
140	0x3e2fd373	0.17170505
141	0xbe348b90	-0.17631364
142	0x3e1d82fb	0.15381996
143	0xbd8c33f9	-0.068458505
144	0x3b078c2b	0.0020682912
145	0xbc5b7dc5	-0.013396685
146	0xbe89df88	-0.26928353
147	0x3b740eee	0.0037240344
148	0xbc92c24b	-0.017914912
149	0x3de453f5	0.11148826
150	0xbe30777f	-0.17233084
151	0x3dff1b3e	0.12456368
152	0x3df5c614	0.12000671
153	0x3de59009	0.11209113
154	0xbe9ed084	-0.3101846
155	0x3b6fbcee	0.0036581117
156	0x3e1d377e	0.153532
157	0xbe6d1065	-0.23150785
158	0x3b737c80	0.0037153065
159	0x3b9b71a4	0.0047437716
160	0xbc9d86e1	-0.019229354
161	0xbd2e0dd3	-0.042493653
162	0x3e2e15ba	0.17000476
163	0xbe5f3e8e	-0.21801206
164	0xbb888d9e	-0.0041672727
165	0x3caabbe4	0.020841546
166	0x3e83a14b	0.25708994
167	0xbe8d8a95	-0.27644792
168	0xbdf1cbd5	-0.11806456
169	0x3b9b936d	0.004747799
170	0xbbf04578	-0.0073325
171	0x3e2697e7	0.16268884
172	0x3b573427	0.0032837482
173	0xbdad6b22	-0.084676996
174	0xbe5f495e	-0.21805331
175	0x3b3351c4	0.0027361969
176	0xbe2e7c6f	-0.17039655
177	0xbd0ab90d	-0.033867884
178	0xbe71aa4e	-0.23600122
179	0xbdd3d359	-0.10343046
180	0xbe81a403	-0.25320444
181	0x3e9f2d7b	0.31089386
182	0xbec023e4	-0.37527382
183	0x3d640016	0.055664144
184	0x3e35ebe9	0.17765774
185	0xbe3cb9aa	-0.184302
186	0x3bb94b24	0.0056547094
187	0x3e7fac40	0.24968052
188	0x3bbe952e	0.0058161234
189	0x3b8a473b	0.004219917
190	0x3e8766e8	0.264457
191	0x3d8d8cbc	0.069116086
192	0xbec193fc	-0.37808216
193	0x3e1f4d06	0.15556726
194	0x3e7622e8	0.24036753
195	0x3dbc014a	0.09179933
196	0xbefec5c7	-0.49760267
197	0x3e285604	0.16439062
198	0xbea49b46	-0.32149714
199	0x3c4eacd2	0.012614446
200	0x3bb3d82b	0.0054884157
201	0x3d67e9dc	0.05661951
202	0xbc1d0046	-0.009582585
203	0x3ae83cf0	0.0017718356
204	0x3b1a0ef4	0.0023507448
205	0xba639a75	-0.00086823787
206	0x3d138e69	0.036024485
207	0x3dc4b14d	0.0960413
208	0x3d0e5aee	0.034754686
209	0x3c59f7b6	0.013303688
210	0xbdbfee6e	-0.09371649
211	0xbd56f496	-0.05247935
212	0xbb86d63f	-0.0041148956
213	0x3d53f77d	0.051749695
214	0x3a81c336	0.0009900096
215	0x3db4ad41	0.08822108
216	0xbd9bba0d	-0.07603846
217	0xbc7b65d4	-0.015344102
218	0x3e970538	0.2949617
219	0xbe10bc9c	-0.14134449
220	0xbe88125e	-0.26576513
221	0xbdec4986	-0.11537461
222	0xbec6989d	-0.3878831
223	0xbe95093d	-0.2910861
224	0x3ae11a38	0.0017173951
225	0x3b312d33	0.0027034997
226	0xbf0dad4d	-0.5534256
227	0x3b32e1a0	0.0027295128
228	0xbe257a9b	-0.16160052
229	0x3e70c174	0.23511297
230	0x3d4393f1	0.04774851
231	0x3bfbd9c0	0.00768587
232	0xbe9f7000	-0.31140137
233	0x3e5285dd	0.20558877
234	0xbd52b95f	-0.051446315
235	0xbe12f030	-0.14349437
236	0x3e1d5a06	0.15366372
237	0x3e2533d2	0.16133049
238	0xbd0ab082	-0.033859737
239	0xbf04e180	-0.51906586
240	0xbe203913	-0.15646772
241	0xbe0e3c7f	-0.13890265
242	0x3e76687c	0.24063295
243	0x39a18c07	0.00030812641
244	0x397fe350	0.00024403376
245	0xbd8a5290	-0.06754029
246	0x3b787bf2	0.0037915674
247	0x3de7ff07	0.113279395
248	0x3c0482da	0.008087838
249	0x3e279b11	0.16367747
250	0x3ce1d99a	0.02756958
251	0xbd4f797b	-0.050652962
252	0xbdbe5ba9	-0.092948265
253	0x3e93f6b8	0.2889917
254	0x3b663623	0.0035127483
255	0xbd64de62	-0.055876143

bias f4 [200]
0	0x3c916f7b	0.017753353
1	0x3d5d8e1c	0.054090604
2	0x3d62a513	0.05533321
3	0xbd3ccd11	-0.046094004
4	0xbc8944b9	-0.016756402
5	0xbb8866c2	-0.0041626403
6	0xbd56fe1f	-0.052488443
7	0xbd3b3ef9	-0.045714352
8	0xbc98a913	-0.018635308
9	0xbc852481	-0.016252758
10	0xbbe72dca	-0.007055019
11	0xbd5fd455	-0.054645855
12	0xbd7fc89c	-0.062447175
13	0xbc839216	-0.01606087
14	0x3ceea180	0.029129744
15	0x3d07c82a	0.033149876
16	0x3d13a169	0.036042605
17	0x3c50cb5c	0.012743797
18	0xbd5b10a9	-0.053482685
19	0xbd2410ce	-0.04005509
20	0x3d7968b5	0.060890872
21	0x3a87c2d6	0.0010357748
22	0xbd1fe45c	-0.03903614
23	0x3d61e21d	0.05514728
24	0xbbf62174	-0.007511312
25	0xbd2deaca	-0.04246024
26	0x3d571d55	0.052518208
27	0x3d067e98	0.032835573
28	0x3d1f1515	0.038838465
29	0xbd224f28	-0.03962627
30	0xbcb70b60	-0.022344291
31	0x3cad6154	0.021164574
32	0xbd694b76	-0.05695673
33	0x3d3c022a	0.0459005
34	0x3d22fab1	0.03978986
35	0x3d5ad15b	0.053422313
36	0xbcecfb35	-0.028928379
37	0xbc11cbf5	-0.008898725
38	0xbccea584	-0.025225408
39	0xbd320f92	-0.04347188
40	0x3c0ae760	0.008478016
41	0x3cef7505	0.029230604
42	0xbbfdcdb4	-0.007745469
43	0x3c5f5a07	0.013632304
44	0x3cb3a295	0.021928111
45	0xbd804bd2	-0.062644616
46	0xbcfdb13d	-0.030968303
47	0x3d7f3320	0.062304616
48	0xbd295273	-0.041338395
49	0xbd07d096	-0.033157907
50	0x3d2cecff	0.042218205
51	0xbc5f4d6f	-0.013629301
52	0x3d200d43	0.039075147
53	0x3c679fe6	0.014137244
54	0xbc1c17c1	-0.009527148
55	0x3cc1ad96	0.023642343
56	0xbc90b114	-0.017662562
57	0xbd45b4e2	-0.048268206
58	0xbb4041fd	-0.0029336207
59	0xbd1c9d75	-0.0382361
60	0xbd17aa3d	-0.037027586
61	0x3d44037b	0.04785488
62	0x3c14bc5c	0.0090781115
63	0x3d4dcb7a	0.05024288
64	0x3cd1390d	0.0255399
65	0x3d719a0b	0.058984797
66	0x3d247983	0.040154945
67	0x3bca4c19	0.0061736223
68	0x3d77fc86	0.06054356
69	0x3d66ae47	0.056318548
70	0x3ccb5b79	0.024823891
71	0xbc0b5fdc	-0.008506741
72	0x3c6860ff	0.014183282
73	0x3a5acec6	0.00083468517
74	0x3cc0143a	0.023447145
75	0xbc748e08	-0.014926441
76	0x3ce8cbe7	0.02841754
77	0x3cff7d56	0.031187695
78	0x3d6bb3d4	0.057544544
79	0xbc576450	-0.013146475
80	0x3d51016a	0.05102674
81	0xbd370fe7	-0.0446929
82	0xbb4faa72	-0.0031687287
83	0xbc6488f6	-0.01394867
84	0xbc44be57	-0.012008271
85	0x3d3ae9b7	0.045633044
86	0xbc53b0af	-0.012920543
87	0x394caed9	0.00019520092
88	0xbd27773a	-0.040885188
89	0xbd759fc3	-0.059966814
90	0xbd2ae50f	-0.041722354
91	0xbd79fa09	-0.061029468
92	0x3c1ae106	0.009453064
93	0xbc80ae9c	-0.01570826
94	0xbcb12b71	-0.02162716
95	0xbc774182	-0.015091302
96	0xbb28cf37	-0.0025758275
97	0x3cb43654	0.021998562
98	0x3c9a1bd0	0.01881209
99	0xbcfb9c33	-0.03071413
100	0xbd3bfd88	-0.045896083
101	0xbd67ff0e	-0.056639723
102	0xbbbfbd16	-0.005851398
103	0x3d6528c1	0.05594707
104	0xbd0c78c7	-0.03429487
105	0xbcf5bc8e	-0.029997136
106	0xbd16793c	-0.03673671
107	0xbc9b9ba9	-0.018995123
108	0x3d444326	0.0479156
109	0xbc786efd	-0.01516318
110	0x3d4c49e2	0.049875148
111	0xbb8a628e	-0.0042231744
112	0x3d2689c3	0.040658724
113	0xbd69815b	-0.05700813
114	0xbd138ee7	-0.036024954
115	0x3d70323d	0.05864166
116	0xbd0cc924	-0.03437151
117	0xbd4f892d	-0.05066793
118	0x3d78df85	0.06076004
119	0xbd37ccd6	-0.04487308
120	0x3c460974	0.012087215
121	0x3cdd59eb	0.027020415
122	0x3d4c4700	0.0498724
123	0xbccf2efd	-0.02529096
124	0x3c7de5e1	0.015496702
125	0xbccdcfee	-0.025123563
126	0xbc431817	-0.011907599
127	0xbd7ea20a	-0.06216625
128	0xbd0d20b9	-0.034455035
129	0x3c224101	0.009903193
130	0x3d1a3139	0.0376446
131	0x3be057db	0.0068464107
132	0xbd336a9d	-0.043802846
133	0x3c991f05	0.01869155
134	0x3c7d3553	0.015454608
135	0xbd38e212	-0.045137472
136	0x3d22ede8	0.039777666
137	0x3c7fa241	0.015602649
138	0x3d3385a8	0.043828636
139	0x3d7ab5db	0.061208587
140	0x3cc74070	0.024322718
141	0x3d4c97c3	0.04994942
142	0x3c10fadf	0.008848875
143	0xbd5d3b52	-0.05401165
144	0x3d0ad33d	0.03389286
145	0xbd0778ca	-0.033074178
146	0xbd5c08df	-0.053719398
147	0xbd42bd50	-0.047543824
148	0x3b3fc559	0.0029261915
149	0xbb87d2b2	-0.00414499
150	0xbcfd7b71	-0.03094265
151	0x3d4b25d8	0.049596637
152	0x3d2c8a57	0.04212412
153	0x3d62179b	0.055198293
154	0xbc6db35f	-0.014508097
155	0x3d310c28	0.043224484
156	0x3d331f06	0.043730758
157	0xbc8e18e2	-0.01734585
158	0x3d5e505a	0.054275848
159	0x3bae7711	0.0053242524
160	0xbd022222	-0.031770833
161	0x3d287c1b	0.04113398
162	0xbd6897e3	-0.056785475
163	0x3d762e1f	0.06010258
164	0x3d54a326	0.051913403
165	0xbd48b7ef	-0.049003538
166	0xbd2a49ec	-0.041574404
167	0x3d6a689e	0.057228677
168	0x3d26b907	0.0407038
169	0xbcf69af3	-0.030103182
170	0x3ce833ff	0.028345106
171	0x3d1412e8	0.036150843
172	0xbd68f50a	-0.056874312
173	0x3d5ef55f	0.054433223
174	0x3d6a1542	0.05714918
175	0x3d147f28	0.03625408
176	0xbce990cc	-0.028511427
177	0xbd670ae9	-0.05640689
178	0xbcd575a3	-0.02605707
179	0x3ca766da	0.020434786
180	0xbd383f4b	-0.044982236
181	0x3d4a62ae	0.049410515
182	0x3cf96572	0.03044388
183	0x3b4abd23	0.0030935488
184	0xbbde9922	-0.006793157
185	0x3c0a1ef5	0.008430232
186	0x3c9ea916	0.019367736
187	0x3cd7102b	0.026252827
188	0xbd020831	-0.031746093
189	0x3d47151e	0.048604123
190	0xbd0c7888	-0.034294635
191	0x3c3af5bd	0.011411128
192	0x3d48a0f8	0.048981637
193	0x3d3d2f51	0.046187703
194	0x3d323695	0.043509085
195	0x3ca4b831	0.02010736
196	0xbc1bf5be	-0.009519039
197	0xbd2e647e	-0.042576306
198	0xbd2f10d2	-0.04274065
199	0xbd1630b1	-0.03666753

weight f4 [200]
0	0x3ecfe6f3	0.40605888
1	0x3ec586d8	0.3857944
2	0x3f1c0d67	0.6095795
3	0x3ed7fd32	0.4218536
4	0x3f93e066	1.1552856
5	0x3ed1197b	0.40839753
6	0x3ebfcf7a	0.3746298
7	0x3eccd5e5	0.4000694
8	0x3ec60e69	0.3868287
9	0x3ed28cc1	0.41123012
10	0x3ecfbb4f	0.40572593
11	0x3f8ea998	1.1145506
12	0x3ed80f76	0.42199296
13	0x3ed1280e	0.40850872
14	0x3f2afafb	0.66789216
15	0x3ecc6fc3	0.39929017
16	0x3eca68a9	0.39532974
17	0x3f813f74	1.0097489
18	0x3ed706d9	0.41997412
19	0x3ecfeb05	0.40608993
20	0x3fa5c25f	1.2949942
21	0x3ec6bef1	0.38817552
22	0x3ee10557	0.43949386
23	0x3ed4e08e	0.41577572
24	0x3ed91e4a	0.4240592
25	0x3eccb8f9	0.39984873
26	0x3ed2815b	0.41114315
27	0x3eccaa6a	0.39973766
28	0x3ed6332f	0.41835925
29	0x3ecfd790	0.4059415
30	0x3ecb1e0d	0.39671364
31	0x3ecbaf4e	0.39782184
32	0x3ec92391	0.39284948
33	0x3ec481db	0.38380322
34	0x3ee0391e	0.43793577
35	0x3ece62bd	0.40309706
36	0x3ed947e7	0.4243767
37	0x3ed5e4ae	0.4177603
38	0x3ecfd4e5	0.40592113
39	0x3ecec4a3	0.40384397
40	0x3ecc964f	0.39958426
41	0x3ed5d21b	0.4176186
42	0x3ec0b624	0.37638962
43	0x3ec5650b	0.38553652
44	0x3edb5a8e	0.42842525
45	0x3ed5ea7d	0.41780463
46	0x3ec58294	0.38576186
47	0x3eccf96f	0.40034053
48	0x3eced3f8	0.40396094
49	0x3f03a7ff	0.51428217
50	0x3ed6d311	0.41957906
51	0x3ed89364	0.4229995
52	0x3ecffded	0.40623417
53	0x3edfc828	0.43707395
54	0x3ed5c7d8	0.4175403
55	0x3ee9bfe5	0.45654216
56	0x3edd283e	0.43194765
57	0x3ecea382	0.40359122
58	0x3ecdebaf	0.40218875
59	0x3ec503da	0.384795
60	0x3ed75d09	0.42063168
61	0x3ec99cf2	0.39377552
62	0x3ebfec5a	0.3748501
63	0x3ec67a98	0.38765407
64	0x3ec85cb6	0.39133233
65	0x3f6bb25b	0.92069024
66	0x3ec74339	0.38918474
67	0x3ed5cc1e	0.41757292
68	0x3edea73d	0.43486968
69	0x3ecd778b	0.40130267
70	0x3edf4624	0.436082
71	0x3f9085d6	1.1290843
72	0x3ecd256b	0.4006761
73	0x3f057754	0.52135205
74	0x3ed879a0	0.42280293
75	0x3edf45d1	0.43607953
76	0x3ed42818	0.4143684
77	0x3ec07f69	0.37597206
78	0x3f4000f9	0.75001484
79	0x3ecdc1b9	0.4018686
80	0x3edff327	0.43740198
81	0x3f641388	0.890923
82	0x3ecf40cb	0.4047912
83	0x3f1d67bc	0.6148641
84	0x3ed4e18e	0.41578335
85	0x3ede5e72	0.4343143
86	0x3fb960f8	1.4482718
87	0x3ed617fa	0.41815168
88	0x3ec998f9	0.3937452
89	0x3eed16e4	0.46306527
90	0x3ecb4057	0.39697525
91	0x3ecc01ee	0.39845222
92	0x3ed0ce5f	0.4078245
93	0x3ed97d50	0.42478418
94	0x3ecd7310	0.40126848
95	0x3ed52d9a	0.41636354
96	0x3ed42a22	0.41438395
97	0x3edc6b97	0.43050835
98	0x3ec324f2	0.38114125
99	0x3ee17751	0.44036344
100	0x3fa66e11	1.300234
101	0x3eda9863	0.42694387
102	0x3ec80575	0.39066663
103	0x3ec9514c	0.39319837
104	0x3ec0a00a	0.376221
105	0x3ec6c815	0.38824525
106	0x3ed34670	0.41264677
107	0x3ed806e1	0.42192748
108	0x3ed73dc9	0.42039326
109	0x3edb5bc4	0.4284345
110	0x3ecb455d	0.39701357
111	0x3ed28285	0.41115203
112	0x3ec5e028	0.3864758
113	0x3edcba62	0.4311095
114	0x3ed25738	0.41082168
115	0x3ec69706	0.38787097
116	0x3ec30b1a	0.38094407
117	0x3ec7fea8	0.39061475
118	0x3ece2e48	0.40269685
119	0x3ecb8d49	0.3975623
120	0x3ec2feb1	0.3808494
121	0x3ecd3e34	0.4008652
122	0x3ed80ade	0.4219579
123	0x3ed7e508	0.42166924
124	0x3ecd87f1	0.40142778
125	0x3ec729e2	0.38899142
126	0x3ed7c755	0.42144266
127	0x3ebdf5ff	0.37101743
128	0x3f2d65f9	0.6773372
129	0x3ecbf5d6	0.39835995
130	0x3ed98081	0.42480853
131	0x3f14c777	0.5811686
132	0x3ec714d2	0.38883072
133	0x3ed59587	0.41715643
134	0x3ecf4da5	0.40488926
135	0x3ecebf42	0.40380293
136	0x3ed8c92b	0.4234098
137	0x3ee19985	0.4406244
138	0x3ecf9926	0.4054653
139	0x3ede7058	0.43445086
140	0x3ed0abcb	0.40756068
141	0x3ef7356b	0.48282942
142	0x3ece840b	0.40335116
143	0x3edf7ec3	0.436514
144	0x3ed0d8b4	0.4079033
145	0x3ed8f796	0.42376393
146	0x3ed6cee2	0.41954714
147	0x3ed2fddd	0.41209307
148	0x3ecd5f44	0.40111744
149	0x3ec7308d	0.3890423
150	0x3eddb791	0.43304113
151	0x3ed09dda	0.4074543
152	0x3ed451f3	0.41468772
153	0x3ed88686	0.42290133
154	0x3f7d07f2	0.9884025
155	0x3f5f8fdb	0.8732888
156	0x3ec3d9fb	0.38252243
157	0x3edc43f6	0.430206
158	0x3ed76010	0.42065477
159	0x3ec7f9eb	0.3905786
160	0x3ec889d5	0.39167657
161	0x3ed826c4	0.42217076
162	0x3ed9bf3d	0.42528716
163	0x3ed5c619	0.417527
164	0x3ed087e5	0.4072868
165	0x3eda5b38	0.4264772
166	0x3ec82c7e	0.39096445
167	0x3eee6837	0.46563885
168	0x3edbf8a5	0.42963138
169	0x3ee21d8c	0.44163167
170	0x3ed8d935	0.42353216
171	0x3ec46a65	0.38362423
172	0x3ece2596	0.4026305
173	0x3edb5dee	0.428451
174	0x3ed137cd	0.40862885
175	0x3ec8089c	0.39069068
176	0x3eced854	0.4039942
177	0x3ecdbbed	0.40182438
178	0x3ec98048	0.39355683
179	0x3ecc15a0	0.3986025
180	0x3f46ccd5	0.776563
181	0x3ec7a4e0	0.38992977
182	0x3edd4c7f	0.43222424
183	0x3ed67ab9	0.41890505
184	0x3ec83513	0.39102992
185	0x3ec84c7e	0.3912086
186	0x3ed1e2e2	0.4099341
187	0x3ecd8667	0.40141603
188	0x3edc09c8	0.42976213
189	0x3ec37c97	0.38180992
190	0x3ec3ccd5	0.38242212
191	0x3ec7ce3b	0.3902453
192	0x3ec6e03d	0.38842955
193	0x3ed7fb6f	0.42184016
194	0x3ed1b0dc	0.40955245
195	0x3ec7e3ea	0.39041072
196	0x3ec53763	0.3851882
197	0x3ed0640f	0.4070134
198	0x3ecbb0b7	0.3978326
199	0x3ee105cb	0.43949732

bias f4 [200]
0	0x3fd7730f	1.6831988
1	0x3fe18540	1.761879
2	0x4012d29f	2.2941053
3	0x3fec92ff	1.848236
4	0x3fd33abc	1.6502299
5	0x3fd9dc4d	1.7020355
6	0x3fd72847	1.6809167
7	0x3ff3aa3e	1.9036329
8	0x3fde7d9c	1.7382083
9	0x3ff75c47	1.9325036
10	0x3fe53b4b	1.790872
11	0x402def9d	2.7177498
12	0x3fe11de5	1.7587248
13	0x3ff10963	1.883099
14	0x401f28e1	2.48687
15	0x3fe05dd3	1.7528633
16	0x3fdee2d3	1.7412971
17	0x40239df4	2.5565157
18	0x3feefdc2	1.8671191
19	0x3fd9f8f2	1.7029097
20	0x3fcafe13	1.5858787
21	0x3fd27371	1.644148
22	0x3ff76c75	1.9329973
23	0x3fdc99c8	1.723443
24	0x3ff70849	1.9299403
25	0x3ff74386	1.9317482
26	0x3fe60da6	1.7972915
27	0x3fe7885d	1.808849
28	0x3fff27f4	1.9934068
29	0x3fe4da4a	1.7879117
30	0x3fd88fe8	1.6918917
31	0x3ff121e1	1.8838464
32	0x3fdcc3b8	1.7247229
33	0x3fe73a3d	1.8064648
34	0x3ff9d4ed	1.9518105
35	0x3fdd7de6	1.7304046
36	0x3fee44c9	1.8614742
37	0x3ff76c09	1.9329845
38	0x3fdf685d	1.7453724
39	0x3fe0bc26	1.7557418
40	0x3fe82064	1.8134885
41	0x3fe87441	1.8160478
42	0x3fdba68b	1.71602
43	0x3fe5e946	1.7961814
44	0x3fe63b74	1.7986894
45	0x3ff2b3d3	1.8961128
46	0x3fdea5f4	1.7394395
47	0x3feb6062	1.8388789
48	0x3fe257a1	1.7682992
49	0x401703b3	2.3596008
50	0x3ff213ef	1.8912333
51	0x3ff85428	1.9400682
52	0x3fde6cb9	1.737693
53	0x3fff41e2	1.9941981
54	0x3fe23980	1.7673798
55	0x4011fe2f	2.2811391
56	0x3fef86c0	1.8712997
57	0x3ff34787	1.9006203
58	0x3fd4588d	1.6589524
59	0x3fd400de	1.6562765
60	0x3fec3c78	1.8455954
61	0x3fcf4352	1.619242
62	0x3fde200e	1.7353532
63	0x3fe26f78	1.7690268
64	0x3fdca14c	1.7236724
65	0x3f4e9354	0.80693555
66	0x3fd6843b	1.6759104
67	0x3ff726b0	1.9308681
68	0x3ff8fdb9	1.945243
69	0x3fd91e45	1.6962363
70	0x3fe6e383	1.8038181
71	0x4028172a	2.6264138
72	0x3fe35186	1.7759254
73	0x401cba46	2.4488692
74	0x3fdcad55	1.7240397
75	0x4002e9ed	2.0455277
76	0x3fe1d5a1	1.7643319
77	0x3fdced85	1.7259985
78	0x4006802f	2.1015737
79	0x3fe83673	1.8141617
80	0x3ff4a5d2	1.9113104
81	0x4028e9c8	2.6392689
82	0x3fdbfa8e	1.7185838
83	0x4013ba00	2.3082275
84	0x3ff1f2fa	1.8902276
85	0x40056b42	2.0846715
86	0xbfa8835d	-1.3165089
87	0x4001ceaf	2.02824
88	0x3fdd396e	1.7283151
89	0x40065b2f	2.0993154
90	0x3fe8ca27	1.8186692
91	0x3fe3472e	1.7756097
92	0x3fdbe58a	1.7179425
93	0x3fe4aa0a	1.7864392
94	0x3fe0f7cb	1.757562
95	0x3fe31fae	1.7744043
96	0x3fed5882	1.8542635
97	0x3fe00cb9	1.7503883
98	0x3fddef6d	1.7338692
99	0x3fc6167f	1.5475615
100	0x3fb1ac65	1.3880736
101	0x3fe24152	1.7676184
102	0x3fdef1e9	1.7417575
103	0x3fe74643	1.8068317
104	0x3fc724a6	1.5558059
105	0x3fe89932	1.8171751
106	0x3ff6c369	1.9278384
107	0x3ff53963	1.9158138
108	0x3ff30112	1.8984702
109	0x3fe7cba3	1.810902
110	0x3fea7d6f	1.8319529
111	0x3fe7bfee	1.8105447
112	0x3fd7cecf	1.6859988
113	0x3ff7fc2b	1.937383
114	0x3fe1be3e	1.7636182
115	0x3ff35f04	1.9013371
116	0x3fd66a46	1.6751182
117	0x3fefd0e7	1.8735627
118	0x3f9fbaba	1.247886
119	0x3fd4d313	1.6626915
120	0x3fd21c64	1.6414914
121	0x3fe66efc	1.800262
122	0x40024e82	2.0360417
123	0x3fefb3aa	1.8726704
124	0x3fe6c4fe	1.8028867
125	0x3ff94ba8	1.9476213
126	0x3ff05e77	1.8778828
127	0x3fca7d40	1.5819473
128	0x401b69e6	2.4283385
129	0x3fea5270	1.8306408
130	0x3fece9a7	1.8508805
131	0x401a6c00	2.4128418
132	0x3fda5ed6	1.7060192
133	0x3ffb1764	1.9616513
134	0x3fdc2f1d	1.7201878
135	0x3ff0817f	1.8789519
136	0x3fe6065e	1.7970693
137	0x3ff6e938	1.9289923
138	0x3fe0d6b5	1.7565523
139	0x400e4080	2.2226868
140	0x3fef9cd9	1.8719741
141	0x4011fe10	2.2811317
142	0x3fe64ad6	1.7991588
143	0x3fffb844	1.9978108
144	0x3ffabe3d	1.9589306
145	0x3ffcd313	1.9751915
146	0x3fe620a3	1.797871
147	0x3fee6d63	1.8627132
148	0x3fff7373	1.9957107
149	0x3fe5dd36	1.7958133
150	0x3fee9e6b	1.8642095
151	0x3fe5a97a	1.7942345
152	0x3fe87ef6	1.8163745
153	0x3fea51bd	1.8306195
154	0xbb8b480f	-0.0042505334
155	0x3f7005f9	0.93759114
156	0x3fdda612	1.7316306
157	0x3ff58ff5	1.9184557
158	0x3feb9f4f	1.8407992
159	0x3fde4956	1.736613
160	0x3fd9bc7d	1.7010647
161	0x3fe45020	1.7836952
162	0x3fef5b56	1.8699749
163	0x3feb2ccf	1.837305
164	0x3fed0e36	1.8519962
165	0x3ff428e9	1.9074985
166	0x3fe7d37b	1.8111414
167	0x4004de20	2.0760574
168	0x400311b7	2.0479562
169	0x3ff5705d	1.9174916
170	0x3fe90f85	1.8207861
171	0x3fd32ab2	1.6497405
172	0x3fde4381	1.736435
173	0x3feac9f7	1.8342885
174	0x3fe66502	1.7999575
175	0x3fe56f11	1.792452
176	0x3ff60067	1.9218873
177	0x3fcea3f8	1.6143789
178	0x3fda677b	1.706283
179	0x3fe0f5ff	1.7575072
180	0x40240b07	2.563173
181	0x3fe4ad21	1.7865335
182	0x3ff797d7	1.9343213
183	0x3fe4ff50	1.7890415
184	0x3fe6cb5e	1.8030813
185	0x3fcf30a3	1.6186718
186	0x3ff3a426	1.9034469
187	0x3ff343a7	1.9005021
188	0x3fef576b	1.8698553
189	0x3fe44b09	1.7835399
190	0x3fd92520	1.6964455
191	0x3fe6932c	1.8013663
192	0x3fcf2a24	1.6184735
193	0x3fe4bda3	1.7870373
194	0x3fd4ff69	1.6640445
195	0x3fd7a0d0	1.6845951
196	0x3fd59993	1.6687492
197	0x3fe3648d	1.7765061
198	0x3fe0cfd2	1.7563422
199	0x3ffb5911	1.9636556

running_mean f4 [200]
0	0x3cb07e74	0.021544673
1	0x3de469a3	0.11152961
2	0xbfc386ae	-1.5275476
3	0xbd30535a	-0.04304824
4	0x410a8b85	8.659062
5	0xbb9b1ccf	-0.004733659
6	0xbbf85d66	-0.0075794933
7	0xbbfdcc68	-0.0077453144
8	0xbce3e8f1	-0.027821036
9	0x3c2ebfee	0.010665877
10	0xbbcb6098	-0.006206583
11	0x40e49520	7.1432037
12	0xbd6d9e8d	-0.058012534
13	0xbc9ba795	-0.019000808
14	0xbff0e668	-1.8820314
15	0x3d2d06ef	0.04224294
16	0x3cb727f2	0.022357915
17	0x40a9d8a3	5.307695
18	0xbd9ba014	-0.07598892
19	0xbce7fb75	-0.028318146
20	0x408aaeec	4.333853
21	0x3cfd8159	0.030945467
22	0x3cf33514	0.029688396
23	0x3da4cdc7	0.080470614
24	0x3d00d489	0.03145269
25	0xbc4b6df7	-0.012416354
26	0x3de1ad5a	0.11019392
27	0x3dcd8330	0.10034788
28	0x3cc17989	0.023617523
29	0xbd924a02	-0.07143022
30	0xbb583a0e	-0.0032993588
31	0xbc4363ab	-0.011925618
32	0xbd88195a	-0.066454604
33	0x3d9e4d16	0.07729547
34	0x3d2a9ee7	0.041655447
35	0x3d12550d	0.035725642
36	0xbd8f97a6	-0.070113465
37	0x3d003b43	0.031306516
38	0x3c0effa5	0.008727943
39	0xbca34ed3	-0.019935047
40	0x3d48f638	0.049062937
41	0x3d84a56b	0.064768635
42	0xbb8b2794	-0.0042466614
43	0x3d236ff9	0.039901707
44	0x3cc827f0	0.024433106
45	0xbd9c709b	-0.07638665
46	0x3d597d76	0.053098164
47	0x3dcd4f81	0.1002493
48	0xbc68f702	-0.0142190475
49	0xbd95449b	-0.07288476
50	0x3d401db1	0.046903316
51	0xbbd458b6	-0.0064803017
52	0x3c6bba39	0.014387661
53	0x3cb536df	0.022120891
54	0xbc6e05df	-0.014527767
55	0x3c9aa9d4	0.018879808
56	0x3cb84d4a	0.022497792
57	0xbc125d2a	-0.008933345
58	0xbb03b7b7	-0.0020098516
59	0xbdeadc56	-0.11467807
60	0x3c0b6031	0.008506821
61	0x3d29043f	0.041263815
62	0x3cd98ce0	0.026556432
63	0x3db4fe19	0.08837528
64	0x3de0536e	0.10953413
65	0x40892e80	4.2869263
66	0x3d173647	0.036916997
67	0xbd86f500	-0.06589699
68	0x3daadb22	0.083425775
69	0x3dcbb566	0.099467084
70	0x3d26ac64	0.04069175
71	0xc0f10e76	-7.5330153
72	0x3d152fb2	0.03642244
73	0xbe4e4310	-0.2014277
74	0x3ca4c8a9	0.020115213
75	0xbc90c662	-0.017672721
76	0x3d97fd42	0.07421352
77	0x3d9a69f0	0.07539737
78	0xc07604d4	-3.8440447
79	0xbc5b1d9d	-0.01337376
80	0x3d4391f6	0.04774662
81	0xc07c40b4	-3.9414492
82	0x3ce5d880	0.028057337
83	0x3fd1b75d	1.6384083
84	0x3c31ff7c	0.010864135
85	0x3dcd04d1	0.10010684
86	0x41a54e34	20.663185
87	0x3c7f87ec	0.015596371
88	0x3c98a30d	0.018632436
89	0xbd8ed5dc	-0.06974384
90	0xbd83cefc	-0.064359635
91	0xbca44576	-0.020052653
92	0x3d0c4db8	0.034253806
93	0xbd088c2e	-0.03333681
94	0xbce91098	-0.028450295
95	0xbc54c139	-0.012985521
96	0x3cff6c9f	0.031179724
97	0x3c5b2f7d	0.013378021
98	0x3caebb6c	0.021329604
99	0x3df980fa	0.121828035
100	0x40716135	3.771558
101	0xbd8cb45f	-0.068703406
102	0x3aef2569	0.0018245402
103	0x3e028734	0.12746888
104	0xbd12171e	-0.035666578
105	0xbda7cf70	-0.081938624
106	0xbc309469	-0.010777571
107	0xbb0fdd49	-0.0021951965
108	0x3d7a835f	0.06116044
109	0xbcd8d694	-0.026469506
110	0x3d42dd53	0.047574352
111	0xbc375082	-0.011188628
112	0x3d55fe78	0.052244633
113	0xbd593bf9	-0.05303571
114	0xbc9b173d	-0.01893198
115	0x3e1174d9	0.1420473
116	0xbca7e593	-0.020495212
117	0xbd4399f7	-0.047754254
118	0x3e136700	0.1439476
119	0xbd91fe28	-0.071285546
120	0xbc234ab3	-0.00996654
121	0x3d578c4a	0.052624024
122	0x3d8fcbdd	0.07021306
123	0xbd4187fe	-0.047248833
124	0xbc5b4ba9	-0.013384738
125	0xbba9e25e	-0.005184456
126	0xbc14fbe8	-0.009093262
127	0xbdc7d5a4	-0.097575456
128	0xbffad91d	-1.9597508
129	0x3d503c88	0.050838977
130	0x3d246e98	0.040144533
131	0xbfb0aba9	-1.3802387
132	0x3c9281fc	0.017884247
133	0x3c400b91	0.011721508
134	0x3cd11d8c	0.025526784
135	0xbd79003c	-0.06079124
136	0x3d70a1a0	0.058747888
137	0xbb96fba5	-0.004607635
138	0x3da436c3	0.080182575
139	0x3d6361b5	0.055513103
140	0x3baf81da	0.0053560557
141	0xba999172	-0.001171632
142	0xbc3a9738	-0.011388592
143	0xbcc05bfa	-0.023481358
144	0x3d227f2e	0.03967207
145	0xbd2e18b5	-0.04250403
146	0xbd827737	-0.06370395
147	0xbd260039	-0.040527556
148	0x3b70ddea	0.0036753365
149	0x3cad9fe8	0.021194413
150	0xbc9d4456	-0.019197624
151	0x3e00c21a	0.12574044
152	0x3c94faef	0.01818606
153	0x3d877212	0.06613554
154	0xbf682a42	-0.9068948
155	0x40af090a	5.4698534
156	0xbad01557	-0.00158755
157	0xbca4dbe2	-0.02012438
158	0x3cef36c0	0.029200912
159	0x3d969cb4	0.073541075
160	0x3d93d96a	0.07219203
161	0x3db14e00	0.086574554
162	0xbcaa4419	-0.020784425
163	0x3d29dc15	0.041469652
164	0x3dee2360	0.11627841
165	0xbd3f958c	-0.04677348
166	0xbd69905a	-0.05702243
167	0x3db2902a	0.08718903
168	0x3cef5188	0.029213682
169	0xbd0d8fb5	-0.034560878
170	0x3d5ab27f	0.053392883
171	0x3d923e56	0.07140796
172	0xbd8e009f	-0.06933712
173	0x3dba1c6e	0.09087454
174	0x3d786cfc	0.06065081
175	0x3cb26784	0.021777876
176	0x3bd2ab1e	0.00642909
177	0xbd4e98dd	-0.05043875
178	0xbd0e072c	-0.03467481
179	0x3ae056c6	0.0017115704
180	0xc02c4c84	-2.6921701
181	0x3cb54ba6	0.022130799
182	0x3bafeff6	0.0053691817
183	0xbcd173ce	-0.025567915
184	0xbbaefa9e	-0.0053399345
185	0x3d971cc9	0.07378537
186	0xbb48af83	-0.0030622191
187	0x3d052890	0.032509387
188	0xbc06dfa6	-0.008232033
189	0x3dc0788c	0.093979925
190	0x3bbea724	0.0058182646
191	0x3d8b72cd	0.06809006
192	0x3dc2763a	0.09495206
193	0x3d6dd685	0.05806591
194	0x3ca2d17d	0.019875282
195	0x3d8c5c0c	0.06853494
196	0xbcb6e298	-0.022324845
197	0x3d3e60cb	0.046479028
198	0xbc6f8f83	-0.014621618
199	0xbcd3548f	-0.025797157

running_var f4 [200]
0	0x3fbe3e95	1.4862849
1	0x3fc44638	1.5333929
2	0x404d10d6	3.2041526
3	0x3fed2c12	1.8529074
4	0x41e18af6	28.192852
5	0x3fc61d5e	1.5477712
6	0x3fe10110	1.7578449
7	0x3fd94200	1.6973267
8	0x3fc67f39	1.5507575
9	0x3fd252f9	1.6431571
10	0x3fce2980	1.6106415
11	0x41ac0a42	21.505009
12	0x3fcd9c63	1.606335
13	0x3feeda8c	1.8660445
14	0x405a1dfc	3.40808
15	0x3fb3fef7	1.4062184
16	0x3fd2c3f2	1.6466048
17	0x414cc375	12.797719
18	0x3fcf2e7f	1.6186064
19	0x3fbe7c8f	1.4881762
20	0x410f4f9a	8.956934
21	0x3fdb30e1	1.7124292
22	0x3fff6e25	1.9955488
23	0x3fcfe599	1.6241943
24	0x3ff1c634	1.8888612
25	0x3fb32cd1	1.3998052
26	0x3fe123f7	1.7589101
27	0x3fe0ba3b	1.7556833
28	0x3fd038ec	1.6267371
29	0x3fe78e61	1.8090326
30	0x3fc66fab	1.5502828
31	0x3fb9a18b	1.4502424
32	0x3fb8db29	1.4441882
33	0x3fd7c520	1.6857033
34	0x3fe3aaac	1.778646
35	0x3fbb0bcd	1.4612976
36	0x3fd537c2	1.6657641
37	0x3fd40879	1.6565086
38	0x3fc089db	1.504207
39	0x3fc0f764	1.5075498
40	0x3fcbd755	1.5925089
41	0x3feb1a47	1.8367394
42	0x3fc2556f	1.5182322
43	0x3fcbda8a	1.5926068
44	0x400d833e	2.2111354
45	0x3fc98243	1.5742878
46	0x3fd75ab6	1.6824558
47	0x3fe701f9	1.8047477
48	0x3fccbcf3	1.5995163
49	0x4020d3ec	2.5129347
50	0x3fd3124e	1.6489961
51	0x3fcd11a5	1.602101
52	0x3fbe5b1e	1.4871557
53	0x3fd52477	1.6651753
54	0x3fd94b53	1.6976112
55	0x3fefa3fc	1.8721919
56	0x3fe971ba	1.8237832
57	0x3fe6e78c	1.8039412
58	0x3fc7cbd8	1.5609083
59	0x3fd8fc9b	1.6952089
60	0x3fd25375	1.6431719
61	0x3fd05905	1.6277167
62	0x3fd482ab	1.6602377
63	0x3fdeb8a7	1.7400101
64	0x3ff09444	1.8795247
65	0x411f1638	9.9429245
66	0x3fbcbc19	1.4744903
67	0x3fdc2e3a	1.7201607
68	0x3ffcbf6d	1.9745919
69	0x3fff51a4	1.994679
70	0x40073fab	2.113261
71	0x41b70467	22.87715
72	0x3fc02a84	1.5012975
73	0x400d5557	2.2083337
74	0x3ffa4fba	1.9555581
75	0x3ff3d4d4	1.9049325
76	0x3ff88f3e	1.9418714
77	0x3fc7b2cc	1.560144
78	0x40f7eb8d	7.7475038
79	0x3fca0a4c	1.5784392
80	0x4001b7e5	2.026849
81	0x41018f1d	8.09744
82	0x3fce6bd0	1.6126652
83	0x40557d0f	3.335758
84	0x400cdac4	2.2008524
85	0x4004ff01	2.0780642
86	0x431121b2	145.13162
87	0x40041a32	2.0640988
88	0x3fca3476	1.579726
89	0x3ffcee78	1.9760275
90	0x3fbbe2eb	1.4678625
91	0x3fbf3469	1.4937869
92	0x3fd541cd	1.6660706
93	0x3fd66f87	1.6752785
94	0x3fb27a65	1.3943602
95	0x3fbb9f91	1.4658071
96	0x3feab3a7	1.8336076
97	0x3fd9c36b	1.7012762
98	0x3fc0d600	1.5065308
99	0x401fd3f4	2.4973116
100	0x41075126	8.457312
101	0x3fefe7b0	1.874258
102	0x3fcae4d1	1.5851079
103	0x3fd1cc82	1.6390536
104	0x3fc53879	1.5407859
105	0x3fdcdfaa	1.7255757
106	0x3fda8bbd	1.7073895
107	0x3ff854f5	1.9400927
108	0x3fdcb5b9	1.7242957
109	0x3ff9fcd4	1.9530282
110	0x3fc4123d	1.5318066
111	0x3fcea352	1.6143591
112	0x3fb6b9cf	1.4275454
113	0x3fd49281	1.660721
114	0x3fde6832	1.7375548
115	0x3fd51d76	1.6649616
116	0x3fc64c80	1.5492096
117	0x3fc5c218	1.5449858
118	0x40341565	2.8138058
119	0x3fbdd558	1.4830732
120	0x3fb3ed7c	1.405685
121	0x3fbe05f7	1.484557
122	0x3ff061dd	1.8779866
123	0x3fdfda0e	1.748842
124	0x3fbb0f4d	1.4614044
125	0x3fc95a11	1.5730611
126	0x3fe2544d	1.7681977
127	0x3fcbbd17	1.5917081
128	0x40682e02	3.627808
129	0x3fca1604	1.5787969
130	0x4003c311	2.058781
131	0x404a18f0	3.157772
132	0x3fe313d2	1.7740424
133	0x3fd69388	1.6763773
134	0x3fc169a7	1.5110368
135	0x3fb6a562	1.4269221
136	0x3fe3fa30	1.7810726
137	0x3fd4e7b4	1.663321
138	0x3fc8d70a	1.5690625
139	0x3fe7a0dc	1.8095965
140	0x3fbd4bd6	1.4788768
141	0x400b417c	2.1758718
142	0x3fd1e3a8	1.63976
143	0x400087c9	2.0082877
144	0x3fce482c	1.6115775
145	0x3fd9cbc4	1.7015309
146	0x3fcc1ac9	1.5945674
147	0x3fb6fc0d	1.429567
148	0x3fca5a4a	1.5808804
149	0x3fc614d2	1.5475104
150	0x3fd240c3	1.6426014
151	0x3fd6496f	1.674116
152	0x3fd6d94e	1.6785066
153	0x3fef9671	1.8717786
154	0x402bda5c	2.6852026
155	0x4175f258	15.371666
156	0x3fc1ab53	1.5130409
157	0x3fcea78a	1.6144879
158	0x3fe589a3	1.7932628
159	0x3fdc8aff	1.7229918
160	0x4002dc14	2.0446825
161	0x40055db2	2.0838437
162	0x3fd7b0f5	1.6850878
163	0x3fec4556	1.845866
164	0x3ffefe53	1.9921364
165	0x3fdf5a71	1.7449476
166	0x3fc09731	1.504614
167	0x40013aac	2.019206
168	0x3fd37273	1.6519302
169	0x3fecf6e8	1.851285
170	0x3fda66cd	1.7062622
171	0x3fcd4050	1.6035252
172	0x3fc1751a	1.5113862
173	0x3fd1b88a	1.6384442
174	0x3fc92427	1.5714158
175	0x3fc9fc60	1.5780144
176	0x3fe45887	1.7839516
177	0x3fd4a099	1.661151
178	0x3fcfaa44	1.6223836
179	0x3fad5aea	1.354337
180	0x40971a5c	4.7219677
181	0x3fbf09f5	1.4924914
182	0x3ffd46c7	1.9787225
183	0x3fcc76ec	1.5973792
184	0x3fe0ce22	1.7562907
185	0x3fde27f8	1.7355947
186	0x3fd3bb3b	1.6541513
187	0x3fbd8b5a	1.4808152
188	0x3fcc007b	1.5937647
189	0x3fc34b29	1.5257312
190	0x3fd4ce66	1.6625488
191	0x3fcf6055	1.6201273
192	0x3fd85f61	1.6904107
193	0x3ff9824e	1.9492891
194	0x3fd9da32	1.7019713
195	0x3fceb3df	1.6148642
196	0x3fbc75c0	1.4723434
197	0x3fed8353	1.8555702
198	0x3fe8cbbb	1.8187174
199	0x3ff9d2e2	1.9517481

weight f4 [251, 200]
0	0x3d0fdf93	0.035125326
1	0xbe833bc5	-0.25631538
2	0x3e89363e	0.26799196
3	0xbccd80a3	-0.025085753
4	0x3f3d8c8b	0.74042577
5	0xbbe9f3bc	-0.007139651
6	0xbdadb27a	-0.08481307
7	0xbe183267	-0.14862977
8	0xbd79c1c6	-0.060975812
9	0xbdd4295b	-0.103594504
10	0xbda3233c	-0.07965705
11	0xbf92aace	-1.1458375
12	0xbcc45c3c	-0.023969762
13	0xbc914597	-0.017733378
14	0x3e9b98cd	0.30390015
15	0xbd3e16fd	-0.046408642
16	0xbd040e12	-0.03223998
17	0xbf66086f	-0.8985662
18	0x3d72e27f	0.059298035
19	0x3d6fef54	0.05857785
20	0x3f2b2939	0.66859776
21	0xbdb6ceff	-0.089262
22	0xbe3389ff	-0.1753311
23	0xbd63d18a	-0.055619754
24	0xbd934a7a	-0.0719194
25	0xbd1514ad	-0.03639667
26	0xbe10369f	-0.14083336
27	0xbe261d01	-0.16222002
28	0x3d3def83	0.046370994
29	0x3d786597	0.06064376
30	0x3c87faff	0.016599176
31	0x3e004e00	0.12529755
32	0xbcc77bc2	-0.024351005
33	0xbe29296b	-0.16519706
34	0x3da4b8f1	0.08043087
35	0x3cce1978	0.025158629
36	0x3dd9c2bb	0.10632845
37	0xbe2c5331	-0.1682861
38	0xbd6687cb	-0.056281846
39	0xbda0bf82	-0.07849027
40	0xbcf3f9c2	-0.02978218
41	0xbd82600c	-0.06365976
42	0x3c2a3808	0.010389335
43	0xbd77ff85	-0.060546417
44	0xbb0f420f	-0.0021859442
45	0x3b6747ce	0.0035290602
46	0xbe9b181b	-0.3029183
47	0xbe22d92f	-0.15903161
48	0xbd9b79ee	-0.075916156
49	0xbd4f1fa3	-0.05056728
50	0xbd5fd173	-0.054643106
51	0x3d085e70	0.033293188
52	0x3d46b2a8	0.048510224
53	0xbd829689	-0.063763686
54	0x3d00a5c4	0.031408086
55	0x3cb34d79	0.021887528
56	0xbd865796	-0.065596744
57	0xbdbe642b	-0.09296449
58	0xbc94bf5a	-0.01815765
59	0x3e564428	0.20924437
60	0xbe0e200c	-0.13879412
61	0x3e065276	0.13117394
62	0xbe0be260	-0.13660574
63	0xbe04e0dc	-0.12976402
64	0xbe382088	-0.1798116
65	0xbebf39a2	-0.37348658
66	0xbc8434c4	-0.016138442
67	0x3e12d957	0.14340721
68	0xbdb844b1	-0.08997477
69	0xbe2a3e5e	-0.16625354
70	0xbc773ce2	-0.015090199
71	0x3fa14597	1.2599362
72	0xbdf984df	-0.12183546
73	0x3e03b9c7	0.12863837
74	0x3c9a9c61	0.018873395
75	0xbd51976c	-0.051169798
76	0xbc78770e	-0.015165104
77	0xbe08655e	-0.13319919
78	0x3f4562c9	0.7710386
79	0xbd9cefdf	-0.07662939
80	0x3cdd7015	0.027030984
81	0x3f3ebc70	0.7450628
82	0xbd07bf27	-0.03314128
83	0xbecbc109	-0.39795712
84	0xbd4b9456	-0.04970201
85	0xbe37d5c4	-0.17952639
86	0xbf90b097	-1.1303891
87	0x3d3c558b	0.045980018
88	0xbe2d9290	-0.1695044
89	0xbd5f859e	-0.054570787
90	0x3d272c98	0.040814012
91	0xbdad334c	-0.0845705
92	0xbdfe4249	-0.12414987
93	0x3ce438e7	0.027859164
94	0x3cda3e86	0.026641142
95	0x3d8d97ce	0.0691372
96	0xbb1ca691	-0.0023902992
97	0x3cb665f3	0.02226541
98	0x3a9ca91c	0.0011952254
99	0xbe8d886b	-0.2764314
100	0x3e7d5399	0.24738921
101	0x3d365bf8	0.044521302
102	0x3c232985	0.0099586295
103	0xbe41bd65	-0.18919905
104	0xbd5a2efe	-0.05326747
105	0x3e65ba27	0.22434293
106	0xbd8f45df	-0.06995749
107	0xbdcb4330	-0.099249244
108	0xbd3a59a0	-0.04549563
109	0x3c7f31a3	0.015575799
110	0x3caaa017	0.02082829
111	0x3cb6d0e6	0.022316407
112	0x3d2b4ac3	0.041819345
113	0xbd9c678d	-0.07636938
114	0xbdab9592	-0.08378138
115	0xbe6d5a16	-0.23178896
116	0xbcfc3e17	-0.030791325
117	0xbd3ca057	-0.04605135
118	0xbe28a9c4	-0.1647101
119	0x3dc6115b	0.09671279
120	0x3cf2dbc3	0.029645806
121	0xbdb26234	-0.08710137
122	0xbd65affd	-0.05607604
123	0x3df476bb	0.119367085
124	0x3e1878b4	0.14889795
125	0xbe0c0209	-0.13672651
126	0xbc962dcb	-0.018332383
127	0x3e0bb866	0.13644561
128	0x3e40a0c9	0.18811335
129	0xbbd473d6	-0.0064835353
130	0x3d4d0ca4	0.050060883
131	0x3eba7d1e	0.36423582
132	0xbe4b20e8	-0.19836771
133	0x3c90551b	0.017618706
134	0xbe1708e2	-0.14749482
135	0x3d9a8a2f	0.07545888
136	0xbd80ff76	-0.06298725
137	0xba04b86d	-0.0005062882
138	0xbd62c2f5	-0.055361707
139	0x3ccaa200	0.02473545
140	0x3cd87f35	0.026427845
141	0xbd98d0f4	-0.0746173
142	0x3c7c8762	0.015413137
143	0xbda5d34b	-0.080969416
144	0xb8a2437f	-7.737334e-05
145	0x3ce53364	0.027978607
146	0xbcf9168b	-0.030406257
147	0x3c1d4980	0.009600043
148	0x3da61674	0.08109751
149	0xbddbb618	-0.10728091
150	0xb747bf50	-1.1905868e-05
151	0xbe53adc7	-0.2067176
152	0x3d981ccf	0.0742737
153	0xbd86e680	-0.06586933
154	0x3c2f0b81	0.010683895
155	0xbe627206	-0.22113809
156	0x3dec6233	0.115421675
157	0xbdbd206b	-0.09234699
158	0x3da27824	0.07933071
159	0xbe7896cd	-0.24276276
160	0xbe617e06	-0.2202073
161	0xbc49fb90	-0.012328044
162	0xbe0f182b	-0.13974063
163	0xbcbb3d3f	-0.022856353
164	0xbe929d44	-0.2863561
165	0x3ceed4b1	0.029154154
166	0xbd784a97	-0.06061801
167	0xbdd04a3f	-0.10170411
168	0xbd347541	-0.044057135
169	0x3dab189f	0.083543055
170	0xbd03dc87	-0.032192733
171	0xbd7fddba	-0.062467314
172	0x3d96bdbc	0.07360408
173	0xbd11efeb	-0.035629194
174	0xbd170c52	-0.036876984
175	0x3d6dd3d9	0.05806336
176	0xbdc89bfa	-0.09795375
177	0xbd876fea	-0.06613143
178	0xbda43498	-0.08017844
179	0x3d8c3263	0.06845548
180	0x3eb3d13c	0.3512057
181	0x3a45c20a	0.00075438677
182	0x3d089ce5	0.03335275
183	0xba858508	-0.0010186741
184	0xbd8da071	-0.069153674
185	0xbe76a8e6	-0.24087867
186	0x3d141b1b	0.036158662
187	0xbcae1cff	-0.02125406
188	0xbd6b2224	-0.057405606
189	0xbe36f164	-0.1786552
190	0xbda33184	-0.07968429
191	0xbe3ac653	-0.18239717
192	0xbdbb5acd	-0.09148178
193	0x3ce1a1c4	0.027542956
194	0x3d63559c	0.055501565
195	0xbe4b76ff	-0.19869612
196	0x3de9561c	0.11393377
197	0xbe9a3953	-0.3012186
198	0xbc9ff646	-0.019526612
199	0xbd1702de	-0.03686797
200	0xbe037d65	-0.12840803
201	0xbde813b4	-0.11331883
202	0xbc91ecaf	-0.017813055
203	0xbd4dd0cc	-0.050247952
204	0x3e157b31	0.14597775
205	0x3ea6a76f	0.32549617
206	0x3efddbfb	0.49581894
207	0xbdac3937	-0.0840935
208	0xbdfc5d0f	-0.12322437
209	0xbda13499	-0.0787136
210	0xbdf2f3a9	-0.11862881
211	0xbe96d13d	-0.2945651
212	0xbe1a876e	-0.15090725
213	0xbebb5152	-0.3658548
214	0xbe437fb0	-0.19091678
215	0xbf23456b	-0.637778
216	0xbeb630d9	-0.35584143
217	0x3efcb5cd	0.49357453
218	0xbea44c4a	-0.32089454
219	0x3d7b1fa0	0.061309457
220	0x3deef1a5	0.11667184
221	0xbda6b1b5	-0.08139364
222	0x3e92028a	0.28517562
223	0x3eadce3a	0.339464
224	0x3e5aed48	0.21379578
225	0xbf4622c5	-0.77396804
226	0x3e7852ce	0.24250337
227	0xbe6175d7	-0.22017609
228	0xb89516a0	-7.109088e-05
229	0x3f266b91	0.65007883
230	0xbe3a5e97	-0.18200146
231	0xbc795327	-0.015217579
232	0xbe251386	-0.16120729
233	0x3edeefa6	0.43542212
234	0xbe9b8b14	-0.30379546
235	0xbddb14d8	-0.10697335
236	0xbe505a13	-0.2034686
237	0x3c8c39e8	0.017117456
238	0x3e0a7789	0.13522162
239	0x3e569db3	0.20958595
240	0x3efc5625	0.49284473
241	0xbd533d7f	-0.05157232
242	0x3e45c422	0.193131
243	0x3eb1da7a	0.34736997
244	0x3e173e50	0.14769864
245	0xbf91a616	-1.137881
246	0x3dc6633b	0.096868955
247	0xbe7c124c	-0.24616355
248	0x3e62ca0b	0.22147386
249	0xbec4435a	-0.38332635
250	0x3ee8e0a3	0.45483884
251	0x3ea02e67	0.31285402
252	0x3f67d0f5	0.9055322
253	0x3e9c8f2e	0.30577987
254	0xbe3bb70c	-0.18331546
255	0xbe3f504f	-0.18682979

bias f4 [251]
0	0x3d2af49b	0.04173718
1	0x3cb2c5fa	0.021822918
2	0x3d87e780	0.06635952
3	0x3d3ec8b0	0.04657811
4	0x3ca10b8a	0.019658823
5	0x3d63de55	0.055631954
6	0xbd0135b5	-0.03154536
7	0x3d27b06c	0.040939733
8	0xbd0ddb97	-0.034633245
9	0x3cba2ec2	0.022727374
10	0x3d55298d	0.05204158
11	0x3c200887	0.009767658
12	0x3cb8472c	0.022494875
13	0x3d7ce496	0.061741434
14	0xbc156e9d	-0.009120611
15	0x3d2ec0ff	0.042664524
16	0xbd00a8d2	-0.031411
17	0x3c7e942a	0.015538255
18	0x3d18e15f	0.037324306
19	0xbd0d4ede	-0.03449904
20	0x3d0762a1	0.033053044
21	0x3c84b3fd	0.016199106
22	0xbd56e008	-0.052459747
23	0x3c7be5fb	0.015374656
24	0xbd531427	-0.05153289
25	0xbbc9264d	-0.006138599
26	0xbd09334b	-0.033496182
27	0x3d8ad796	0.06779401
28	0x3d51399e	0.05108034
29	0x3c40023f	0.0117192855
30	0xbd554988	-0.052072078
31	0xbd278d74	-0.040906385
32	0xbd8941a5	-0.06701974
33	0xbcc57880	-0.02410531
34	0x3d7122df	0.058871146
35	0xbbef223e	-0.007297783
36	0xbd810f41	-0.063017376
37	0x3d29bcc4	0.041439787
38	0xbd845805	-0.06462101
39	0x3d30728a	0.043077983
40	0xbd8c5af0	-0.068532825
41	0xbcedaaf9	-0.02901219
42	0x3d44a806	0.048011802
43	0xbd31a3c6	-0.043369077
44	0x3bc9b8ee	0.0061560785
45	0x3c2105c9	0.009828039
46	0xbd6344ec	-0.05548565
47	0xbbd58e2a	-0.0065171914
48	0xbd6b172a	-0.057395138
49	0xbd864fbe	-0.06558178
50	0xbcd20133	-0.025635337
51	0x3d49f0b1	0.049301807
52	0x3caacf4c	0.0208508
53	0xbd522067	-0.051300433
54	0xbc915c5d	-0.017744238
55	0x3d8df01e	0.06930564
56	0x3b965986	0.0045883087
57	0xbbea2048	-0.0071449615
58	0xbcfee42a	-0.031114656
59	0x3d2fb984	0.04290153
60	0x3d33ba2e	0.043878727
61	0x3c4144cf	0.01179619
62	0xbc0cd4da	-0.00859567
63	0xbd89539a	-0.06705399
64	0x3b7aa552	0.0038245511
65	0xbc7b2a28	-0.015329875
66	0x3d378eb2	0.04481382
67	0xbd839725	-0.06425313
68	0x3d1b46df	0.037909385
69	0xbd26278b	-0.040565055
70	0xbc9417b5	-0.01807771
71	0xbae94056	-0.0017795663
72	0x3d0a9ecd	0.03384285
73	0x3c892153	0.016739523
74	0xbc4a5a62	-0.0123506505
75	0xbd1d8196	-0.03845366
76	0xbca928b3	-0.02064929
77	0xbb4c9f31	-0.0031222815
78	0xbae57898	-0.0017507253
79	0xbcee6cbe	-0.029104587
80	0xbd10643c	-0.03525184
81	0xbcd8a107	-0.026443971
82	0x3b93c538	0.0045095943
83	0xbbad12a2	-0.005281762
84	0xbcf86994	-0.030323781
85	0xbcc44ee2	-0.023963396
86	0x3d6b1e6e	0.057402067
87	0xbd28534d	-0.041095067
88	0xbd51169e	-0.05104696
89	0x3d84a4f8	0.06476778
90	0xbd312708	-0.043250114
91	0xbd327848	-0.04357174
92	0xbc6dd25c	-0.014515486
93	0xbcb01cae	-0.02149805
94	0x3d881904	0.06645396
95	0x3d1ef758	0.038810104
96	0x3d85b78f	0.06529152
97	0x394200b0	0.00018501538
98	0x3d586c3e	0.052837603
99	0xbce82167	-0.02833624
100	0xba18d2fd	-0.00058297795
101	0xbd278c7c	-0.04090546
102	0xbd73890c	-0.05945687
103	0x3d70e6f5	0.058814008
104	0xbcbd8192	-0.023133073
105	0x3d6f2ab0	0.05839032
106	0xbd670370	-0.056399763
107	0xbae05da2	-0.0017117749
108	0xbcbb4e7f	-0.022864578
109	0x3cfbb37e	0.030725237
110	0x3b075697	0.0020650977
111	0x3cd73d41	0.026274325
112	0xbd30fee0	-0.043211818
113	0x3d2ccd32	0.042187877
114	0x3c9c55cf	0.019083885
115	0xbd457b8a	-0.04821352
116	0x3d0c8f03	0.034316074
117	0x3d6fe393	0.05856664
118	0xbd8ac9be	-0.067767605
119	0x3d4c344c	0.04985456
120	0xbd04cebd	-0.032423723
121	0xbca34685	-0.019931087
122	0x3cde98ae	0.027172413
123	0xbd609bd1	-0.054836098
124	0x3a94f523	0.001136456
125	0x3d7a1e20	0.061063886
126	0xbca7ce57	-0.020484133
127	0xbcc05f5b	-0.023482969
128	0xbd874d9b	-0.06606599
129	0xbd407b28	-0.04699245
130	0x3c11cd1e	0.008899001
131	0x3a95f4c9	0.001144075
132	0x3aca1dca	0.0015420255
133	0x3ccf1ab7	0.025281293
134	0xbd72a009	-0.059234653
135	0x3ce7435f	0.028230367
136	0x3d844c1b	0.064598285
137	0x3b17f17e	0.0023184712
138	0xbd2d5a16	-0.04232224
139	0xbb18952e	-0.0023282277
140	0xbc55f3ba	-0.013058597
141	0x3d2243a1	0.039615277
142	0x3c83e38e	0.016099717
143	0x3c87958d	0.016550804
144	0xba6f2e00	-0.0009123981
145	0x3caeb4e1	0.021326484
146	0x3c1492f5	0.00906824
147	0xbc5104df	-0.012757509
148	0x3d152349	0.036410604
149	0x3d4b40cd	0.049622346
150	0xbd5553ba	-0.0520818
151	0xbd6f0b3a	-0.058360316
152	0xbd08be59	-0.033384655
153	0x3d19262a	0.03738991
154	0x3c3059a7	0.010763562
155	0xbd0af48a	-0.033924617
156	0xbbc337a2	-0.0059575597
157	0x3d75fc97	0.06005534
158	0xbccbbe2e	-0.024870958
159	0xbd85a0a9	-0.06524784
160	0xbb90f640	-0.0044238865
161	0xbbcf5116	-0.006326805
162	0xbd29dae4	-0.041468516
163	0x3bb39bad	0.0054812045
164	0x3d3a20e6	0.04544153
165	0x3d381181	0.044938568
166	0xbd37a99f	-0.044839498
167	0x3d7a96d7	0.06117901
168	0xbccc4d4f	-0.024939207
169	0x3d84275e	0.06452821
170	0xbd66bbbd	-0.056331385
171	0x3a7e2998	0.0009695529
172	0x3ba6c1f6	0.00508904
173	0xbbb74664	-0.005593108
174	0x3d7b68c5	0.061379213
175	0x3cc91ba2	0.02454931
176	0x3c1e1838	0.009649329
177	0xbcf1c2f7	-0.029511912
178	0xbd5c3df0	-0.053770006
179	0x3c506c36	0.012721112
180	0xbd0bbd83	-0.03411628
181	0x3ce902e4	0.028443761
182	0xbd7ee513	-0.06223018
183	0x3cbc2176	0.022965174
184	0xbd5dc430	-0.054142177
185	0x3c8c78d0	0.017147452
186	0x39ef2126	0.0004561033
187	0xbd314fa3	-0.043288838
188	0xbd52b016	-0.05143746
189	0x3b07cce2	0.0020721485
190	0xbcc8af0d	-0.024497533
191	0x3d858fa1	0.06521536
192	0xbd8a725e	-0.06760095
193	0xbc095475	-0.0083819525
194	0x3d0c7973	0.03429551
195	0x3c61e504	0.013787512
196	0xbd80976b	-0.06278881
197	0x3d831fc9	0.06402547
198	0x3d0cab2b	0.034342926
199	0x3cd6d6b6	0.026225429
200	0x3ccb5257	0.024819536
201	0x3d3e0265	0.046389002
202	0x3d3356b1	0.043783847
203	0xbd088a45	-0.03333499
204	0x3cd2aa95	0.025716105
205	0x3d7655ab	0.060140293
206	0xbd50d9a1	-0.050988797
207	0xbbb8539d	-0.005625202
208	0xbd101275	-0.035173852
209	0x3d001ac0	0.03127551
210	0x3cae6b46	0.021291386
211	0xbc592c8d	-0.013255251
212	0xbc9fee9e	-0.019522961
213	0x3d6cec45	0.05784251
214	0x3a2f2ca9	0.0006682375
215	0x3c723f7c	0.014785644
216	0xbc33e417	-0.010979674
217	0xbd8691b0	-0.065707564
218	0xbd524cec	-0.05134289
219	0xbd74984b	-0.05971555
220	0x3c97be68	0.01852341
221	0xbd80a8db	-0.062822066
222	0xbd3976f2	-0.04527945
223	0xbd7a465c	-0.061102256
224	0xbd4be3e7	-0.04977789
225	0xbd2efbbf	-0.042720553
226	0xbd66ff5a	-0.056395866
227	0x3d156121	0.036469582
228	0x3b14a331	0.0022680277
229	0x3c1bee7e	0.00951731
230	0x3b9521fd	0.004551171
231	0xbc8c8d92	-0.01715735
232	0xbd8a13f9	-0.06742091
233	0xbd396a5c	-0.045267448
234	0xbd71b388	-0.059009105
235	0xbd274f37	-0.04084703
236	0xbcd01460	-0.02540034
237	0x3d34d0d0	0.04414445
238	0x3cb36a84	0.021901377
239	0xbd0d00fd	-0.03442477
240	0x3cfa6a20	0.030568182
241	0x3d6fe2a4	0.05856575
242	0x3c8af5ba	0.016962875
243	0xbd457b3b	-0.048213225
244	0xbbab1740	-0.0052212775
245	0x3d06ba1b	0.032892328
246	0x3d12a811	0.035804812
247	0x3ce2730f	0.027642755
248	0x3d29476f	0.04132789
249	0x3d4bc807	0.049751308
250	0x3d04b99c	0.032403573
