EXP3_dump/MarkovStructure_model.pth (torch, 3167 bytes, 3 tensors)

weights f4 [1, 11, 11]
0	0x00000001	1e-45
1	0xbe7578f3	-0.2397192
2	0x3e7321f9	0.23743428
3	0xbea0431a	-0.31301194
4	0xbe9d38a8	-0.30707288
5	0xbe7ab3a9	-0.24482597
6	0xbeaff728	-0.34368253
7	0x3dc6afd8	0.09701508
8	0xbea0e080	-0.3142128
9	0x3e9fdaa9	0.31221512
10	0xbe1e67e2	-0.15469316
11	0x322bcc77	1e-08
12	0x408b95d1	4.362038
13	0x3c2e9c94	0.010657448
14	0xbcd73503	-0.026270395
15	0xbe6a4907	-0.2287942
16	0xbbd70612	-0.006562003
17	0xbc50ab80	-0.012736201
18	0x3d0c1194	0.03419645
19	0xbc5f139a	-0.013615513
20	0x3c36a14c	0.011146855
21	0xbb47d309	-0.0030490777
22	0x322bcc77	1e-08
23	0xbd81ab43	-0.06331494
24	0xc06e0e93	-3.7196395
25	0xbd7de26b	-0.061983507
26	0xbe00398f	-0.12521957
27	0xbe9833d5	-0.29727045
28	0xbe598ed9	-0.21245898
29	0x3d84aef6	0.06478684
30	0xbdde4ad5	-0.10854117
31	0x3d951bfd	0.07280729
32	0xbd7ba839	-0.061439727
33	0x322bcc77	1e-08
34	0xbdda6809	-0.106643744
35	0x3ecf7808	0.40521264
36	0x408100ca	4.0313463
37	0xbdb139a6	-0.08653574
38	0xbe1b4d3a	-0.15166178
39	0xbe88ad1f	-0.2669458
40	0x3d23b6c6	0.03996923
41	0xbebc3470	-0.36758757
42	0x3e9ffd76	0.31248063
43	0xbd4e7959	-0.050408695
44	0x322bcc77	1e-08
45	0xbc4887fa	-0.012239451
46	0x3d182f50	0.037154496
47	0xbdce9abb	-0.10088106
48	0x40845def	4.1364665
49	0xbca6afce	-0.020347502
50	0xbd092e2d	-0.033491302
51	0x3d66ff70	0.056395948
52	0xbd26e2ca	-0.040743627
53	0x3d090a31	0.033456985
54	0xbc841c74	-0.016126849
55	0x322bcc77	1e-08
56	0xbd86d7ca	-0.06584127
57	0x3d713501	0.05888844
58	0xbe33e945	-0.17569454
59	0xbcfa824e	-0.030579712
60	0x406f0317	3.7345636
61	0xbdc1dbdb	-0.09465762
62	0x3d8d70df	0.06906294
63	0xbd84d182	-0.06485273
64	0x3e3e75e6	0.18599662
65	0xbe3c81fa	-0.18408957
66	0x02210f20	1.1832753e-37
67	0xbe82f567	-0.25577852
68	0x3d5491e7	0.051896956
69	0xbdfa26cf	-0.122144334
70	0xbe4d7ab5	-0.2006634
71	0xbceaac9e	-0.028646763
72	0x406cde2c	3.7010603
73	0x3c9bf58c	0.019037984
74	0xbd4c3f28	-0.049864918
75	0x3e1bc249	0.15210833
76	0xbdcef6ab	-0.10105642
77	0x322bcc77	1e-08
78	0xbdcb3a18	-0.0992319
79	0x3d255814	0.0403672
80	0xbd8ab7a4	-0.06773308
81	0xbd919525	-0.07108525
82	0xbd88b5d2	-0.066753045
83	0xbeacae3f	-0.3372669
84	0xc072260b	-3.783572
85	0xbe8d88f9	-0.27643564
86	0x3e1c52af	0.15265916
87	0xbd306da1	-0.0430733
88	0x322bcc77	1e-08
89	0xbe5b2688	-0.21401417
90	0x3d0a6f61	0.033797625
91	0xbd7a7956	-0.06115087
92	0xbde37514	-0.11106315
93	0xbe86124e	-0.2618584
94	0xbe70f0b3	-0.2352932
95	0x3ca9b9cc	0.020718478
96	0x40700392	3.750218
97	0x3d8d4eaf	0.06899773
98	0xbd6a3257	-0.057176914
99	0x322bcc77	1e-08
100	0xbd9d0d37	-0.07668536
101	0x3e310c03	0.17289738
102	0xbd9c7499	-0.07639427
103	0xbd6f8655	-0.05847772
104	0xbd90bae5	-0.07066897
105	0xbe4ba7fd	-0.19888301
106	0x3d716913	0.058938097
107	0xbe2a1d11	-0.1661265
108	0xc08c1d73	-4.378595
109	0xbd9e0e63	-0.07717588
110	0x322bcc77	1e-08
111	0xbe9702ab	-0.29494223
112	0x3d8ec574	0.06971255
113	0xbe5c2d22	-0.21501592
114	0xbd7d00fb	-0.061768513
115	0xbcf39172	-0.02973244
116	0xbd559556	-0.05214437
117	0x3c87fabf	0.016599057
118	0xbd8a80a9	-0.06762821
119	0x3d7366db	0.059424262
120	0x406fb214	3.745244

bias f4 [1, 11, 11]
0	0xbc807fad	-0.01568588
1	0x3e3448e8	0.17605937
2	0x3cd2af6e	0.025718417
3	0x3d0227d5	0.031776268
4	0x3d978e40	0.07400179
5	0xbca3e199	-0.020005034
6	0x3c69137e	0.014225839
7	0x3ce62b26	0.028096747
8	0xbbbaa26a	-0.005695631
9	0xbe68ff19	-0.22753562
10	0xbd135168	-0.035966307
11	0xbea1da4c	-0.3161186
12	0xbf2431ee	-0.64138687
13	0x3eb9e6b0	0.36308813
14	0xbee54c1b	-0.44784626
15	0xbf007b3c	-0.5018804
16	0xbebd06d8	-0.36919284
17	0xbecd3011	-0.40075734
18	0x3eb3f8b9	0.35150698
19	0xbec50da0	-0.38486958
20	0x3f32b5e6	0.69808805
21	0xbeb36d1d	-0.35044184
22	0xbe92701c	-0.28601158
23	0xbf0cb133	-0.54957885
24	0x3eab3a66	0.33442992
25	0xbece5f32	-0.40307003
26	0xbee3548e	-0.44400448
27	0xbead3168	-0.33826756
28	0xbeb6fd93	-0.35740337
29	0x3ea9553d	0.33072844
30	0xbeb2a6e6	-0.34892958
31	0x3f16bf09	0.58885247
32	0xbea7c887	-0.32770178
33	0xbe886ae9	-0.26644066
34	0xbf04d2da	-0.51884234
35	0x3ea41cc6	0.32053202
36	0xbec5ce53	-0.38633975
37	0xbed8baa4	-0.42329895
38	0xbea61c9f	-0.3244371
39	0xbeae8e49	-0.3409293
40	0x3ea1c47c	0.31595218
41	0xbeab0a0e	-0.3340611
42	0x3f0d7e8c	0.5527122
43	0xbea11ddb	-0.3146809
44	0xbea129af	-0.31477115
45	0xbf2149e8	-0.63003397
46	0x3eb8f7b1	0.36126474
47	0xbee37655	-0.44426218
48	0xbefe66a9	-0.49687698
49	0xbebc0715	-0.36724153
50	0xbecbde78	-0.39818168
51	0x3eb37fd4	0.35058463
52	0xbec3e60e	-0.38261455
53	0x3f2ee408	0.683167
54	0xbeb2b441	-0.34903148
55	0xbe9704aa	-0.29495746
56	0xbf11033f	-0.5664558
57	0x3eaebb35	0.34127203
58	0xbed38b35	-0.41317144
59	0xbee9b72b	-0.4564756
60	0xbeb135a5	-0.3461124
61	0xbebca010	-0.36840868
62	0x3eac3fad	0.3364233
63	0xbeb73dad	-0.35789242
64	0x3f1b9131	0.6076842
65	0xbeaabf1f	-0.3334894
66	0xbe8dd281	-0.27699664
67	0xbf140fe7	-0.57836765
68	0x3ea8d0e7	0.3297188
69	0xbed0ac81	-0.4075661
70	0xbee9cbdf	-0.45663354
71	0xbeabda19	-0.33564833
72	0xbebbedb3	-0.36704788
73	0x3ea11ec0	0.31468773
74	0xbeb3a76a	-0.35088664
75	0x3f202389	0.6255422
76	0xbea1d3a7	-0.3160679
77	0xbea5b01b	-0.3236092
78	0xbefe6a2a	-0.49690372
79	0x3eb324e2	0.34989077
80	0xbecc504d	-0.39905015
81	0xbed8eaf6	-0.4236676
82	0xbeb311b1	-0.34974435
83	0xbeb033f9	-0.34414652
84	0x3ec4d2d1	0.3844209
85	0xbeb399c8	-0.35078263
86	0x3f0549a6	0.52065504
87	0xbeb9a320	-0.36257267
88	0xbe8f2967	-0.27961275
89	0xbf105eb9	-0.56394535
90	0x3ea9d46f	0.33169886
91	0xbecf8d89	-0.4053767
92	0xbee69dd3	-0.45042285
93	0xbeac6517	-0.33670875
94	0xbeb94553	-0.36185703
95	0x3ea4af7c	0.32165134
96	0xbeb30cf5	-0.34970823
97	0x3f1b6e81	0.6071549
98	0xbea48a21	-0.32136634
99	0xbe94e251	-0.29078916
100	0xbf1562f9	-0.58354145
101	0x3eaf7109	0.34265926
102	0xbed66d9e	-0.41880506
103	0xbeee4220	-0.46534824
104	0xbeb2091c	-0.34772575
105	0xbebf0eb6	-0.3731591
106	0x3eaa35f7	0.33244297
107	0xbeb8cf25	-0.3609554
108	0x3f213beb	0.6298205
109	0xbeaa0e6b	-0.33214125
110	0xbe9efa82	-0.31050497
111	0xbf0d6a37	-0.55240196
112	0x3eb4bac0	0.3529873
113	0xbed64436	-0.41848916
114	0xbee9041e	-0.45510954
115	0xbeb62a2c	-0.3557905
116	0xbebb9fc9	-0.36645344
117	0x3eb94e03	0.3619233
118	0xbeba12e6	-0.36342543
119	0x3f163c9e	0.58686244
120	0xbeb4bfe5	-0.35302654

weight f4 [1, 11]
0	0x3f123777	0.5711588
1	0x3fdc3e2e	1.7206476
2	0xbff5e126	-1.9209335
3	0x3feb4f89	1.8383647
4	0x3fe74241	1.8067094
5	0x3ff970e5	1.9487578
6	0x4005b7f3	2.0893524
7	0xbfc95b1c	-1.5730929
8	0x3ffdc071	1.9824353
9	0xbfd99f2a	-1.7001698
10	0x3fe3ef5a	1.7807419
