EXP3_dump/MarkovStructure_model.pth (torch, 4055 bytes, 5 tensors)

weights f4 [1, 11, 11]
0	0x00000000	0.0
1	0xbd0ecf10	-0.03486544
2	0x3d124f79	0.035720322
3	0xbce1f610	-0.027583152
4	0x3d4ad359	0.049517963
5	0xbd33e0f3	-0.0439157
6	0x3d03ab49	0.032145772
7	0x3d24b26c	0.04020922
8	0x3d532ed2	0.051558323
9	0xbc12c1f0	-0.008957371
10	0x3d3d75b1	0.046254817
11	0x00000000	0.0
12	0xbe855aba	-0.2604578
13	0xbcccacf7	-0.02498482
14	0xbba3bc90	-0.0049968436
15	0x3d1a1e89	0.037626777
16	0x3cd85858	0.026409313
17	0x3cd4aada	0.025960375
18	0xbc9a392b	-0.018826088
19	0x3cdc3480	0.026880503
20	0xba8f0275	-0.0010910766
21	0x3c5c1e2f	0.013434931
22	0x00000000	0.0
23	0xbbee6899	-0.0072756526
24	0x3e71e0bc	0.23620886
25	0xbc4bd987	-0.012441999
26	0x3d87c1fe	0.06628798
27	0x3c17c256	0.009262642
28	0x3bc99fd3	0.0061530857
29	0xbcf57340	-0.029962182
30	0x3c1ac65f	0.009446709
31	0xbba919c3	-0.0051605417
32	0x3c96a53e	0.01838934
33	0x00000000	0.0
34	0xbb976f64	-0.004621433
35	0xbc932449	-0.017961638
36	0xbea8a31f	-0.32936952
37	0x3bb26aa0	0.0054448396
38	0x3cf53f99	0.029937552
39	0x3c997d17	0.018736405
40	0xbc1dda3e	-0.0096345525
41	0x3cd0702f	0.025444118
42	0xb9d82823	-0.00041228635
43	0x3ca91429	0.020639496
44	0x00000000	0.0
45	0xbbbf99d5	-0.0058471956
46	0x3c0050bd	0.0078317495
47	0xbc911e31	-0.017714592
48	0x3e92bedf	0.28661248
49	0x3c5afe14	0.013366241
50	0x3bee9278	0.007280644
51	0xbc46b984	-0.012129191
52	0x3c240b93	0.010012525
53	0xbae4f079	-0.0017466686
54	0x3bbc4377	0.005745347
55	0x00000000	0.0
56	0xbb9d6602	-0.00480342
57	0x3e73f495	0.2382377
58	0xbbca0def	-0.006166212
59	0x3cb0811a	0.021545935
60	0xbee33832	-0.4437881
61	0x3b84ab19	0.0040487167
62	0xbd091831	-0.033470336
63	0x3bdf0ee5	0.0068071955
64	0xbb9bff9f	-0.004760697
65	0x3c1a0d5a	0.009402597
66	0x00000000	0.0
67	0xbc4be77a	-0.012445325
68	0x3c8c92c6	0.01715983
69	0xbc48cdcf	-0.0122561
70	0x3ca4afd6	0.020103376
71	0x3cd47eaa	0.025939304
72	0x3ea65f8a	0.32494766
73	0xbc99334b	-0.018701216
74	0x3d1fdb65	0.03902759
75	0xbb9c3540	-0.00476709
76	0x3d28623e	0.041109316
77	0x00000000	0.0
78	0xbbef2349	-0.0072979075
79	0x3bbe6822	0.0058107534
80	0xbbc62964	-0.0060474146
81	0x3babc702	0.0052422294
82	0x3c7dd423	0.015492472
83	0x3bb6f0fc	0.005582927
84	0xbe997172	-0.29969364
85	0x3d0034ce	0.03130036
86	0xbba5d5a8	-0.00506087
87	0x3cb12475	0.02162383
88	0x00000000	0.0
89	0xbb05c11d	-0.0020409294
90	0x3d60a5ab	0.054845493
91	0xbc6160ba	-0.013755972
92	0x3b76b85f	0.0037646515
93	0x3d03ed51	0.032208744
94	0x3b75f6de	0.0037531178
95	0xbbdcdc62	-0.006740139
96	0xbe93bcaa	-0.28854877
97	0xbb21661b	-0.002462751
98	0x3cbaadac	0.022787891
99	0x00000000	0.0
100	0xbc9184e8	-0.01776357
101	0xbbe3993d	-0.0069457577
102	0xbd099b5c	-0.033595428
103	0x3c3d7365	0.011563157
104	0x3c85070d	0.016238714
105	0x3c727550	0.014798477
106	0xbbed7991	-0.007247158
107	0x3c878798	0.016544148
108	0xbe6ab4e3	-0.22920565
109	0x3c56b1fb	0.013103957
110	0x00000000	0.0
111	0xbb52fa6d	-0.0032192722
112	0x3c339d79	0.010962837
113	0xbc983f20	-0.018584788
114	0x3b49f386	0.0030815317
115	0x3c945dfa	0.018111218
116	0x3c05a73e	0.008157549
117	0xbcc9fcb8	-0.024656639
118	0x3bd4f373	0.006498748
119	0xbac698f3	-0.0015151784
120	0x3e76a5f3	0.24086742

bias f4 [1, 11, 11]
0	0x3db7a334	0.089666754
1	0xbcc9f673	-0.024653649
2	0xbcb9484c	-0.022617482
3	0xbbd95441	-0.0066323583
4	0x3cb41379	0.021981942
5	0x3e1cdd8a	0.15318885
6	0x3cd345b5	0.025790075
7	0xbe00ab9a	-0.12565461
8	0x3c274dd0	0.010211423
9	0xbce70201	-0.028199198
10	0x3c5ac030	0.013351485
11	0x3cd542d5	0.026032845
12	0xbccda3c1	-0.025102498
13	0x3cc8543f	0.024454234
14	0xbc68bb52	-0.014204817
15	0x3c36626f	0.011131867
16	0x3bfabe7c	0.007652102
17	0x3c2864b7	0.010277919
18	0x3a39493a	0.00070681015
19	0x3c1b036f	0.009461268
20	0xbc933c22	-0.01797301
21	0x3c51977e	0.012792466
22	0x3d025bcc	0.031825826
23	0xbc90e006	-0.017684948
24	0x3c94d2c9	0.018166916
25	0xbc93dcb6	-0.01804958
26	0xbc4ade51	-0.012382106
27	0x3cc0b6c8	0.023524657
28	0x3cb3cf14	0.021949328
29	0x3d25ea02	0.04050637
30	0x3cc16df3	0.023611998
31	0xbcbfefe5	-0.02342982
32	0x3bfeac25	0.007771986
33	0x3cc9c8f5	0.024631957
34	0xbc5d9b33	-0.013525772
35	0x3c985c2e	0.018598642
36	0xbcd326d1	-0.025775345
37	0x3ca90745	0.02063335
38	0x3b8a3956	0.0042182608
39	0x3c44eb7b	0.012019034
40	0xbb76292d	-0.0037561164
41	0x3c095d1f	0.008384018
42	0xbc9fe648	-0.019518986
43	0x3c0aa020	0.008461028
44	0x3ca69b4f	0.020337729
45	0xbc8240f9	-0.015900122
46	0x3ac35f27	0.0014905677
47	0xbc8c65b4	-0.01713834
48	0x3ccb0c75	0.024786213
49	0x3c989322	0.018624846
50	0x3c3e4ef7	0.011615506
51	0xbc2a16e2	-0.010381432
52	0x3c96c6e1	0.01840538
53	0xbcb1f061	-0.021721067
54	0x3c30c0a4	0.010788117
55	0x3c28f582	0.01031244
56	0xbcaedb76	-0.021344882
57	0xbd292b72	-0.0413012
58	0xbcb74729	-0.022372799
59	0x3cb2bd26	0.021818709
60	0x3d6785b5	0.056523997
61	0x3b9938ed	0.0046759755
62	0xbc53537f	-0.012898325
63	0x3b4fb035	0.003169072
64	0xbcdea1d1	-0.02717677
65	0x3afa02e2	0.0019074345
66	0x3cbdb74a	0.023158688
67	0xbcb42da9	-0.021994429
68	0xbbc65939	-0.0060531166
69	0xbcf7317b	-0.030174961
70	0x3c7e0321	0.015503676
71	0x3c5151f3	0.012775886
72	0x3d00a460	0.03140676
73	0xbcaf92a9	-0.021432238
74	0x3bdba405	0.0067029023
75	0xbcf0e694	-0.029406823
76	0x3aea603e	0.0017881466
77	0x3cb2bc4b	0.0218183
78	0xbc2a0060	-0.010376066
79	0xbbf41860	-0.007449195
80	0xbc4da40b	-0.012551318
81	0x3c88189a	0.016613293
82	0x3cb24a39	0.021763908
83	0x3c59fe0c	0.013305198
84	0xbc7111a6	-0.01471368
85	0x3c214f8d	0.009845627
86	0xbc82da5c	-0.015973262
87	0x3be6e118	0.0070458762
88	0x3cbc971f	0.023021279
89	0xbca35b69	-0.019941049
90	0x3ca6e6c0	0.020373702
91	0xbc305712	-0.010762947
92	0x3cb75828	0.022380903
93	0x3d197b7b	0.037471276
94	0x3ca25f2c	0.019820772
95	0xbc355167	-0.011066771
96	0x3b1d08f8	0.0023961645
97	0xbd042086	-0.03225758
98	0x3c13bb71	0.0090168575
99	0x3cac7a8f	0.021054534
100	0xbc02ffb7	-0.0079955375
101	0x3c2f8712	0.010713356
102	0xbbc9ccf7	-0.006158467
103	0x3c760352	0.01501544
104	0x3bf7d0f7	0.0075627523
105	0x3c255a15	0.010092278
106	0xbb599a6f	-0.0033203622
107	0x3c167f77	0.009185663
108	0xbcda88c1	-0.026676537
109	0x3c0cd906	0.008596664
110	0x3c6d74c5	0.014493172
111	0xbc36bd76	-0.011153569
112	0x3a01ac50	0.0004946636
113	0xbc092425	-0.008370434
114	0x3c46690d	0.012110007
115	0x3c8fab58	0.017537758
116	0x3bfdad04	0.0077415723
117	0xb9d2366c	-0.0004009487
118	0x3c2c8b0c	0.010531198
119	0xbca25558	-0.019816086
120	0x3c90b72e	0.017665472

weight f4 [11]
0	0x3fbdb4fb	1.4820856
1	0x401f25a9	2.4866736
2	0x3ffbcdac	1.9672141
3	0x4018732a	2.382029
4	0x3ff74564	1.9318051
5	0x3fe548e0	1.7912865
6	0x3fe3c2df	1.7793845
7	0x3fec87c3	1.8478931
8	0x3fcf5332	1.6197264
9	0x401a5e91	2.4120219
10	0x3fdff993	1.7498039

bias f4 [11]
0	0xbfddaa3e	-1.7317579
1	0xc018b55c	-2.3860693
2	0xbf0abcad	-0.54194146
3	0xc01a0268	-2.4063969
4	0xbfd18a36	-1.6370304
5	0x3ef45c43	0.4772664
6	0xbf99a361	-1.2002984
7	0xbf9411d0	-1.1567936
8	0x3e85a38f	0.26101348
9	0xc01e599f	-2.47422
10	0xbf73011e	-0.9492358

weight f4 [1, 11]
0	0xbfba2857	-1.4543561
1	0x3f379847	0.7171673
2	0xbf0be062	-0.54639256
3	0x3f4ffa48	0.81241274
4	0xbfb053b1	-1.377554
5	0xbf88b94b	-1.0681547
6	0xbf974d59	-1.182048
7	0x3e82f047	0.25573942
8	0xbf92c49b	-1.1466249
9	0x3f778cb4	0.9669907
10	0xbf873982	-1.0564425
