EXP3_dump/MarkovStructure_model.pth (torch, 3167 bytes, 3 tensors)

weights f4 [1, 11, 11]
00000000: 0000 0000 6768 b63e 8bcb 913e 3569 19be
00000010: e148 a63e 3c6c afbe 8895 703e b402 35be
00000020: b072 9b3e 85df 093f d884 253e 0000 0000
00000030: 4139 d8c0 b2c9 8b3d cfd1 e6bc 19d0 613e
00000040: 2b48 9ebd 72ef 953c a65f c5bc 1a17 703d
00000050: 9f63 be3c aceb 3a3c 0000 0000 7abd 883d
00000060: d8cc ddc0 7036 77bd f4c4 8c3e 7059 0dbe
00000070: 8b20 3c3e eabf 47bd c515 d33e ff1d 4d3e
00000080: c904 093e 0000 0000 cbf5 cab8 09da 8738
00000090: bede e340 ba14 5039 f05e 6d39 4e4b 10b9
000000a0: a89b e937 3274 9b38 b8c2 b738 9050 a137
000000b0: 0000 0000 ad20 793c dc89 0d3e 0d6a 3bbe
000000c0: 2dfc dbc0 0166 2bbe bc85 2f3d b6c0 07be
000000d0: e18e eb3d 8e3b 633d 7acf 423d 0000 0000
000000e0: 97ad 4b3d 6e0d f43d 6f3b 7fbc d1d7 6b3d
000000f0: c385 ca40 5139 2c3e 3870 98bd 2760 a53e
00000100: 979a 1d3e c9b4 193d 0000 0000 1bd1 233c
00000110: 6f9e 323e 0293 afbb cbcf 233d 16a7 84bc
00000120: 55f1 d3c0 e8d6 c3bb d092 563d 5a9d d13c
00000130: e177 873c 0000 0000 7388 473c 651b 083e
00000140: 7251 57bd b4f1 ff3c 6d88 a4bd 9683 e03d
00000150: dc01 c840 d3bd 593d e0e3 053d 656d 8d3e
00000160: 0000 0000 450e 4e3e bc57 b33d d9e4 64bd
00000170: 2abb 2f3e cc48 37bd b045 833d 7535 9ebd
00000180: 64a1 bbc0 303c 253f 95a6 e53d 0000 0000
00000190: 1aa1 ff3e f44e 9e3d 5c9a 4cbd 44bd 6d3e
000001a0: 5098 8ebd 606f 083e 192e 06be 0bac 6b3d
000001b0: 6c53 c9c0 428e 003e 0000 0000 dc8a ed3c
000001c0: 2349 363d 01dd 89be 3d28 043d b88e cbbe
000001d0: bbbd 593d fcc4 abbd 86b3 bb3d eeca ae3d
000001e0: 1df3 e9c0
0.0 0.35626528 0.28475603 -0.1498154 0.32477477 -0.34262264 0.23494542 -0.17676812
0.30360937 0.5385669 0.16163957 0.0 -6.756989 0.0682558 -0.028176216 0.22052039
-0.07728609 0.018302653 -0.02409346 0.05861578 0.023240862 0.011408728 0.0 0.06676765
-6.9312553 -0.06035465 0.27494013 -0.13803649 0.18371789 -0.048767008 0.41227546 0.20030974
0.13380732 0.0 -9.677893e-05 6.477914e-05 7.12094 0.00019844147 0.00022637448 -0.00013760963
2.7848248e-05 7.412619e-05 8.762389e-05 1.923021e-05 0.0 0.015205544 0.1382212 -0.18302174
-6.874533 -0.1673813 0.04285215 -0.13257107 0.11501861 0.055476718 0.047561146 0.0
0.049726095 0.11916624 -0.015578135 0.057578865 6.3288283 0.1681874 -0.07443279 0.3229992
0.15391003 0.037525926 0.0 0.009998585 0.1744325 -0.005358101 0.03999309 -0.016192954
-6.6232095 -0.0059765466 0.052386105 0.025587726 0.016536655 0.0 0.012178528 0.132917
-0.052567907 0.031243183 -0.08033834 0.10962598 6.250227 0.053159546 0.03268802 0.27622524
0.0 0.20122631 0.087569684 -0.05588231 0.17161241 -0.04474716 0.06409776 -0.0772504
-5.863451 0.64544964 0.112134136 0.0 0.49927598 0.07729903 -0.049951896 0.2321673
-0.06962645 0.13323736 -0.13103522 0.05753712 -6.2914333 0.12554267 0.0 0.028996877
0.044503342 -0.26926425 0.032264937 -0.39757323 0.053159457 -0.08387181 0.09165101 0.085347995
-7.310927

bias f4 [1, 11, 11]
00000000: 785d bb3e 7ce6 263e 9441 18be 5ffc 823e
00000010: 5a3d 9b3e ea82 ef3e 6c92 8b3d 6e0f 843e
00000020: 2c10 983e d9f4 04bf 72c6 e33e 5a37 e8be
00000030: 7e68 1840 5b89 7e3f 0a1b 8ebd 7fc7 5d3e
00000040: 0fbb 75be dcd1 2e3f 6b24 4abe 50a6 4e3f
00000050: dcb4 8a3f dda5 803e 5d23 c4be 9eb1 8d3f
00000060: 3e49 1c40 b1bc 77bd 34a2 823e 1e85 3e3d
00000070: 89ec 2d3f 26d0 ebbd f572 3c3f d992 323f
00000080: 0aca 0b3f 080d 2ebf 28a9 8d3f 5bb0 a23f
00000090: 01c5 2b3f 511f 483f b994 c9be 7337 7f3f
000000a0: 891c f0be 7b4c 5d3f a55a c83f 8959 263f
000000b0: 3465 efbe b4fb 3a3f b957 5a3f 6637 04be
000000c0: 6c44 db3f 706a 8fbe 7ff8 303f e7a8 8fbe
000000d0: aaff 293f c673 7a3f 51f9 fe3e bdd0 1abf
000000e0: fd94 833f d472 9a3f 3572 6cbe 88a2 093f
000000f0: a24e 583f 2aac 753f c1a5 8dbd 833f 6e3f
00000100: 68ef c43f a5d9 2a3f eeec f1be 956a 573f
00000110: 9ac1 b13f b242 1fbe 67f9 0f3f f833 21be
00000120: 297c fa3f 2b3c 6bbe aace 253f c06a 5e3f
00000130: 0209 aa3e 3efd 22bf 93a8 813f 56d3 a13f
00000140: 485e 74be 2790 0f3f 1ee2 d0be 8d68 983f
00000150: e5aa 2e3f c555 4c3f 7eac a03f abe9 403f
00000160: 4c77 c0be c877 523f e7d7 423f b72c eebb
00000170: 5fa6 0b3f 6a98 88be 835a 383f 3601 df3d
00000180: 1d3c ec3f 6fb3 833f 51c8 a43e 2519 6cbe
00000190: 13d8 843f 3c11 7f3f 5fe0 dcbd 56fc 953e
000001a0: d866 2bbe 1021 4e3f d577 3cbe acb9 173f
000001b0: d966 0640 dce1 3c3e 4a45 0ebf 6492 503f
000001c0: c892 593f 78c6 79be 242d 9a3e 7115 913d
000001d0: daec 443f 2295 84be 38dd 623f 5ad8 773f
000001e0: b2f8 f53f
0.36594748 0.1629886 -0.14868766 0.2558317 0.30320245 0.46779567 0.06815037 0.25793022
0.29699838 -0.5193611 0.4448734 -0.4535473 2.3813777 0.9942834 -0.06938751 0.21658133
-0.23997138 0.6828897 -0.19740455 0.8072252 1.0836444 0.25126544 -0.3830823 1.106983
2.4419703 -0.060482685 0.25514376 0.04651367 0.6793905 -0.115143105 0.7361291 0.6975532
0.5460516 -0.67988634 1.1067247 1.271007 0.6709748 0.78172785 -0.3937128 0.99693984
-0.4689677 0.86444825 1.5652663 0.6498037 -0.467569 0.7304032 0.85290104 -0.12911758
1.7130256 -0.28010893 0.69129175 -0.2805855 0.6640574 0.97832906 0.49799588 -0.6047476
1.0279843 1.2066293 -0.23090442 0.5376363 0.84494984 0.95965827 -0.06916381 0.9306566
1.5385561 0.6673835 -0.47251076 0.84147006 1.3887208 -0.15552786 0.5623993 -0.15742481
1.9569141 -0.22972171 0.6476847 0.8688164 0.33209997 -0.63667667 1.012957 1.264262
-0.2386409 0.56079334 -0.40797514 1.1906906 0.68229514 0.79818374 1.255264 0.7535655
-0.37591016 0.8221402 0.7611069 -0.007268514 0.5455074 -0.26678783 0.7201311 0.10888903
1.8455845 1.0289134 0.3218408 -0.23056467 1.0378441 0.9963567 -0.10784983 0.2929408
-0.1673845 0.805192 -0.18405087 0.5926769 2.1000273 0.18445534 -0.55574477 0.81473374
0.84989595 -0.24392116 0.30112565 0.07084168 0.76923907 -0.2589503 0.88618803 0.968145
1.9216521

weight f4 [1, 11]
00000000: 53b3 303f be0b cdbf 0562 bdbf 0606 be3f
00000010: f0e9 c7bf 045d cc3f 9823 c9bf 99f4 cc3f
00000020: 344b e6bf b5d7 e2bf e736 b2bf
0.6902363 -1.6019208 -1.4795538 1.4845588 -1.5618267 1.5965886 -1.5713987 1.6012145
-1.79917 -1.7722079 -1.3923005
