EXP12_dump/bottleneck_model-sample.pth (torch, 77664 bytes, 19 tensors)

weight f4 [30, 251]
00000000: 6272 02bd 3301 4f3c 8906 f9bc 1142 5ebe
00000010: 5a10 83bd ce59 ddb9 3e7f 203e 896e e1bc
00000020: 0c8d 67bd 0ccb b13d d337 88bc 86f8 4c3d
00000030: d51d 513e 5321 a5bd f682 3c3d 5136 21bb
00000040: f7ca 1cbd 4147 91be 89a5 c5bb 34f1 10be
00000050: 29af 153e bca4 9d3e 888b c3bd c80f 643d
00000060: c789 09be a00d d1bd e978 c3bc c8fd d5bc
00000070: b1f2 b8bd d2e3 e7bd 7558 21be 3b83 04bd
00000080: a8c8 07be f043 633b 9c89 2a3d 3812 963d
00000090: 92f9 0fbe 3438 d13c 8c23 343e f2bc 00be
000000a0: 55dd d73c 8121 ea3d 3c33 813d 409e 343e
000000b0: c8c0 c239 bbe0 c63e dd19 703d 6e00 be3e
000000c0: fba4 1cbe 4410 f13d 1a7f 91bd 91d2 283e
000000d0: 3ae4 0a3e 5931 9cbd f0c0 89bd 1f09 b9bd
000000e0: 45f6 babd b4f2 853d 65f0 0abd 1b94 7fbe
000000f0: 5ef8 9bbe f63b b13d 7996 70be 2588 b63e
00000100: 1bbc 3abe 4238 fbbd e624 123e 28ac 0abe
00000110: 05b8 6ebe a81c 5b3e 57dc dc3d f4bb 0d3f
00000120: 4908 e3bb b466 f03c 1504 553d be02 263e
00000130: 89b3 153d 6b40 96be d9bf d3bd bd21 60bd
00000140: 8a9a 7dbd ab8c d4bc bfd9 93bd e407 d53c
00000150: 6881 72be a76e 61bb 0d31 a83d e854 713e
00000160: 1dca 06be 12e0 0b3e 60fa 94be 5577 943c
00000170: 51b8 87bd 4f57 37bd 6170 be3c c9d0 003e
00000180: 67ef cbbd 7ffc 3e3d 9253 c23d ecb1 143e
00000190: 8f89 273e 40f9 943d c0fe 11be 840c f9bc
000001a0: c113 b5ba 8157 493e 2e49 9b3c 8313 eb3d
000001b0: db3a 7b3d f813 8a3d 8eaa 2abe 895c 813e
000001c0: f674 1dbe 7836 9c3d f66a 5cbe d098 b53d
000001d0: 51af fcbc 04cd 1dbe d0f0 1a3e 8556 6cbe
000001e0: 63b4 dcbd 5b2a df3b 9471 bf3b 56f7 86bd
000001f0: f2c6 0e3e 8ac0 53be 73ea 2abe cbae 983d
00000200: 963a dc3d a962 3dbd 2039 143d 0277 703c
00000210: a9f7 383d 549c 323e b565 8dbd a309 c73d
00000220: 00ab 513d 58f6 8abd be32 553c 9bee c1bd
00000230: 12c0 873c 18df 643d f3b3 c53c c182 4abd
00000240: 81c6 313e 5341 e83d 7bd1 4cbc d71f 31be
00000250: 940c f0bd cd98 aabd 1d6c 59bc 4413 cebc
00000260: 0fd5 ef3d ca7f a7bc 8cb9 17be 6d4a 03bd
00000270: d902 b9be 54fa e63c 5ed2 06be 8164 2abe
00000280: e687 033e 3cdf 0ebe b37f ae3e bdcd fe3d
00000290: 6225 463d 46ec 313a 6168 80be 05a8 3e3e
000002a0: c815 2fbe 1530 9e3d b180 a13d 6901 62be
000002b0: 6971 b9bb ce63 babb 6f6d 393e 2bdb 06be
000002c0: ff8a c53d f61a 01bd df28 d33c a929 203d
000002d0: 0062 ee3c 331e 4ebe cd37 0abe 86e5 12ba
000002e0: 03bf 703e df34 44be 868f e63c f624 733d
000002f0: 1f2a 26be 1529 4cbd 524b 4c3e 4b77 cc3c
00000300: 93df d8bd 581d 49bd 781e 263d 2ccc 9b3d
00000310: e27c 403d a856 583e 53bc 6cbe 8f8c 373e
00000320: 893c 663d 77cb 5c3d 539d 023e 8cab 86bc
00000330: c106 76bd b5ca c13d 19c3 6cbc 6f0a 68bd
00000340: 1631 26bd 3627 fdbb 2267 313e 872c 273b
00000350: 2d16 c4bc 9d8a 5f3d cdaf c93e 757c 6b3e
00000360: 4d7f e63d 8af9 f8be a632 09be 3981 85bd
00000370: 7cee 3f3c f530 38bd ccc5 e0bc f724 403e
00000380: 154b 843c f327 e2be 1b2d 823d bffb 26be
00000390: c9c2 52be 7922 e1bd a657 96be 8e39 9c3e
000003a0: 4a2c 72bd f279 ddbd 7dda 74be d1cf 1bbd
000003b0: a7d9 00bd 92cb 343e e992 71be aa16 0a3e
000003c0: 56ff c2be f2ef fe3d 354f 6bbd 7351 5cbe
000003d0: 930c f1bc c56b 2b3d a036 c83d 9e86 483e
000003e0: 8fa3 18bd 86ec 2ebd 0a23 7cbd fc57 dbbc
000003f0: 1588 05be 58b3 04be 2c00 2abd 7788 f3bd
-0.031847365 0.012634563 -0.030398624 -0.2170489 -0.06399603 -0.00042219314 0.15673539 -0.027518528
-0.056530997 0.08681306 -0.016628182 0.050041698 0.20421536 -0.08062997 0.04602333 -0.0024599025
-0.0382795 -0.28374675 -0.006031696 -0.14154512 0.146176 0.30789745 -0.09548098 0.055679113
-0.13431464 -0.10207677 -0.023861365 -0.026121989 -0.09030665 -0.1132275 -0.157564 -0.032351714
-0.13260138 0.0034677945 0.04163514 0.07327694 -0.14060047 0.025539495 0.17591685 -0.12572077
0.026350657 0.114321716 0.063086 0.17638493 0.00037146197 0.3884333 0.058618415 0.37109703
-0.1529731 0.117706805 -0.07104321 0.16486575 0.13563624 -0.076266 -0.06726253 -0.09034943
-0.091290034 0.065404326 -0.033920664 -0.24958842 -0.30462927 0.08654015 -0.23494901 0.35650745
-0.18235819 -0.1226659 0.14271888 -0.13542235 -0.23312385 0.2139765 0.10784214 0.5536492
-0.006928478 0.029345848 0.052005846 0.16211984 0.03654817 -0.29346022 -0.103393264 -0.054719675
-0.061914958 -0.025945982 -0.07219266 0.02600474 -0.23682177 -0.003439823 0.08212481 0.23567545
-0.13163038 0.13659695 -0.2909727 0.018123308 -0.066269524 -0.044761 0.023246946 0.12579645
-0.09957772 0.046627518 0.09488596 0.14520997 0.16361068 0.07274103 -0.14257336 -0.030401476
-0.0013815091 0.19662286 0.018955793 0.11478331 0.061335426 0.0674209 -0.16666624 0.2526591
-0.15376648 0.076275766 -0.21525177 0.08867037 -0.030845316 -0.15410239 0.15130925 -0.2307988
-0.107765935 0.006810469 0.005842397 -0.06590144 0.13943079 -0.20678917 -0.16690998 0.07455214
0.10753362 -0.046236668 0.03618729 0.014676811 0.045158062 0.17442447 -0.06904165 0.09718635
0.05118847 -0.067852676 0.013012586 -0.094693385 0.016571078 0.05587682 0.024133658 -0.049441103
0.1736088 0.113405846 -0.012501116 -0.17297302 -0.11721149 -0.08329926 -0.013270405 -0.025155671
0.117105596 -0.020446677 -0.14816874 -0.0320534 -0.36134985 0.028195538 -0.13166186 -0.16639902
0.1284481 -0.13952345 0.34081802 0.12441585 0.048375495 0.00067872216 -0.25079635 0.18618782
-0.17098153 0.07724015 0.07885874 -0.2207085 -0.0056592715 -0.005688167 0.18108152 -0.13169543
0.09645652 -0.031519853 0.025776325 0.03910223 0.029099464 -0.20128708 -0.13497849 -0.00056036597
0.23510365 -0.19160794 0.02814461 0.05936142 -0.16227005 -0.049843866 0.19950607 0.024959227
-0.105895184 -0.04910025 0.0405564 0.07607302 0.046994098 0.21126807 -0.23118715 0.17924713
0.056210075 0.053904977 0.12755327 -0.016439222 -0.060065035 0.094624914 -0.014450812 -0.056650575
-0.040574156 -0.0077256216 0.17324498 0.0025508718 -0.023936355 0.05457555 0.39391938 0.22996695
0.112547494 -0.48627883 -0.13398227 -0.06518788 0.011714574 -0.044968564 -0.027438067 0.18764101
0.016149083 -0.44171104 0.063562594 -0.16306971 -0.20582117 -0.10992903 -0.29363745 0.3051266
-0.05912427 -0.10814275 -0.23911472 -0.038039986 -0.03145757 0.17655781 -0.23591198 0.13485208
-0.3808543 0.1244811 -0.057448585 -0.21515445 -0.029424941 0.041850824 0.09776044 0.19582602
-0.037265357 -0.042706035 -0.061556853 -0.026775353 -0.13040192 -0.12959039 -0.04150407 -0.11891263

bias f4 [30]
00000000: eba0 0ebd 8f12 123d 80fa 76bd fd35 053d
00000010: bcbd 73bd a1f4 77bd a737 06bd e610 133d
00000020: dc27 6dbd 1017 c33c 45e6 663d 6811 bbbc
00000030: 1a77 3c3d dc70 3e3c d48c 163d 2bc5 b2ba
00000040: 73e8 103d ffd1 46bd c385 543d 58c1 79ba
00000050: 5d10 c13c c76a d23c c09d ebbc 9fca f4bb
00000060: 3916 e2bb dbc1 63bd 79e8 6dbd 81ce 663d
00000070: 6bf3 493c 25b4 393d
-0.034821432 0.03566223 -0.06029749 0.03252219 -0.059507117 -0.06053603 -0.032767918 0.035904787
-0.05789934 0.023814708 0.056371946 -0.022835448 0.04601202 0.011623587 0.036755398 -0.0013639083
0.03537793 -0.04854011 0.051885378 -0.00095274067 0.023567373 0.025685681 -0.028761744 -0.0074704434
-0.006899622 -0.055604797 -0.05808303 0.05634928 0.012326102 0.045337815

weight f4 [30]
00000000: 4f8c 633f 3299 8f3f be47 5f3f 65cb 873f
00000010: ddf2 6b3f f9c4 773f a589 3e3f af0b 813f
00000020: 8317 543f 73f9 8e3f 421d 843f 2b31 4d3f
00000030: c80b 613f 583b 803f 5ded 783f 1d80 7d3f
00000040: 198c 6b3f a360 7e3f 5d99 643f 92f2 813f
00000050: d987 833f c84b 393f ee1a 633f 3cb9 863f
00000060: a052 763f db4b 813f 642e 6f3f c258 7e3f
00000070: b35f 903f 459b 6a3f
0.8888597 1.1218626 0.87218845 1.0608946 0.92167455 0.9678493 0.7442878 1.008169
0.82848376 1.1169876 1.0321429 0.8015315 0.879086 1.001811 0.9723719 0.9902361
0.9201065 0.99366206 0.89296514 1.0152152 1.0275832 0.7238126 0.88712966 1.0525279
0.96219826 1.0101274 0.9343016 0.99354184 1.1279205 0.9164317

bias f4 [30]
00000000: c56b 5e3e 4965 a9be bd79 033f 665d 0bbe
00000010: ac52 663c f1a6 babd 8bb9 193f 8f79 dbbe
00000020: 08db 2f3f ab4f bebe f0b9 7dbd 2f4d 303f
00000030: 10b8 0b3f ae53 ffbe 1af3 a3bd b889 a3bd
00000040: 35f6 8ebe dbf3 473e 676a 81be f920 c0be
00000050: 6cc2 eebd 754c 743f 0967 b5be c8c9 92bd
00000060: 36c9 33be d514 7cbe 8e63 acbe 9ba5 ee3c
00000070: 9830 babc ea20 d23b
0.21720798 -0.33085087 0.5135763 -0.13609847 0.014057796 -0.09113873 0.6004874 -0.4286618
0.6869359 -0.37170157 -0.061944902 0.6886777 0.5457773 -0.4986853 -0.08005352 -0.07985252
-0.27922216 0.19526617 -0.2527649 -0.37525156 -0.11658177 0.95429164 -0.35430172 -0.07167393
-0.17557225 -0.24617322 -0.33669704 0.029131701 -0.02272825 0.006412615

running_mean f4 [30]
00000000: f5ed 3fbf e75f 4ac0 c8fe 41bf bfa8 ac3f
00000010: 27ab 08bf 511f a4bf 87cc 2fbf f202 d9bf
00000020: 0f77 a1bf fa2e 25c0 4b90 f23f 3f0e c2bf
00000030: 487a a5bf 0080 f1bf ff2c e03f a65a d9bf
00000040: fb77 39bf 20c6 9d3f 4d9c 1abf 2166 a4bf
00000050: 8e7f 5dbf 8266 bfbf 8067 38bf ad40 873f
00000060: e45e 25bf 1bda bcbf 1257 82bf dd43 0abf
00000070: 266a cf3f 8e39 e0be
-0.7497247 -3.1621034 -0.7577939 1.3488997 -0.5338616 -1.2822057 -0.6867146 -1.6954024
-1.2614459 -2.5809922 1.8950285 -1.5160598 -1.2927942 -1.8867188 1.7513732 -1.6980789
-0.724487 1.2326088 -0.60394746 -1.2843667 -0.8652276 -1.4953158 -0.7203293 1.0566612
-0.64597917 -1.475406 -1.0182822 -0.540098 1.6204269 -0.4379391

running_var f4 [30]
00000000: 9d83 863f 7584 8f40 8c6b 8f3f 73d4 bb3f
00000010: 54d9 703f 86d7 ac3f 89f1 8b3f 151a f93f
00000020: 4a6b a93f 1691 5240 94ab 0140 1fb6 d73f
00000030: 7cc7 bf3f eec1 0740 3476 ee3f 38d7 fb3f
00000040: 6849 8b3f ee66 b93f dc0d 873f b593 b23f
00000050: 378e 8d3f 6f40 db3f 4c75 853f 6c50 9c3f
00000060: 205e 803f dab2 ca3f f363 9c3f a60a 843f
00000070: 0473 e83f 2385 763f
1.0508915 4.484919 1.1204696 1.4674209 0.94081616 1.3503273 1.0933086 1.9461085
1.3235867 3.2901053 2.0260973 1.6852454 1.4982753 2.1212115 1.8629823 1.9675055
1.0881777 1.4484537 1.0551105 1.3951327 1.1059026 1.7129039 1.0426421 1.2212043
1.0028725 1.5835831 1.2218002 1.031575 1.81601 0.962969

weight f4 [30, 30]
00000000: 9d06 f73d c88a 863d 7958 023e 8092 4a3d
00000010: 8129 003e defd 5abc 680d 89bd b05b 96bd
00000020: d063 823e e9bb bbbc b8de c3bd b310 f0bd
00000030: b79a a03e 872a f0be 371e 6e3d 6e0a 583d
00000040: 6b73 37be b3ff 56be 4c8c ef3c eda3 8bbe
00000050: b581 5b3e 78b4 afbc d765 e1bd 4568 9bbd
00000060: 5b88 343e 0620 35bd f336 fbbc 5901 943e
00000070: 7e10 b73e 1832 853b bbb5 573e bad0 c93c
00000080: 643f 46be 7db5 c73a 3517 ca3d 3f37 5b3e
00000090: 5635 f7bc 553d b8be e21b c43d 84b8 993e
000000a0: 1b7c 86be 772d 29be a14c 0bbe 7c13 62be
000000b0: 8e08 cabd 3e9a cebd 9699 61be 6b80 383e
000000c0: de6f 403d 25b2 05be 50ec 303d 19c2 833d
000000d0: 470a aa3d 8fc5 2fbe 6074 0bbe 7c67 523e
000000e0: 07b7 64bd 7116 533e 135c aa3c 2f40 b1be
000000f0: 6e5d 833b 86d1 a5be a61f 9d3c c3bc 58be
00000100: c72f 23be e4ff 813c c828 debd 1097 54be
00000110: 5a57 7b3e e019 f0bd 3c72 d5bd f58e cfbb
00000120: 05d3 1e3e 20f0 47be 23e3 64bd dd12 e7bc
00000130: 41ee 71be 1bbe b63e 786b 21be c194 9e3d
00000140: 4b30 e23e 7e59 e13d a717 b8bc df51 9d3d
00000150: 2149 49bd d6a7 af3c 0a7d 7dbd 0319 503e
00000160: c6d0 9ebe 4152 103e 841d 82be 802e 5abe
00000170: f588 abbe 0b85 1ebe b2ae dd3d 1566 013e
00000180: e014 573d bddc c73d fecb 8abe 74c0 ee3e
00000190: f84a 8dbd f50d ea3c 64a8 57be 50e3 813c
000001a0: 2251 073e b794 993e 0964 19bd 21bd c83d
000001b0: 8611 f53d ed1e 68bd 93f1 b8bd 31b8 3a3d
000001c0: 140d 373e fc7a 603d d273 a33e 46fe 17be
000001d0: 293a 513d cb21 cbbd c738 523c 8aad 503e
000001e0: f7ef e3bb 4601 77bd d255 023d 95be 24bd
000001f0: 348e c93e 5914 66be b757 30be 0cb3 843e
00000200: 0805 a1be 23e4 493d df9f e53b 8760 453d
00000210: 58e5 4a3e 267e 273e e7e5 7d3e 01ba 92be
00000220: d452 fbbc a623 cdbd 1b3c 503e 3110 3c3e
00000230: 940d ac3d 490d ffbd 0045 3c3e 0998 8abc
00000240: 9f0d 70be 0bb9 143e 7694 003d 5580 9a3d
00000250: f8e7 c03d 8294 80bd b396 8f3e 52b7 36be
00000260: c65a 743e a183 0f3e 3e5e dd3d ac5e 8a3e
00000270: 2ac1 9a3d 5fa7 aabe 03d7 c6bd 9975 e83d
00000280: dc0f 833e 49f7 04be f108 4d3e bf40 3e3e
00000290: 6abc cb3c fda3 c4bd 9369 1d3e 902e 9fbd
000002a0: 37a8 a9bd 1d1e 753d d0aa 17bd 839a 133e
000002b0: 149f c33c 7925 3b3c 86d3 f13d 2587 bbbe
000002c0: 9438 1abe 7414 9a3d 7f79 5cbe 0fd8 913d
000002d0: ba79 b03e 25c4 633e bfe8 903d 0c04 e13d
000002e0: a85c a6bd e7c8 ae3d d425 f73d 60e1 f23d
000002f0: 490c a93a 0387 c03e 21e1 92be 5b82 9d3d
00000300: 52b1 bc39 9f38 8bbc d030 86be 5dd5 88be
00000310: 2f71 7bbe 32c5 333d 3d14 8dbe fa1c bf3d
00000320: 3f8c 833e f421 6dbe bfba eb3c 1a4a d23d
00000330: f19b a3bd ee9a 97bd 5382 073d 0815 55be
00000340: a543 1c3e 9c95 e8bd 0ade 3cbd b837 01bd
00000350: 4a1e fcbd a99d 6abe f62d b1be 3843 4b3d
00000360: 68fe 043e 9992 723d 2a8c 1a3e ba15 d9bd
00000370: 6a66 a13e 376b 8c3e a5be e3bd e1fa ba3d
00000380: 8987 90bc ef3b b2bc 919d 54be 261f 84be
00000390: 1c13 42be 6639 0dbe 0b83 8ebe 97e1 6e3c
000003a0: c4c9 a93e 1b8e 443e 9c84 6e3e b78a 523e
000003b0: d911 2d3d ea38 223d ccfb 843e 48be 6fbe
000003c0: 9aab 8cbc 0f85 f13e 1101 8ebe 88a0 06be
000003d0: b545 343e 7da5 683e 44a9 1ebe ea5c 70bb
000003e0: 46e1 cc3d 8bb1 87be 17c1 19bd 8afa 43bd
000003f0: 23e0 44be 6084 aa3e 2fab 03be 2389 bfbe
0.12061808 0.06569439 0.12729062 0.04945612 0.12515832 -0.013366191 -0.0669201 -0.07341707
0.25466776 -0.022916751 -0.095639646 -0.11721935 0.31368038 -0.46907446 0.058134284 0.05274432
-0.17915122 -0.20995979 0.029241703 -0.27273503 0.21436198 -0.021448359 -0.110057525 -0.07588247
0.1763014 -0.044219993 -0.03066585 0.28907278 0.3575477 0.0040648095 0.21065418 0.024635661
-0.19360119 0.0015236583 0.09867708 0.21407793 -0.0301768 -0.35984293 0.09575631 0.30023587
-0.2626656 -0.1652125 -0.1360345 -0.22077745 -0.09864913 -0.10088013 -0.22031245 0.18017738
0.046981685 -0.13056238 0.043194115 0.064335056 0.083027415 -0.17165206 -0.13618612 0.20547289
-0.05583861 0.2061403 0.020795858 -0.3461928 0.0040089404 -0.32386416 0.01918013 -0.21165757
-0.15936194 0.015869088 -0.10847622 -0.20760751 0.2454504 -0.11723685 -0.10422179 -0.0063341805
0.15510185 -0.19525194 -0.055880677 -0.028207237 -0.23626043 0.35691914 -0.15763652 0.07743216
0.4417747 0.110033974 -0.022472216 0.07681631 -0.049142007 0.021442335 -0.061886825 0.20322041
-0.31018656 0.14093877 -0.25413144 -0.21306801 -0.33502927 -0.1548044 0.10824336 0.12636597
0.052510142 0.09758899 -0.2710876 0.46631205 -0.06899065 0.028571108 -0.2106033 0.015855461
0.13214543 0.29996273 -0.037448917 0.098016985 0.11966233 -0.056670118 -0.090304516 0.045585815
0.17876083 0.054804787 0.319243 -0.14843091 0.051080856 -0.09918555 0.01283092 0.203787
-0.0069560963 -0.06030395 0.031820126 -0.040220816 0.39366305 -0.224687 -0.1722096 0.25917852
-0.3144915 0.049289834 0.0070075835 0.04818776 0.1981405 0.16356716 0.24794732 -0.28657535
-0.030679144 -0.10016565 0.20335428 0.18365552 0.08401027 -0.12453706 0.18385696 -0.0169182
-0.23442696 0.14523713 0.031391583 0.07544009 0.094192445 -0.062783256 0.28044662 -0.17843369
0.23862752 0.14015056 0.10808991 0.27025354 0.07556374 -0.3333082 -0.09708979 0.11350555
0.25598037 -0.12984957 0.20022942 0.18579386 0.024870116 -0.09601591 0.15372305 -0.07772553
-0.082840376 0.05984317 -0.037028134 0.1441441 0.023879565 0.011422508 0.11807923 -0.36626545
-0.15060645 0.075234324 -0.21530722 0.07121288 0.3446787 0.22242792 0.07075643 0.109871
-0.081231415 0.08534413 0.12067762 0.11859393 0.0012897338 0.37603006 -0.28687385 0.07690879
0.00035990268 -0.016994772 -0.26209116 -0.26725283 -0.24554895 0.043889232 -0.27554503 0.09331699
0.25692937 -0.23157483 0.02877557 0.1026804 -0.07988728 -0.07402597 0.03308327 -0.20808804
0.1526018 -0.11356661 -0.04611019 -0.03154728 -0.12310465 -0.22911705 -0.34605378 0.04962465
0.12987673 0.059221838 0.15092531 -0.10599847 0.31523448 0.27425548 -0.11120347 0.091298826
-0.017642753 -0.021757094 -0.20763232 -0.25805014 -0.18952602 -0.13791427 -0.27834353 0.014580152
0.33161747 0.19194834 0.23292774 0.20560728 0.04225335 0.03960506 0.25973356 -0.2341243
-0.01717167 0.47171828 -0.2773519 -0.13147175 0.17604716 0.22719379 -0.15494257 -0.0036676475
0.10003905 -0.26502642 -0.03753766 -0.047846355 -0.19226126 0.3330412 -0.1285827 -0.37409315

bias f4 [30]
00000000: 991e aa3d 2d2f a4bd e877 18be eca7 a13d
00000010: 6193 0bbe 1684 0bbe 0a77 3b3d 6a03 d2bd
00000020: a832 1dbe 89be b8bd bc3f d5bd 6d3e a8bd
00000030: 5b7e 003e e3ee 0f3e a6bc 223e b4ed c13d
00000040: c699 053e 761c c0bd 2a7d 0abe 75c9 d03a
00000050: 4613 8b3d 81de fa3d 5cc1 a43d 0c62 e43d
00000060: 13e1 3ebd 12cd 29bd f83b 963d 62a9 b0bd
00000070: 3af6 36be 6e1c 2e39
0.08306617 -0.080168106 -0.1488949 0.07893357 -0.1363044 -0.13624606 0.04576782 -0.102545574
-0.15351355 -0.09020717 -0.10412547 -0.08215032 0.12548201 0.14055972 0.15892276 0.094691664
0.13046941 -0.093804285 -0.13524309 0.001592918 0.067907855 0.122494705 0.08044693 0.111515135
-0.046601366 -0.041455336 0.07335657 -0.08626057 -0.17867365 0.00016604524

weight f4 [30]
00000000: c5f9 813f f54f 6e3f 049c 803f 5bf4 823f
00000010: 0f07 873f 0dcf 823f 0bff 7a3f 479f 833f
00000020: 1fd8 763f d6e8 833f 78dd 643f 083e 673f
00000030: f67e 813f 3a49 7e3f 5b0b 903f 46ae 783f
00000040: ce54 6e3f 7751 613f 7c35 853f 432d 873f
00000050: 779a 953f 0ba6 7b3f 79a1 813f 982c 893f
00000060: 8810 7d3f bbd8 883f 9fbb 823f 14d1 723f
00000070: 4c4e 753f 4e4a 7d3f
1.0154349 0.93090755 1.0047612 1.0230821 1.0549029 1.0219437 0.98045415 1.0282983
0.96423525 1.0305431 0.89400434 0.9032903 1.011687 0.99330485 1.1253465 0.9714092
0.9309815 0.8801493 1.0406947 1.0560688 1.1687764 0.98300236 1.0127403 1.0716734
0.9885335 1.0691141 1.0213507 0.9485028 0.95822597 0.98941505

bias f4 [30]
00000000: 76e3 a2bd acd2 11bd e40d 59bd acac 32be
00000010: 1b07 86bd 675b e2bd a78c aabc 17ec c03d
00000020: 4005 083d 0571 00be 81b9 2d3d 3e8b 3bbd
00000030: 8415 dbbc 5ebc 883d 8b9a bfba bb5b 0bbd
00000040: faa3 9c3d 8df6 b93d 525d 2dbd 6494 02be
00000050: 4c9c 13be ecbb e1bd 7694 ea3d 02ab 73bd
00000060: 083c e8bd ea84 c43d 8e2b 5dbe ed62 0f3c
00000070: 494d 0e3e 6ef1 50bb
-0.07953541 -0.035601303 -0.052991763 -0.17448682 -0.06544324 -0.1105259 -0.020819021 0.094200306
0.03320813 -0.12543114 0.04241324 -0.04578709 -0.026743658 0.06676553 -0.0014618201 -0.034023028
0.076484635 0.09080229 -0.042325325 -0.12751919 -0.14415091 -0.110221714 0.11454098 -0.059489258
-0.11339575 0.09595664 -0.21598646 0.008751613 0.1389667 -0.0031882185

running_mean f4 [30]
00000000: 4ceb 1c3f df9b 8cbe 9ab1 183e 2294 36be
00000010: b14c 97be cb78 aa3e f8f0 3c3d 9dc2 e83c
00000020: a631 11bf 188b 27bf 7ce9 e5be 4fd4 f23c
00000030: 7aa8 d2be 9327 89be 90cb 433e 5b2e 373e
00000040: c8ce 8a3d 022c 413e 87b5 43bf c142 a2bf
00000050: d2d6 98be 65fe d0bd bd50 2e3e a0b5 8dbe
00000060: 6ec9 2f3f 5d5e a8bd 8cb6 3fbe a6d8 57bd
00000070: 903d afbe e022 84bc
0.61296535 -0.2746267 0.149115 -0.17829946 -0.29550698 0.33295283 0.046128243 0.028413111
-0.5671638 -0.65446615 -0.44904697 0.029642252 -0.41144162 -0.26788005 0.19120622 0.17888777
0.06777722 0.18864444 -0.76448864 -1.2676622 -0.29851395 -0.10204772 0.17022987 -0.2767763
0.6866673 -0.08221123 -0.1872198 -0.052696846 -0.34226656 -0.016129911

running_var f4 [30]
00000000: e209 373e f6dc 073e a5e0 6a3e 68f5 633e
00000010: 3d00 253e af8b 233e 4fb4 8e3e b87c 463e
00000020: f70d 063e 2a1a 423e 53f6 2e3e cb69 4a3e
00000030: d472 513e 0247 433e 5cd8 803e 50fb a03e
00000040: 4b2e 3c3e c388 363e cef6 d03e 4213 6c3e
00000050: 4e9c 213e a702 403e 0182 ed3d 2126 303e
00000060: 7fff 1b3e 9592 353e 2cf3 1c3e 4c3f 4d3e
00000070: 9c1d 523e aaa5 1a3e
0.17874864 0.13267884 0.22937258 0.22261584 0.16113372 0.15971254 0.2787194 0.19383514
0.13091265 0.18955293 0.17086153 0.1976692 0.2045396 0.19070056 0.2516507 0.31441736
0.18377034 0.17825608 0.40813297 0.23054221 0.15782282 0.18751012 0.11597062 0.17202045
0.15234183 0.17731698 0.15327138 0.20043677 0.20519108 0.15102258

weight f4 [251, 30]
00000000: 9e99 84be 9602 c3bd ab3a f13d d1c7 15be
00000010: c84b 71be 7699 20be a55a 7b3d 6cea d0be
00000020: 3d2d 05be 0d56 e1bd 500c 2ebe 38b3 653e
00000030: ba03 67be cb83 bc3d 60e1 64be 5327 cd3d
00000040: 0f04 b9be 79d8 233d 4110 01be 1a73 6cbe
00000050: ec32 92be 185e 17be abbe 973d d688 c4be
00000060: c955 05bd 0474 80be 4391 093e 1809 8b3c
00000070: b316 0f3d c4e3 cdbd 7708 27be 0b1a f8be
00000080: 496a f4bd 1718 91be 2ee7 08bd 2587 5e3d
00000090: 5695 8ebd f508 073e fece debc 282b 7d3e
000000a0: 48b4 843d b92a 14bd c9c7 b3bc 6e07 08bf
000000b0: c852 b4bd a42f bf3d ea5e 03be 0973 0b3e
000000c0: 81d1 c23d 16d5 fd3d 9289 96be 9ffc ef3d
000000d0: bf9a 8e3c 8832 aa3d ceb2 09be 0c58 b6bc
000000e0: cef4 cc3c 2eab b3bd 2964 823d f185 acbe
000000f0: 531e 313d 28de 8d3d 67be edbd 404c 60be
00000100: 9bee 7fbe f7de e0bc 44db 913e 5835 3fbc
00000110: 3493 803e 0165 c03d c821 2c3e 98da 3abb
00000120: f02a d4bd 3050 0bbe e07a 36be ff70 72bd
00000130: 92e2 97be cd32 b13e 6f8f 2d3e c1b4 953e
00000140: 4183 223e 00ee 8abe bc55 f2bd 542d febd
00000150: 4a4b c9bc 71cf 08be 4624 3bbe 6311 50be
00000160: 6cd9 c8bd f265 30be 1d72 2dbe 4d75 5dbd
00000170: 24b4 9ebe 7ee2 773e db36 14bd 81aa a1bd
00000180: 6a08 6a3e dec3 6b3d 41c4 6abe 9fdf 8cbd
00000190: e436 34bd db64 9abd a9a6 d43d 3a58 10bd
000001a0: 6792 dc3d 2227 563e 5054 aabe 690c 963d
000001b0: 32c3 7dbe 4d0f eabe e049 f0bb 7cfe 003e
000001c0: e1ff 0fbe e163 c63c d920 8d3d 7db7 213e
000001d0: 06ee efbd 6238 74be ff53 1ebd 61f3 54be
000001e0: 9fe4 e8bd b99c c03c d25e 903d 2044 c7be
000001f0: f8fc 79bd 85fa edbe ea4d e23d e4f7 bdbd
00000200: 1511 733e 0f7f 73be 64b0 0ebe 1158 3e3e
00000210: 418a bc3c 5093 253e ecc3 9ebd 9c2f ca3d
00000220: 1b20 08bd 5f2a 57be 73dd 66be cd1d f2be
00000230: e331 94bd 5d05 c83d 8345 433e 87b7 aebe
00000240: 6ccf 873d 023c ce3d dd16 01bd 5e63 b9bc
00000250: b7be 353d 1aac 323d 9773 b73c 229d 69be
00000260: ab16 ae3d f33d e6bd 37d5 a6be c6e5 abbe
00000270: a4d1 dfbd 2893 1fbe 1f25 2abe be95 56be
00000280: 2ea1 1ebe 4567 f23d e58a bebd 1c9d a0bd
00000290: e1bd 08be 3bf6 083e a10d 2d3e 01ea eabd
000002a0: ac2a 44bd 3cf9 933d b8ef 84be 04d6 303e
000002b0: 6494 3c3e 5709 a2be 4dd2 debe 4174 903c
000002c0: 6c08 fdbe 4702 343d 26f7 94b8 0199 163e
000002d0: 5dca 6ebb e462 343e 0e1c 6abe aa34 90be
000002e0: 6a40 5c3d 8c00 e8bd dcd7 7a3e 6e90 3a3d
000002f0: f773 27be afb5 4abe 705c 55be 8800 8bbe
00000300: b2ff 523d 7013 8dbd 1526 bdbd cd9b 913e
00000310: 0d2b 8c3d 47f6 23be 0bb4 aabd 3561 1d3e
00000320: 40b9 8d3d d1c6 133d 29d9 193e f835 3ebe
00000330: 34b8 c6bb 7e08 623e 68ab 0a3d d376 3bbe
00000340: cbd1 6cbe 113d 0dbf d486 69bd 2156 c53d
00000350: b5ed b73d 8e21 e33c 687b 2fbe 83dc 98be
00000360: 0034 c53c e6e8 dd3c 5a1b ebbd 602e dfbd
00000370: 0a25 0abe 5086 50be 46e2 39be c546 09be
00000380: 1736 6ebe 8c1e 6fbd 9d5a 0c3d 0f99 3e3e
00000390: d641 463e ab2d df3c 9780 b5be 1e07 0abe
000003a0: d6de ebbe d301 cbbd ed22 85be 5985 65bd
000003b0: 66d4 b6bd fbff c2be bc93 913e 0be1 473e
000003c0: e490 de3d d5d9 84bc 25f5 51bc 6176 383e
000003d0: 448a 00bf 1dd7 44be adb0 2e3d f8c0 113e
000003e0: 6dd5 45be bcc3 87be 7f97 e9bd baa6 94be
000003f0: 8f93 07be 8e64 8cbe efda 78bd 5233 313e
-0.2589845 -0.095219776 0.11778768 -0.14627005 -0.23564065 -0.1568354 0.061365742 -0.4080385
-0.13005538 -0.11002741 -0.16996884 0.22431648 -0.22560015 0.09204825 -0.22351599 0.10017266
-0.3613591 0.040001366 -0.12603857 -0.23090783 -0.28554475 -0.14781988 0.07409414 -0.38385648
-0.032552514 -0.25088513 0.13434319 0.01697211 0.034933757 -0.100532085 -0.16311823 -0.4845737
-0.11934335 -0.28338692 -0.033423595 0.054328103 -0.06962077 0.1318701 -0.027198311 0.24723494
0.064796984 -0.036173556 -0.02194585 -0.53136337 -0.08804852 0.093352586 -0.12829176 0.13618101
0.09512616 0.123941585 -0.29401833 0.117181055 0.017407773 0.08310419 -0.13447115 -0.02225878
0.025019076 -0.08772884 0.0636676 -0.3369594 0.04324181 0.069271386 -0.11608582 -0.21904087
-0.24993365 -0.027450068 0.284876 -0.011670433 0.25112307 0.09394265 0.16809762 -0.002851164
-0.10359752 -0.13604808 -0.1782031 -0.059189793 -0.29665047 0.3460907 0.16949247 0.29239467
0.15870382 -0.27134705 -0.11832759 -0.124109894 -0.024572033 -0.13360383 -0.18275556 -0.20319133
-0.09807095 -0.17226389 -0.16938062 -0.054066945 -0.3099681 0.24207494 -0.036185127 -0.07893849
0.22854772 0.05755984 -0.22926427 -0.0687859 -0.04399766 -0.07538768 0.103833504 -0.03524039
0.107701115 0.20913365 -0.3326745 0.07326586 -0.24781492 -0.457148 -0.0073330253 0.12597078
-0.14062454 0.024217548 0.06891031 0.15792651 -0.11715321 -0.23849633 -0.038654324 -0.20795967
-0.11371731 0.023512231 0.070493355 -0.38919163 -0.061032265 -0.46480194 0.11050017 -0.09275797
0.23736985 -0.23778938 -0.13934475 0.18588282 0.023015143 0.16169477 -0.07752213 0.09872362
-0.033233743 -0.21012257 -0.22545414 -0.4728836 -0.07236078 0.09766648 0.19069485 -0.34124395
0.066313595 0.10070039 -0.031515945 -0.02263039 0.044371333 0.04362116 0.022393985 -0.22813848
0.08500417 -0.112422846 -0.32584545 -0.3357374 -0.10928658 -0.1558348 -0.16615723 -0.2095556
-0.15491173 0.11836103 -0.09303836 -0.07842466 -0.13353683 0.1337518 0.1689973 -0.11470414
-0.047892258 0.07225272 -0.2596414 0.1726914 0.18415982 -0.3164775 -0.43519822 0.01763356
-0.49420488 0.043947484 -7.103225e-05 0.14706804 -0.0036436536 0.17615849 -0.22862265 -0.2816518
0.053772368 -0.11328229 0.24496406 0.045547895 -0.16352831 -0.1979587 -0.20836043 -0.27148843
0.05151338 -0.06888473 -0.09235779 0.2843918 0.06844149 -0.16011916 -0.08335122 0.15369113
0.06920099 0.036078278 0.15024246 -0.18575275 -0.006064439 0.22073552 0.033854872 -0.18307047
-0.23126905 -0.55171305 -0.057013348 0.096355684 0.08980886 0.027725961 -0.1713692 -0.29855737
0.024072647 0.027088594 -0.11479826 -0.10897517 -0.13490692 -0.20363736 -0.18152723 -0.13405903
-0.23262821 -0.05837874 0.034266103 0.18613075 0.19361052 0.027243456 -0.3544967 -0.13479277
-0.46068448 -0.09912457 -0.2600321 -0.056035373 -0.089272305 -0.38085923 0.28433025 0.19519441
0.108674794 -0.016217152 -0.012814795 0.18013908 -0.50210977 -0.19222684 0.04264896 0.14233768
-0.19319697 -0.2651652 -0.11405849 -0.29033452 -0.13239883 -0.27420467 -0.060755666 0.17304733

bias f4 [251]
00000000: dd9c 24be 52fc 313e 48bf df3d fe24 a23d
00000010: bb7a 6e3c 0fb7 e4bd 8ef2 2b3d 8b2b cb3d
00000020: 9771 d23c 0f9c 5d3d 1d48 003d 74f7 be3d
00000030: a247 16be 0e4b d6bd 4fc3 1abd ccd9 a23d
00000040: 1589 0cbe 0d6d 0d3e fa13 d83d 68ab ebbc
00000050: 25f3 5dbc 7e76 133d 172a c2bd 4db3 c7bc
00000060: a5bd 33be 3e9b 2cbe e6d5 06be b4e8 d6bd
00000070: 25c1 89bd df30 323e 3c0a ff3c ec97 33bd
00000080: 144a 163e 9603 2bbe d7b0 273e 32d7 bf3d
00000090: 7586 e7bd 29a3 adbd 7356 013e c0e2 33be
000000a0: 6a0c 7ebd f2d2 113e 9ec4 dc3d ed9d e9bd
000000b0: 6b37 1b3e de51 283e 222e 743d 9233 09be
000000c0: 6db9 133c 0d71 0fbd ebf9 933d e330 26be
000000d0: edf9 2b3e c149 ce3c 44be 04be 8e6a d33b
000000e0: 72c4 19be cccf 853d 2417 37be e03b d6bd
000000f0: 64ed b63d 9414 5dbd 05c2 fdbd 789e 0fbe
00000100: a811 a73d 700b 13bd 44d9 a0bd e1fd c2bd
00000110: 7aeb 003e 16e3 00be 24f1 6abd 5186 f2bd
00000120: 469b febd c973 2abe 610a 873d f47b 9cbd
00000130: bf4b aebb 6beb 8d3d 98d2 4abd 2473 9f3d
00000140: 7747 733d 32ea 17be 3255 183e 796b 29be
00000150: a9fa d13d 486a 2cbe 5ced 0c3c 7a7e d4bd
00000160: cb3b 783d 06da b33d 9652 993d beb9 e3bd
00000170: c9bb eebd 73f8 1a3e 3a2e 52bc 0116 2a3d
00000180: ae6d cbbd 11db 2bbe 1132 4cbd 9a2f 5abb
00000190: d7e6 3cbe b33d 2dbe 2321 16be 819f 88bc
000001a0: 6f79 043e 0ba0 c03d a4e0 04be dfc6 4fbd
000001b0: 762e 8e3d ec81 92bb 5ba7 c33d 8926 263e
000001c0: 2a8b fe3d a0df 0cbe 750f 8fbd 2eb3 29be
000001d0: 5069 eabc adf4 1abe 57cc 1d3e 2941 d93b
000001e0: a69b 37be d55b 0ebe 4533 873c 6110 0fbd
000001f0: d400 08be 2f89 f13d 9e31 ddbc c0fb 1bbe
00000200: 37e4 f23c 6d0f 25bd 4039 8fbd 18a4 03be
00000210: 5c6f 63bd eae9 48bc feac 03be c5c2 8a3d
00000220: 3985 2a3e 6b78 d8bd b9eb 64bc 9f51 2d3e
00000230: 4f4e fbbd f230 ea3d 39bc ebbd 23d4 c6bd
00000240: 372d 843d d253 28bd 34ae 3cbe 6eea 9e3d
00000250: e7c2 32bd ffac 17be dcf9 6a3d 2999 c33d
00000260: cfd5 0d3e f9cc d53d a14f 2f3e ddab dc3d
00000270: f736 f43d c4a3 563d 3bbe 113d 6e5c 0b3e
00000280: dc4b 9d3d e1f9 643c b17b 7d3d 8a2b 11be
00000290: ae81 f0bd 33c0 b6bd d040 bfbc e2fe 00be
000002a0: 1903 d83c cbc1 77bd 0252 d43c cec1 2dbe
000002b0: 563c 083e e2e8 14bd 38af ecbd 2445 033e
000002c0: f254 d83d 2ea7 b0bc 8ae2 263e 8143 533d
000002d0: 30ab e13c 4baf 4f3d 9f2e b9bd fc27 9c3d
000002e0: 18d2 dcbd e978 c0bd 1dfa 9a3d c79b cf3d
000002f0: 0d62 de3d 4bb4 6a3d 589b b9bd b162 a6bd
00000300: fce9 6ebd 757b 72bc 245d 0e3e ede5 11bd
00000310: a669 b83d e026 803d 0614 ad3c 21d8 203e
00000320: 205f 64ba 56a7 aabd 6608 e8bd 6a13 04be
00000330: aee8 21be c623 a0bd abb3 ac3c d87c c03d
00000340: 8380 0d3e 05a3 cf3b e70c d3bd 14b3 ed3c
00000350: f8fb c93d d01c 1abe fcbb 24bd 8d75 e0bd
00000360: ae77 fe3d b2e6 35be 5ac6 edbd 2b18 663d
00000370: 6acb fe3d 4b52 72bc 441a 803d cf8b 29be
00000380: ecfe dbbd afdc 04be 9811 243e 24e9 18be
00000390: 6d83 083e 134c 573c 4896 753c ac9b 9cbd
000003a0: f230 e0bc c0ef 013e 61e5 d5bd 90c6 16be
000003b0: 8665 f3bd 3fd6 303d da05 28be 603d 993d
000003c0: 9a8a 963d e108 bf3d f009 323b 61d5 2b3b
000003d0: 8b08 013e 517b c9bd 1e04 8ebd 994c 30be
000003e0: 4325 85bd 8ec8 b43d fce2 ffbd
-0.16075464 0.17381409 0.10925156 0.07917212 0.014555628 -0.11167728 0.041979365 0.099204145
0.02568893 0.054103907 0.031318773 0.09324542 -0.14675763 -0.10463534 -0.037783917 0.07951698
-0.13724168 0.13811131 0.10550685 -0.028768256 -0.01354674 0.036001675 -0.09480684 -0.02437749
-0.17552812 -0.16856095 -0.13167533 -0.10493603 -0.067262925 0.17401455 0.03113281 -0.043846056
0.14676696 -0.16700587 0.16376053 0.09367217 -0.113049425 -0.08478386 0.12630634 -0.17566967
-0.062023558 0.14240626 0.10779689 -0.11407075 0.15157859 0.1643748 0.05961431 -0.13398579
0.009016377 -0.035019923 0.072254024 -0.16229586 0.16794558 0.025181653 -0.12963206 0.0064519113
-0.15016344 0.06533775 -0.17879921 -0.10460639 0.089319974 -0.053974703 -0.12390522 -0.14025295
0.081576645 -0.03589958 -0.0785394 -0.0952108 0.12589827 -0.12586626 -0.057358876 -0.11842025
-0.1243196 -0.16645731 0.065937765 -0.0764083 -0.005319088 0.06929668 -0.049517244 0.07785633
0.059394326 -0.14835432 0.1487625 -0.16544904 0.10252888 -0.16837418 0.008601513 -0.10375686
0.060603898 0.08781819 0.07486455 -0.11119412 -0.11656911 0.15133838 -0.012828404 0.04152489
-0.09933029 -0.16782786 -0.049852435 -0.0033292533 -0.18447433 -0.16918068 -0.14661078 -0.01667762
0.12936948 0.09405526 -0.12976319 -0.050726768 0.069424555 -0.0044710543 0.09553405 0.16225637
0.12428887 -0.13757181 -0.0698537 -0.16572258 -0.02861467 -0.15132399 0.1540998 0.006630082
-0.17930469 -0.13902219 0.01650394 -0.03492773 -0.13281566 0.11793744 -0.027001198 -0.15232754
0.029649837 -0.040297914 -0.069933414 -0.12855566 -0.055526122 -0.012262801 -0.1285896 0.067754306
0.16652383 -0.10569843 -0.013972216 0.16925667 -0.122707956 0.11435117 -0.1151051 -0.097084306
0.064539365 -0.041095562 -0.18425828 0.07759558 -0.043642905 -0.14812087 0.05736719 0.09550697
0.13851093 0.10439486 0.1712022 0.10774968 0.11924546 0.052402273 0.03558181 0.13609478
0.07680485 0.013975591 0.06188554 -0.14176765 -0.117434844 -0.08923378 -0.023346335 -0.1259723
0.026368665 -0.06048755 0.02591801 -0.16968462 0.13304266 -0.036354907 -0.11556858 0.12819344
0.10563077 -0.021564092 0.16297355 0.05157805 0.027547449 0.05070428 -0.090420954 0.07624814
-0.1078226 -0.09398062 0.075672366 0.10137134 0.108585455 0.057300847 -0.090628326 -0.08124293
-0.058328614 -0.014799942 0.13902718 -0.035619665 0.09004526 0.06257415 0.021127712 0.15707447
-0.00087116845 -0.08332698 -0.11329727 -0.12898031 -0.15811417 -0.07819323 0.021081766 0.09398812
0.13818555 0.006336572 -0.10305195 0.029016055 0.09862512 -0.15050054 -0.04021834 -0.10959921
0.12425171 -0.17763785 -0.11610098 0.056175392 0.12441142 -0.014790128 0.0625501 -0.16557239
-0.10741982 -0.12974809 0.16022336 -0.14932686 0.13331385 0.013140696 0.014989443 -0.076468796
-0.027367089 0.12689114 -0.10444141 -0.14724183 -0.118845984 0.04317307 -0.16408482 0.074824095
0.07350655 0.093278654 0.0027166568 0.0026219713 0.12600915 -0.09837974 -0.06934379 -0.1721672
-0.06501248 0.08827315 -0.12494466

weight f4 [251]
00000000: a98a bb3f 3694 0640 489f 0040 c596 f43f
00000010: 8cda fc3f 5c12 0c40 275d f93f 1355 0940
00000020: c80d d53f 167e 0e40 1161 fb3f b469 f23f
00000030: 64a3 fe3f bf74 d43f 298d 0740 ef2e e03f
00000040: 602c 0640 7f90 0b40 8eda f83f 5520 0140
00000050: 0a59 0240 04c0 fb3f b991 0540 d4a8 1040
00000060: 9f1c f33f 6600 1140 d3c3 0340 db63 e53f
00000070: f8d5 0440 1e10 0340 0c87 d53f a77f 0140
00000080: 4c75 d63f 26f9 0140 447e 0840 dd3f 0540
00000090: fe22 0240 e8fd fb3f 03c6 0340 7af0 0840
000000a0: 97ba 0d40 ea56 0740 87c1 1140 b8a8 0340
000000b0: 148b ec3f f25d 1540 a8db f53f 4f55 ef3f
000000c0: 4da3 f73f 5ffa 1040 fb82 e43f 3e57 e33f
000000d0: b30e 0140 06b1 dd3f 2527 0a40 7de0 f93f
000000e0: ede5 db3f 5bfa 0140 8978 e43f dbe6 0040
000000f0: 2fd4 0140 0f38 0440 dcf3 fc3f 1afe 0e40
00000100: 91bf f63f 2dca 1140 a0b6 0c40 f924 ff3f
00000110: d9a1 0840 cb4e e23f 5c3a ff3f f1fb fc3f
00000120: a905 0940 5f88 e33f 246a d03f c35f 0640
00000130: b179 0640 c89f fe3f e61a 0540 5315 d13f
00000140: a60a f63f ac83 0b40 2a6e fe3f 57d1 d43f
00000150: 75cd ee3f aec5 0b40 3a54 ed3f b0e6 0340
00000160: 157e d63f cb4f 0940 99b2 0540 bf92 0b40
00000170: 520b f63f 1697 f13f 7993 0140 3ee6 f13f
00000180: cec4 d03f fa41 0d40 24ac 0340 cd73 db3f
00000190: 1603 0740 2363 0640 686c 0c40 b568 e13f
000001a0: da9a f43f 52a0 1040 365b e13f 0da2 0840
000001b0: 2fc5 0340 f837 0740 9ba4 ff3f 2cbe f53f
000001c0: f7ba ed3f 9595 0240 afce 0740 3421 0440
000001d0: b72e 0740 cddb ea3f f2fa 0440 84e0 fe3f
000001e0: 4554 f53f ec9a ed3f f54a f03f afb2 f43f
000001f0: 0329 ee3f c9d6 0240 6f52 0340 add2 0c40
00000200: 7287 1240 609f d23f 1d54 ef3f 5e15 0140
00000210: 266d 0840 7c96 0d40 1662 0440 35c3 e93f
00000220: 2883 d23f 6a5a fa3f 6fca cb3f 5442 f13f
00000230: f60c 0640 390c 0c40 8d93 0040 8d42 ee3f
00000240: da7d 0940 07b0 0940 5f18 d83f 9a75 fd3f
00000250: e2a3 f83f 58af f93f 1904 0640 5819 0240
00000260: 9100 ee3f 0ed0 fc3f 20f0 eb3f ed08 0440
00000270: b80b eb3f ace1 ea3f 48a1 0440 f001 dd3f
00000280: af99 0540 690b f43f 9af6 ee3f 4c77 1540
00000290: 7e4b 0740 cd5c 0540 2584 dd3f 6a9e 0240
000002a0: 328e f43f 35f6 f73f 35f2 0040 de6f 0640
000002b0: 1284 ef3f ed08 0640 4cbc 1340 550a db3f
000002c0: b855 d63f e20d 0740 30c5 f83f 2860 0740
000002d0: 2a9e 1240 a3ce f63f 9270 ff3f 59da 0440
000002e0: 6341 0740 32ab ff3f c15b 0040 33f9 0c40
000002f0: a476 f93f f1fe 1040 2ac2 0d40 40ff 0040
00000300: 21f9 1040 a760 0040 adaf f63f 3de2 0140
00000310: abc2 1340 8b36 0140 ae34 0040 85f6 0a40
00000320: f16b e73f 2c89 f23f acb7 f73f 19b5 da3f
00000330: 72fa 0040 6291 0d40 0634 0640 3da4 fc3f
00000340: 9ed9 0c40 17f1 0540 66b3 0240 ddf4 f33f
00000350: 0811 1040 5023 f23f 5fc5 0840 7c9d 0040
00000360: 3ca6 0440 8f48 0340 a1cb f73f dd7e e53f
00000370: c0fc 0740 f4a4 1040 9faf 0440 a09c 1440
00000380: c70b e33f e79b 0940 4dd3 e63f fc6b f13f
00000390: a079 0140 860d e13f be76 1140 2075 f33f
000003a0: 0212 1240 4949 ed3f 9a12 1040 b332 0240
000003b0: 2cf9 0640 179f 0040 644f 0740 70e8 0a40
000003c0: a5e6 0340 8b04 f83f 7418 1540 126c 0740
000003d0: 2329 0240 a192 1540 7898 d43f 969f 1840
000003e0: eb48 0240 3404 e53f 8c73 0640
1.4651691 2.102796 2.0097218 1.9108511 1.9754195 2.1886206 1.9481553 2.1458175
1.6644831 2.2264457 1.9638997 1.8938508 1.9893613 1.6598128 2.1179907 1.7514323
2.0964584 2.1806943 1.9441698 2.0175984 2.0366845 1.9667974 2.0870192 2.2603045
1.899311 2.2656493 2.0588272 1.7921098 2.0755596 2.0478587 1.6681838 2.0234163
1.6754546 2.0308318 2.1327066 2.082023 2.0333858 1.9686861 2.0589607 2.1396775
2.2145135 2.1146798 2.277437 2.0571728 1.8479943 2.333859 1.9207659 1.8697909
1.934671 2.2652814 1.7852472 1.7760999 2.0165222 1.7319648 2.1586392 1.9521633
1.7179543 2.0309055 1.7849284 2.0140903 2.0285757 2.0659215 1.976192 2.2342591
1.9277211 2.2779648 2.1986465 1.9933158 2.1348784 1.7680296 1.9939685 1.9764386
2.1409705 1.7775992 1.6282392 2.0995948 2.1011775 1.9892511 2.0797668 1.6334633
1.9222 2.1799116 1.9877369 1.6626385 1.865645 2.1839404 1.8541329 2.060955
1.6757227 2.1454952 2.0890257 2.1808317 1.9222205 1.8874233 2.024626 1.8898389
1.631006 2.207152 2.0573816 1.7144715 2.1095634 2.0998008 2.1941166 1.7610079
1.9109757 2.2597852 1.760596 2.1348908 2.0589101 2.112791 1.9972109 1.9198661
1.8572682 2.0403798 2.12199 2.0645266 2.1122262 1.8348328 2.0778165 1.9912267
1.9166342 1.8562903 1.8772875 1.911703 1.8606266 2.0443594 2.0519063 2.2003586
2.289517 1.6454887 1.8697544 2.0169291 2.131662 2.2123098 2.0684867 1.8262697
1.6446276 1.9558842 1.5921153 1.8848367 2.094541 2.188246 2.0090058 1.861406
2.1483064 2.1513689 1.6882437 1.9801514 1.9425013 1.9506636 2.094 2.0327969
1.8593923 1.9750993 1.8432655 2.0630448 1.8362951 1.835012 2.0723438 1.7266216
2.087505 1.9065982 1.8669007 2.3354063 2.1139827 2.083789 1.7305952 2.0409188
1.9105895 1.9372011 2.0147831 2.1005778 1.871218 2.0942948 2.3083677 1.7112528
1.6744909 2.1102223 1.9435177 2.115244 2.2909036 1.928181 1.9956229 2.075827
2.113366 1.997412 2.0056002 2.20271 1.9489331 2.2655604 2.2149758 2.0155792
2.2652056 2.0058992 1.9272362 2.0294335 2.3087566 2.018954 2.0032153 2.1712964
1.8079816 1.8948112 1.9352927 1.7086517 2.015286 2.2119985 2.0969253 1.9737622
2.2007823 2.09284 2.0421996 1.9059101 2.2510395 1.8917027 2.1370466 2.009612
2.0726461 2.0513036 1.9359018 1.7929341 2.1248016 2.260068 2.073219 2.3220596
1.7737969 2.1501405 1.8033234 1.8861079 2.0230484 1.7582252 2.2728724 1.9020119
2.282349 1.853799 2.2511353 2.0343444 2.1089582 2.00971 2.1142206 2.1704369
2.0609524 1.9376386 2.3296175 2.115971 2.0337608 2.3370745 1.660903 2.3847404
2.0357006 1.7891908 2.1008024

bias f4 [251]
00000000: 68aa b2be 0d39 52c0 2506 65c0 38ad 4dc0
00000010: bc92 72c0 6d43 53c0 13dc 35c0 9c9c 4ac0
00000020: e00e 29c0 84bb 61c0 b701 4bc0 ccd4 5bc0
00000030: 3657 3ec0 e7b5 31c0 10c5 58c0 37ed 2cc0
00000040: 979e 68c0 20d8 6bc0 819d 6bc0 152a 4cc0
00000050: 52d4 4ec0 3263 38c0 a2e8 44c0 b9d8 7ac0
00000060: cbdf 39c0 a1ba 6cc0 0a75 4ac0 14a7 38c0
00000070: f1da 73c0 d473 48c0 a20f 22c0 61a5 69c0
00000080: 6647 41c0 5d1e 50c0 aaf3 73c0 cba4 86c0
00000090: db2c 48c0 92d1 4ac0 150e 58c0 790b 76c0
000000a0: 7604 68c0 1e77 5ac0 1414 6ac0 8f76 54c0
000000b0: 43b0 5fc0 c214 76c0 9efa 43c0 b5ab 4ac0
000000c0: c843 57c0 cd16 63c0 855e 2ec0 f18f 38c0
000000d0: de2d 37c0 3737 21c0 2e9c 3cc0 2b0f 59c0
000000e0: fce2 34c0 5f92 4bc0 5ac7 3ac0 fdd1 43c0
000000f0: 3c11 44c0 051d 2cc0 ad08 43c0 0b98 7fc0
00000100: 80ca 5fc0 9259 74c0 1ef3 70c0 433b 4bc0
00000110: b6d4 4ec0 c8b7 16c0 c290 4dc0 b535 56c0
00000120: 53bf 55c0 f3e1 35c0 ea00 47c0 ccb7 5ac0
00000130: 99f1 71c0 dcf7 4dc0 dc17 3cc0 b2b2 2fc0
00000140: 0c05 41c0 fa68 42c0 d11f 42c0 b432 41c0
00000150: d140 57c0 d247 6bc0 e15c 27c0 6302 4ec0
00000160: d7ce 28c0 96af 47c0 ff18 45c0 93e4 5ec0
00000170: 2b05 48c0 50c8 3fc0 3ed4 6dc0 c9da 46c0
00000180: 45de 5bc0 ce92 73c0 e773 6bc0 7dd7 2ac0
00000190: 11b1 49c0 f3ca 6bc0 e349 4fc0 cae3 3fc0
000001a0: a317 3cc0 a71a 62c0 d240 3bc0 b71f 4fc0
000001b0: 4ff8 57c0 a6ac 5ec0 e4a2 4cc0 9f47 4cc0
000001c0: f49b 43c0 7c14 49c0 182e 4ec0 3efd 50c0
000001d0: a2db 4dc0 16f6 47c0 aeb4 55c0 21ef 4ac0
000001e0: b124 38c0 8cdf 46c0 41b1 45c0 e164 50c0
000001f0: 3aa9 57c0 50f6 3fc0 af26 54c0 451d 4bc0
00000200: 26fa 5ec0 0a9f 29c0 b3d8 34c0 4cc4 41c0
00000210: 1fe4 53c0 0541 54c0 aff6 55c0 c7c5 32c0
00000220: d044 34c0 c63b 61c0 9a5f 49c0 d532 30c0
00000230: 3a16 5ec0 6a78 69c0 f2cf 51c0 c289 74c0
00000240: cd51 66c0 3c93 50c0 6e7a 42c0 9d94 4dc0
00000250: f1d5 53c0 8e35 43c0 d90f 44c0 72c6 61c0
00000260: 6cdd 43c0 aab7 5cc0 2df3 6dc0 ae14 5ec0
00000270: e0b7 3ec0 ed99 35c0 f9d0 3cc0 abc9 3cc0
00000280: cf14 7ec0 2a76 4ec0 1e38 44c0 2e3f 5bc0
00000290: 6102 53c0 2610 57c0 ff30 55c0 1bff 3dc0
000002a0: ae9c 42c0 dfd7 3fc0 74fa 4fc0 f162 5fc0
000002b0: 9b9d 42c0 e3ee 7cc0 27ff 63c0 9f04 5bc0
000002c0: 38cc 3ac0 75aa 55c0 889c 42c0 e852 50c0
000002d0: 7aa5 7ec0 800e 24c0 f55b 40c0 b4dd 48c0
000002e0: 54cd 51c0 540a 4cc0 468d 46c0 2246 57c0
000002f0: 2606 40c0 53a3 73c0 e068 5ec0 45a7 4dc0
00000300: 432e 77c0 2085 4ac0 ecd5 54c0 3895 4ac0
00000310: 7092 6dc0 1d12 46c0 e8c1 44c0 94e5 5ac0
00000320: 3903 2bc0 18b0 2fc0 e74b 4cc0 ee61 43c0
00000330: 0468 39c0 a1cd 50c0 b131 56c0 62be 4ec0
00000340: a759 61c0 b181 4cc0 707e 6ac0 3dc4 7ac0
00000350: cab6 8ec0 4636 2cc0 0985 60c0 2398 3dc0
00000360: ee62 70c0 dd61 3dc0 0aff 43c0 7fdb 4ec0
00000370: e235 68c0 7325 62c0 85ad 50c0 00e9 6dc0
00000380: 7964 2dc0 cf13 7ac0 ba2c 42c0 ab36 55c0
00000390: 2a85 49c0 b355 37c0 c864 5ec0 48e0 65c0
000003a0: 4b5f 7bc0 ffe6 3ec0 34bb 66c0 efe3 63c0
000003b0: 9c8a 5cc0 dae8 67c0 f520 53c0 5b40 5cc0
000003c0: d0dd 5dc0 dab8 44c0 981f 63c0 2f89 44c0
000003d0: 0b44 46c0 f5e0 54c0 a1de 30c0 86ff 68c0
000003e0: e101 3fc0 522e 2dc0 3da9 67c0
-0.34895635 -3.284732 -3.5785 -3.2136974 -3.790206 -3.3009903 -2.8415573 -3.1658087
-2.641533 -3.52707 -3.1719797 -3.434863 -2.974073 -2.7767274 -3.3870277 -2.7019784
-3.6346796 -3.6850662 -3.6814883 -3.1900685 -3.231709 -2.8810544 -3.0766988 -3.9194777
-2.9042842 -3.698891 -3.1633935 -2.8851976 -3.8102381 -3.1320696 -2.5322042 -3.650719
-3.0199828 -3.2518532 -3.811747 -4.2076163 -3.1277378 -3.1690412 -3.3758595 -3.8444502
-3.6252723 -3.4135203 -3.6574755 -3.3197362 -3.4951332 -3.845017 -3.0621715 -3.1667302
-3.363512 -3.5482666 -2.724519 -2.8837855 -2.8621745 -2.518995 -2.9470325 -3.3915508
-2.826354 -3.1808088 -2.9184175 -3.0596917 -3.063552 -2.6892712 -3.0474045 -3.993655
-3.4967346 -3.817967 -3.7648387 -3.175492 -3.2317328 -2.354967 -3.2119603 -3.347028
-3.3398025 -2.8419158 -3.1094308 -3.417468 -3.780371 -3.2182531 -2.9389563 -2.7452817
-3.015933 -3.0376573 -3.033192 -3.0187197 -3.363331 -3.6762586 -2.6150439 -3.2188957
-2.6376245 -3.120092 -3.0796506 -3.482701 -3.1253154 -2.996601 -3.7160792 -3.1071036
-3.4354413 -3.8058352 -3.678949 -2.6694024 -3.1514323 -3.684262 -3.2388847 -2.9982781
-2.9389427 -3.5328767 -2.9258313 -3.2363107 -3.3745306 -3.4792876 -3.197442 -3.1918714
-3.0563936 -3.1418753 -3.2215633 -3.2654567 -3.2165303 -3.124395 -3.3391528 -3.1708453
-2.8772395 -3.1073942 -3.0889437 -3.2561572 -3.3697038 -2.9994087 -3.314861 -3.1736615
-3.4840178 -2.650332 -2.8257263 -3.027606 -3.3107984 -3.3164685 -3.3431814 -2.7933214
-2.8167 -3.5192733 -3.14646 -2.7531025 -3.4701066 -3.6479745 -3.278317 -3.820908
-3.5987427 -3.2589865 -3.0387225 -3.2121956 -3.309933 -3.0501437 -3.0634673 -3.5277371
-3.0603895 -3.44871 -3.7179673 -3.4700122 -2.9799728 -2.83752 -2.9502547 -2.9498088
-3.97002 -3.2259622 -3.0659251 -3.4257312 -3.2970202 -3.3603606 -3.3311155 -2.9686954
-3.040813 -2.9975507 -3.2496614 -3.490414 -3.0408695 -3.9520805 -3.5624483 -3.422157
-2.9187145 -3.3385289 -3.040804 -3.2550602 -3.97885 -2.563385 -3.0056126 -3.1385317
-3.2781572 -3.1881304 -3.1023726 -3.3636556 -3.0003753 -3.8068435 -3.475151 -3.2133343
-3.8621986 -3.1643753 -3.3255568 -3.1653576 -3.7120628 -3.0948555 -3.074335 -3.4202623
-2.6720717 -2.745123 -3.1921327 -3.0528522 -2.8969736 -3.2625506 -3.346783 -3.23037
-3.521097 -3.1954157 -3.6639671 -3.9182274 -4.459813 -2.6908126 -3.5081198 -2.9624107
-3.7560382 -2.959098 -3.0624413 -3.232147 -3.6282887 -3.5335357 -3.2605908 -3.7173462
-2.7092574 -3.907459 -3.03398 -3.3314617 -3.1487527 -2.8646057 -3.4749012 -3.591814
-3.9276912 -2.982849 -3.605176 -3.560787 -3.44596 -3.6235871 -3.2988865 -3.441428
-3.4666634 -3.0737824 -3.5488033 -3.070873 -3.097903 -3.3262303 -2.7635882 -3.640596
-2.9844897 -2.7059522 -3.6197045

running_mean f4 [251]
00000000: d3d4 93bf 01de 94be 9ba8 0fbe 3435 bdbe
00000010: 58c8 b7be 7183 4abf 6cfe b5be 19af 10bf
00000020: 1e8e 3fbf a215 debe f657 febe d4bb 36be
00000030: da35 63bf 4e33 56bf ee0a 00bf f053 a3be
00000040: 0c42 06bf 5d54 59bf 9902 85bd 50b2 68bf
00000050: 7aa6 6fbf 0622 e1be 2e93 01bf 9890 43bf
00000060: d279 40bf 7c10 3cbf c707 11bf 2aeb debd
00000070: 52c6 37bf 210d 72be 5992 90be 2e09 a2be
00000080: 6de1 23bc 0570 8abf 0f5d c9be bc27 3fbf
00000090: d296 f7be 292f 4dbf ff9a e3be fd7b 67bf
000000a0: 9c81 78bf d877 2dbf dff6 2ebf 57e8 31bf
000000b0: 0449 64be 3fd3 2bbf 1ebf 8bbe 4734 16bf
000000c0: 48af b7bc 9eb6 24bf ab78 30be 85a9 e4be
000000d0: c011 f0bc f796 debe 3fff 71bf b16a 19bf
000000e0: b53b 55bf 2223 32bf d49a 80bf 9592 71bf
000000f0: 7299 29bf 21c7 5abf 377d 4dbf cd96 0cbe
00000100: fbdb c2be d9e8 40bf eb24 52bf 0c21 09bf
00000110: fb42 35bf aac4 8cbf a163 42bf 10ce f3bd
00000120: b498 79bf d0a0 5bbf 6c69 0bbf 8919 18bf
00000130: ad05 333d b271 15bf 7915 48bf 7965 1d3e
00000140: 7756 a9be 2685 81bf 5abd 2abf 23c3 20bf
00000150: 4a62 2b3c 1906 05bf 4a6c 1dbf 307d 8cbf
00000160: 62d7 2abf 5971 11bf d841 04bf 1e62 f5be
00000170: b6a2 d4be 5d5e 07bf d7d2 70be 1abd 60be
00000180: 09ff e93e f6a4 1ebf 15a6 08bf b833 08be
00000190: e8d7 6dbf b1de 07bf 70f3 50bf eeaa b7be
000001a0: 03e4 e43c ea90 cbbe ba52 62bf 0475 33bf
000001b0: 81dd 4bbf 116d 8dbe 387b 38bf ceb3 8d3e
000001c0: 38ee 93be 49be 83bf 6580 06bf 3e41 c4be
000001d0: 9317 a1be 69ae c7be 4b90 06bd 8080 1abf
000001e0: ee8d 1ebf 75c4 5ebf da47 1ebf 0186 97be
000001f0: 04ff 11be 2998 37bf 98a5 0ebf b289 4fbf
00000200: 71f2 43bf 3388 1cbf d2fc 28bf eed9 9ebe
00000210: 122a 03bf 2e9e 77bf 96b1 14bf 64d9 d9be
00000220: 54b5 adbd afc7 80bf e250 a0be 5c76 a0be
00000230: 9891 58bf 93d9 20bf f88d dabe 67aa 9abe
00000240: aca8 99be 612b 56bf 9bed bbbe 926c 1fbf
00000250: 9210 febe 6649 74bf db02 77be d339 153c
00000260: 3ef1 debd 10d5 ecbb 0594 923e f890 24bf
00000270: ed93 14bf a6e7 17bf 1c85 42bf 1bb1 abbe
00000280: 4ec2 b4bb 136c 42bf 8906 a8be 3798 1bbf
00000290: 90ad 42bf e2fe 36bf 20fc f0bc 7408 82bf
000002a0: 715c 2abf d2c2 8fbe 3165 23bf 92da 36bf
000002b0: 5f15 b4be fb91 bebe 4f37 5bbf 3a12 bf3d
000002c0: e23f 8e3c 7e76 27bf 4595 0bbf a939 c4be
000002d0: 7095 debe eebd 57bf e70a 47bf e122 8abe
000002e0: 0a82 0cbf 0e1b 22bf 5ecb 1dbf 5b8c 10bf
000002f0: b971 b0be 1a3d 44be e3af 24bf 7f2f 3abf
00000300: 4b9b 4bbf c107 80bf 47e7 74be eceb 45bf
00000310: 4c2a 5ebf 5833 57bf 2b67 dbbe 5c2f aebe
00000320: 0fcc 4bbf 5238 38bf 3058 0cbf d909 1fbf
00000330: 5faf 58bf df90 58bf 1850 abbe 96cb 27bd
00000340: c414 5ebe dc49 36bf 1ffa 13bf 5101 55bc
00000350: 5480 2fbe 91fe 30bf cd3e 69bf 446e 77bf
00000360: bc26 26bf 75eb 11bf 2694 23bf 20c4 c3bd
00000370: 9939 ddbe 750d 02bf 0c29 2ebf d456 51bf
00000380: 7e77 8dbf c653 12bf 9142 01be 4a0d 65be
00000390: 0a55 01bf 7d58 92be 84d1 46bf 17cc dcbe
000003a0: 7f59 a6be c442 b4be f5e8 20bf 714e 1ebf
000003b0: e281 91bf 07ec 84be 99e8 21bf 2c5d 56bf
000003c0: f1dc 28bf 559f 43bf 6794 d0be 2f1d 61bf
000003d0: 84e2 1fbf c223 81bf affa d3be fe90 38bf
000003e0: 57ae 39bf 3a73 5ebf 3cc2 f4be
-1.1549324 -0.29075626 -0.14029162 -0.36954653 -0.35895038 -0.79106814 -0.3554567 -0.5651718
-0.7482623 -0.4337588 -0.49676484 -0.17845088 -0.88754046 -0.83672035 -0.5001668 -0.31899977
-0.5244453 -0.84894353 -0.06494636 -0.90897083 -0.936134 -0.4397127 -0.50615203 -0.7639251
-0.75185883 -0.73462653 -0.5665249 -0.10884698 -0.7178699 -0.23637821 -0.28236654 -0.3164763
-0.010002476 -1.0815436 -0.3932881 -0.74670005 -0.48357254 -0.80150086 -0.4445419 -0.90423566
-0.9707277 -0.6776099 -0.68345445 -0.6949515 -0.22293478 -0.6711921 -0.27294248 -0.5867352
-0.022422448 -0.6434115 -0.17233531 -0.44660583 -0.029305339 -0.43474552 -0.945301 -0.59928423
-0.8329423 -0.6958486 -1.004725 -0.9436429 -0.66249764 -0.85460097 -0.8026919 -0.13729401
-0.38058457 -0.753553 -0.8208758 -0.5356605 -0.7080533 -1.0997517 -0.7593327 -0.11904538
-0.9749863 -0.85792255 -0.54457736 -0.59413964 0.043706585 -0.5837661 -0.78157765 0.1537074
-0.3307378 -1.0118759 -0.6669518 -0.62797755 0.010460446 -0.5196243 -0.6149336 -1.0975704
-0.667349 -0.5681358 -0.5166297 -0.4792642 -0.4153039 -0.5287836 -0.23517929 -0.21947137
0.4570239 -0.6197046 -0.5337842 -0.13300979 -0.9290757 -0.53074175 -0.81621456 -0.35872597
0.027940756 -0.39758998 -0.8840748 -0.70100427 -0.79634863 -0.27622274 -0.72063017 0.27676243
-0.28892684 -1.0292445 -0.52539665 -0.38331026 -0.31463298 -0.39000252 -0.032852452 -0.60352325
-0.6193532 -0.8701852 -0.61828387 -0.29594424 -0.14257437 -0.7171655 -0.55721426 -0.8106948
-0.7654181 -0.61145324 -0.66010773 -0.31025642 -0.5123607 -0.9672574 -0.58083475 -0.42548668
-0.08481851 -1.0060939 -0.3131171 -0.313403 -0.8459716 -0.6283199 -0.4268644 -0.30208132
-0.300115 -0.8365994 -0.36704716 -0.6227504 -0.49622017 -0.954245 -0.24122183 0.009108025
-0.10885857 -0.0072275475 0.28628555 -0.64283705 -0.58038217 -0.5933784 -0.7598436 -0.33533558
-0.005516327 -0.7594616 -0.32817486 -0.60779136 -0.76046085 -0.7148267 -0.029417098 -1.015883
-0.66547304 -0.28078324 -0.6382628 -0.7142726 -0.35172555 -0.3722075 -0.8563127 0.09329648
0.017364446 -0.6541518 -0.5452464 -0.3832524 -0.43473387 -0.84274185 -0.7775101 -0.26979735
-0.54885924 -0.6332253 -0.6163844 -0.56464165 -0.34461764 -0.19163933 -0.6433088 -0.72728723
-0.79533833 -1.0002366 -0.2391635 -0.77313113 -0.8678329 -0.8406272 -0.42852148 -0.34020507
-0.79608244 -0.7196094 -0.54822063 -0.621244 -0.84642595 -0.84596056 -0.33459544 -0.04096564
-0.21687609 -0.7120645 -0.5780353 -0.013000802 -0.17138797 -0.6913844 -0.9111145 -0.96652627
-0.64902854 -0.56999904 -0.6389793 -0.09558892 -0.43208006 -0.50801784 -0.6803138 -0.81773114
-1.1052091 -0.5715908 -0.1262305 -0.2236835 -0.50520384 -0.28583136 -0.77663445 -0.43124458
-0.32490155 -0.35207188 -0.62855464 -0.6183844 -1.1367762 -0.25961325 -0.6324554 -0.8373592
-0.6596213 -0.76414996 -0.40738222 -0.87935156 -0.6245501 -1.0089037 -0.41402194 -0.7209624
-0.72531646 -0.8689457 -0.4780444
