EXP12_dump/bottleneck_model.pth (torch, 77664 bytes, 19 tensors)

weight f4 [30, 251]
0	0xbce36cb6	-0.027761798
1	0xbc206612	-0.00978996
2	0xbd19803a	-0.037475802
3	0x3bfab3d7	0.007650833
4	0xbcc46c86	-0.02397753
5	0x3b29df4a	0.0025920444
6	0xbc98f242	-0.018670205
7	0xbd704f26	-0.05866923
8	0x3bfd914a	0.007738267
9	0xbc2c9655	-0.010533889
10	0x3e3263e8	0.17420924
11	0x3d2a7eb6	0.041624747
12	0xbdf52364	-0.11969641
13	0x3d622d95	0.05521925
14	0x3e025aae	0.12729904
15	0x3ce18c35	0.027532676
16	0xbc25ff1b	-0.010131623
17	0xbddbe95c	-0.10737869
18	0xbbd659aa	-0.0065414505
19	0x3d1f743c	0.03892921
20	0x3d4ba008	0.049713165
21	0xbbe61ed1	-0.0070227166
22	0xbd18fce6	-0.037350558
23	0x3d63bf56	0.055602394
24	0x3e9d658a	0.3074153
25	0xbbd7c1a6	-0.006584364
26	0x3dd39c05	0.10332493
27	0xbdf0dc14	-0.117607266
28	0x3ca285fd	0.019839281
29	0xbcf949fb	-0.030430784
30	0xbe383381	-0.17988397
31	0xbe10cc29	-0.14140381
32	0x3e08b9e0	0.13352156
33	0x3bb65680	0.005564511
34	0xbcc04070	-0.023468226
35	0x3d8c0fe5	0.06838969
36	0xbd9a1592	-0.075236455
37	0x3bbd3dc5	0.005775186
38	0xbbe4ee07	-0.006986383
39	0x3d5b408a	0.053528346
40	0xbd49bde1	-0.04925335
41	0xbd80c5d3	-0.06287732
42	0xbc311d46	-0.010810202
43	0x3c62962d	0.01382975
44	0x3c85020a	0.016236324
45	0xbb70136e	-0.0036632675
46	0xbc5c0259	-0.013428294
47	0xbd09071b	-0.033454042
48	0x3dc95bfe	0.09831999
49	0x3bf67528	0.0075212903
50	0x3d305f98	0.043059915
51	0xbb31607d	-0.0027065568
52	0xbcc366d1	-0.023852738
53	0x3cb95a4f	0.02262607
54	0xbcf08915	-0.02936224
55	0x3ceea6b9	0.029132234
56	0xbd237ed0	-0.03991586
57	0xbc867a1d	-0.01641565
58	0xbc15b8c7	-0.009138293
59	0xbca2174b	-0.019786498
60	0x3d0386be	0.032110922
61	0x3d35363d	0.04424118
62	0xbb52f9b8	-0.00321923
63	0x3e12a6b9	0.14321412
64	0x3cb83781	0.022487404
65	0xbc3a956e	-0.011388166
66	0x3cacafb9	0.021079885
67	0xbaea7f2a	-0.0017890681
68	0x3b27cab3	0.0025602996
69	0x3e45de70	0.19323134
70	0x3e739849	0.23788561
71	0xbe024a4e	-0.12723657
72	0x3d375e6e	0.04476779
73	0x3cd523d0	0.026018053
74	0x3c9ef424	0.019403525
75	0xb8477774	-4.7556547e-05
76	0xbba45f4d	-0.0050162436
77	0xbc0b89a2	-0.008516701
78	0xbb2b3919	-0.0026126562
79	0x3c3c353a	0.0114873
80	0x3e4886eb	0.19582717
81	0x3dcdb41e	0.1004412
82	0x3d246bb7	0.040141787
83	0x3d408e57	0.047010746
84	0xbd1b9ede	-0.037993304
85	0xbc41fc40	-0.011839926
86	0xbc89d2b6	-0.016824108
87	0xbd44aa12	-0.048013754
88	0x3d9ff4a1	0.07810331
89	0x3ca5ffc9	0.02026357
90	0xbd317ceb	-0.04333202
91	0x3db2cc1c	0.08730337
92	0x3daf2553	0.08552041
93	0x3dfc7872	0.123276606
94	0x3de13662	0.10996701
95	0x3b104ebd	0.0022019588
96	0xbcd9b693	-0.026576316
97	0x3d5bc461	0.05365408
98	0x3d85e9f3	0.06538763
99	0xbc736e60	-0.014857858
100	0xbdeaea5f	-0.11470484
101	0xbdab1f92	-0.08355631
102	0x3dcd02df	0.10010313
103	0x3d0e043d	0.03467201
104	0x3c93120a	0.017952938
105	0x3b101619	0.0021985827
106	0xbcfa3d9f	-0.030546961
107	0xbe30519e	-0.17218634
108	0xbd45ea79	-0.048319314
109	0x3d4b8f6c	0.049697325
110	0x3d277553	0.040883373
111	0xbd726c5a	-0.059185363
112	0xbd70fb11	-0.058833186
113	0xbc818fac	-0.015815578
114	0x3d0caf37	0.034346785
115	0xbcde52c1	-0.02713907
116	0xbae81324	-0.00177059
117	0x3cdc93d9	0.026925968
118	0x3cd134eb	0.025537929
119	0xbc8af0d2	-0.016960535
120	0xb9d8b528	-0.00041333702
121	0x3d119d3e	0.03555035
122	0x3bd02401	0.0063519483
123	0x3d183d8b	0.037168067
124	0xbdb316a6	-0.08744554
125	0x3c4771ce	0.012173129
126	0x3d292059	0.041290615
127	0xbc263ae1	-0.010145874
128	0xbc35fe35	-0.011107971
129	0x3d90a60f	0.07062923
130	0x3d184e13	0.037183832
131	0x3e1fe919	0.15616263
132	0x3c5df02e	0.013546033
133	0xbd97682f	-0.07392918
134	0xbcc57000	-0.024101257
135	0x3bf76193	0.0075494736
136	0x3c6666fb	0.014062638
137	0xbe245004	-0.16046149
138	0x3d45b2c3	0.048266184
139	0x3dc1ee25	0.094692506
140	0xbc5735eb	-0.013135414
141	0xbcd378cd	-0.025814438
142	0x3c2d5ad1	0.010580734
143	0xb9cf1807	-0.00039500018
144	0xbbdec358	-0.006798189
145	0x3c8666a6	0.016406368
146	0x3e1ca5df	0.1529765
147	0x3d2353e7	0.039874937
148	0x3d481343	0.048846494
149	0x3d6f73c1	0.05846
150	0xbb9ae602	-0.004727126
151	0x3dd51a00	0.1040535
152	0xbd4a5706	-0.0493994
153	0x3cdaf0b8	0.026726112
154	0x3e424a76	0.18973717
155	0x3df26252	0.11835159
156	0xbdc34481	-0.095345505
157	0xbda400b2	-0.08007945
158	0xbd569fea	-0.0523986
159	0x3d6e12dd	0.05812346
160	0x3fd7a08f	1.6845874
161	0x3c6430ab	0.013927619
162	0x3cc55226	0.024087023
163	0xbd86cb4d	-0.06581745
164	0x3ca4b806	0.02010728
165	0xbcf5e572	-0.030016635
166	0xbcec9803	-0.028881079
167	0xbb845c38	-0.0040393136
168	0xbc840057	-0.016113443
169	0xbd492bca	-0.049114026
170	0xbc88ed7c	-0.016714804
171	0xbc810920	-0.015751421
172	0xbd3b5261	-0.04573286
173	0xbca57c89	-0.020200985
174	0xbe09772b	-0.13424365
175	0x3cd0925f	0.02546042
176	0x3f82e6e5	1.0226713
177	0x3c302e69	0.010753253
178	0x3bdf13ec	0.006807795
179	0x3d93e234	0.07220879
180	0x3a8ae980	0.0010598153
181	0x3e5047c3	0.20339875
182	0x3e3a85f0	0.18215156
183	0xbe040e8d	-0.12896176
184	0x3ce08721	0.027408184
185	0xbcd28080	-0.02569604
186	0xbbce6b3e	-0.0062994054
187	0xbd18b34d	-0.03728037
188	0x3d2e53cd	0.042560387
189	0xbc1a1ea6	-0.009406721
190	0xbd6247c4	-0.055244222
191	0x3d92ca76	0.071675226
192	0xbd80cbb7	-0.062888555
193	0xbd0e89cb	-0.03479938
194	0x3e2234cf	0.15840457
195	0xbb4fb0ff	-0.0031691191
196	0xbd6059d0	-0.054773152
197	0xbd9a1fd3	-0.07525601
198	0xbdaad2f3	-0.083410166
199	0xbd4ffdb2	-0.050779052
200	0xbd7f768c	-0.062368914
201	0x3d7c6577	0.061620202
202	0xbd983570	-0.074320674
203	0x3e980b1c	0.29695976
204	0x3e893fc6	0.26806468
205	0x3e7ed4e4	0.24885899
206	0x3d65be15	0.05608948
207	0xbc853267	-0.016259385
208	0x3cca8ec0	0.024726272
209	0x3daf9168	0.08572656
210	0xbd54160f	-0.05177885
211	0x3cc3f920	0.023922503
212	0xbcf75d3a	-0.030195821
213	0x3b76ba3a	0.003764762
214	0xbdc5ec22	-0.096641794
215	0x3c54c385	0.012986069
216	0x3c16f616	0.009213945
217	0x3d17b11c	0.03703414
218	0x3922e256	0.0001553384
219	0x3d7242cd	0.059145737
220	0x3d96fdab	0.07372602
221	0x3c1f4a79	0.0097223455
222	0xbc3608b7	-0.011110476
223	0x3d66314b	0.056199353
224	0x3d500585	0.050786514
225	0xbcd53129	-0.026024418
226	0xbd431dd1	-0.047635857
227	0xbd888d41	-0.06667567
228	0xbc8f14b3	-0.017465925
229	0x3c8bcefa	0.017066468
230	0xbd893c8b	-0.06701001
231	0x3d026a43	0.03183962
232	0x3d3a208c	0.045441195
233	0x3ddc4244	0.10754827
234	0x3d4bc099	0.049744222
235	0x3d54bdda	0.05193887
236	0x3ceca774	0.028888442
237	0x3e7681a0	0.24072886
238	0x3d0ad1d7	0.033891525
239	0x3c26a1d3	0.010170418
240	0xbc3b5ce0	-0.011435717
241	0x3c656d78	0.01400315
242	0x3db372bc	0.08762118
243	0x3d617ba8	0.05504957
244	0x3e16aa60	0.1471343
245	0x3d49ff69	0.049315844
246	0xbce2bdfa	-0.027678479
247	0x3e5cf138	0.21576393
248	0xbd749975	-0.05971666
249	0xbe3dc003	-0.18530278
250	0x3d2a5e5e	0.0415939
251	0xbbe9dfe0	-0.0071372837
252	0xbc013777	-0.007886759
253	0x3db23288	0.08701044
254	0x3c56c89b	0.0131093515
255	0xbc9c972d	-0.019115055

bias f4 [30]
0	0xbd66779d	-0.056266416
1	0x3d5ccaa3	0.053904187
2	0x3d78d3b4	0.06074877
3	0xbcc47343	-0.023980742
4	0xbd7c722d	-0.061632324
5	0x3c0336ff	0.008008718
6	0xbc8358f5	-0.016033629
7	0x3c424634	0.011857558
8	0x3ceeabcb	0.029134652
9	0x3d7d756e	0.061879568
10	0x3b909eac	0.0044134464
11	0xbcd948e7	-0.02652402
12	0xbc812542	-0.015764836
13	0x3c579119	0.013157153
14	0xbc996d41	-0.018728854
15	0xbd723efc	-0.059142098
16	0xbb961e6b	-0.004581263
17	0xbd696f04	-0.05699064
18	0xbd1e6bfa	-0.038677193
19	0xbd10a48a	-0.035313167
20	0x3d0880ef	0.033326086
21	0x3d4ca58c	0.049962565
22	0xbc9bf11f	-0.019035874
23	0xbc3d7d2d	-0.011565489
24	0x3c193937	0.00935202
25	0x3c640c73	0.013918984
26	0x3c221f95	0.009895225
27	0x3b1b2d21	0.0023678022
28	0x3ccc58aa	0.024944622
29	0xbd084c1c	-0.03327571

weight f4 [30]
0	0x3f335c05	0.70062286
1	0x3f4fdd71	0.8119727
2	0x3eb71be7	0.35763475
3	0x3ed1b2ee	0.40956825
4	0x3f495f72	0.78661263
5	0x3f2e8f8c	0.68187785
6	0x3f3eaf0f	0.7448587
7	0x3f3c7eb3	0.7363083
8	0x3f06c095	0.52637607
9	0x3ef5fa28	0.48042417
10	0x3efa4c82	0.48886496
11	0x3f21a9d0	0.6314974
12	0x3f43b9f1	0.764556
13	0x3f70709c	0.9392183
14	0x3f241a3c	0.6410253
15	0x3ed8cf33	0.4234558
16	0x3f45c197	0.7724852
17	0x3ee6000c	0.4492191
18	0x3f2fceaa	0.6867472
19	0x3ee7f377	0.45302936
20	0x3f2f4682	0.6846696
21	0x3f387683	0.72055835
22	0x3f4ffee0	0.81248283
23	0x3eee1b3e	0.4650516
24	0x3f4f7dba	0.8105122
25	0x3f2f300a	0.68432677
26	0x3f2f4365	0.6846221
27	0x3f5cde77	0.86276954
28	0x3f397575	0.7244485
29	0x3f165d3f	0.5873603

bias f4 [30]
0	0xbee5eb76	-0.44906205
1	0xbfba571a	-1.4557831
2	0x3ebd1e43	0.3693715
3	0x3f03132b	0.51201123
4	0xbf30e8f5	-0.69105464
5	0x3f2c8399	0.673883
6	0xbfcc9b84	-1.598496
7	0xbef3336a	-0.47500163
8	0x3f28e98c	0.65981364
9	0x3eec5c42	0.46164137
10	0x3f1eb2da	0.61991656
11	0x3f162071	0.5864325
12	0x3f171010	0.59008884
13	0x4003a827	2.0571382
14	0x3f2c87d7	0.67394775
15	0x3f13442c	0.575259
16	0xbf6278ae	-0.8846539
17	0x3f17335c	0.59062743
18	0xbfcc5a35	-1.5965029
19	0x3f108ccd	0.56464845
20	0xbf464b3f	-0.77458566
21	0xbff7a274	-1.9346452
22	0xbfee1321	-1.8599588
23	0x3f27b328	0.65507746
24	0xbf2f8b23	-0.6857168
25	0xbf9f2d80	-1.243576
26	0x3f159269	0.5842653
27	0xbedc29d7	-0.4300067
28	0xbfd387de	-1.6525838
29	0xbfb0d7a3	-1.3815807

running_mean f4 [30]
0	0x4047825e	3.117332
1	0x3fba7f39	1.4570075
2	0x3f935833	1.1511291
3	0x3fc60ca5	1.5472609
4	0x405e5db7	3.47447
5	0x400f008c	2.2344084
6	0x4084c267	4.1487308
7	0x4048e8c9	3.139208
8	0x400305d9	2.047232
9	0x40027354	2.038289
10	0x3fb7defd	1.4364926
11	0x4092e448	4.5903664
12	0x40a6c7ba	5.2118807
13	0x41513a93	13.0768
14	0x4084ca42	4.1496897
15	0x40107a14	2.257451
16	0x401e7922	2.4761434
17	0x3fe874a9	1.8160602
18	0x40718b5d	3.774131
19	0x3fbab43c	1.4586253
20	0x405e4ff0	3.473629
21	0x40038399	2.054907
22	0x40706a65	3.7564938
23	0x403b0ac8	2.922533
24	0x406246b4	3.5355654
25	0x409211c8	4.5646706
26	0x40b8db48	5.7767677
27	0x403dc3eb	2.965083
28	0x40754b07	3.8327043
29	0x402abc89	2.6677573

running_var f4 [30]
0	0x407db460	3.9641342
1	0x400e101e	2.2197337
2	0x3f96a877	1.1770161
3	0x3fc88eb5	1.5668551
4	0x409af629	4.842549
5	0x3ff8b199	1.9429199
6	0x40c3cba2	6.1186075
7	0x4081f82d	4.061545
8	0x4004219a	2.0645509
9	0x40051bff	2.0798337
10	0x3fb01dc8	1.3759089
11	0x40eeeed4	7.466654
12	0x4115b2d1	9.356156
13	0x4259bdaa	54.43522
14	0x40ca739d	6.326613
15	0x40285d51	2.6306956
16	0x4037b55b	2.870444
17	0x3fee27af	1.860586
18	0x40adbf6d	5.4296174
19	0x3fb59db3	1.4188751
20	0x40915477	4.5415606
21	0x400fd993	2.2476547
22	0x40ac8ebf	5.392425
23	0x4066f15a	3.608481
24	0x40983e0b	4.7575736
25	0x40ed3cca	7.4136705
26	0x41324526	11.141882
27	0x40778323	3.867379
28	0x40ada9f6	5.426997
29	0x4045f5d0	3.0931282

weight f4 [30, 30]
0	0xbe51aee3	-0.2047687
1	0xbc87e66b	-0.016589364
2	0xbd15dea9	-0.0365893
3	0x3d555872	0.0520863
4	0xbca4750c	-0.020075344
5	0x3e514404	0.20436102
6	0xbe0e19f1	-0.13877083
7	0x3da8e17c	0.08246133
8	0xbdbac629	-0.09119827
9	0xbd19d78e	-0.037559085
10	0xbd3793da	-0.044818737
11	0x3e069685	0.13143356
12	0x3d8813fb	0.06644436
13	0xbe49cb5f	-0.19706486
14	0x3dbe3a87	0.09288507
15	0xbdf193f1	-0.11795796
16	0x3e9d29c6	0.30695933
17	0x3da39530	0.0798744
18	0x3d8acb24	0.06777027
19	0x3d9dc9fe	0.077045426
20	0xbc823690	-0.015895158
21	0xbd40cb64	-0.04706897
22	0xbeb70cdb	-0.35751995
23	0x3ca6ebc0	0.020376086
24	0xbc65c0dc	-0.014023032
25	0xbebbb17a	-0.3665884
26	0x3beda0d1	0.007251837
27	0xbf41637c	-0.75542426
28	0xbdd0bcd9	-0.1019227
29	0x3d196e2e	0.03745859
30	0x3c2be7a0	0.010492235
31	0x3d720efa	0.059096314
32	0x3ce7f37f	0.02831435
33	0x3d838a41	0.06422854
34	0xbd005231	-0.031328384
35	0x3ddfee36	0.10934107
36	0xbe8ceccb	-0.2752441
37	0xbd061e07	-0.03274348
38	0x3d6439ed	0.055719305
39	0xbefcd034	-0.49377596
40	0x3e0eb475	0.13936026
41	0xbdf132d9	-0.117772765
42	0x3e451aa8	0.1924845
43	0xbeaad91d	-0.3336877
44	0x3dda7450	0.10666716
45	0x3d8c3ee4	0.06847933
46	0x3d933c64	0.07189253
47	0x3ba5e9bb	0.0050632632
48	0xbd260dad	-0.040540386
49	0xbd6733f5	-0.056446034
50	0xbe2bbdb9	-0.16771592
51	0xbd80cb18	-0.06288737
52	0x3ada7cde	0.0016669293
53	0xbe3312ca	-0.17487636
54	0xbe50ebe5	-0.20402487
55	0xbe5527b9	-0.20815934
56	0x3e44027a	0.1914157
57	0x3da7783b	0.08177229
58	0x3e1578b0	0.1459682
59	0xbd3a15a3	-0.04543079
60	0xbdce0cdf	-0.10061049
61	0x3dd326b4	0.103101164
62	0xbd91c02f	-0.07116734
63	0xbdf74ab4	-0.12074795
64	0xbe02d66e	-0.12777111
65	0x3d9f7c74	0.077874094
66	0x3e0b837a	0.13624373
67	0x3bcb69e7	0.006207693
68	0xbe00b727	-0.12569867
69	0xbc66cde3	-0.014087173
70	0xbdc8f09b	-0.09811517
71	0x3cbaa664	0.02278442
72	0xbd82dde2	-0.06389977
73	0xbdb28418	-0.08716601
74	0x3e303c51	0.17210509
75	0x3b9916d1	0.0046719094
76	0x3d94fafd	0.07274435
77	0xbd359075	-0.044327218
78	0x3e13d89d	0.144381
79	0xbe315626	-0.1731802
80	0xbec4621c	-0.38356102
81	0x3e4d0c98	0.20024335
82	0x3efc98be	0.49335283
83	0xbe031e19	-0.1280445
84	0x3dcd83f0	0.10034931
85	0xbeaa53a9	-0.33266953
86	0x3db1cdc0	0.08681822
87	0xbd4dced8	-0.05024609
88	0xbef52ee9	-0.47887352
89	0x3f327a4f	0.6971788
90	0xbd6fd1d2	-0.05854971
91	0x3cde4854	0.027134098
92	0xbeb9b2e4	-0.36269295
93	0xbdb4a56c	-0.08820614
94	0x3d949838	0.07255596
95	0x3e1988f3	0.14993648
96	0xbe03eee4	-0.12884098
97	0xbd528750	-0.051398575
98	0xbdb857b2	-0.090011016
99	0xbd88f882	-0.06688024
100	0xbd3eaeac	-0.0465533
101	0x3dfebe75	0.124386705
102	0x3e777962	0.24167398
103	0xbe60aea3	-0.21941619
104	0x3e3034d6	0.17207655
105	0xbdaad8b2	-0.083421126
106	0xbd48de47	-0.049040105
107	0xbe2336b6	-0.1593884
108	0x3e929035	0.28625646
109	0xbe07a1ed	-0.13245364
110	0x3dab6070	0.08368003
111	0xbb24877a	-0.0025105164
112	0xbe967715	-0.29387727
113	0xbdc83294	-0.09775272
114	0x3dd4dc87	0.10393625
115	0xbdae0e6f	-0.08498847
116	0x3e593f07	0.2121545
117	0x3b202d2f	0.0024440994
118	0xbe1da568	-0.15395129
119	0xbd6d5386	-0.057940982
120	0xbd4b1e8b	-0.049589675
121	0xbd78c28b	-0.060732406
122	0xbc44a647	-0.012002534
123	0xbd01c55b	-0.031682353
124	0x3ce33071	0.02773306
125	0xbdcc23aa	-0.0996774
126	0x3ae3d4c0	0.001738213
127	0x3c15fb25	0.009154116
128	0xbe3f941a	-0.1870884
129	0xbe021dc1	-0.12706663
130	0xbdd22386	-0.10260682
131	0xbe89238a	-0.26784927
132	0xbdc97396	-0.098364994
133	0x3ddff162	0.10934712
134	0x3e5d52a0	0.2161355
135	0xbe4a29e1	-0.19742538
136	0x3d807848	0.06272942
137	0xbe0b680a	-0.13613907
138	0x3f15ad47	0.58467525
139	0x3e0cbe4e	0.1374447
140	0x3dbab726	0.09116964
141	0x3ed0c608	0.40776086
142	0xbd178af4	-0.03699775
143	0xbda80a49	-0.08205087
144	0xbe92449b	-0.28567967
145	0x3de2ffe1	0.11083961
146	0xbd2b26e8	-0.04178515
147	0x3d16e327	0.036837723
148	0xbd6b0f4a	-0.057387628
149	0xbe2f3622	-0.17110494
150	0x3dfb3a07	0.12266927
151	0x3d886c43	0.06661274
152	0x3d934327	0.07190543
153	0x3df894ec	0.121377796
154	0x3e33dc79	0.17564572
155	0xbc464977	-0.012102476
156	0xbdff1c23	-0.124565385
157	0x3da8e742	0.08247234
158	0xbceb56d0	-0.028727919
159	0x3cef92b0	0.02924475
160	0x3d720127	0.05908313
161	0xbd990555	-0.0747172
162	0xbd991605	-0.07474903
163	0xbe75ddec	-0.24010438
164	0xbd804198	-0.06262511
165	0x3bd3d04c	0.00646404
166	0xbda8a8a6	-0.08235292
167	0x3df35e6a	0.118832424
168	0xbe901464	-0.28140557
169	0x3ddefdbb	0.10888239
170	0xbf94fd67	-1.1639832
171	0xbe17a99a	-0.14810792
172	0xbe3bdc00	-0.18345642
173	0x3dfbc2b1	0.12292994
174	0x3e32da5f	0.17466114
175	0xbf258600	-0.6465759
176	0x3d9c092d	0.07618938
177	0x3df06507	0.117380194
178	0xbe97de72	-0.296619
179	0x3dcefcba	0.101067975
180	0x3e0e8f22	0.13921788
181	0x3d515e81	0.051115517
182	0xbd32dfb7	-0.043670382
183	0xbce31f10	-0.027724773
184	0x3d75ff77	0.060058083
185	0x3e59b79f	0.21261452
186	0xbe8e6064	-0.27807915
187	0x3dc9ea96	0.09859197
188	0x3befd3e8	0.0073189624
189	0x3d93622b	0.071964584
190	0xbcc01aac	-0.023450218
191	0x3e34240c	0.17591876
192	0x3e9353f4	0.2877499
193	0xbee1fc57	-0.44137833
194	0x3e5a1676	0.2129763
195	0x3cca8e21	0.024725975
196	0x3cac8d60	0.021063507
197	0xbc9ef972	-0.019406054
198	0xbea483f6	-0.32131928
199	0x3c80c2e9	0.01571794
200	0xbde51243	-0.11185124
201	0xbda55f33	-0.080747984
202	0xbeac3e4e	-0.33641285
203	0xbd05cd1f	-0.03266632
204	0x3cd09e91	0.025466235
205	0xbec6a705	-0.387993
206	0xbed3f787	-0.41399786
207	0x3e0016b0	0.12508655
208	0xbcaf8775	-0.021426896
209	0xbc38842f	-0.011261984
210	0xbb9ca24b	-0.004780089
211	0x3e4f86c9	0.2026626
212	0x3d118824	0.035530224
213	0xbd1a85d7	-0.037725296
214	0xbe69015f	-0.2275443
215	0x3d2e58fc	0.04256533
216	0xbd157fb3	-0.036498737
217	0xbec2d2af	-0.38051364
218	0xbdcbf7e3	-0.0995939
219	0x3d2dce3a	0.042433
220	0xbc4a2c0e	-0.012339605
221	0xbe47bd04	-0.19505697
222	0x3e6bb20a	0.23017135
223	0xbe132fcd	-0.14373703
224	0x3d6e3109	0.058152232
225	0xbece1065	-0.40246883
226	0x3e4bb0ba	0.19891635
227	0x3c89670d	0.016772771
228	0xbe10b03c	-0.14129728
229	0xbda3de87	-0.08001428
230	0xbe09f190	-0.13471055
231	0xbec4aa54	-0.384112
232	0x3e36cbda	0.178512
233	0x3da9a32b	0.08283075
234	0x3db8a07c	0.09014985
235	0x3eefae72	0.4681278
236	0x3bc3c3f2	0.0059742862
237	0x3bd865f9	0.006603953
238	0x3df8ef5c	0.12155029
239	0x3e28b794	0.1647628
240	0xbd6746a0	-0.056463838
241	0x3d27b85e	0.04094731
242	0x3d398cc9	0.04530028
243	0xbd9ebe1c	-0.07751104
244	0xbdc2ea35	-0.09517328
245	0x3c8348f9	0.016026007
246	0x3e91278f	0.28350493
247	0x3d085d9d	0.0332924
248	0xbc4854e2	-0.012227269
249	0xbe1d9999	-0.15390624
250	0xbdf9ffad	-0.122069694
251	0xbd02f6fc	-0.031973824
252	0xbe1990a3	-0.14996581
253	0x3e40b301	0.18818285
254	0xbe232802	-0.1593323
255	0xbe61516d	-0.22003718

bias f4 [30]
0	0xbdc7a192	-0.09747614
1	0x3dfa95e8	0.122356236
2	0x3e1bc1a4	0.15210587
3	0x3e189134	0.1489914
4	0xbbc9fae2	-0.0061639408
5	0x3d7138ae	0.058891945
6	0xbd4131be	-0.04716658
7	0xbe187f6b	-0.14892356
8	0x3bbb0201	0.005707026
9	0x3e0d4439	0.13795556
10	0xbde0df36	-0.10980074
11	0xbe09d110	-0.13458657
12	0xbe35ec82	-0.17766002
13	0xbd640523	-0.05566896
14	0xbe2eb13b	-0.17059796
15	0x3e2fa785	0.17153747
16	0xbdb064f4	-0.08613005
17	0xbe35fc5c	-0.17772049
18	0xbdb9d279	-0.090733476
19	0xbe143a3d	-0.14475341
20	0xbdeb0671	-0.11475838
21	0xbe0173c2	-0.12641814
22	0xbde24ea5	-0.110501565
23	0xbe202b20	-0.15641451
24	0xbd965e36	-0.07342188
25	0xbd153d9c	-0.03643571
26	0x3d5eb689	0.054373298
27	0x3cd276c0	0.02569139
28	0x3dfee9a7	0.124469094
29	0xbe1b9782	-0.15194514

weight f4 [30]
0	0x3e5cc016	0.2155765
1	0x3f313133	0.692157
2	0x3f184693	0.5948269
3	0x3f0866fc	0.5328214
4	0x3f333776	0.700065
5	0x3ece4827	0.40289423
6	0x3f43e25b	0.76517266
7	0x3f23e914	0.64027524
8	0x3f347360	0.7048855
9	0x3e63d69a	0.22249833
10	0x3f269e73	0.65085524
11	0x3f1fa443	0.6236002
12	0x3f1cf039	0.6130405
13	0x3f271a8d	0.6527489
14	0x3f2512fc	0.6448209
15	0x3f178cd0	0.5919924
16	0x3e68f8bf	0.22751139
17	0x3e54c427	0.20777951
18	0x3f204cda	0.62617266
19	0x3f1ef41a	0.6209122
20	0x3f1f71fe	0.62283313
21	0x3f0d06d0	0.5508852
22	0x3f068fcf	0.52563184
23	0x3f21e1d0	0.6323519
24	0x3e7dc997	0.24783932
25	0x3f1731df	0.5906047
26	0x3ed364a9	0.41287735
27	0x3f1af745	0.60533553
28	0x3eb5f47b	0.35538086
29	0x3ec35d6a	0.38157207

bias f4 [30]
0	0x3f55bdfb	0.8349301
1	0xbf8801ab	-1.0625509
2	0xbfb26811	-1.3938009
3	0xbf7f0887	-0.99622387
4	0xbfd1147b	-1.6334375
5	0x3f0f1439	0.5589023
6	0xbf39df19	-0.72606045
7	0xbfba8cda	-1.4574234
8	0xbfd4db38	-1.66294
9	0x3f1793c3	0.5920984
10	0xbfc56b18	-1.5423307
11	0xbfc5a56a	-1.5441105
12	0xbf9252c0	-1.1431503
13	0xbfc2e4e1	-1.5226098
14	0xbf9d092f	-1.2268428
15	0xbfa26dc9	-1.2689754
16	0x3f789883	0.97107714
17	0x3ee53691	0.44768193
18	0xbfd37c33	-1.6522278
19	0xbfc2827d	-1.5196072
20	0xbfb86f80	-1.4409027
21	0xbf938453	-1.1524757
22	0xbfbc9937	-1.4734257
23	0xbf9e0274	-1.2344499
24	0x3f31007d	0.6914137
25	0xbfdeae7a	-1.7396996
26	0x3f73e9c7	0.9527859
27	0xbfc9b157	-1.5757245
28	0x3f8409fd	1.0315548
29	0xbc98f92b	-0.0186735

running_mean f4 [30]
0	0xbc721cfd	-0.014777419
1	0xbe840396	-0.25783986
2	0xbf11b8be	-0.5692252
3	0xbe2a26c2	-0.16616347
4	0xbf2fe244	-0.6870463
5	0x3ed8f350	0.42373133
6	0xbe355128	-0.1770674
7	0xbf3cdb96	-0.7377256
8	0xbd35e97e	-0.04441213
9	0xbf1fcb85	-0.6241992
10	0xbf6cccae	-0.92499816
11	0x3f114dda	0.5675942
12	0xbf288b8e	-0.65837944
13	0xbee18401	-0.44046023
14	0xbf688365	-0.9082549
15	0xbdbd04a1	-0.092293985
16	0xbe76fcac	-0.24119824
17	0xbf8b6d11	-1.089266
18	0x3cf7bd70	0.030241698
19	0xbf7a5f8f	-0.9780206
20	0xbeaede84	-0.3415414
21	0x3d6e5328	0.058184773
22	0xbf06f449	-0.527165
23	0x3d400ffd	0.046890248
24	0xbdc45b45	-0.09587721
25	0xbf9384f8	-1.1524954
26	0xbe1eab58	-0.1549505
27	0x3f0c0af4	0.54704213
28	0x3f2a12b4	0.6643479
29	0x3f521710	0.8206644

running_var f4 [30]
0	0x3e03abd1	0.12858512
1	0x3de4b6e1	0.11167694
2	0x3d1aa8d4	0.037758663
3	0x3c88fca2	0.016722027
4	0x3dac1e21	0.08404184
5	0x3e1018b3	0.14071922
6	0x3d8be37a	0.06830497
7	0x3d9a230f	0.07526218
8	0x3d611d8b	0.054959815
9	0x3d3f2568	0.046666533
10	0x3d343014	0.043991163
11	0x3d0bc1ca	0.03412036
12	0x3ccb9cef	0.024855105
13	0x3db581bb	0.08862635
14	0x3d2df0ce	0.042465977
15	0x3de7a7c3	0.11311295
16	0x3e06cf9c	0.13165134
17	0x3dd85709	0.10563476
18	0x3d70f4ed	0.05882733
19	0x3cb3e7a6	0.021961045
20	0x3d7ff39f	0.062488195
21	0x3bdd4e1c	0.006753696
22	0x3cb5f58f	0.022211818
23	0x3d550b98	0.05201301
24	0x3e04ccef	0.12968801
25	0x3c5f8240	0.013641894
26	0x3d86c0d9	0.065797515
27	0x3d79864f	0.060919102
28	0x3deed516	0.11661737
29	0x3d2b6949	0.041848455

weight f4 [251, 30]
0	0x3ddd366e	0.10801397
1	0x3de79b65	0.11308936
2	0x3e418ec8	0.18902123
3	0xbeb1af2a	-0.34703952
4	0xbe4cbe75	-0.19994529
5	0xbe101605	-0.140709
6	0x3d943aa0	0.07237744
7	0xbd354005	-0.044250507
8	0xbd61ecbe	-0.055157416
9	0xbdbe15d7	-0.09281509
10	0xbd2312ee	-0.039812975
11	0x3e24e50d	0.16103001
12	0xbeeaedc4	-0.45884526
13	0x3c90ec83	0.017690903
14	0x3d78bf43	0.060729276
15	0x3ca06bf0	0.019582719
16	0xbde09c8a	-0.109673575
17	0x3dce76a6	0.10081224
18	0x3ce578f7	0.028011782
19	0xbe8711f7	-0.26380894
20	0x3d19b9e1	0.037530784
21	0xbf0549d1	-0.5206576
22	0x3d212584	0.03934242
23	0x3e6475d5	0.22310574
24	0xbd559276	-0.05214163
25	0x3ea56782	0.32305533
26	0x3d31095f	0.043221828
27	0x3e1e294b	0.1544544
28	0x3dd4a607	0.1038323
29	0x3d4a09b7	0.04932567
30	0xbdf2c670	-0.11854255
31	0x3e25a419	0.1617588
32	0x3e1e5871	0.15463425
33	0x3e2b579d	0.1673264
34	0xbe9df7a9	-0.30853012
35	0xbe2d6599	-0.16933288
36	0xbe894e22	-0.26817423
37	0x3ecafe5a	0.3964718
38	0xbef453df	-0.4772024
39	0x3c12bc29	0.008955994
40	0x3e29eb5a	0.16593686
41	0xbd7f1f93	-0.06228597
42	0xbd6b3790	-0.057426035
43	0xbb8bbd84	-0.0042645354
44	0xbeb653de	-0.3561086
45	0xbc3aa214	-0.0113911815
46	0x3d8ba174	0.06817904
47	0x3d6b8ad9	0.057505462
48	0xbeadbc51	-0.33932737
49	0xbeb87e04	-0.36033642
50	0x3e0ff858	0.1405958
51	0xbd8115bf	-0.06302976
52	0x3ddc2d54	0.10750833
53	0x3e866c95	0.26254717
54	0xbca0e13c	-0.01963865
55	0xbe81cfdb	-0.25353894
56	0x3e53902c	0.20660466
57	0x3df72fc8	0.120696604
58	0xbe01bd86	-0.12669954
59	0x3d6d5778	0.057944745
60	0x3ca3ce5e	0.019995864
61	0xbdd73782	-0.10508634
62	0xbe9814a7	-0.29703256
63	0xbd478646	-0.048712038
64	0xbe6f4b05	-0.23368461
65	0xbd800516	-0.0625097
66	0xbdd6d45e	-0.104897246
67	0x3dcb5475	0.09928218
68	0x3e3a6eae	0.18206283
69	0xbdd2d1d6	-0.10293929
70	0xbe5c422d	-0.21509619
71	0x3ba50bc1	0.0050368016
72	0x3d8f4afb	0.06996723
73	0xbe024a70	-0.12723708
74	0xbdfb65d4	-0.122752815
75	0x3d9cda68	0.07658845
76	0xbcfc734b	-0.030816695
77	0x3be15987	0.0068771276
78	0xbe1930d9	-0.1496004
79	0xbdafb679	-0.08579726
80	0x3e06cc2c	0.13163823
81	0xbe97f187	-0.29676458
82	0xbd049f22	-0.032378323
83	0x3dbd9b55	0.09258143
84	0x3d6ac807	0.057319667
85	0x3e3e6833	0.18594436
86	0x3dca95c2	0.09891845
87	0xbd335f08	-0.0437918
88	0x3e36b2c6	0.17841634
89	0xbf120805	-0.57043487
90	0xbe707048	-0.23480332
91	0x3ce4ecd1	0.027944954
92	0xbdbc3bc0	-0.09191084
93	0x3db4d577	0.08829778
94	0x3eb1cd9d	0.34727183
95	0x3c897362	0.016778652
96	0xbcc2a75f	-0.02376145
97	0x3e02df69	0.12780537
98	0xbdce3133	-0.10067978
99	0x3d9ad8c0	0.07560873
100	0xbe77ddba	-0.24205676
101	0xbd52fb64	-0.051509276
102	0xbeb1f9ea	-0.34760982
103	0xbed83cc7	-0.4223387
104	0x3ee06cb9	0.4383295
105	0xbd5c16bb	-0.053732615
106	0xbd2e2a4b	-0.042520802
107	0xbd73896e	-0.059457235
108	0xbd1ce60f	-0.03830534
109	0x3d7a8fd4	0.06117232
110	0x3d4f943c	0.050678477
111	0xbb9a51aa	-0.004709442
112	0xbe2bc45f	-0.16774128
113	0xbe0e388a	-0.13888755
114	0xbe1a39ff	-0.15061186
115	0x3de25f94	0.11053386
116	0xbe206d27	-0.15666638
117	0xbd372814	-0.044715956
118	0x3e823b9a	0.25436097
119	0x3c337208	0.01095248
120	0xbbe99b33	-0.007129097
121	0xbee6b719	-0.45061567
122	0x3e2b81f2	0.16748789
123	0x3db421d1	0.087955125
124	0x3e1b82c8	0.15186608
125	0x3c78872f	0.015168949
126	0xbf00daff	-0.5033416
127	0x3d1b8653	0.0379699
128	0xbdab5b5d	-0.083670355
129	0x3d426ac0	0.047465086
130	0xbe9b568c	-0.30339468
131	0x3cca7dd0	0.024718195
132	0xbd170658	-0.036871284
133	0xbd91a074	-0.07110682
134	0xbe3365ff	-0.17519377
135	0x3e4e66e8	0.20156443
136	0xbd9f4f50	-0.077787995
137	0x3c724682	0.014787318
138	0x3db95657	0.09049671
139	0xbe7f4cf4	-0.24931699
140	0xbe01c432	-0.12672499
141	0xbef4f17d	-0.4784049
142	0xbcf414e9	-0.029795127
143	0xbd7f26e0	-0.062292933
144	0xbd76095c	-0.06006752
145	0x3de76ba4	0.11299828
146	0xbcf31734	-0.02967415
147	0x3e43414c	0.19067878
148	0xbd4d21aa	-0.050080933
149	0x3cf587ea	0.029972035
150	0x3e6681cd	0.22510453
151	0x3e15a016	0.14611849
152	0xbdde078c	-0.10841283
153	0xbe8fb5be	-0.28068346
154	0x3dea9f6f	0.11456191
155	0xbe880403	-0.2656556
156	0xbda33e8e	-0.07970916
157	0x3e91daf3	0.28487357
158	0xbef75b8c	-0.48312032
159	0xbd2279cb	-0.039666932
160	0xbd53be66	-0.05169525
161	0x3ef0b303	0.47011575
162	0xbe746115	-0.23865159
163	0xbccc4732	-0.024936292
164	0xbe22bb1d	-0.1589169
165	0xbda1a87f	-0.07893466
166	0xbe2e5ab2	-0.17026785
167	0x3d134827	0.03595748
168	0xbc388b23	-0.0112636415
169	0xbe93575f	-0.28777596
170	0x3d8b4d08	0.06801802
171	0xbdfe5fc2	-0.12420608
172	0xbda2fb05	-0.079580344
173	0x3dbd4d5b	0.0924327
174	0xbd9ebdbd	-0.077510335
175	0xbd934a75	-0.07191936
176	0x3e63a5f5	0.22231276
177	0x3e8a3d30	0.26999807
178	0xbc14a5c4	-0.009072725
179	0xbd5c429f	-0.053774472
180	0x3c24d4f7	0.01006054
181	0x3c4e057e	0.012574552
182	0xbf011d20	-0.50435066
183	0x3c3992d9	0.011326515
184	0xbe87b1c7	-0.2650282
185	0xbdd24af7	-0.10268205
186	0xbe04b03b	-0.12957852
187	0x3e863096	0.26208943
188	0x3e713e16	0.2355884
189	0xbda65ca3	-0.08123138
190	0x3e1c210e	0.15246984
191	0xbdabc1e7	-0.08386593
192	0x3e4fe277	0.20301233
193	0xbe8b08b8	-0.2715509
194	0xbe65810b	-0.22412507
195	0x3d00b9bf	0.03142714
196	0xbcfbc179	-0.030731903
197	0xbc6c3ee0	-0.014419287
198	0xbe57bddc	-0.2106852
199	0xbea4a87c	-0.32159793
200	0xbd52dd2e	-0.051480465
201	0xbe4c4845	-0.19949444
202	0x3decf829	0.1157077
203	0xbd272428	-0.040805966
204	0x3dc9d0f5	0.098543085
205	0x3e47fcaa	0.19529977
206	0x3dc57c99	0.09642906
207	0x3d57c98f	0.052682456
208	0x3e45b93a	0.1930894
209	0xbb01765c	-0.0019754386
210	0xbde52058	-0.1118781
211	0xbeb6b1e9	-0.3568261
212	0x3e16e1ae	0.14734527
213	0x3ed133b5	0.40859762
214	0x3ea6a43d	0.3254718
215	0xbd7a201f	-0.06106579
216	0x3baa1b9e	0.0051912805
217	0x3b626c8e	0.0034549567
218	0xbd1de267	-0.038545992
219	0xbdfeab56	-0.124350235
220	0xbe237679	-0.15963162
221	0xbe781e35	-0.24230273
222	0xbe44b586	-0.1920987
223	0x3d79048d	0.060795356
224	0xbccd5940	-0.025066972
225	0x3eaab222	0.3333903
226	0xbd60c33c	-0.05487369
227	0x3da84e71	0.082180865
228	0xbc481f97	-0.012214563
229	0xbf04e153	-0.5190632
230	0x3d59866e	0.053106718
231	0xbe38d0b1	-0.1804836
232	0x3da6017f	0.08105754
233	0xbda351dd	-0.079745986
234	0xbd465c3d	-0.04842781
235	0xbe30ef4b	-0.17278783
236	0x3e27c751	0.16384627
237	0x3e763c47	0.24046431
238	0x3d96ee9c	0.0736973
239	0x3d6bd505	0.057576198
240	0xbf407809	-0.7518316
241	0xbe473e96	-0.19457468
242	0xbd0dd3f1	-0.03462595
243	0x3df71740	0.120649815
244	0x3da4b3a6	0.08042078
245	0xbc94363f	-0.018092273
246	0xbc50d81f	-0.01274684
247	0x3d5ffd27	0.054684784
248	0xbdaa3423	-0.083107255
249	0xbd30fc6d	-0.043209482
250	0xbb78f2cc	-0.0037986515
251	0x3e3223d6	0.17396483
252	0x3d4e3a60	0.05034864
253	0xbe598cb6	-0.21245083
254	0xbe46fe8d	-0.19433041
255	0x3d78cf9a	0.06074486

bias f4 [251]
0	0x3e26cc6a	0.16288915
1	0xbc8eb372	-0.01741955
2	0xba06f663	-0.0005148409
3	0x3e2db97d	0.1696529
4	0x3ddf2d90	0.10897362
5	0xbe2df533	-0.16988067
6	0x3e2f11a8	0.17096579
7	0x3d871d44	0.06597379
8	0xbdb318f1	-0.087449916
9	0x3dc10649	0.09425027
10	0xbe1a1ff3	-0.1505125
11	0x3dfb847d	0.122811295
12	0x3e1fdb76	0.15611061
13	0xbe194600	-0.14968109
14	0xbda2e4c0	-0.07953787
15	0x3de87bcb	0.11351737
16	0xbe04bcc3	-0.12962632
17	0xbe09e13f	-0.13464831
18	0x3d68c153	0.056824993
19	0xba3e994b	-0.0007270767
20	0x3df9f3f4	0.122047335
21	0xbdbd394c	-0.09239444
22	0xbc1d365d	-0.009595481
23	0x3def25d9	0.11677141
24	0x3ddfdead	0.10931144
25	0x3c4138eb	0.011793355
26	0x3dbf4f43	0.0934129
27	0x3dc1f929	0.09471352
28	0x3e2d51e8	0.16925776
29	0xbe00bf0c	-0.12572879
30	0xbd9e1297	-0.077183895
31	0xbca0da15	-0.01963524
32	0xbd68c926	-0.056832455
33	0x3dc925df	0.098216765
34	0xbcbf4c72	-0.023351882
35	0x3df58b4f	0.11989462
36	0xbd8858d4	-0.066575676
37	0x3d8351ee	0.06412111
38	0xbc728545	-0.014802282
39	0xbd91c3e0	-0.07117438
40	0xbe1e5947	-0.15463744
41	0xbd838558	-0.06421918
42	0xbe13009c	-0.14355701
43	0x3e2623ae	0.16224548
44	0xbe201527	-0.15633069
45	0x3dad84e4	0.084726125
46	0x3df8b19a	0.1214325
47	0x3db42709	0.08796508
48	0xbe04e107	-0.12976466
49	0x3d58662d	0.052831817
50	0x3dea032d	0.11426387
51	0x3d8889b2	0.06666888
52	0xbdcede9e	-0.101010546
53	0x3df05819	0.11735553
54	0x3e0a26cf	0.13491367
55	0x3da4b3da	0.080421165
56	0xbd63b95a	-0.055596687
57	0x3e2b2ddc	0.16716713
58	0x3d76f02b	0.060287636
59	0x3e2f5df1	0.1712568
60	0xbe151739	-0.1455964
61	0x3c91430b	0.017732164
62	0xbe2452dc	-0.16047233
63	0xbc40ded0	-0.011771873
64	0xbe0ffab9	-0.14060487
65	0xbdcdb5ed	-0.10044465
66	0xbd87df23	-0.06634357
67	0x3e25a2c3	0.1617537
68	0x3e161d32	0.14659575
69	0xbde4fc7e	-0.111809716
70	0xbe1793ab	-0.14802425
71	0x3dc35363	0.09537389
72	0xbb1ffb63	-0.0024411313
73	0xbe00d307	-0.125805
74	0x3e2fc4d8	0.17164934
75	0x3dd314c3	0.10306694
76	0xbcfe4f62	-0.031043712
77	0x3c425f68	0.011863567
78	0xbdf9608b	-0.12176617
79	0x3b2d48f1	0.0026441182
80	0x3e248c72	0.160692
81	0x3e26ac47	0.16276656
82	0xbca7b060	-0.020469844
83	0x3e127ffa	0.14306632
84	0x3c7bce5e	0.015369026
85	0xbd3e4913	-0.046456408
86	0xbe2ef142	-0.1708422
87	0x3c924003	0.017852789
88	0x3dfd72eb	0.123754345
89	0x3d8aede0	0.06783652
90	0x3d914509	0.070932455
91	0x3d84a7da	0.06477328
92	0xbca25719	-0.019816922
93	0xbe0ca651	-0.1373532
94	0xbd83d247	-0.064365916
95	0xbe14f7b4	-0.14547616
96	0xbca18c9d	-0.01972037
97	0x3d1000b2	0.035156913
98	0x3e172111	0.14758708
99	0xbe0a1301	-0.13483812
100	0x3db0c4a6	0.08631258
101	0x3d2cd371	0.042193834
102	0x3d321c6d	0.04348414
103	0x3d0a056e	0.033696584
104	0x3e127edd	0.14306207
105	0xbc6b4f2a	-0.014362136
106	0x3dfda882	0.12385656
107	0x3d2fac56	0.04288896
108	0xbdf5e2ba	-0.12006135
109	0xbe2f07de	-0.17092845
110	0x3d52baa8	0.05144754
111	0x3e1c467a	0.1526126
112	0xbc9dfca0	-0.0192855
113	0x3d493519	0.049122903
114	0xbd1002b3	-0.035158824
115	0xbd8fa652	-0.07014145
116	0xbd8a6b13	-0.06758704
117	0xbe07a6fe	-0.13247296
118	0xbd301d4d	-0.042996693
119	0xbe1faa62	-0.1559234
120	0x3dfddc35	0.12395517
121	0x3e29aad6	0.16569075
122	0x3e2bfe81	0.16796304
123	0x3c5896e3	0.013219568
124	0x3d518289	0.05114988
125	0x3bf478eb	0.0074607036
126	0xbdfcbb0f	-0.12340366
127	0x3d9cb83a	0.07652326
128	0x3e28288b	0.16421716
129	0xbd503a22	-0.05083669
130	0xbd7ffab0	-0.062494934
131	0xbe0f64c4	-0.14003283
132	0x3e0179cd	0.1264412
133	0xbcd407d4	-0.025882639
134	0x3d2c9f78	0.04214427
135	0xbe071404	-0.13191229
136	0x3e0b9a17	0.13633
137	0x3d9e6fd5	0.07736174
138	0x3e09006e	0.1337907
139	0x3d808efd	0.06277273
140	0x3e235236	0.1594933
141	0x3d81f29f	0.063451044
142	0x3b135257	0.0022479498
143	0xbe29430e	-0.16529486
144	0x3e19ea1b	0.1503071
145	0x3d741b3f	0.059596296
146	0x3c28d482	0.010304572
147	0x3e22f0b6	0.15912136
148	0x3cdecea2	0.02719814
149	0xbded3309	-0.11582
150	0xbddeda58	-0.108814895
151	0xbc1d0107	-0.0095827645
152	0x3dbe0a6b	0.09279331
153	0xbd5e143a	-0.05421851
154	0xbe2d254f	-0.16908763
155	0xbc9d5c44	-0.019209035
156	0xbde9067e	-0.113781914
157	0xbe1995b2	-0.1499851
158	0xbe21de52	-0.15807465
159	0xbd81fddb	-0.06347247
160	0xbcaecaf5	-0.021337012
161	0x3d80c6f0	0.06287944
162	0xbd57d829	-0.05269638
163	0xbc7bd936	-0.015371611
164	0xbe10720f	-0.1410601
165	0x3c80e7c7	0.01573552
166	0xbe09108f	-0.13385223
167	0xbdc0e1e5	-0.09418086
168	0xbe0e9899	-0.13925399
169	0x3c85b3d0	0.016321093
170	0xbd86b989	-0.06578357
171	0xbdf393ae	-0.11893402
172	0xbdfbdb01	-0.12297631
173	0x3df3e99d	0.119097926
174	0xbe21f5b5	-0.15816386
175	0x3bf6203f	0.0075111683
176	0xbe36a174	-0.17835027
177	0xbcec88ae	-0.028873768
178	0x3c5a457b	0.0133222295
179	0xbddb726f	-0.10715186
180	0xbdf1746b	-0.11789783
181	0x3dad4c16	0.08461778
182	0xbe135313	-0.14387159
183	0xbe2c8eb6	-0.16851315
184	0xbdc2391a	-0.094835475
185	0x3d7b177b	0.06130169
186	0xbe15b3fa	-0.14619437
187	0xbcc29316	-0.023751777
188	0x3bc5816b	0.0060273907
189	0xbda2ec09	-0.079551764
190	0xbe0128c7	-0.12613212
191	0x3dabefce	0.083953485
192	0x3cfbc168	0.030731872
193	0xba275164	-0.00063826726
194	0x3dbf9d5a	0.09356184
195	0x3da3b84e	0.07994138
196	0xbd325198	-0.043534845
197	0xbe370d9c	-0.17876285
198	0x3d89572d	0.067060806
199	0xbd421c29	-0.047390137
200	0x3e29a8d1	0.16568305
201	0x3d99aa0e	0.075031385
202	0xbe037e6b	-0.12841193
203	0xbd7d78a9	-0.06188265
204	0xbe344855	-0.17605717
205	0x3d23e122	0.040009625
206	0x3d8efb0e	0.06981479
207	0x3e347486	0.17622575
208	0x3e2519a4	0.16123062
209	0x3e1c4989	0.15262426
210	0x3cd5badc	0.026090078
211	0x3e03c1c8	0.1286689
212	0x3dc84aac	0.097798675
213	0x3bfe0f3b	0.0077532805
214	0xbdf56872	-0.11982812
215	0x3e1a6eb4	0.15081292
216	0x3d03c99c	0.03217469
217	0xba1e7cdf	-0.0006045829
218	0x3e2c83aa	0.16847101
219	0xbd4ee314	-0.050509527
220	0xbdeedb31	-0.11662901
221	0x3a4b9c76	0.000776715
222	0x3de36e94	0.111050755
223	0xbe170b72	-0.1475046
224	0x3e343215	0.1759723
225	0x3e0f66f7	0.14004122
226	0x3d10ce17	0.035352793
227	0x3c72f0a1	0.014827878
228	0xbe0f441d	-0.13990827
229	0xbd160151	-0.03662235
230	0x3d4d1bde	0.050075404
231	0xbe186dd7	-0.1488565
232	0xbe2803db	-0.1640772
233	0x3dcecf2e	0.1009811
234	0x3e053cc3	0.1301146
235	0x3de79a2c	0.11308703
236	0xbd3f4fdb	-0.046707015
237	0xbc8ac8e1	-0.01694149
238	0xbcbb10cd	-0.02283516
239	0x3e01fb6a	0.12693563
240	0x3db4de95	0.08831517
241	0x3d45fa4c	0.048334405
242	0xbd8117c8	-0.06303364
243	0x3e1d884d	0.15384026
244	0xbe0570e0	-0.1303134
245	0xbe0c19ce	-0.13681719
246	0xbd66ff62	-0.056395896
247	0x3d0d3c93	0.034481596
248	0x3da02138	0.07818836
249	0xbe2ae7a6	-0.1668993
250	0x3d969b1d	0.07353804

weight f4 [251]
0	0x3f820de5	1.016049
1	0x3f860a2c	1.0471854
2	0x3f1392bd	0.5764578
3	0x3ef4771d	0.47747126
4	0x3e3a1aab	0.18174236
5	0x3f3b7326	0.7322258
6	0x3f34fbc9	0.70696694
7	0x3f581037	0.8439974
8	0x3f69292c	0.9107845
9	0x3f44863c	0.76767325
10	0x3ddeada5	0.10872964
11	0x3f36a103	0.71339434
12	0x3e5a6199	0.21326293
13	0x3e42c46c	0.19020241
14	0x3e2a11f7	0.16608416
15	0x3f7d5f85	0.98973876
16	0x3e9b4ee2	0.3033362
17	0x3efa008a	0.48828536
18	0x3f59ad89	0.8503042
19	0x3ea4e61e	0.32206815
20	0x3f6b6530	0.91951275
21	0x3e1f8438	0.15577781
22	0x3f199cd3	0.6000492
23	0x3ef19629	0.47184876
24	0x3dc51d0b	0.0962468
25	0x3e823918	0.25434184
26	0x3e19b15d	0.15009065
27	0x3e1d8ccb	0.1538574
28	0x3f164815	0.5870374
29	0x3f678b19	0.9044662
30	0x3e67d694	0.22640449
31	0x3ee75bd1	0.45187238
32	0x3e0f74ac	0.1400935
33	0x3f121604	0.57064843
34	0x3f56ec2f	0.8395414
35	0x3f022161	0.5083218
36	0x3e57c78b	0.21072213
37	0x3f889ab4	1.0672212
38	0x3f547c7a	0.83002436
39	0x3f453362	0.7703153
40	0x3f31bf0a	0.6943213
41	0x3e1b82a4	0.15186554
42	0x3ecee7a3	0.404111
43	0x3f5224db	0.82087487
44	0x3e04daed	0.12974139
45	0x3da998ee	0.08281122
46	0x3ed4aaa3	0.41536435
47	0x3f3729ff	0.71548456
48	0x3e219404	0.1577912
49	0x3f1c2bf6	0.6100458
50	0x3f2d0ba8	0.6759591
51	0x3f6a9b67	0.91643375
52	0x3f3efd14	0.74604917
53	0x3ead8f58	0.33898425
54	0x3f1925f6	0.5982355
55	0x3efdd799	0.4957855
56	0x3f665d47	0.8998608
57	0x3f728325	0.9473136
58	0x3f48a46f	0.78375906
59	0x3e2e7321	0.17036106
60	0x3f2c7b27	0.67375416
61	0x3ee5cd22	0.44883066
62	0x3ee9c7bf	0.45660207
63	0x3e1ffeaf	0.15624498
64	0x3eddfd2a	0.4335721
65	0x3eddc09f	0.4331102
66	0x3f3394c5	0.7014888
67	0x3f19b078	0.60034895
68	0x3f269cd5	0.65083057
69	0x3efba4f3	0.49149284
70	0x3e1fc4d5	0.15602429
71	0x3eafb903	0.3432084
72	0x3f0e1e0a	0.55514586
73	0x3e843af6	0.25826234
74	0x3f15e267	0.5854859
75	0x3f52c8e3	0.8233778
76	0x3ee4ec01	0.44711307
77	0x3ecf328f	0.4046826
78	0x3f1b2451	0.6060229
79	0x3f1d2e6e	0.6139897
80	0x3e296357	0.16541801
81	0x3f3051cb	0.68874806
82	0x3f03d1a2	0.5149175
83	0x3e022817	0.12710606
84	0x3f81e7c2	1.0148852
85	0x3f6581df	0.8965129
86	0x3f178470	0.5918646
87	0x3f17d4ca	0.59309065
88	0x3e5f2005	0.21789558
89	0x3f0e633d	0.55620176
90	0x3e48364f	0.19551967
91	0x3f5b239f	0.8560123
92	0x3e5569a8	0.20841086
93	0x3ec27f34	0.37987673
94	0x3e1d809f	0.15381096
95	0x3f2e8fba	0.6818806
96	0x3f928f8d	1.1450058
97	0x3e8ec4b4	0.27884448
98	0x3f004432	0.5010406
99	0x3f3d3479	0.7390819
100	0x3df1d0e3	0.1180742
101	0x3f5903e6	0.84771574
102	0x3de9dc03	0.11418917
103	0x3f77d370	0.96807003
104	0x3f1ade39	0.60495335
105	0x3f5772c2	0.8415948
106	0x3f3e2f9c	0.74291396
107	0x3f09068b	0.5352561
108	0x3f3dffb7	0.74218315
109	0x3e50d6b3	0.20394401
110	0x3f036fcc	0.51342463
111	0x3ecfafa2	0.40563685
112	0x3f103e96	0.563455
113	0x3f6a42a9	0.91507965
114	0x3f51d773	0.81969374
115	0x3f2929bc	0.66079307
116	0x3f29197b	0.66054505
117	0x3f2cb408	0.67462206
118	0x3f58d626	0.84701765
119	0x3e72e39a	0.23719636
120	0x3f0f3708	0.55943346
121	0x3f0f9475	0.560859
122	0x3f068794	0.52550626
123	0x3e3cc54b	0.18434636
124	0x3f2b1f87	0.6684498
125	0x3ed04363	0.40676412
126	0x3f6eee9e	0.9333285
127	0x3f391b9b	0.7230775
128	0x3f382f4a	0.7194716
129	0x3e760366	0.24024734
130	0x3f39ce1d	0.7258013
131	0x3e3bc165	0.18335493
132	0x3f3aacb4	0.72919774
133	0x3e6e8412	0.23292568
134	0x3f49774a	0.78697646
135	0x3f83fb5b	1.0311083
136	0x3f2e6e3d	0.6813696
137	0x3de49280	0.11160755
138	0x3f637d60	0.8886318
139	0x3da01d21	0.07818056
140	0x3f3ac212	0.7295238
141	0x3f4cccf4	0.80000234
142	0x3f393020	0.7233906
143	0x3ea377c4	0.3192731
144	0x3f5a4f1c	0.8527696
145	0x3f3d68fe	0.7398833
146	0x3e8dac22	0.2767039
147	0x3e09f3ac	0.1347186
148	0x3e5695b9	0.20955552
149	0x3f066525	0.52498084
150	0x3ed96b24	0.42464554
151	0x3f3da4fe	0.74079883
152	0x3f4e7a6a	0.8065554
153	0x3f495247	0.7864117
154	0x3effa084	0.4992715
155	0x3e2cb832	0.1686714
156	0x3e492337	0.1964234
157	0x3e5ed8af	0.21762346
158	0x3f5b3868	0.85632944
159	0x3e45e71d	0.19326444
160	0x3e22fe13	0.15917234
161	0x3dc72021	0.09722925
162	0x3f0a941c	0.54132247
163	0x3e02d082	0.12774852
164	0x3f594dcd	0.8488434
165	0x3f75fb9b	0.96087044
166	0x3f3bc23e	0.73343265
167	0x3e6f684a	0.23379627
168	0x3f4aa1e3	0.7915327
169	0x3e2c3be8	0.16819727
170	0x3ecd9314	0.40151274
171	0x3f257586	0.6463245
172	0x3ec37e31	0.38182214
173	0x3f812e91	1.0092336
174	0x3e4cd66c	0.2000367
175	0x3f53be5d	0.82712346
176	0x3dc458d0	0.09587252
177	0x3e3fd715	0.18734391
178	0x3f4eef38	0.8083377
179	0x3edcccb9	0.4312494
180	0x3f822671	1.0167981
181	0x3f2d21ca	0.67629683
182	0x3ee5bcec	0.44870698
183	0x3e2d527d	0.16925998
184	0x3eb4be3c	0.35301387
185	0x3efa560a	0.48893768
186	0x3f1b3a55	0.6063588
187	0x3ee278fc	0.4423293
188	0x3f06ad95	0.52608615
189	0x3deb82a7	0.11499529
190	0x3eea06bc	0.45708263
191	0x3ea541c0	0.32276726
192	0x3e3fafd5	0.18719418
193	0x3f799ba2	0.975031
194	0x3f393fbd	0.7236288
195	0x3f5e7378	0.8689494
196	0x3f3d6cae	0.7399396
197	0x3e4fa9f4	0.20279676
198	0x3ebaeb74	0.3650776
199	0x3f1606ea	0.586043
200	0x3d4ea109	0.050446544
201	0x3f2231a7	0.63357013
202	0x3e194ac1	0.14969923
203	0x3e18b1dc	0.14911598
204	0x3e2a94f3	0.16658382
205	0x3e134333	0.14381103
206	0x3f046eaf	0.5173139
207	0x3ef50e4c	0.4786247
208	0x3f45814c	0.77150416
209	0x3f19bd5f	0.6005458
210	0x3f568e47	0.8381085
211	0x3f650c23	0.89471644
212	0x3f3c2829	0.7349878
213	0x3f4f4154	0.8095906
214	0x3dc0fd1c	0.09423277
215	0x3f7fd858	0.9993949
216	0x3ec78ec2	0.38976103
217	0x3f662671	0.89902407
218	0x3f2f7927	0.6854424
219	0x3e44f0a9	0.1923243
220	0x3f5c633d	0.86088926
221	0x3ed90c33	0.4239212
222	0x3f6e4937	0.93080467
223	0x3ef3a38f	0.47585723
224	0x3f37dc3c	0.71820426
225	0x3f281a2c	0.65664935
226	0x3f25c009	0.6474615
227	0x3ecf5f42	0.40502363
228	0x3f8824fa	1.0636284
229	0x3f2eb39d	0.6824282
230	0x3f54940d	0.8303841
231	0x3f62b0b3	0.8855087
232	0x3e13bbc3	0.14427094
233	0x3f150af7	0.58219856
234	0x3f5061a0	0.81398964
235	0x3e7c76bd	0.2465467
236	0x3f86515e	1.0493581
237	0x3de995ac	0.11405501
238	0x3f007344	0.5017588
239	0x3f3a5d1c	0.72798324
240	0x3f36885b	0.7130181
241	0x3f61fc73	0.8827583
242	0x3f13cc97	0.57734054
243	0x3edaa478	0.42703605
244	0x3e19ead2	0.15030983
245	0x3f19f924	0.60145783
246	0x3f71d095	0.94458896
247	0x3ec32d62	0.38120562
248	0x3e0883a7	0.13331471
249	0x3e4cacc3	0.19987778
250	0x3f1ccb01	0.6124726

bias f4 [251]
0	0x3fdf7bb3	1.7459625
1	0x4080dff9	4.0273404
2	0x4030e0c1	2.763718
3	0x4025eab5	2.5924504
4	0x401e9396	2.477758
5	0x4052b6b3	3.292401
6	0x404c4608	3.1917744
7	0x405cdab0	3.4508476
8	0x40520382	3.281464
9	0x404558a4	3.0835352
10	0x40067ff0	2.1015587
11	0x4043f720	3.0619583
12	0x40187307	2.3820207
13	0x4020e08c	2.5137053
14	0x400fb52a	2.2454324
15	0x40662df8	3.5965557
16	0x40258068	2.5859623
17	0x403dc096	2.9648795
18	0x406f5437	3.739515
19	0x4028051a	2.6253114
20	0x40638503	3.5549934
21	0x4014bc91	2.3240092
22	0x4038051c	2.8753119
23	0x4029f96c	2.6558485
24	0x40125503	2.2864387
25	0x402e2b29	2.7213843
26	0x400ddc6d	2.2165787
27	0x401427eb	2.3149364
28	0x403d0f94	2.9540758
29	0x405a371f	3.4096143
30	0x401760c3	2.3652809
31	0x401f8d63	2.4930046
32	0x4017dd32	2.3728757
33	0x403bde28	2.9354343
34	0x40589ec9	3.3846915
35	0x40350700	2.8285522
36	0x4010a61b	2.2601383
37	0x4080672c	4.012594
38	0x404c5992	3.192967
39	0x404dcd10	3.215641
40	0x40357af9	2.8356307
41	0x40108a7e	2.258453
42	0x401efb7d	2.4840996
43	0x406df16a	3.7178597
44	0x400ddb38	2.216505
45	0x40189342	2.383988
46	0x402b8adb	2.68035
47	0x4049b793	3.1518295
48	0x401bc552	2.4339185
49	0x402fb43a	2.7453752
50	0x404286ab	3.0394695
51	0x407080fc	3.7578726
52	0x4042537d	3.0363457
53	0x4022ab12	2.5416913
54	0x40399eb5	2.9003117
55	0x40331a01	2.7984622
56	0x405a2180	3.4082947
57	0x406ce4db	3.7014682
58	0x405a36ea	3.4096017
59	0x401fd9c9	2.4976676
60	0x4048914b	3.133868
61	0x403475bd	2.8196862
62	0x40166a7f	2.35025
63	0x40139f00	2.3065796
64	0x403ad0d1	2.9189951
65	0x4028ee6f	2.6395528
66	0x4051adc1	3.27623
67	0x403313cc	2.7980833
68	0x403b844f	2.9299505
69	0x401d8ba8	2.461649
70	0x400fa5be	2.244491
71	0x401d3cd4	2.4568377
72	0x4023eefe	2.561462
73	0x4020349d	2.5032113
74	0x40311e08	2.767458
75	0x40592e86	3.3934646
76	0x403123ef	2.7678182
77	0x404a24d5	3.158498
78	0x40487344	3.1320353
79	0x403c87c6	2.945787
80	0x4011240c	2.2678251
81	0x403ac04f	2.9179876
82	0x40377289	2.8663657
83	0x4015fcf4	2.343564
84	0x40785e5e	3.8807597
85	0x404eb96a	3.2300668
86	0x403d3bf5	2.9567845
87	0x402cd9ed	2.7008011
88	0x401a0968	2.406824
89	0x40388770	2.8832664
90	0x401d9349	2.4621146
91	0x405abfb1	3.41795
92	0x401cb4d9	2.448538
93	0x401ca7d7	2.4477441
94	0x40133799	2.3002684
95	0x40435910	3.052311
96	0x4069cd0b	3.6531398
97	0x402005ac	2.5003462
98	0x4038acd3	2.8855484
99	0x404c1016	3.1884818
100	0x4017961c	2.368537
101	0x4052fe5e	3.2967753
102	0x401c6a88	2.4440022
103	0x4067f385	3.6242383
104	0x403aa00a	2.916018
105	0x404f08b5	3.2349064
106	0x40503d49	3.2537405
107	0x40247ffd	2.5703118
108	0x4045812b	3.0860088
109	0x401c1296	2.4386344
110	0x403dd986	2.9664016
111	0x402b368e	2.6752048
112	0x403e01eb	2.968867
113	0x406846ef	3.6293294
114	0x4066057d	3.594085
115	0x40458f0c	3.086856
116	0x403b558f	2.927097
117	0x4046dc01	3.107178
118	0x40740853	3.813008
119	0x40411655	3.016988
120	0x40462aea	3.0963693
121	0x4040dbcc	3.0134153
122	0x40318dd9	2.7742827
123	0x4011ede8	2.2801456
124	0x404c808f	3.1953466
125	0x4031259c	2.7679205
126	0x405e9cee	3.4783282
127	0x406089dc	3.5084143
128	0x404c56b2	3.1927915
129	0x402a583d	2.6616356
130	0x404c1fb1	3.1894343
131	0x40187a46	2.382463
132	0x4042a04e	3.0410342
133	0x401b2222	2.4239583
134	0x405a6ece	3.413013
135	0x406af53f	3.6712186
136	0x403c600c	2.9433622
137	0x4012e75b	2.2953708
138	0x4057167f	3.360748
139	0x400ac5a9	2.1683142
140	0x403e1dc9	2.970568
141	0x4048f84b	3.1401546
142	0x4051816f	3.273525
143	0x4019fd70	2.4060936
144	0x4057eff6	3.374021
145	0x404626da	3.0961213
146	0x40103f2b	2.2538555
147	0x40171c94	2.3611193
148	0x40237fe4	2.5546808
149	0x403fad1e	2.9949412
150	0x4023be8a	2.5585046
151	0x403f076e	2.9848285
152	0x405c5eac	3.4432783
153	0x4057bb0d	3.3707917
154	0x4024cdf6	2.5750709
155	0x40146a1b	2.3189762
156	0x400fc8ae	2.2466235
157	0x401b1c3b	2.423598
158	0x4041a7de	3.0258708
159	0x4012eb23	2.2956016
160	0x400df9f2	2.2183805
161	0x40126dea	2.2879586
162	0x40333e43	2.8006752
163	0x40188918	2.3833675
164	0x40662d60	3.5965195
165	0x4083f55a	4.1237
166	0x40510cbd	3.2664025
167	0x402144ef	2.5198324
168	0x405cc79c	3.4496832
169	0x4013647f	2.3030088
170	0x402b99bc	2.6812582
171	0x40598c76	3.399198
172	0x4035a252	2.8380322
173	0x40694de8	3.64538
174	0x401a39ac	2.40977
175	0x405a8649	3.414446
176	0x400c5a2e	2.1930041
177	0x40198bb6	2.3991523
178	0x4050d1da	3.2628083
179	0x401cc59b	2.4495609
180	0x40742f64	3.8153925
181	0x403a1bdc	2.9079504
182	0x40194564	2.3948603
183	0x40154720	2.3324661
184	0x402e4ea2	2.7235494
185	0x4033e57e	2.810882
186	0x4021510b	2.5205715
187	0x4021902d	2.5244248
188	0x4046051c	3.0940619
189	0x400cb95c	2.1988134
190	0x402809e6	2.6256042
191	0x402dbe32	2.7147336
192	0x401c4a28	2.4420261
193	0x407644e5	3.847955
194	0x403f7c45	2.9919598
195	0x4059a47d	3.4006646
196	0x4048863c	3.133193
197	0x401f080a	2.4848657
198	0x40256a1e	2.5846019
199	0x403ecb7a	2.9811692
200	0x400b2333	2.1740234
201	0x40367eeb	2.8514965
202	0x400670e5	2.1006405
203	0x40135394	2.3019762
204	0x4008cdb5	2.1375554
205	0x4011d80e	2.278812
206	0x401e6df4	2.475461
207	0x40201910	2.5015297
208	0x4050b2ba	3.2609086
209	0x40548405	3.3205578
210	0x4059e9ba	3.4048905
211	0x405c907c	3.4463186
212	0x40555c22	3.3337483
213	0x40562845	3.3462079
214	0x400f8db7	2.2430246
215	0x407d430c	3.9572172
216	0x4033a44d	2.8069031
217	0x40777e03	3.8670661
218	0x40509d2d	3.2595932
219	0x4019a610	2.4007607
220	0x406b1c00	3.673584
221	0x40226e11	2.537968
222	0x407568ee	3.8345294
223	0x40397fdf	2.8984296
224	0x404d5507	3.2083147
225	0x40424241	3.0352938
226	0x404ff065	3.2490475
227	0x401bc409	2.43384
228	0x4084ebc3	4.1537795
229	0x402ddc1d	2.7165596
230	0x40433443	3.0500648
231	0x40604d00	3.5046997
232	0x400610e7	2.0947816
233	0x403568fe	2.8345332
234	0x406277af	3.538555
235	0x40183a12	2.3785443
236	0x40793d02	3.8943486
237	0x4009d6b9	2.1537306
238	0x401b8af6	2.4303565
239	0x4053a6d7	3.307058
240	0x40437694	3.0541124
241	0x405b8207	3.4298112
242	0x403ada8f	2.9195898
243	0x402e031c	2.7189398
244	0x4016e3ad	2.3576462
245	0x403ae4f0	2.9202232
246	0x407103d7	3.7658594
247	0x401b0107	2.4219377
248	0x401335d1	2.3001597
249	0x40169daf	2.3533742
250	0x4029f738	2.655714
