EXP8_dump/bottleneck_model_Dense.pth (torch, 77664 bytes, 19 tensors)

weight f4 [30, 251]
0	0xbd24e021	-0.04025281
1	0x3c8e4a07	0.017369283
2	0x3e1e58fa	0.1546363
3	0x3ec1a0b8	0.3781793
4	0xbdadad71	-0.08480347
5	0xbbba4dae	-0.0056855297
6	0x3cfbdf2b	0.030746063
7	0x3be5fe50	0.007018842
8	0x3de3d877	0.11125272
9	0xbb1015c7	-0.0021985637
10	0x3dcc66a3	0.09980514
11	0xbd2cd1ed	-0.04219239
12	0x3ced6955	0.02898089
13	0x3cf85121	0.030312123
14	0xbd0853b8	-0.033282965
15	0x3d4d7733	0.050162505
16	0x3d5b74e9	0.05357829
17	0xbc5eecdb	-0.013606275
18	0x3e10698d	0.14102764
19	0xbaafbc2d	-0.0013407521
20	0xbd032808	-0.0320206
21	0xbe1dbd5e	-0.15404269
22	0xbd2d6085	-0.042328376
23	0x3cae38eb	0.021267375
24	0x3d3d55fd	0.046224583
25	0x3d3d5419	0.04622278
26	0x3c66927b	0.01407301
27	0xbc06bbf1	-0.00822352
28	0xbce3d903	-0.02781344
29	0xbd8fe8c5	-0.07026819
30	0x3d2dc0e4	0.042420283
31	0x3e70cc49	0.23515429
32	0xbe1c9852	-0.1529248
33	0x3db0ce05	0.08633045
34	0x3db49b65	0.08818702
35	0x3e2eeca1	0.17082454
36	0x3c74bd45	0.0149377035
37	0x3dfe407a	0.12414642
38	0x3e288e46	0.16460523
39	0x3e400642	0.18752387
40	0x3e7196d9	0.235927
41	0xbe98b38c	-0.29824483
42	0xbdfaea25	-0.12251691
43	0xbc3b6f23	-0.011440071
44	0xbe27c8a5	-0.16385134
45	0xbe797713	-0.2436183
46	0x3d666959	0.05625281
47	0xbd682b5a	-0.05668197
48	0xbc045b8f	-0.00807847
49	0xbe28a691	-0.1646979
50	0x3d1b95b6	0.037984572
51	0x3d5b5621	0.053548936
52	0xbe0b5239	-0.13605584
53	0x3debe581	0.11518384
54	0x3eeab548	0.45841432
55	0xbc1d5c93	-0.009604591
56	0xbba6d1c6	-0.005090925
57	0x3e2d2362	0.16908029
58	0xbe2d0aab	-0.16898601
59	0x3d0a0193	0.033692908
60	0xbd03e47d	-0.032200325
61	0xbcdbaf3d	-0.026816959
62	0xbe2091ce	-0.1568062
63	0x3dd972e7	0.10617619
64	0x3c022453	0.007943231
65	0xbe367c4b	-0.17820852
66	0xbe14f032	-0.14544752
67	0xbd97c89d	-0.07411311
68	0x3b2762e1	0.0025541114
69	0x3e0d11e7	0.1377636
70	0x3deb4061	0.11486889
71	0x3efbd244	0.49183857
72	0xbd79daf4	-0.060999826
73	0xbdc319ff	-0.09526443
74	0x3dd39c81	0.10332585
75	0xbd3b6f29	-0.045760307
76	0x3d2d72dc	0.042345867
77	0xbe1ad62a	-0.1512076
78	0x3bdd5bba	0.0067553194
79	0x3bc9f8dc	0.0061636996
80	0x3dbc0677	0.091809206
81	0x3e1c80f6	0.1528357
82	0x3d83b300	0.06430626
83	0x3c7d45e1	0.015458555
84	0xbcf5911b	-0.029976418
85	0x3db58457	0.088631324
86	0xbe465e30	-0.19371867
87	0xbe2c5f2e	-0.16833183
88	0x3d25f026	0.040512227
89	0x3da417ff	0.080123894
90	0x3d418757	0.04724821
91	0xbe812d10	-0.25229692
92	0x3d8793c5	0.06619982
93	0xbe707afc	-0.23484415
94	0x3e10e1d1	0.14148642
95	0xbb7d5d56	-0.003866037
96	0xbcfb5b7f	-0.030683277
97	0xbdb71733	-0.08939972
98	0x3ed54e59	0.41661337
99	0xbca1bace	-0.019742396
100	0xbd3a0ca5	-0.045422215
101	0x3e17b236	0.14814076
102	0xbe90d1ac	-0.28284967
103	0xbd9a7d91	-0.07543481
104	0xbd9beeeb	-0.07613929
105	0x3d247003	0.040145885
106	0xbe26354b	-0.16231267
107	0x3be111b6	0.0068685664
108	0xbbd0bc9e	-0.006370141
109	0x3d4e9cff	0.050442692
110	0x3c84cb0f	0.016210107
111	0x3d941310	0.072301984
112	0x3cf7acb7	0.030233724
113	0x3e320c69	0.17387547
114	0xbcf2e901	-0.02965212
115	0x3cee3e15	0.029082337
116	0x3daf89af	0.08571183
117	0x3e9f3b88	0.31100106
118	0xbd54360f	-0.051809367
119	0x3d9c57a5	0.07633904
120	0xbe103edc	-0.14086479
121	0xbdf67ec2	-0.12035896
122	0x3c2801fb	0.010254378
123	0xbdfcda9b	-0.12346383
124	0x3db377bd	0.08763073
125	0xbc7130a1	-0.014721067
126	0x3ea252cd	0.31703797
127	0x3e2d3f5b	0.169187
128	0x3e21e572	0.15810183
129	0xbdb43db7	-0.08800834
130	0x3e82836b	0.2549089
131	0xbd425849	-0.047447477
132	0xbc7dcd8d	-0.015490902
133	0x3c8cee1b	0.017203381
134	0xbc9f3248	-0.019433156
135	0xbd149013	-0.036270212
136	0x3c29d3c9	0.010365435
137	0xbe6ec01e	-0.23315474
138	0xbb10e4e5	-0.0022109088
139	0x3e72e557	0.23720299
140	0xbeaed2de	-0.34145254
141	0x3d459753	0.048240017
142	0xbd19bf75	-0.037536103
143	0x3dbfe891	0.093705304
144	0x3d0bc584	0.034123912
145	0x3e7e76e1	0.24850036
146	0x3d8860f5	0.06659118
147	0x3d4cbe77	0.04998633
148	0xbe8ba110	-0.27271318
149	0x3d3d43bf	0.046207186
150	0x3ce170cd	0.027519608
151	0x3d5d5e79	0.054045174
152	0x3e093cdb	0.13402121
153	0x3cea2158	0.028580353
154	0x3e465205	0.19367225
155	0x3d115b65	0.03548755
156	0xbcd9cb0f	-0.026586084
157	0x3cd83671	0.026393147
158	0x3d35485b	0.044258457
159	0xbc77a523	-0.015115055
160	0xbe3269e0	-0.174232
161	0x3e23f614	0.1601184
162	0xbdeaadb4	-0.114589125
163	0xbd818157	-0.06323498
164	0xbd05d3f2	-0.03267283
165	0xbedbcf4e	-0.42931598
166	0x3c52d513	0.012868184
167	0xba2e8815	-0.0006657851
168	0xbdae5345	-0.08511976
169	0x3dc1d36f	0.09464156
170	0x3e074d22	0.13213018
171	0x3d22f1a3	0.039781224
172	0x3d07ceed	0.033156324
173	0xbcc281c1	-0.023743512
174	0x3e800078	0.25000358
175	0x3d43532b	0.047686737
176	0xbec30278	-0.3808782
177	0xbd8a404d	-0.06750546
178	0xbdae9d29	-0.0852607
179	0x3dea9883	0.114548706
180	0xbd17b381	-0.037036423
181	0x3df81558	0.12113446
182	0x3e0190cd	0.12652893
183	0xbb6bbdf3	-0.0035971373
184	0xbdd6dea1	-0.10491682
185	0x3daa91d7	0.08328598
186	0x3d0df0ca	0.034653462
187	0xbe1ef497	-0.15522991
188	0x3cab3f45	0.020904193
189	0x3d0b24e3	0.033970725
190	0x3e5eece4	0.21770054
191	0x3d379d27	0.044827607
192	0xbe62177e	-0.22079274
193	0x3d23bc01	0.039974216
194	0xbdb0bbdb	-0.086295806
195	0x3e01b4f3	0.12666683
196	0xbe27bb9a	-0.16380158
197	0x3d94d6c6	0.07267527
198	0xbda95a49	-0.08269174
199	0x3d5b7975	0.053582627
200	0xbcb11f2b	-0.021621307
201	0x3d36232d	0.04446714
202	0x3d30dbcf	0.043178376
203	0x3d575db9	0.052579615
204	0x3c49a0b7	0.012306384
205	0x3d163d9c	0.03667985
206	0xbd2afe65	-0.041746516
207	0xbc510115	-0.012756606
208	0xbdee4da3	-0.11635902
209	0x3dfc8590	0.123301625
210	0xbe96b734	-0.29436648
211	0xbb669a19	-0.0035187064
212	0x3d8b110f	0.06790363
213	0xbb986790	-0.0046510175
214	0x3dacdf9d	0.08441088
215	0x3d9c7011	0.076385625
216	0x3e24ef42	0.16106895
217	0x3d17fed4	0.037108257
218	0xbc99164a	-0.018687386
219	0xbcbe5449	-0.02323355
220	0x3e1e23a0	0.15443277
221	0x3d77b4b8	0.06047508
222	0xbe998955	-0.2998759
223	0xbd4df1f1	-0.05027956
224	0x3d84a761	0.064772375
225	0xbd479e7b	-0.048735123
226	0xbe072be5	-0.13200338
227	0xbc7728b1	-0.015085385
228	0xbc675151	-0.014118508
229	0xbe62674f	-0.22109722
230	0x3de7e9ff	0.11323928
231	0xbd5dcb57	-0.054148998
232	0x3e8edecb	0.27904353
233	0x3df037e7	0.117294125
234	0x3da76e73	0.081753634
235	0xbdeda868	-0.116043866
236	0x3d599d59	0.053128574
237	0x3dccc3fd	0.09998319
238	0xbcfc4ed4	-0.030799307
239	0x3d765827	0.060142662
240	0xbe866390	-0.26247835
241	0x3d4d893f	0.050179716
242	0x3e563556	0.20918784
243	0x3cd06bf3	0.0254421
244	0x3ced68f5	0.028980711
245	0x3d91adcf	0.071132295
246	0x3d57e0b3	0.052704524
247	0x3ea5bf8b	0.32372698
248	0xbcc6b955	-0.024258295
249	0x3de3d4fb	0.11124607
250	0x3ad67aff	0.001636356
251	0x3c2f0bc0	0.010683954
252	0x3e866dcb	0.2625564
253	0xbce3abc8	-0.027791873
254	0xbdb65955	-0.089037575
255	0xbcb997a8	-0.022655323

bias f4 [30]
0	0x3d7001ed	0.058595587
1	0x3a74a8d3	0.0009333018
2	0x3aede5ec	0.0018150187
3	0x3d47236b	0.04861776
4	0x3cb197f4	0.021678902
5	0x3d79fd6b	0.061032694
6	0x3d138562	0.036015876
7	0x3d596019	0.05307016
8	0xbd0ca0b6	-0.034332953
9	0x3d382af0	0.044962823
10	0x3d167f24	0.036742344
11	0x3d4a68d9	0.049416397
12	0x3cd47ae5	0.025937507
13	0x3ca5cad0	0.02023831
14	0x3d10543c	0.035236582
15	0xbd7fc44b	-0.06244306
16	0xbc910a5a	-0.017705131
17	0xbd993a20	-0.074817896
18	0xbd0d57ef	-0.034507688
19	0x3c784b7c	0.015154716
20	0x3d30a9ef	0.04313081
21	0xbd4f4593	-0.05060346
22	0x3c842ac9	0.016133683
23	0x3d5feae7	0.05466738
24	0xbc5f994c	-0.013647389
25	0x3c65b3eb	0.014019947
26	0xbc0f59f6	-0.008749476
27	0x3bfde99c	0.0077487957
28	0xbd82a774	-0.063795954
29	0xbd270aec	-0.0407819

weight f4 [30]
0	0xb79ac0be	-1.8447983e-05
1	0x37150b75	8.88376e-06
2	0xb8c1f532	-9.248628e-05
3	0x3d9b0b5c	0.07570526
4	0x38e5737e	0.00010941083
5	0x35b7c3de	1.3691567e-06
6	0xb7031c71	-7.8148305e-06
7	0x37252270	9.8427845e-06
8	0x3d8509ee	0.064960346
9	0x3deece08	0.11660391
10	0x3e0a957e	0.13533589
11	0x3d9b1e0d	0.07574091
12	0xba0659a8	-0.0005125054
13	0xb529f320	-6.33112e-07
14	0x36c447e6	5.8496253e-06
15	0x3e670cb6	0.22563443
16	0x3dfef2e0	0.124486685
17	0xb850fdd3	-4.9827457e-05
18	0x3de0a4cf	0.10968935
19	0x35e54c81	1.7084095e-06
20	0x3dca1af4	0.09868422
21	0x3da40bdc	0.080100745
22	0x354e58f9	7.687045e-07
23	0x3ef21bd6	0.47286862
24	0x37099be8	8.202136e-06
25	0xb76883fc	-1.3859008e-05
26	0x3edd9179	0.4327505
27	0x3e81e1e6	0.2536766
28	0x3dd6b20f	0.10483181
29	0xb883e375	-6.288934e-05

bias f4 [30]
0	0x3f0a9e60	0.5414791
1	0x3e662082	0.22473338
2	0x3f24428e	0.64164054
3	0x3faef0ba	1.3667214
4	0x3f362e0d	0.7116402
5	0x3f38b22f	0.72146887
6	0x3f0c38c9	0.5477415
7	0x3f1fbb0e	0.623948
8	0x3f7fd4cd	0.99934083
9	0x3f810537	1.0079716
10	0x3f3ee805	0.74572784
11	0x3f1c138c	0.60967326
12	0x3f057792	0.52135575
13	0x3f0b082d	0.5430935
14	0x3f1a8624	0.6036093
15	0x3e9f375a	0.31096917
16	0xbea057b3	-0.3131691
17	0x3f04f522	0.51936543
18	0x3f77beb3	0.9677536
19	0x3f18a3a8	0.5962472
20	0x3f7dace0	0.9909191
21	0x3f520303	0.82035846
22	0x3eb8c70b	0.36089358
23	0xbf8e99a5	-1.1140639
24	0x3f2a489a	0.6651703
25	0x3f2707bd	0.6524618
26	0xbf5b6191	-0.8569575
27	0x3f76bac2	0.9637872
28	0x3f26c665	0.65146476
29	0x3f34f4dd	0.7068613

running_mean f4 [30]
0	0x40565c76	3.3493934
1	0x409a173e	4.815337
2	0x40465eaa	3.0995278
3	0x41f7e182	30.985111
4	0x4116ad20	9.417267
5	0x4160ee94	14.058247
6	0x4197c42e	18.97079
7	0x415f1617	13.942893
8	0x41f61c1e	30.76373
9	0x41ab937c	21.447014
10	0x41055b75	8.334828
11	0x417f8f3d	15.97247
12	0x40a73346	5.225009
13	0x4136ca82	11.42444
14	0x4098d568	4.7760506
15	0x41680246	14.500555
16	0x419f909e	19.945614
17	0x408b86a6	4.3601866
18	0x41aa6e58	21.303879
19	0x40ed8908	7.4229774
20	0x41e1c1b8	28.21959
21	0x410f2a84	8.94788
22	0x40f2b2f4	7.584345
23	0xc21e7b5a	-39.62046
24	0x410ed9d2	8.928179
25	0x4192e8b6	18.363628
26	0x41fae6d3	31.362707
27	0x4198077d	19.003656
28	0x41413127	12.0745
29	0x41562986	13.385138

running_var f4 [30]
0	0x2b1049e4	5.126162e-13
1	0x2da25318	1.8454169e-11
2	0x2bc866a0	1.4239339e-12
3	0x2f3adf46	1.6995924e-10
4	0x2d1049dc	8.201852e-12
5	0x2e8041a6	5.8324276e-11
6	0x2d8041b0	1.4581086e-11
7	0x2f1049dc	1.3122964e-10
8	0x3033339a	6.519315e-10
9	0x2eba4b51	8.4716796e-11
10	0x2dd9a596	2.4743579e-11
11	0x2c21bd4f	2.2984563e-12
12	0x2b6dadcb	8.44405e-13
13	0x2e1049dc	3.280741e-11
14	0x2c1049e4	2.0504648e-12
15	0x2de3023e	2.5807908e-11
16	0x2c804c38	3.646441e-12
17	0x2c1049dc	2.050463e-12
18	0x2d96c705	1.7141408e-11
19	0x2d44648a	1.1163634e-11
20	0x2f7c2542	2.2932503e-10
21	0x2af5c331	4.3656184e-13
22	0x2e2956b0	3.8503145e-11
23	0x2f8efe60	2.6010394e-10
24	0x2e1049dc	3.280741e-11
25	0x2ec866a0	9.113177e-11
26	0x3005f32a	4.8730675e-10
27	0x2e2854eb	3.82742e-11
28	0x2e0f5875	3.2593e-11
29	0x2e1049dc	3.280741e-11

weight f4 [30, 30]
0	0x3cc52cbe	0.024069186
1	0x3b024e37	0.0019883045
2	0xbce89259	-0.028390097
3	0x3db6ddd9	0.08929033
4	0x3b672aa8	0.0035273228
5	0x3c918b50	0.017766625
6	0xbd422446	-0.047397874
7	0x3d8fcc1d	0.070213534
8	0x3d06a542	0.032872446
9	0x3df38cca	0.11892088
10	0x3d5282c2	0.05139423
11	0x3d959b20	0.07304978
12	0x3c0f3566	0.0087407585
13	0x3d14ff62	0.036376365
14	0xbc6cdff8	-0.014457695
15	0xbf0dfe52	-0.55466187
16	0x3e2cbdee	0.16869327
17	0x3d0a28ec	0.033730432
18	0x3d5cfbfd	0.053951252
19	0x3d825a64	0.06364897
20	0x3dda3eb8	0.10656494
21	0xbd39787b	-0.045280915
22	0x3d61d986	0.055139087
23	0xbe09d071	-0.1345842
24	0x3cf20242	0.029542092
25	0x3d03ec5b	0.032207828
26	0x3f134d03	0.57539386
27	0x3e09336e	0.13398525
28	0xbdf73900	-0.12071419
29	0x3e107b9d	0.14109655
30	0xbdcafa9f	-0.099110834
31	0xbdecb783	-0.115584396
32	0xbd05dbb0	-0.032680213
33	0x3f4d0922	0.8009206
34	0xbdc3299a	-0.09529419
35	0x3e042fe7	0.12908898
36	0x3dee2cf6	0.11629669
37	0x3d3e8674	0.046514943
38	0x3ed95518	0.42447734
39	0xbd894293	-0.06702151
40	0xbb963ae7	-0.0045846584
41	0xbd84fc61	-0.0649345
42	0xbd9d00d6	-0.07666175
43	0xbdb3adba	-0.0877337
44	0xbd882386	-0.066474006
45	0xbd6fe8fd	-0.058571804
46	0xbccd57d9	-0.025066303
47	0xbc070fcd	-0.008243513
48	0xbdcd20cd	-0.10016022
49	0xbda486a1	-0.08033491
50	0xbdb844f0	-0.08997524
51	0xbd890c2a	-0.06691773
52	0xbdcfccc6	-0.10146479
53	0xbe891e10	-0.26780748
54	0x3e1516dd	0.14559503
55	0xbe5db744	-0.21651942
56	0xbe26c302	-0.16285327
57	0x3d7ada76	0.061243497
58	0x3db294ec	0.08719811
59	0xbe115c68	-0.14195406
60	0x3ddf56e0	0.10905242
61	0xbdab5818	-0.08366412
62	0xbd734cb3	-0.059399318
63	0x3e58a78a	0.21157661
64	0xbc8d2ed7	-0.017234249
65	0x3dc34120	0.09533906
66	0x3df2a259	0.118473716
67	0xbd2ee1aa	-0.04269568
68	0xbe10f83a	-0.14157191
69	0xbdf887cd	-0.12135277
70	0x3d32855c	0.043584213
71	0xbe362416	-0.17787203
72	0xbe10317a	-0.14081374
73	0x3db2fa43	0.0873914
74	0xbdb7c508	-0.089731276
75	0x3e809366	0.25112456
76	0xbc869f89	-0.016433494
77	0x3d515187	0.05110314
78	0xbde50f8e	-0.111846074
79	0x3ea81ba6	0.32833594
80	0x3e3dfa49	0.18552507
81	0x3b7a6feb	0.003821368
82	0xbd01b972	-0.031670995
83	0xbe936ede	-0.28795522
84	0x3e70f53f	0.23531054
85	0x3d760176	0.060059987
86	0xbea81512	-0.32828575
87	0x3d022f95	0.03178366
88	0x3accfb32	0.0015638827
89	0xbe0e9a52	-0.13926056
90	0x3da3c0b2	0.07995738
91	0xbbae304d	-0.0053158165
92	0x3e2b08b3	0.16702537
93	0x3e14fd83	0.14549832
94	0x3e480ca8	0.19536078
95	0x3e16069a	0.14650956
96	0x3e669951	0.22519423
97	0x3c93f949	0.018063204
98	0x3ea1500c	0.31506383
99	0xbeb91e88	-0.36156106
100	0xbd969472	-0.073525324
101	0x3e3ef007	0.1864625
102	0x3df7e5e1	0.12104393
103	0xbd68751a	-0.0567523
104	0x3e1b7529	0.15181412
105	0x3d39e1db	0.04538141
106	0x3a69ef1a	0.00089238735
107	0x3dc8d3fd	0.098060586
108	0xbea7c9eb	-0.3277124
109	0xbd9e1fab	-0.07720884
110	0x3db7c181	0.08972455
111	0x3e34d774	0.17660314
112	0x3d0c8719	0.034308527
113	0xbe9a13d3	-0.3009325
114	0x3e37c47e	0.1794605
115	0xbcc4d231	-0.024026008
116	0x3d234830	0.039863765
117	0xbe85d847	-0.2614157
118	0x3d83915d	0.0642421
119	0xbd86164e	-0.06547223
120	0xbc8a5438	-0.016885862
121	0xbc0eb46b	-0.008710007
122	0xbc5071bd	-0.01272243
123	0x3d48264e	0.048864655
124	0xbd08ee77	-0.033430543
125	0xbc5f7810	-0.013639465
126	0xbdbc0c59	-0.09182043
127	0x3b6d367d	0.0036195808
128	0x3e9b7c1d	0.30368128
129	0xbd4306cc	-0.047613904
130	0x3c28fd78	0.010314338
131	0xbdcba8f8	-0.099443376
132	0xbc43db75	-0.011954178
133	0xbdf28599	-0.11841888
134	0xbd8c446f	-0.0684899
135	0xbda7075e	-0.08155702
136	0x3dade88c	0.084916204
137	0xbc7c38a3	-0.015394363
138	0xbd7bf262	-0.06151045
139	0x3c02f224	0.007992301
140	0x3e2e3da1	0.17015697
141	0xbc8ef123	-0.017448967
142	0x3e064ed1	0.13116004
143	0xbfa805b4	-1.312674
144	0x3dc0d124	0.094148904
145	0x3b823560	0.003973648
146	0x3decff12	0.11572088
147	0x3d026b64	0.031840697
148	0xbd425532	-0.04744453
149	0xbc1f932b	-0.009739677
150	0xbe8ce576	-0.27518815
151	0x3d4b88c2	0.04969097
152	0xbe5b1301	-0.21393968
153	0xbdc065dd	-0.09394429
154	0xbe249656	-0.16072974
155	0xbe20f14a	-0.15717044
156	0xbf2cdc5d	-0.6752375
157	0x3e024b6b	0.12724082
158	0x3eb55b2e	0.35421127
159	0x3deaf5f4	0.11472693
160	0xbbb0665f	-0.0053832973
161	0x3e2a68d0	0.16641545
162	0xbe7d8742	-0.24758628
163	0x3d49d398	0.049274057
164	0xbe896ce5	-0.26840892
165	0xbdcf3087	-0.10116678
166	0xbd1fac3e	-0.038982622
167	0xbe42ef4d	-0.19036599
168	0x3e062676	0.13100609
169	0x3d888f4d	0.066679575
170	0x3e85e436	0.26150674
171	0xbe0f298b	-0.13980691
172	0xbd32803e	-0.043579333
173	0x3e88a820	0.2669077
174	0xbd8af910	-0.06785786
175	0x3e6c9931	0.23105313
176	0xbcb579d0	-0.022152811
177	0x3ddfd317	0.10928934
178	0xbc6ee5d9	-0.014581167
179	0x3dae0ba9	0.08498318
180	0x3e0cff9d	0.13769384
181	0x3d67c24f	0.05658179
182	0x3e3fe8fe	0.18741223
183	0x3f1d2465	0.6138366
184	0x3e069695	0.1314338
185	0x3e5b5b69	0.21421589
186	0xbc368e02	-0.011142256
187	0xbe9bb54b	-0.30411753
188	0xbe4d056b	-0.20021598
189	0xbddb71d8	-0.10715073
190	0xbd8e0202	-0.06933977
191	0x3e3dd611	0.18538691
192	0x3e85bb10	0.2611928
193	0xbb57623d	-0.003286495
194	0x3e22d454	0.15901309
195	0x3d3b851e	0.045781247
196	0xbd312a0d	-0.043252993
197	0x3dffb509	0.124857016
198	0xbd7e539a	-0.062091447
199	0x3bc1b58e	0.0059115356
200	0xbe99d338	-0.3004396
201	0x3dd01343	0.10159924
202	0xbd6303b6	-0.05542346
203	0xbe7aaf49	-0.24480928
204	0x3e0df930	0.13864589
205	0xbe2cccb8	-0.16874969
206	0xbbead9b9	-0.007167068
207	0xbdd73749	-0.10508592
208	0x3ddab4da	0.10679026
209	0xbe1641c3	-0.14673524
210	0x3d6a0883	0.057137024
211	0xbcd99f1a	-0.026565123
212	0x3d85c9b5	0.06532613
213	0x3f1c893d	0.6114691
214	0x3dff0ba8	0.12453395
215	0x3e7268bd	0.23672767
216	0x3e119f76	0.14220986
217	0xbe82e867	-0.25567934
218	0xbd01cd8f	-0.031690177
219	0xbe89ae36	-0.26890725
220	0x3dd2136e	0.10257612
221	0x3e3acdba	0.18242541
222	0xbdc57ecd	-0.09643326
223	0x3cb1660e	0.021655109
224	0xbd15826d	-0.036501337
225	0xbe0887d1	-0.1333306
226	0x3d94c211	0.07263578
227	0xbd1a781f	-0.037712213
228	0xbe2569f0	-0.16153693
229	0xbd7fd2ae	-0.06245678
230	0x3ef10b3f	0.47078893
231	0x3dac132e	0.08402096
232	0x3e5af263	0.21381526
233	0x3d4f5f91	0.05062825
234	0x3ebffe57	0.37498733
235	0xbe03a53d	-0.12856002
236	0x3d8a9470	0.067665935
237	0xbc6ef843	-0.014585557
238	0xbcdc7e60	-0.026915729
239	0xbe70e805	-0.23526008
240	0x3ddc44e6	0.10755329
241	0xbc9aa3c0	-0.01887691
242	0x3d6f0ea4	0.05836357
243	0x3e2cae07	0.16863261
244	0x3d806dc9	0.0627094
245	0x3d0baa4f	0.034097966
246	0xbe670556	-0.22560629
247	0x3ca40bf5	0.020025233
248	0xbd87277f	-0.0659933
249	0xbcb8c179	-0.022553192
250	0xbd21eaa8	-0.039530426
251	0xbd3bdcd0	-0.04586488
252	0x3ddac21a	0.10681553
253	0xbde0737c	-0.10959527
254	0x3d764869	0.06012765
255	0x3ce62b3c	0.028096788

bias f4 [30]
0	0x3dfd0391	0.12354196
1	0x3e0188cf	0.12649845
2	0x3d930399	0.071784206
3	0x3e296c5d	0.16545244
4	0xbe16dfa6	-0.14733753
5	0xbcf95ed5	-0.030440727
6	0xbd0b334c	-0.033984467
7	0x3ce2d1df	0.027687965
8	0xbcee9b92	-0.029126916
9	0xbe379a2d	-0.17929907
10	0x3d68c979	0.056832764
11	0x3d8fc002	0.070190445
12	0x3cdaf114	0.026726283
13	0x3b1fc6ca	0.0024379962
14	0x3db8e8cf	0.0902878
15	0xbdc8b88c	-0.098008245
16	0x3c77701f	0.015102415
17	0x3d74502c	0.05964677
18	0x3bce6dce	0.006299711
19	0xbe31cf06	-0.1736413
20	0xbe39d818	-0.1814884
21	0x3d5fe692	0.05466325
22	0xbe0604c0	-0.1308775
23	0x3d64d069	0.055862818
24	0xbdef641f	-0.116890185
25	0xbe106cc4	-0.14103991
26	0x3d440103	0.047852527
27	0xbdfdbe81	-0.12389851
28	0x3c25038e	0.010071648
29	0x3cd96481	0.026537182

weight f4 [30]
0	0x3f019959	0.50624615
1	0x3ef7a2ff	0.48366544
2	0x3f045680	0.5169449
3	0x3e94a571	0.29032472
4	0x3e811a9f	0.25215623
5	0x3f451e23	0.7699911
6	0x3f0203ed	0.5078724
7	0x3e96856a	0.29398662
8	0x3e9d42dd	0.30715075
9	0x3ec48d68	0.38389134
10	0x3f306877	0.689094
11	0x3eab3455	0.33438364
12	0x3e9ad1bc	0.3023814
13	0x3f1a9671	0.60385805
14	0x3f0f2d30	0.55928326
15	0x3f0e6d3a	0.55635417
16	0x3e082831	0.13296582
17	0x3e1320b1	0.1436794
18	0x3e6b40c6	0.22973928
19	0x3e7b1ec7	0.2452346
20	0x3f1af80c	0.6053474
21	0x3d3b40f1	0.04571623
22	0xb8e7669f	-0.00011034053
23	0x3f16365f	0.58676714
24	0x3f2448a9	0.6417337
25	0xb88dd00e	-6.762157e-05
26	0x3f243a6a	0.6415163
27	0x3d1c1c4e	0.03811293
28	0x3ee0fe77	0.4394414
29	0x34e85b40	4.327976e-07

bias f4 [30]
0	0x3e1d40cd	0.15356751
1	0x3f9b9cfd	1.2157284
2	0x3f61d88b	0.88221043
3	0x3f2ff217	0.68728775
4	0x3dea4e07	0.11440664
5	0xbfc29ebb	-1.5204691
6	0x3f748dd4	0.9552891
7	0x3ef256b6	0.4733178
8	0x3e12972a	0.14315477
9	0x3f49ede0	0.78878593
10	0xbfb89f8f	-1.4423693
11	0x3f32c129	0.6982599
12	0x3e0cc4db	0.1374697
13	0x3f928e03	1.1449589
14	0x3f68baca	0.9091002
15	0x3fb28e09	1.3949596
16	0x3ef80af5	0.4844586
17	0x3e490947	0.19632445
18	0x3e192ea8	0.14959204
19	0x3f13d877	0.57752174
20	0x3f79f557	0.97639984
21	0x3d463746	0.048392557
22	0x3d062f4f	0.03275996
23	0x3fcdd6cb	1.6081175
24	0xbfb84c5a	-1.4398301
25	0x3e0f465f	0.13991688
26	0x3f58399f	0.8446292
27	0x3e0d7029	0.13812317
28	0x3f5a5605	0.85287505
29	0x3de02217	0.10944002

running_mean f4 [30]
0	0x3f29266c	0.6607425
1	0x3f91857f	1.1368865
2	0x3f27f064	0.6560118
3	0x3f61bc4d	0.8817795
4	0x3eb2599e	0.34833997
5	0xbe8d77a5	-0.27630344
6	0x3f3df806	0.7420658
7	0x3f9d8aa9	1.2307941
8	0x3eda52c6	0.42641276
9	0x3eb3ff5d	0.35155764
10	0xbea23a90	-0.31685305
11	0x3f0e4bd1	0.55584437
12	0x3ea505ea	0.32231075
13	0x3e81abe5	0.25326458
14	0x3fa6e5e5	1.3038908
15	0x3f7d01a2	0.98830616
16	0x3ebd174d	0.3693184
17	0x3f0f6c14	0.5602429
18	0x3f0fa644	0.56113076
19	0x3d9938fc	0.07481572
20	0x3f70fc58	0.94135046
21	0x3ee71b21	0.45137885
22	0xbe5a640a	-0.21327224
23	0x3f9829b1	1.1887723
24	0xbec85a0d	-0.39131203
25	0xbe30c484	-0.17262465
26	0x3f293a31	0.6610442
27	0x3f56c4d9	0.83894116
28	0x3f713f0f	0.94236845
29	0x3e9a3895	0.30121294

running_var f4 [30]
0	0x302bf326	6.255497e-10
1	0x2fa42871	2.9860162e-10
2	0x2fda5978	3.971754e-10
3	0x309640e5	1.0932381e-09
4	0x313e26c2	2.767067e-09
5	0x2f5f0a42	2.0285376e-10
6	0x2f94be15	2.7056105e-10
7	0x2eec5413	1.0746972e-10
8	0x31347e50	2.6265248e-09
9	0x2edf9ac3	1.0168357e-10
10	0x2faf81bb	3.1924494e-10
11	0x30323dd3	6.484388e-10
12	0x318e0965	4.133812e-09
13	0x2f8d2cf2	2.5679686e-10
14	0x303edd2a	6.943589e-10
15	0x2fa7195f	3.039515e-10
16	0x3094fbc4	1.0839973e-09
17	0x305cb806	8.0297047e-10
18	0x3211f920	8.496755e-09
19	0x2f98b234	2.777526e-10
20	0x2fea5148	4.2622106e-10
21	0x2f18644f	1.3859956e-10
22	0x2f68c88e	2.1171528e-10
23	0x2f4fd097	1.8900646e-10
24	0x2fb5ae6f	3.304765e-10
25	0x2f66f5ee	2.100575e-10
26	0x2fe614dd	4.185158e-10
27	0x30122814	5.3171445e-10
28	0x30208734	5.8399796e-10
29	0x308870b4	9.927335e-10

weight f4 [251, 30]
0	0x3deb5caa	0.11492284
1	0xbe297b38	-0.1655091
2	0x3ccd8a75	0.025090436
3	0x3dc6a07a	0.09698577
4	0x3c32d589	0.010915169
5	0x3f82faaa	1.0232747
6	0x3df79acf	0.12090074
7	0x3d20326d	0.03911059
8	0x3d10feee	0.03539937
9	0xbdf02b49	-0.11727006
10	0x3f454cf5	0.7707055
11	0x3d4efcc8	0.05053404
12	0xbc24b9f6	-0.010054102
13	0x3e80e8f6	0.25177735
14	0x3dcfc27b	0.10144516
15	0xbe37d5d4	-0.17952663
16	0x3d31a1d6	0.04336723
17	0xbbb6d44b	-0.0055795065
18	0x3cb7f17e	0.02245402
19	0xbd45cdfa	-0.048292138
20	0x3d4caecf	0.049971398
21	0x3ced1a5b	0.028943231
22	0x3be7a18f	0.00706882
23	0xbd806534	-0.06269303
24	0x3f5eced3	0.8703434
25	0xbc0ca4e4	-0.008584235
26	0x3e0270b4	0.12738305
27	0xbb8003c7	-0.0039067003
28	0x3d8b6b0c	0.06807527
29	0xbca395be	-0.019968864
30	0x3e8ce1c2	0.2751599
31	0xbe3efb7a	-0.18650618
32	0x3e32b24a	0.17450824
33	0xbd6faa32	-0.05851192
34	0xbe201a56	-0.15635046
35	0x3e32dcf4	0.174671
36	0x3e2b7b4e	0.16746256
37	0x3dd8b1ce	0.105807886
38	0x3b22e284	0.0024854252
39	0xbe441042	-0.19146827
40	0xbd6f958d	-0.058492232
41	0x3d54b2f8	0.05192849
42	0xbd8e0eaf	-0.069363944
43	0xbd888361	-0.066656835
44	0xbbdb8610	-0.006699331
45	0xbe55edb8	-0.20891464
46	0x3b8e2dd5	0.0043389597
47	0x3d9d374e	0.07676564
48	0xbd8b2a5d	-0.067951895
49	0x3d5673a5	0.05235638
50	0x3e049eb9	0.12951173
51	0x3d984438	0.07434887
52	0x3d9a08a4	0.07521179
53	0xbe2f88f2	-0.17142084
54	0x3eaa97fd	0.33319083
55	0x3c280307	0.010254628
56	0x3e516165	0.2044731
57	0xbb422f98	-0.002963042
58	0x3cfd0484	0.030885942
59	0x3dcb9899	0.09941215
60	0x3e176e8f	0.14788269
61	0xbdb046eb	-0.086072765
62	0x3d8515fe	0.06498335
63	0xbd4921e0	-0.04910457
64	0x3e465bf2	0.19371012
65	0xbd6beda4	-0.05759968
66	0xbc23420b	-0.009964476
67	0xbd7f049d	-0.06226026
68	0x3df05223	0.11734416
69	0xbd9a726a	-0.07541354
70	0xbe9480a3	-0.29004392
71	0xbca00d1b	-0.0195375
72	0x3dc17cd2	0.09447636
73	0xbd66d0f8	-0.056351632
74	0xb9898e72	-0.00026236806
75	0xbdfa9cf2	-0.12236966
76	0xbe0242fe	-0.12720868
77	0x3e81551c	0.25260246
78	0xbeaadeb4	-0.33373034
79	0x3da7461f	0.081676714
80	0x3e274217	0.16333805
81	0x3d01f6ca	0.031729497
82	0x3d162920	0.036660314
83	0xbd9a6624	-0.07539013
84	0x3e05d619	0.13069953
85	0x3cdaba79	0.026700245
86	0x3d8a9130	0.067659736
87	0xbd843b49	-0.0645662
88	0x3d8aeeb3	0.067838095
89	0x3df9da36	0.121998236
90	0x3e51e77f	0.20498465
91	0xbe2387fb	-0.15969841
92	0x3cc612ef	0.02417895
93	0x3d63bf1c	0.055602178
94	0xbe030428	-0.12794554
95	0x3c54bbfb	0.012984271
96	0x3e2cb52f	0.16865991
97	0x3d118365	0.0355257
98	0xbd573b92	-0.052547045
99	0xbdf7f181	-0.1210661
100	0xbe1ea01e	-0.15490767
101	0xbd129331	-0.035784904
102	0xbd1c2925	-0.038125176
103	0xbdc44f7e	-0.095854744
104	0x3cc719ba	0.02430426
105	0xbe06f0af	-0.13177751
106	0xbe77349d	-0.24141164
107	0x3de1da1b	0.110279284
108	0x3dffd623	0.12492015
109	0x3db2ab49	0.08724076
110	0x3db22c10	0.086998105
111	0xbcd9fcb3	-0.026609754
112	0xbec97a24	-0.39350998
113	0xbe2f28da	-0.17105427
114	0x3e6683f5	0.22511275
115	0x3da7ab63	0.08186986
116	0x3e81ac99	0.25326994
117	0x3dc18ed5	0.09451071
118	0x3cf0ef73	0.029411053
119	0xbdb995b1	-0.090617545
120	0x3e13733a	0.14399424
121	0xbd4837a6	-0.048881195
122	0x3c65bf47	0.014022655
123	0xbd1373b3	-0.03599901
124	0xbdc104df	-0.09424757
125	0x3f293757	0.66100067
126	0x3c7a6ffe	0.01528549
127	0x3da0ba3e	0.07848023
128	0x3d3081ba	0.043092467
129	0xbe2eb735	-0.17062075
130	0xbd6cc84f	-0.057808217
131	0xbbf948f4	-0.0076075736
132	0xbe47116d	-0.19440241
133	0x3c74be56	0.014937958
134	0x3dea808c	0.114502996
135	0xbe610f7f	-0.21978568
136	0xbd7b7d83	-0.061398994
137	0xbd301a40	-0.042993784
138	0x3e5ebb1a	0.21751061
139	0x3b394cf1	0.002827462
140	0x3d8967a5	0.06709222
141	0x3dda9079	0.10672087
142	0x3d89a961	0.067217596
143	0xbe46fdd5	-0.19432767
144	0x3aad88f2	0.0013239665
145	0x3d532af1	0.051554624
146	0x3e6dd934	0.23227388
147	0x3d05e02d	0.032684494
148	0x3d23cfb0	0.039992988
149	0x3e34956f	0.1763513
150	0xbc33d98b	-0.010977159
151	0xbc547229	-0.012966671
152	0x3e2dd4ec	0.16975754
153	0xbdcdce3a	-0.100491
154	0xbe2855b9	-0.1643895
155	0xbd01433b	-0.031558257
156	0xbd468862	-0.04846991
157	0xbbe19d73	-0.0068852245
158	0x3ea7599c	0.32685554
159	0xbde1d901	-0.11027718
160	0x3e486b3c	0.19572157
161	0xbdd32281	-0.103093155
162	0xbe3c165b	-0.18367903
163	0xbde0788b	-0.10960492
164	0x3e4b7799	0.19869842
165	0xbde81c17	-0.11333483
166	0xbd1bf668	-0.03807679
167	0x3d914d05	0.070947684
168	0x3e3536ee	0.17696735
169	0xbd08621a	-0.033296682
170	0xbde00f2b	-0.10940393
171	0x3d9c0ecc	0.0762001
172	0x3d52f85e	0.051506393
173	0xbddcdd81	-0.10784436
174	0x3eae9c5a	0.34103662
175	0xbed2c5d8	-0.41166568
176	0xbce1a959	-0.027546572
177	0x3e29f7d7	0.1659845
178	0x3dcde55e	0.10053514
179	0x3eb78ca4	0.35849488
180	0x3db98eca	0.09060438
181	0xbe162245	-0.1466151
182	0x3de79022	0.11306788
183	0x3e3cd26f	0.18439649
184	0x3e8d65c0	0.27616692
185	0x3f004100	0.5009918
186	0x3e2e40a9	0.17016853
187	0x3d866ef0	0.065641284
188	0xbe134569	-0.14381947
189	0xbe40433e	-0.18775651
190	0x3ee256c6	0.44206828
191	0xbd9af7b8	-0.0756678
192	0xbde0531b	-0.10953351
193	0xbd0ac866	-0.03388252
194	0x3df33196	0.11874692
195	0xbe2f775b	-0.17135374
196	0x3c432888	0.011911519
197	0xbca69994	-0.020336904
198	0x3d96c6be	0.07362126
199	0x3d880448	0.066414416
200	0xbd3dc842	-0.04633356
201	0xbdf79564	-0.12089041
202	0x3cb0db99	0.021589087
203	0xbd2c97d8	-0.042136997
204	0xbcb6e58c	-0.022326253
205	0xbca1ff06	-0.019774925
206	0x3e0e05e4	0.13869435
207	0xbd8db997	-0.06920164
208	0xbd9b2a70	-0.07576454
209	0x3db2996e	0.08720671
210	0x3e478312	0.19483593
211	0xbe2996ca	-0.16561428
212	0x3e02c20d	0.12769337
213	0x3c646642	0.013940396
214	0xbe00a38e	-0.12562391
215	0x3ee9598f	0.4557614
216	0xbe3f857b	-0.18703263
217	0xbda4b17b	-0.08041664
218	0x3cf7828f	0.030213622
219	0xbe13a984	-0.14420134
220	0xbc6f74bc	-0.014615234
221	0x3dd26d07	0.102747016
222	0x3da61f0a	0.08111389
223	0x3e2c0c34	0.1680153
224	0x3c937bdb	0.018003395
225	0xbe0ea04a	-0.13928333
226	0x3bf5b5a0	0.007498458
227	0x3d25d172	0.040482946
228	0x3e591490	0.2119925
229	0x3e2af824	0.1669622
230	0x3db8ee69	0.09029848
231	0x3d4ff3e3	0.050769698
232	0xbbed55f3	-0.007242912
233	0xbe80191a	-0.2501915
234	0x3df192e9	0.11795599
235	0xbbb8bd30	-0.0056377873
236	0x3d8c2dc2	0.06844665
237	0x3c2395c6	0.009984439
238	0x3e2d0449	0.16896166
239	0xbe5d9725	-0.21639688
240	0x3e57ec4a	0.21086231
241	0xbe754f5d	-0.23956056
242	0x3cc2a94b	0.023762366
243	0x3e3e8d6d	0.18608637
244	0xbe275e13	-0.1634448
245	0xbe530c3a	-0.20610133
246	0x3e488133	0.19580536
247	0x3ce23b82	0.027616266
248	0xbd980ba9	-0.07424099
249	0xbdde2221	-0.10846353
250	0x3e82f2e3	0.25575933
251	0xbd9e0356	-0.0771548
252	0x3eb604da	0.35550576
253	0xbe198ccf	-0.1499512
254	0x3dc6ca26	0.097065255
255	0xbd9eacd9	-0.07747812

bias f4 [251]
0	0x3e2964ac	0.1654231
1	0x3e0cd913	0.13754682
2	0xbdd8ab27	-0.1057952
3	0xbdb735c8	-0.08945805
4	0x3e1cf91c	0.15329403
5	0x3d42dd70	0.04757446
6	0x3ccc8b83	0.024968868
7	0xbd852047	-0.06500297
8	0xbe1ff714	-0.15621597
9	0xbd1c4782	-0.038154133
10	0x3e139a66	0.14414367
11	0x3d8faaf9	0.07015032
12	0xbe08da0d	-0.1336443
13	0xbc2d1b43	-0.010565582
14	0xbe121bff	-0.14268492
15	0x3de8c4ac	0.11365637
16	0x3e1f6ef8	0.15569675
17	0x3c85ef66	0.016349506
18	0xbe1db97f	-0.15402792
19	0xbe0d97d5	-0.1382745
20	0x3d9ebe58	0.07751149
21	0x3d560a49	0.052255902
22	0xbe41ecdc	-0.18938011
23	0x3dbac4da	0.09119578
24	0xbdf59be7	-0.11992627
25	0xbca92aad	-0.020650232
26	0x3ca13aff	0.019681452
27	0xbc395445	-0.011311595
28	0xbd692d17	-0.056927767
29	0xbcdf79a3	-0.02727968
30	0xbdd7df58	-0.10540646
31	0x3d44bb54	0.048030213
32	0xbca16d68	-0.01970549
33	0x3e23d69b	0.15999834
34	0x3ce0db15	0.027448216
35	0x3e2c157b	0.16805069
36	0xbe228503	-0.15871052
37	0xbd7263a7	-0.059177067
38	0x3de78bd7	0.11305969
39	0x3d96b9ad	0.073596336
40	0xbe298266	-0.1655365
41	0x3de71b2f	0.11284482
42	0xbd74d25a	-0.05977092
43	0xbdd86888	-0.10566813
44	0x3e064755	0.13113149
45	0xbdfddaa9	-0.12395222
46	0x3d6476e6	0.055777453
47	0x3e2adaa8	0.16684973
48	0x3df25cda	0.11834116
49	0xbcc498ef	-0.023998706
50	0xbdac902b	-0.08425935
51	0xbe40248d	-0.18763943
52	0x3de9f02d	0.11422763
53	0xbe0c98db	-0.13730185
54	0xbd209ffa	-0.039215066
55	0xbe06b9aa	-0.13156763
56	0xbe351a8b	-0.17685907
57	0xbdeab1da	-0.11459704
58	0xbc9a5911	-0.018841298
59	0xbd254e74	-0.04035802
60	0x3ad904a4	0.0016557169
61	0xbccba975	-0.024861077
62	0xbc070077	-0.008239857
63	0xbe3a359a	-0.1818451
64	0xbdf574f8	-0.11985201
65	0x3cffea47	0.031239642
66	0x3b52c41e	0.0032160352
67	0x3e189bad	0.14903136
68	0xbe0d3858	-0.13791025
69	0x3dd12635	0.102123655
70	0xbc15915e	-0.0091288965
71	0x3e387710	0.18014169
72	0x3d5d6768	0.054053694
73	0x3e1f34df	0.15547512
74	0x3e1ab4fe	0.15108106
75	0xbe3eee21	-0.18645526
76	0xbdb9c1c2	-0.090701595
77	0xbd42d239	-0.047563765
78	0xbd98cab8	-0.074605405
79	0x3dd4a133	0.10382309
80	0x3e113b1d	0.14182706
81	0xbd4b5507	-0.049641635
82	0x3e059ad7	0.13047348
83	0xbe1f0177	-0.15527903
84	0x3dd77e28	0.10522109
85	0xbc10f511	-0.008847491
86	0xbaf72d0e	-0.0018858032
87	0x3e055ad9	0.13022937
88	0xbd1f2854	-0.03885682
89	0xbde0abf4	-0.109702975
90	0x3db5230d	0.08844576
91	0xbde9b760	-0.11411929
92	0xbd014033	-0.031555366
93	0x3da5dad5	0.080983795
94	0x3e2f909e	0.17145011
95	0x3a0ee42f	0.0005450872
96	0x3e26452a	0.16237321
97	0xbe1f7525	-0.15572031
98	0xbd88b5d5	-0.06675307
99	0xbd92aa3a	-0.071613744
100	0xbd839917	-0.06425684
101	0x3d63e149	0.05563477
102	0x3e07b102	0.13251117
103	0x3b25b046	0.002528207
104	0xbdc25b9a	-0.09490128
105	0xbd1be4e3	-0.03806008
106	0x3e0d2bee	0.13786289
107	0x3dbc110e	0.091829404
108	0xbe0cea79	-0.13761319
109	0x3e1c797e	0.1528072
110	0xbe3e9210	-0.18610406
111	0xbe190fa7	-0.14947377
112	0xbe3ce4cd	-0.18446656
113	0x3dbaadeb	0.091152035
114	0xbe16e36a	-0.14735189
115	0x3df92917	0.121660404
116	0xbc97fb32	-0.018552396
117	0x3c0644b7	0.008195094
118	0x3c369158	0.011143051
119	0x3e2a7e7f	0.16649817
120	0xbd9d4334	-0.076788336
121	0xbce7a040	-0.028274655
122	0xbce285c1	-0.02765167
123	0xbdd4b1f2	-0.10385503
124	0x3dde267b	0.10847183
125	0x3df05765	0.11735419
126	0xbdf5ae75	-0.11996166
127	0x3e0b9cec	0.1363408
128	0xbcc0b650	-0.023524433
129	0xbdd7a475	-0.105294146
130	0xbcd5741e	-0.026056346
131	0x3da25129	0.07925636
132	0xbe28776a	-0.16451803
133	0xbe152c75	-0.1456774
134	0x3e2b38c0	0.16720867
135	0xbe1afdf4	-0.15135938
136	0xbe3e0805	-0.18557747
137	0xbdcd3832	-0.10020484
138	0x3d893927	0.06700354
139	0x3dec3f16	0.1153547
140	0xbd9d8443	-0.076912425
141	0x3cc8c8ce	0.024509814
142	0x3e35fb67	0.17771684
143	0xbe22d37e	-0.1590099
144	0x3e008b38	0.12553108
145	0x3e2c13c1	0.1680441
146	0xbd070db8	-0.032972068
147	0x3cc4a434	0.02400408
148	0x3decf894	0.1157085
149	0xbdf99a49	-0.12187631
150	0xbe420e10	-0.18950677
151	0x3d40dcc0	0.047085524
152	0x3c5658c2	0.013082685
153	0x3d7ae700	0.061255455
154	0xbddbe6b8	-0.107373655
155	0x3e056a90	0.13028932
156	0x3e17aac5	0.14811237
157	0xbd4f65d4	-0.05063422
158	0x3c82ce1b	0.01596742
159	0xbe350b50	-0.17680097
160	0xbda1b302	-0.07895471
161	0x3c8a326e	0.01686975
162	0xbe473909	-0.19455351
163	0x3e049569	0.1294762
164	0x3db0e194	0.086367756
165	0x3c969253	0.01838032
166	0x3d85ea42	0.06538822
167	0xbcd51506	-0.026011001
168	0xbd4cae27	-0.049970772
169	0xbe0d1f05	-0.13781364
170	0x3e10fbd1	0.1415856
171	0xbdd4723a	-0.103733495
172	0xbe03ff2f	-0.12890314
173	0x3d8cbfc6	0.068725154
174	0xbb90c724	-0.0044182707
175	0x3d1d6b57	0.038432445
176	0xbe32c97d	-0.17459674
177	0x3d6c623d	0.057710875
178	0x3c6fe6c3	0.01464242
179	0xbda4df73	-0.08050432
180	0xbd8c8164	-0.06860617
181	0xbc72e802	-0.014825823
182	0x3d177b56	0.036982857
183	0x3cece141	0.028916003
184	0xbdb9b46c	-0.09067616
185	0x3dda8431	0.10669745
186	0x3c8b5122	0.01700646
187	0xbe253e58	-0.16137064
188	0x3cdfbe66	0.027312469
189	0x3e04cb64	0.12968212
190	0x3d9ec22a	0.077518776
191	0xbe3a4ded	-0.18193789
192	0x3d77ee56	0.06053003
193	0x3bea2fb3	0.0071467995
194	0x3dfdae23	0.123867296
195	0xbde029f1	-0.109455
196	0xbd4eb1d4	-0.05046256
197	0x3e1ef9d8	0.15524995
198	0x3db3c72c	0.087782234
199	0x3b8219b6	0.00397035
200	0x3e351521	0.17683841
201	0xbe016d12	-0.12639263
202	0x3e09d9e8	0.13462031
203	0x3dd2322d	0.102634765
204	0x3e1857f8	0.14877307
205	0xbd88ab8d	-0.06673346
206	0xbdb2de5d	-0.08733819
207	0x3df91c8b	0.12163647
208	0xbe19e916	-0.15030321
209	0xbdb25dc6	-0.08709292
210	0x3d82a6f9	0.06379504
211	0xbe354975	-0.17703803
212	0xbdbfc2b9	-0.09363312
213	0xbe2e115f	-0.16998814
214	0xbdefb386	-0.11704163
215	0x3c844884	0.01614786
216	0x3e21a5b1	0.15785863
217	0x3c22a56e	0.009927137
218	0x3d65961e	0.056051366
219	0x3c7769d9	0.01510092
220	0x3e267604	0.16255957
221	0xbdf7a029	-0.12091095
222	0x3db8061a	0.08985539
223	0xbe1b0cdf	-0.15141629
224	0x3d9a8ddb	0.07546588
225	0x3d02629c	0.031832322
226	0x3d85dd19	0.06536312
227	0x3e097b77	0.13426004
228	0xbde7f430	-0.11325872
229	0xbc3a527a	-0.011372203
230	0x3dcf7274	0.10129252
231	0x3cdfe0c2	0.027328853
232	0xbe2fac10	-0.1715548
233	0xbca731b2	-0.020409439
234	0x3da9f51e	0.082987055
235	0xbe59d5e0	-0.21272993
236	0xbe075e32	-0.13219526
237	0xbe2d06d7	-0.1689714
238	0xbd5fb31d	-0.054614175
239	0xbd318312	-0.04333789
240	0x3df1fe27	0.11816054
241	0x3d727568	0.059194
242	0x3c4497cd	0.011999083
243	0xbe3c085c	-0.18362564
244	0xbd7b06e6	-0.061285876
245	0x3d2f29c5	0.042764444
246	0x3dd7053e	0.10499047
247	0x3ded7238	0.11594051
248	0xbe2df6bd	-0.16988654
249	0x3c32001c	0.010864284
250	0x3da0f95e	0.07860063

weight f4 [251]
0	0x3e12b9de	0.14328715
1	0xb2212cef	-9.38165e-09
2	0x3cc99ea3	0.024611777
3	0x3949c5a8	0.00019242486
4	0xb30a1ab3	-3.215491e-08
5	0x30f41625	1.775963e-09
6	0x3e4824ee	0.19545338
7	0xb395e7bd	-6.980506e-08
8	0x33321d41	4.147046e-08
9	0x30f983b5	1.8154568e-09
10	0x3a4a7bd8	0.00077241426
11	0x32f34349	2.8319521e-08
12	0x3e392aa6	0.18082675
13	0x32ae05f8	2.025898e-08
14	0x31a9180a	4.9212803e-09
15	0xb37e0d7b	-5.9151244e-08
16	0x3ed87807	0.42279074
17	0x3d8f03b1	0.06983126
18	0x3d2dc85a	0.0424274
19	0x31c5fe22	5.762346e-09
20	0x31d5d635	6.2234684e-09
21	0xb2a7f4fd	-1.9552767e-08
22	0x39de1735	0.0004236043
23	0x31fd3c89	7.370151e-09
24	0x321a45ad	8.979822e-09
25	0xb28ee289	-1.6633992e-08
26	0xb3c0abe0	-8.9719606e-08
27	0x3e03806a	0.12841955
28	0x3d916306	0.07098965
29	0x3da3ba2c	0.07994494
30	0x328363ed	1.5295848e-08
31	0x3d98a874	0.07454005
32	0xb31a89fa	-3.5981408e-08
33	0x394ef2e0	0.00019736169
34	0x3326c8b7	3.8832436e-08
35	0x3be8deea	0.0071066516
36	0x3e22e372	0.15907076
37	0xb28ce6ea	-1.6403153e-08
38	0x329ab8f0	1.801206e-08
39	0x32ba4277	2.1683475e-08
40	0xb3117540	-3.386708e-08
41	0x31da6f6c	6.3573022e-09
42	0xb327cdb7	-3.9069814e-08
43	0xb1be6d39	-5.542145e-09
44	0xb0ffc11d	-1.8608578e-09
45	0x31ae5763	5.074001e-09
46	0x3d71931f	0.058978196
47	0x33027b94	3.0380377e-08
48	0x3e3e1f99	0.18566741
49	0x3c9bbe13	0.019011533
50	0x3945db23	0.00018869019
51	0x3ca1d7fe	0.019756313
52	0xb26a1600	-1.3625595e-08
53	0xb22ebb82	-1.0170767e-08
54	0x3c689c5f	0.014197438
55	0x3e938c6e	0.28818077
56	0x3ed39261	0.41322616
57	0x3c1b9372	0.009495603
58	0x3473fd0e	2.27232e-07
59	0x3d33c3bf	0.04388785
60	0x3beb309f	0.007177427
61	0x3292dc8c	1.709693e-08
62	0x3054948c	7.733625e-10
63	0x30c712d8	1.4484511e-09
64	0x3e3a2fc0	0.18182278
65	0xb245d873	-1.1516124e-08
66	0x329cc6e4	1.8251235e-08
67	0xb31e774f	-3.6895752e-08
68	0x333406bc	4.191564e-08
69	0x3dbd4b40	0.092428684
70	0xb2006b80	-7.475023e-09
71	0xb2932057	-1.7127759e-08
72	0xb271b150	-1.40683625e-08
73	0x33b55d6e	8.445464e-08
74	0x38ccfe17	9.774806e-05
75	0x3c0e68f0	0.008692011
76	0x3d0a7f1a	0.03381262
77	0x32a02cba	1.864679e-08
78	0x3ddda15d	0.10821793
79	0x323fc10c	1.1161557e-08
80	0x3c204584	0.009782199
81	0x3bfb6d28	0.0076729245
82	0x3d849505	0.06473736
83	0x3d435603	0.04768945
84	0x32b885b5	2.1481222e-08
85	0x3259bc61	1.2673895e-08
86	0x3c2de221	0.010612995
87	0x338302b3	6.100654e-08
88	0x3f098d57	0.5373129
89	0x3ebf515f	0.3736677
90	0xb32c9628	-4.0183437e-08
91	0x333f64b9	4.456226e-08
92	0x3e005081	0.1253071
93	0xb1e73df2	-6.730027e-09
94	0x3c3ab1f8	0.01139497
95	0x3f0654d1	0.5247317
96	0x3b4e0dab	0.0031441252
97	0xb2b63b06	-2.121443e-08
98	0x31e78615	6.738228e-09
99	0xb2c57a3c	-2.2989404e-08
100	0x3d21ddf7	0.039518323
101	0xb2950c7f	-1.7351566e-08
102	0x3309bc02	3.206879e-08
103	0x3487e9c4	2.5315796e-07
104	0x3e48b86c	0.19601601
105	0x3e31bc1b	0.17356913
106	0xb222c93e	-9.475398e-09
107	0x312a7f48	2.4810607e-09
108	0x3e4e3285	0.20136459
109	0xb270ec32	-1.4023543e-08
110	0x31fe176b	7.3950353e-09
111	0x3ab7e639	0.0014030404
112	0x3e6f16a9	0.23348488
113	0x3c0d07c0	0.008607805
114	0xb294a322	-1.7303652e-08
115	0x3c669561	0.014073701
116	0xb18d9db8	-4.1215706e-09
117	0xb3ae9fef	-8.131598e-08
118	0x301c3686	5.682995e-10
119	0x3ee49f91	0.4465299
120	0x3c6d0752	0.014467077
121	0x31f1e794	7.0403505e-09
122	0x3dc3ebc4	0.09566453
123	0x332dcf0c	4.046801e-08
124	0x3e615b39	0.22007455
125	0x3ec61b25	0.38692585
126	0x3da94a70	0.08266151
127	0x3c07f671	0.008298502
128	0x3cb2982c	0.021801077
129	0xb1c4dea9	-5.7296643e-09
130	0x32908db7	1.682825e-08
131	0x3c878ba3	0.016546076
132	0x3e1749ce	0.14774248
133	0x3bd1f97e	0.0064079156
134	0x31b6fd76	5.3257123e-09
135	0xb1ea1843	-6.8130546e-09
136	0x3e005c94	0.12535316
137	0x34caa0ab	3.7742333e-07
138	0x3dcf4643	0.10120823
139	0x3d9a65e3	0.075389646
140	0x33866378	6.2579545e-08
141	0x3d529ac8	0.051417142
142	0x3b4cd86b	0.0031256925
143	0x3e3e1156	0.185613
144	0x3f078c60	0.5294857
145	0xb1fc91d0	-7.3507422e-09
146	0x3e45df3c	0.19323438
147	0x3eef5aec	0.46749055
148	0xb0b34698	-1.3044028e-09
149	0x3980e562	0.00024584966
150	0xb1ec241b	-6.8726087e-09
151	0x3d365e47	0.044523504
152	0x3d97abff	0.074058525
153	0x3a8258a5	0.0009944631
154	0x3bb314c7	0.0054651233
155	0x3e445c9c	0.19175953
156	0x32d110d8	2.4338462e-08
157	0xb0e9a62b	-1.7000209e-09
158	0x3f0ddca2	0.55414784
159	0x3f3f35c9	0.74691445
160	0x303f79f0	6.965868e-10
161	0x3e382a16	0.17984805
162	0xaf11e2fc	-1.3268314e-10
163	0xb296e464	-1.7566158e-08
164	0x2fdbdf74	3.999464e-10
165	0xb1a4839f	-4.787992e-09
166	0xb1d94e20	-6.324413e-09
167	0x3a4538ea	0.00075234345
168	0xb28f02bc	-1.6648634e-08
169	0xb19618ae	-4.3683803e-09
170	0x3eabf278	0.33583426
171	0x3b26ee92	0.0025471789
172	0x3d4baaeb	0.049723547
173	0x3195b019	4.3564907e-09
174	0xb0c7c01d	-1.4533758e-09
175	0x3e6bd838	0.230317
176	0x331f3511	3.7068336e-08
177	0x32a59b52	1.927916e-08
178	0x3ca85ecc	0.020553015
179	0x30faf741	1.8260168e-09
180	0x3cd6e091	0.026230128
181	0x3d5f80ef	0.05456632
182	0x323bdc53	1.09349285e-08
183	0x3de29588	0.11063677
184	0xb3864bb4	-6.2536316e-08
185	0x32e30d1c	2.643224e-08
186	0x3e771b70	0.2413156
187	0x32defbf0	2.595877e-08
188	0x3f31e8d4	0.6949589
189	0x3f2e0ba5	0.6798652
190	0x3b8bf0c5	0.0042706453
191	0xb3425248	-4.524398e-08
192	0x33e16d4b	1.0497259e-07
193	0x3d5f0838	0.054451197
194	0x3d5462b5	0.051851947
195	0x3d90fec0	0.0707984
196	0x3ae8dc97	0.0017765936
197	0x3da62b70	0.08113754
198	0x3e8829d9	0.26594427
199	0xb2593c90	-1.2644833e-08
200	0x3e18f3a1	0.14936687
201	0x323068e3	1.0268397e-08
202	0xb290ee46	-1.687216e-08
203	0x3f1dfed0	0.6171694
204	0x3de347a6	0.1109765
205	0x3bf87ff8	0.0075836144
206	0x3d07a6f5	0.033118207
207	0xb2949bd4	-1.730033e-08
208	0xb3b1b0dc	-8.274375e-08
209	0x3dc66a83	0.09688284
210	0xb388155d	-6.3368795e-08
211	0x3418c0ab	1.4226195e-07
212	0x3d66e8a6	0.056374215
213	0x3d81f8cf	0.063462846
214	0x3eb40aed	0.35164586
215	0xb1ea446c	-6.818075e-09
216	0x3dcdf079	0.10055632
217	0x329a43d9	1.7958813e-08
218	0x31c3fa3f	5.7036966e-09
219	0xb3f42708	-1.1369235e-07
220	0x3c45ed2d	0.012080473
221	0x3eb1a9ed	0.34699956
222	0x39fb7ab8	0.00047965883
223	0x3983b40c	0.00025120412
224	0x31b8e2da	5.380895e-09
225	0x3c98b316	0.018640082
226	0xb1b07633	-5.135712e-09
227	0x3d284e36	0.041090213
228	0x3b61d99c	0.003446198
229	0x359c20bb	1.1632432e-06
230	0xb2271656	-9.725758e-09
231	0x3e227eda	0.15868703
232	0x33978f64	7.057568e-08
233	0x3e1377ef	0.1440122
234	0x3d0cdbc1	0.03438926
235	0x3dbca16d	0.09210477
236	0x32afd230	2.0468264e-08
237	0xb309f75f	-3.212278e-08
238	0x3074ef39	8.910664e-10
239	0xb292cc88	-1.7089647e-08
240	0xb272fec9	-1.4144185e-08
241	0xb329bda6	-3.9520863e-08
242	0x32b659d8	2.1228445e-08
243	0x3e1fd100	0.15607071
244	0xb1e1b8d6	-6.5693753e-09
245	0x3d599531	0.053120796
246	0x3e80432a	0.25051242
247	0x32ce195f	2.3993094e-08
248	0xb2b94ca0	-2.157168e-08
249	0x320d6f99	8.232655e-09
250	0x3e358d85	0.17729767

bias f4 [251]
0	0xc0ce3a75	-6.444636
1	0xc0af4069	-5.4766126
2	0xc0c50c71	-6.1577687
3	0xc0b07c80	-5.5151978
4	0xc0b6464e	-5.696082
5	0xc0f07b85	-7.515078
6	0xc0d312c7	-6.596042
7	0xc0b50320	-5.6566315
8	0xc0afc2b4	-5.4925175
9	0xc0c1c3f0	-6.055168
10	0xc0bb1958	-5.8468437
11	0xc0b29b29	-5.5814404
12	0xc0e6c3b7	-7.211391
13	0xc0af0922	-5.469865
14	0xc0be3cf7	-5.944942
15	0xc0b68a0a	-5.7043505
16	0xc0f1d961	-7.5577855
17	0xc0cc859a	-6.391309
18	0xc0c452c7	-6.1351047
19	0xc0cc2906	-6.3800077
20	0xc0d05e53	-6.511514
21	0xc0af0895	-5.4697976
22	0xc0c0b15d	-6.021651
23	0xc0d1e312	-6.5589685
24	0xc0b0b563	-5.522142
25	0xc0aedf7a	-5.46478
26	0xc0b3a0aa	-5.6133623
27	0xc0da714a	-6.826329
28	0xc0d34e6a	-6.603322
29	0xc0cf1101	-6.4708257
30	0xc0c364eb	-6.106069
31	0xc0c0a36b	-6.0199485
32	0xc0b94061	-5.7891088
33	0xc0b349cc	-5.6027584
34	0xc0afbb00	-5.491577
35	0xc0bb1da5	-5.8473687
36	0xc0db7edc	-6.859236
37	0xc0c48ac9	-6.1419415
38	0xc0b2823a	-5.578397
39	0xc0bb86f6	-5.8602247
40	0xc0af250e	-5.4732733
41	0xc0b0c04a	-5.523473
42	0xc0b5f4a6	-5.6861143
43	0xc0c70c60	-6.2202606
44	0xc0b84168	-5.757984
45	0xc0ad856c	-5.422537
46	0xc0ca6a43	-6.3254714
47	0xc0b60a1c	-5.688734
48	0xc0e22ede	-7.068221
49	0xc0bbad07	-5.8648715
50	0xc0c51622	-6.1589518
51	0xc0bf1d06	-5.972293
52	0xc0b8449f	-5.7583766
53	0xc0bb1c57	-5.8472095
54	0xc0b60d6f	-5.68914
55	0xc0e589b6	-7.1730604
56	0xc0fad7c1	-7.838837
57	0xc0b8bcaa	-5.7730303
58	0xc0b4fa3e	-5.655547
59	0xc0cbfd7c	-6.374693
60	0xc0c2f258	-6.092083
61	0xc0bc20f9	-5.879025
62	0xc0b1a02f	-5.5508037
63	0xc0d319f7	-6.5969195
64	0xc0d84f48	-6.759678
65	0xc0c30a77	-6.0950274
66	0xc0ba7242	-5.8264475
67	0xc0b5fb99	-5.6869626
68	0xc0c9ee15	-6.3103127
69	0xc0c69ecd	-6.206885
70	0xc0c39e80	-6.113098
71	0xc0b055de	-5.510482
72	0xc0afd5d1	-5.4948506
73	0xc0c45133	-6.134912
74	0xc0af4f79	-5.4784513
75	0xc0bdacee	-5.9273596
76	0xc0bfa944	-5.9894123
77	0xc0aff1ea	-5.4982805
78	0xc0ce8c21	-6.4546056
79	0xc0bf8b1b	-5.9857306
80	0xc0c1aade	-6.052108
81	0xc0be1ac6	-5.9407682
82	0xc0c74740	-6.2274475
83	0xc0c3e757	-6.1219897
84	0xc0b5cb0f	-5.6810374
85	0xc0b92b68	-5.7865486
86	0xc0b92c80	-5.786682
87	0xc0ae2406	-5.4418974
88	0xc0fa0a7b	-7.8137794
89	0xc0eb1893	-7.34675
90	0xc0b1cd0f	-5.5562816
91	0xc0b03076	-5.5059156
92	0xc0d196d4	-6.5496616
93	0xc0b0d2ec	-5.5257473
94	0xc0b2b9c3	-5.585176
95	0xc0f4542e	-7.635276
96	0xc0baa3cd	-5.832495
97	0xc0b40e46	-5.6267424
98	0xc0b2aec3	-5.583833
99	0xc0b4ba93	-5.647775
100	0xc0cd7a02	-6.4211435
101	0xc0bb6af7	-5.856807
102	0xc0b11466	-5.53374
103	0xc0b69547	-5.7057223
104	0xc0dd9871	-6.9248586
105	0xc0dd6dcb	-6.9196525
106	0xc0b5f493	-5.6861053
107	0xc0cb7b57	-6.358806
108	0xc0e4bbbe	-7.1479177
109	0xc0b5a083	-5.6758437
110	0xc0c1b64c	-6.053503
111	0xc0c893e9	-6.2680554
112	0xc0dd2378	-6.9105797
113	0xc0ba3aa5	-5.8196588
114	0xc0bab3d1	-5.8344502
115	0xc0b7b942	-5.7413645
116	0xc0b60bac	-5.688925
117	0xc0aea139	-5.4571805
118	0xc0b337f3	-5.6005797
119	0xc0f163f1	-7.54345
120	0xc0bc3789	-5.881779
121	0xc0b40164	-5.6251698
122	0xc0cbe812	-6.372079
123	0xc0b8ba86	-5.772769
124	0xc0dd6182	-6.918153
125	0xc0f045a6	-7.508502
126	0xc0cacad5	-6.33726
127	0xc0b499e3	-5.643785
128	0xc0b85685	-5.7605615
129	0xc0afe9d7	-5.497295
130	0xc0af669a	-5.4812746
131	0xc0b84dda	-5.7595034
132	0xc0cd177b	-6.4091163
133	0xc0b3757d	-5.608092
134	0xc0b527c0	-5.6611023
135	0xc0b8ccff	-5.775024
136	0xc0e28cf0	-7.0797043
137	0xc0c3b703	-6.1160903
138	0xc0d27a38	-6.5774193
139	0xc0c5ce56	-6.1814375
140	0xc0b06091	-5.511788
141	0xc0c9a922	-6.301896
142	0xc0b61c8b	-5.6909842
143	0xc0dbcdf6	-6.8688917
144	0xc0ff7e68	-7.9841805
145	0xc0b131c4	-5.537325
146	0xc0dc2e05	-6.8806176
147	0xc0f7d3a1	-7.7445836
148	0xc0b2dd43	-5.5895095
149	0xc0b6173f	-5.6903377
150	0xc0cc2801	-6.3798833
151	0xc0c5a783	-6.176698
152	0xc0c97724	-6.2957935
153	0xc0b019e2	-5.5031595
154	0xc0b2d85f	-5.5889125
155	0xc0db9303	-6.861696
156	0xc0b169dc	-5.5441723
157	0xc0bc10a4	-5.8770313
158	0xc0ffc77d	-7.9931016
159	0xc104d335	-8.301564
160	0xc0b20b4a	-5.563878
161	0xc0d681c8	-6.7033424
162	0xc0ae7401	-5.4516606
163	0xc0b97969	-5.7960706
164	0xc0c3a7df	-6.114242
165	0xc0b10b64	-5.5326405
166	0xc0b43b7e	-5.632262
167	0xc0be6bf8	-5.95068
168	0xc0bc190e	-5.8780584
169	0xc0ce9a19	-6.4563107
170	0xc0e6e179	-7.2150235
171	0xc0b648fa	-5.6964083
172	0xc0c91bc8	-6.2846413
173	0xc0c62c95	-6.192942
174	0xc0b126f3	-5.5360045
175	0xc0ecf22d	-7.4045625
176	0xc0afac43	-5.489778
177	0xc0b3ca67	-5.6184573
178	0xc0b5be65	-5.6794915
179	0xc0c269b1	-6.075402
180	0xc0bdb41d	-5.9282365
181	0xc0ce531e	-6.447646
182	0xc0b1a2cf	-5.551124
183	0xc0cde231	-6.4338613
184	0xc0b0f9e7	-5.5305057
185	0xc0ba29af	-5.8175883
186	0xc0e3d76c	-7.1200466
187	0xc0b4ac25	-5.6460137
188	0xc10ab5cc	-8.669384
189	0xc103c90a	-8.236582
190	0xc0b8c28d	-5.773749
191	0xc0ae8fc2	-5.4550486
192	0xc0b05668	-5.5105476
193	0xc0ca06f5	-6.3133492
194	0xc0c0a4ae	-6.0201025
195	0xc0c5ff84	-6.187441
196	0xc0b00f21	-5.501847
197	0xc0c3d1f8	-6.119381
198	0xc0dea53a	-6.9576693
199	0xc0b9ba78	-5.8040123
200	0xc0db3834	-6.8506107
201	0xc0ca7d2a	-6.327779
202	0xc0b23400	-5.5688477
203	0xc10dcf99	-8.863183
204	0xc0d737cc	-6.725561
205	0xc0c34399	-6.1020017
206	0xc0c0e629	-6.0280957
207	0xc0b59051	-5.6738667
208	0xc0af1795	-5.4716287
209	0xc0cbb68c	-6.3660336
210	0xc0b4254e	-5.629554
211	0xc0bef8a8	-5.9678535
212	0xc0d003e3	-6.5004745
213	0xc0c7f8ad	-6.249106
214	0xc0e90b2b	-7.2826133
215	0xc0c1875c	-6.0477734
216	0xc0d03b09	-6.5072064
217	0xc0ba5756	-5.823161
218	0xc0b886a2	-5.7664347
219	0xc0b0a4d2	-5.5201197
220	0xc0bd14c3	-5.9087844
221	0xc0e8ce0c	-7.275152
222	0xc0b1f101	-5.5606694
223	0xc0b32fbc	-5.599577
224	0xc0d7f1fb	-6.7482886
225	0xc0cd6eeb	-6.41979
226	0xc0b31ea3	-5.59749
227	0xc0ca0e22	-6.314225
228	0xc0b8626a	-5.7620134
229	0xc0b90eed	-5.783072
230	0xc0b76f90	-5.7323685
231	0xc0d0a57c	-6.5202007
232	0xc0b3caab	-5.6184897
233	0xc0cedd6c	-6.464529
234	0xc0be0a58	-5.9387627
235	0xc0d391c9	-6.611546
236	0xc0b1d1a8	-5.556843
237	0xc0cda1ed	-6.4260163
238	0xc0b44f60	-5.6346893
239	0xc0b23e1e	-5.5700827
240	0xc0ae4d5d	-5.4469438
241	0xc0ada3cf	-5.426246
242	0xc0b8ea2a	-5.7785845
243	0xc0ce474e	-6.446204
244	0xc0d89162	-6.767747
245	0xc0ce891a	-6.454236
246	0xc0e365e5	-7.1061883
247	0xc0b56ca2	-5.669511
248	0xc0b6c5c0	-5.7116394
249	0xc0b9b3f3	-5.8032165
250	0xc0d3555b	-6.6041694
