EXP11_dump/bottleneck_model_second.pth (torch, 77664 bytes, 19 tensors)

weight f4 [30, 251]
0.0031304583 -0.6301285 -0.2986427 0.39316922 0.22849405 -0.13537294 -0.43060195 -0.042381153
0.27799737 -0.22177736 0.3733623 0.05591093 0.38166136 -0.030232446 -0.14971048 -0.21272622
0.28627372 -0.111863084 0.18141986 4.7106e-05 -0.24804655 -0.8604133 -0.09970535 -0.32572055
-0.2514781 0.60898465 -0.21956979 -0.093873665 0.16980204 0.16216412 0.09690108 0.031123789
0.31252405 -0.17410108 0.33634517 -0.5135734 -0.0074977763 0.86680377 0.17153522 0.09581886
0.05147228 0.092876844 0.21361828 -0.281862 0.36236593 -0.11079315 0.33578682 -0.12447838
-0.23760729 0.20498045 0.106220685 0.24985044 0.35565683 0.20865533 -0.07202404 0.2990476
0.011269632 0.030190157 -0.26221907 0.0005425187 0.4497768 -0.22146894 0.16171376 -0.28506514
0.026407076 -0.4502664 -0.24040137 -0.3347011 0.28189474 -0.21383128 -0.3639371 0.30502847
0.016945403 0.062125422 0.2683267 0.57997006 -0.07161178 0.26133677 -0.036900923 -0.1950797
-0.05150172 0.17254312 0.42981014 -0.5389408 0.074381255 -0.029786559 -0.27285528 0.28063503
-0.60154366 0.42728096 -0.44425946 -0.2533461 0.31117272 -0.22795418 0.12196486 0.35678294
-0.20155884 -0.18957558 -0.12052098 0.513692 0.22856121 -0.11499402 0.084087476 -0.11596666
-0.41912213 0.09668847 0.18250774 -0.04445893 -0.17587286 0.13279904 0.251896 0.100294426
-0.51378113 0.101129904 0.37768775 -0.08389795 -0.021142242 -0.026513655 0.07967917 0.29733485
0.53995246 -0.03965244 0.040966034 0.4149204 0.57979435 0.18642178 -0.21968669 0.044298276
0.28182942 0.38504702 -0.2771411 -0.08191777 0.18640912 -0.081923224 -0.06672284 -0.03217993
-0.18171449 -0.38662943 0.044566866 0.091893785 -0.22457616 -0.42056745 0.15535736 0.2910998
-0.3799831 -0.069811106 -0.0725331 0.079745635 -0.09410117 -0.09612012 0.25631526 0.15531158
0.23603064 -0.43123883 -0.325105 -0.23827314 0.043126047 -0.08055525 0.038385667 -0.7624282
0.014793815 0.09059037 0.0229957 0.29043254 0.3600431 -0.22002111 0.0097540375 0.1889332
0.6305688 0.4223717 0.024782386 -0.17640314 0.09552772 -0.10239171 0.5516299 -0.14071195
-0.18990989 0.36584806 0.4938707 -0.117087066 0.23565505 0.33088115 -0.017011149 0.052939706
-0.07335804 -0.06319723 0.22609708 -0.030807082 -0.17816941 -0.17274202 0.093552254 0.23632771
-0.09657717 0.1925282 -0.14868322 -0.46429062 -0.2827894 -0.30072019 0.13243693 -0.49181443
0.99658597 -0.21319252 0.013146741 0.063806236 -0.004882006 -0.26613748 0.6612891 -0.015908824
-0.047179885 -0.13741623 -0.07111005 0.25163114 0.31071848 -0.402143 -0.31568116 0.15798363
-0.35996774 0.25076532 0.14125827 0.1290629 -0.01783185 0.02723202 0.16039824 0.47715998
-0.0020749178 0.5091863 0.16549571 0.4347926 0.35279632 0.319199 0.17571664 0.0993662
0.16212536 0.016421553 0.5415153 -0.2988989 -0.26795733 -0.18468109 -0.18446885 0.031721417
0.31816596 -0.45614102 0.059234265 0.14631368 -0.5365119 0.08872969 -0.34652585 -0.24891435
0.13396303 0.7055903 0.4373448 -0.053837147 -0.4751625 -0.4146001 0.18900289 0.12804376
00000000: 6028 4d3b 1a50 21bf b2e7 98be 7a4d c93e
00000010: 58fa 693e 349f 0abe dc77 dcbe dc97 2dbd
00000020: ac55 8e3e 9b19 63be 5829 bf3e dc02 653d
00000030: 1e69 c33e 09aa f7bc b44d 19be e7d4 59be
00000040: 7892 923e 7918 e5bd 21c6 393e af93 4538
00000050: eaff 7dbe 0c44 5cbf 5232 ccbd d8c4 a6be
00000060: bdc1 80be 6be6 1b3f e7d6 60be d640 c0bd
00000070: 96e0 2d3e 5a0e 263e 1374 c63d 51f7 fe3c
00000080: 2703 a03e 8e47 32be 6f35 ac3e 8c79 03bf
00000090: e8af f5bb dae6 5d3f eea6 2f3e ae3c c43d
000000a0: 99d4 523d 3736 be3d c0be 5a3e 3750 90be
000000b0: 0788 b93e 85e7 e2bd 40ec ab3e 85ee febd
000000c0: 534f 73be 65e6 513e 3b8a d93d cbd8 7f3e
000000d0: a718 b63e bea9 553e 5781 93bd c41c 993e
000000e0: 43a4 383c 5951 f73c 9441 86be d037 0e3a
000000f0: 2549 e63e c1c8 62be 4b98 253e 0ff4 91be
00000100: a753 d83c 5189 e6be c72b 76be f15d abbe
00000110: 8254 903e 96f6 5abe f755 babe b12c 9c3e
00000120: 16d1 8a3c 3a77 7e3d 1e62 893e eb78 143f
00000130: 32a9 92bd efcd 853e 6c25 17bd f9c2 47be
00000140: 78f3 52bd 25af 303e 1310 dc3e 06f8 09bf
00000150: 3355 983d f102 f4bc b0b3 8bbe 65af 8f3e
00000160: c4fe 19bf 92c4 da3e fa75 e3be 94b6 81be
00000170: 0852 9f3e d26c 69be b6c8 f93d 41ac b63e
00000180: 7165 4ebe 1a20 42be b4d3 f6bd 5281 033f
00000190: f30b 6a3e fc81 ebbd 0e36 ac3d ee7f edbd
000001a0: 2d97 d6be 9b04 c63d 4fe3 3a3e 911a 36bd
000001b0: 0418 34be 79fc 073e 83f8 803e 2a67 cd3d
000001c0: 2987 03bf 321d cf3d 4a60 c13e b0d2 abbd
000001d0: 7f32 adbc 2a33 d9bc d52e a33d 463c 983e
000001e0: 533a 0a3f 996a 22bd 00cc 273d 7270 d43e
000001f0: 676d 143f 5ae5 3e3e 8cf5 60be 1c72 353d
00000200: f24b 903e e224 c53e 70e5 8dbe 81c4 a7bd
00000210: 08e2 3e3e 5dc7 a7bd fca5 88bd 1acf 03bd
00000220: 5d13 3abe 4bf4 c5be bf8b 363d cf32 bc3d
00000230: 4bf7 65be 9e54 d7be 0016 1f3e 080b 953e
00000240: 258d c2be 20f9 8ebd 3c8c 94bd ae51 a33d
00000250: 1db8 c0bd a0da c4bd c13b 833e 000a 1f3e
00000260: 04b2 713e 56cb dcbe 2a74 a6be e0fd 73be
00000270: f0a4 303d 27fa a4bd 4a3a 1d3d 7f2e 43bf
00000280: c261 723c 7287 b93d 7a61 bc3c 93b3 943e
00000290: 9257 b83e 374d 61be 66cf 1f3c b477 413e
000002a0: f56c 213f 1a41 d83e 6e04 cb3c 06a3 34be
000002b0: 0aa4 c33d bfb2 d1bd 9e37 0d3f cb16 10be
000002c0: bd77 42be 7050 bb3e 9fdc fc3e 58cb efbd
000002d0: 8f4f 713e 4169 a93e f75a 8bbc 4ed7 583d
000002e0: bd3c 96bd 8d6d 81bd fe85 673e 225f fcbc
000002f0: 0b72 36be 49e3 30be 5398 bf3d e4ff 713e
00000300: 40ca c5bd 1d26 453e 6a40 18be 80b7 edbe
00000310: c6c9 90be fff7 99be 8c9d 073e 1acf fbbe
00000320: 4220 7f3f 244f 5abe 6e65 573c d8ac 823d
00000330: 3cf9 9fbb 2c43 88be 3e4a 293f 3953 82bc
00000340: b23f 41bd d7b6 0cbe 25a2 91bd ccd5 803e
00000350: 7e16 9f3e b0e5 cdbe f6a0 a1be 76c6 213e
00000360: b14d b8be 5064 803e 02a6 103e 1129 043e
00000370: 1a14 92bc af15 df3c 703f 243e 504e f43e
00000380: 58fb 07bb 095a 023f b577 293e 239d de3e
00000390: b8a1 b43e 0d6e a33e 10ef 333e 8280 cb3d
000003a0: 3104 263e 7e86 863c bfa0 0a3f 4709 99be
000003b0: b431 89be 0a1d 3dbe 67e5 3cbe 51ee 013d
000003c0: a6e6 a23e 518b e9be a19f 723d 41d3 153e
000003d0: d858 09bf e9b7 b53d d66b b1be 67e3 7ebe
000003e0: 9b2d 093e 91a1 343f a8eb df3e 5784 5cbd
000003f0: 8048 f3be 7746 d4be f989 413e e71d 033e

bias f4 [30]
0.028043112 -0.060035426 -0.051822122 -0.022757383 0.011559325 0.0068147355 -0.024500536 0.03277801
-0.003414151 0.054417387 0.019803176 -0.034239918 -0.062126257 0.008478393 -0.054652747 0.03473215
-0.018354654 -0.04039378 -0.025147058 0.055563807 -0.0294849 0.050573446 0.030707238 0.024014581
0.016037934 -0.034976956 0.014776771 0.060620297 0.055812184 0.018372506
00000000: abba e53c b5e7 75bd 6f43 54bd b16d babc
00000010: 5363 3d3c 254e df3b 59b5 c8bc 3c42 063d
00000020: f3bf 5fbb c4e4 5e3d 453a a23c 283f 0cbd
00000030: 1a78 7ebd f5e8 0a3c 8fdb 5fbd 4d43 0e3d
00000040: 805c 96bc f373 25bd 3401 cebc e096 633d
00000050: 518a f1bc 1a26 4f3d bf8d fb3c 3aba c43c
00000060: fc61 833c ff43 0fbd 451a 723c fd4c 783d
00000070: 519b 643d f081 963c

weight f4 [30]
0.23115467 0.79559547 0.46033642 0.62955064 0.13842893 0.24548854 0.05720792 0.041061908
0.9234515 0.33690178 0.8484621 0.5370836 0.65204656 0.27976972 0.43394756 0.827898
0.5039061 0.8897491 0.26517177 0.7339876 1.0441597 0.11897428 0.83030164 0.24508764
0.39507782 0.38870174 0.61959 0.808766 0.09966212 0.032022834
00000000: cfb3 6c3e 25ac 4b3f 37b1 eb3e 3b2a 213f
00000010: 50c0 0d3e 5961 7b3e da52 6a3d 8830 283d
00000020: 5167 6c3f 647e ac3e d034 593f 507e 093f
00000030: 86ec 263f fa3d 8f3e 602e de3e 20f1 533f
00000040: fdff 003f 99c6 633f 98c4 873e 9de6 3b3f
00000050: 06a7 853f caa8 f33d a68e 543f 41f8 7a3e
00000060: a447 ca3e ea03 c73e 739d 1e3f 4a0b 4f3f
00000070: a71b cc3d 602a 033d

bias f4 [30]
-0.7472408 -1.0530406 -1.5811626 -1.1631019 0.21721002 0.5751277 0.33616605 1.181038
-1.1527874 -0.8542542 -1.0458764 0.1490548 0.91491336 -1.6079838 -0.64213294 -1.1969664
0.09019319 -1.1137217 -0.51955736 -0.96498436 -1.2498647 1.2943684 -1.0410746 -1.1728705
0.30059454 0.6667295 -1.7883909 -1.0105097 0.16561313 0.12235156
00000000: 2c4b 3fbf 09ca 86bf 8963 cabf 86e0 94bf
00000010: 4e6c 5e3e 923b 133f f51d ac3e 412c 973f
00000020: 8a8e 93bf 67b0 5abf 47df 85bf d2a1 183e
00000030: c337 6a3f 6ad2 cdbf d362 24bf 3236 99bf
00000040: 35b7 b83d 6f8e 8ebf b601 05bf 3709 77bf
00000050: 91fb 9fbf ddad a53f ef41 85bf 9f20 96bf
00000060: 87e7 993e c9ae 2a3f fee9 e4bf 6258 81bf
00000070: 7d96 293e 7493 fa3d

running_mean f4 [30]
6.8266234 -26.974579 4.991665 -42.05027 10.233627 32.709965 -65.273674 28.56208
-36.63536 -5.6596584 -22.751013 74.299904 36.068386 4.6685553 -10.023579 -31.103432
68.371 -24.772547 58.76152 -18.164555 -39.532562 -62.564434 -25.203566 7.3979
75.832794 35.596992 -45.16948 -22.414236 11.602873 13.67769
00000000: b373 da40 f0cb d7c1 b8bb 9f40 7a33 28c2
00000010: f0bc 2341 01d7 0242 1f8c 82c2 247f e441
00000020: 9c8a 12c2 ec1b b5c0 1302 b6c1 8d99 9442
00000030: 0746 1042 ce64 9540 9460 20c1 d4d3 f8c1
00000040: f4bd 8842 2d2e c6c1 cc0b 6b42 0251 91c1
00000050: 5821 1ec2 fb41 7ac2 e7a0 c9c1 99bb ec40
00000060: 64aa 9742 5263 0e42 8cad 34c2 5b50 b3c1
00000070: 5ea5 3941 d1d7 5a41

running_var f4 [30]
0.07463252 0.08026555 0.08602375 0.041626427 0.08751712 0.080024146 0.037107017 0.07915649
0.07359327 0.084226154 0.09148186 0.013708788 0.07401496 0.08382793 0.08357184 0.07039968
0.010593931 0.088239774 0.033549555 0.08661674 0.075156406 0.04314977 0.073654905 0.08435146
0.020565126 0.081219 0.07146393 0.08057506 0.08319021 0.08027827
00000000: efd8 983d 4462 a43d 382d b03d 7980 2a3d
00000010: 2d3c b33d b3e3 a33d 87fd 173d cc1c a23d
00000020: 11b8 963d c37e ac3d d75a bb3d d39a 603c
00000030: 2895 973d faad ab3d b627 ab3d b52d 903d
00000040: 2b92 2d3c 0eb7 b43d 426b 093d 1e64 b13d
00000050: 9aeb 993d d0bd 303d 62d8 963d 75c0 ac3d
00000060: 3278 a83c 2656 a63d ae5b 923d 8904 a53d
00000070: a15f aa3d ef68 a43d

weight f4 [30, 30]
0.57360893 -0.19397447 -0.21558248 -0.20023562 -0.114127174 -0.27280384 -0.112802014 0.00085974165
0.34125212 -0.17290662 -0.116595365 -0.2913106 -0.16719604 -0.6299487 0.6042814 0.36073872
0.024499726 -0.91877586 -0.14057331 -0.87983465 -0.10278788 -0.20921761 -0.53454155 -0.47246686
-0.28271297 -0.07665409 -0.2800384 -1.1894433 -0.5213678 -0.56034356 0.15864074 -0.10529106
-0.47171006 -0.36675176 -0.196038 -0.39497244 0.006837634 -0.3372062 -0.30981067 0.24518006
0.043895446 0.23627459 -0.14387152 -0.6931856 -0.20207776 0.039726585 0.15524651 -0.0584384
-0.20512803 -1.2463877 -0.38117477 0.197796 -0.13794419 -1.0575635 -0.03331147 -0.14454181
-0.5705029 -0.2840065 -0.3160091 -0.3007536 0.50494075 0.40115073 -0.43073922 -0.24555328
0.19840115 -0.3172264 0.018626219 -0.23656772 -0.3946704 -0.6036583 -0.33196425 -0.13311902
-0.16212374 -0.2566123 -0.23972583 -0.645032 -0.16530806 -0.7951286 -0.27013233 -0.34289426
-1.0890572 0.11018673 -0.46237186 0.27737743 -0.2853171 -0.37050712 -0.55298394 -0.28360492
-0.23077972 -0.24548203 0.21966986 0.2332272 -0.38331038 0.50595397 0.086045355 0.084656164
-0.101122126 0.22713897 0.8778801 -0.3008699 -0.35120064 -0.056148548 0.2603435 -0.18412273
0.11413705 -0.25207126 0.06333852 -0.098473 0.10087696 -0.13747568 0.43995547 -0.34550604
-0.23957328 0.10939055 -0.020652765 0.4170839 1.0613467 0.17154469 -0.35286233 0.45917854
0.029979566 -0.37903598 -0.25678375 -1.0213926 -0.2725174 -0.19223426 0.44232082 0.09422538
0.1084603 0.123452134 -0.30202526 0.06754424 -0.3908682 -0.1382219 0.3718826 -0.03936376
0.09705372 -0.017774137 -0.28043556 -0.019362576 0.12918957 0.11034882 -0.080338836 -0.34734085
0.3420304 -0.26704192 -1.7896978 -0.1330643 -0.021448273 -0.002245236 -0.16245517 -0.023185711
-0.6013586 0.09531295 -0.49918792 0.14357029 0.039079774 -0.009119226 -0.011030343 -0.37944332
-0.29956755 -0.09917125 -0.083986685 -0.09886954 0.26848367 -0.67252994 -0.08566831 0.46401143
-0.09764727 0.060791034 -0.16287805 0.1925722 -1.4234359 -0.5630442 -0.32680288 -0.1897206
0.01446203 -0.9135647 -0.7292973 -0.25928172 0.16606364 0.24796568 -0.5749062 -0.15725532
-0.26664424 -0.3630864 -0.2935799 -0.58311725 -0.4734608 0.31905568 0.21869835 -0.067988336
-0.076654285 -0.80958015 -0.3719773 -0.21870793 0.031595815 -0.07829047 -0.022424208 -1.6376466
-0.53755814 -0.098383 -0.2072085 -0.88870835 -0.39188036 -0.1372023 -0.17640126 -0.27994993
-0.30770302 -0.23557207 -0.13208848 0.6169009 -0.17693824 -0.2160255 0.037649807 0.14987914
0.60102665 -0.39058128 1.2366804 0.16444568 -0.15191549 0.17700845 0.09844475 -0.044520423
0.5585364 0.5148603 0.48085177 -0.043287456 -0.09025623 0.13772704 0.74762595 0.03512346
-0.0072797416 0.077159524 0.26400313 0.17246991 -0.6055259 -0.2721193 -0.14874402 0.13317557
0.23689374 -0.37137994 -0.048444975 -0.019703252 0.07106363 0.113577165 -0.5368083 0.6760841
-0.18131544 -0.21819429 -0.11285528 -0.31932208 -0.06316319 -0.30858204 -0.07334152 -0.4036329
00000000: 09d8 123f 3ea1 46be a7c1 5cbe 910a 4dbe
00000010: 82bb e9bd f2ac 8bbe be04 e7bd 4960 613a
00000020: 99b8 ae3e 6f0e 31be 8dc9 eebd aa26 95be
00000030: 7035 2bbe 5144 21bf 30b2 1a3f bfb2 b83e
00000040: a6b3 c83c e534 6bbf 73f2 0fbe d83c 61bf
00000050: 7482 d2bd 243d 56be b7d7 08bf 2de7 f1be
00000060: c1bf 90be d2fc 9cbd 3161 8fbe ae3f 98bf
00000070: 5c78 05bf ad72 0fbf b872 223e d7a2 d7bd
00000080: fb83 f1be e3c6 bbbe 2fbe 48be d439 cabe
00000090: 3b0e e03b 4ba6 acbe 819f 9ebe 7b10 7b3e
000000a0: b6cb 333d f7f1 713e 0e53 13be 9d74 31bf
000000b0: 79ed 4ebe 58b8 223d f1f8 1e3e 1b5d 6fbd
000000c0: 150d 52be a289 9fbf 5729 c3be 098b 4a3e
000000d0: 3e41 0dbe 3e5e 87bf 9c71 08bd c502 14be
000000e0: 7a0c 12bf 4d69 91be f2cb a1be 60fc 99be
000000f0: cc43 013f a163 cd3e da89 dcbe 5272 7bbe
00000100: ac29 4b3e 806b a2be 0396 983c cf3e 72be
00000110: 3d12 cabe 5a89 1abf 38f7 a9be 5a50 08be
00000120: c403 26be b062 83be b07a 75be d120 25bf
00000130: 8446 29be 8c8d 4bbf c94e 8abe d68f afbe
00000140: 3a66 8bbf 95a9 e13d 01bc ecbe 6a04 8e3e
00000150: 1515 92be 1cb3 bdbe 5b90 0dbf aa34 91be
00000160: 8551 6cbe a45f 7bbe 23f1 603e 1cd3 6e3e
00000170: 4241 c4be 3386 013f 8c38 b03d 3660 ad3d
00000180: 1e19 cfbd 1e97 683e c0bc 603f 9f0b 9abe
00000190: 92d0 b3be 05fc 65bd be4b 853e ab8a 3cbe
000001a0: b0c0 e93d 7c0f 81be a0b7 813d 36ac c9bd
000001b0: 9498 ce3d 6dc6 0cbe d841 e13e 2be6 b0be
000001c0: b352 75be 2708 e03d fd2f a9bc 058c d53e
000001d0: 35da 873f 69a9 2f3e 5faa b4be 7319 eb3e
000001e0: b597 f53c 0111 c2be 2979 83be febc 82bf
000001f0: 6787 8bbe 0fd9 44be e077 e23e 3cf9 c03d
00000200: 6f20 de3d 79d4 fc3d 0ea3 9abe a254 8a3d
00000210: e01f c8be 0b8a 0dbe 6567 be3e e53b 21bd
00000220: 1ac4 c63d 119b 91bc 4095 8fbe 449e 9ebc
00000230: 454a 043e 90fe e13d b088 a4bd a9d6 b1be
00000240: 9c1e af3e b8b9 88be d114 e5bf 0242 08be
00000250: 4ab4 afbc cf24 13bb a65a 26be f6ef bdbc
00000260: a3f2 19bf 7033 c33d 8f95 ffbe 1704 133e
00000270: 1d12 203d ce68 15bc 9db8 34bc 6546 c2be
00000280: eb60 99be 4c1a cbbd 3601 acbd 1d7c cabd
00000290: b176 893e ec2a 2cbf de72 afbd e892 ed3e
000002a0: 4bfb c7bd 0500 793d 81c9 26be a631 453e
000002b0: 2633 b6bf aa23 10bf b552 a7be 1e46 42be
000002c0: 26f2 6c3c 60df 69bf 3ab3 3abf 93c0 84be
000002d0: 960c 2a3e b7ea 7d3e 0d2d 13bf 8a07 21be
000002e0: 9885 88be 76e6 b9be 1b50 96be 2c47 15bf
000002f0: 7469 f2be 445b a33e 76f2 5f3e 783d 8bbd
00000300: ecfc 9cbd a540 4fbf cf73 bebe f9f4 5fbe
00000310: 9d6a 013d c156 a0bd f9b2 b7bc 679e d1bf
00000320: 699d 09bf 077d c9bd 772e 54be 6482 63bf
00000330: 8ba4 c8be c27e 0cbe 88a2 34be 9955 8fbe
00000340: 408b 9dbe ce39 71be 3442 07be 38ed 1d3f
00000350: 4c2f 35be ca35 5dbe af36 1a3d eb79 193e
00000360: e2dc 193f 45fa c7be 8b4b 9e3f 7364 283e
00000370: bc8f 1bbe b441 353e 679d c93d 0c5b 36bd
00000380: 3efc 0e3f e2cd 033f 3432 f63e 304e 31bd
00000390: 42d8 b8bd 5108 0d3e 6a64 3f3f 9edd 0f3d
000003a0: e68a eebb d005 9e3d 6b2b 873e f49b 303e
000003b0: bf03 1bbf 3953 8bbe 5a50 18be 2d5f 083e
000003c0: 4694 723e 8325 bebe 3d6e 46bd b768 a1bc
000003d0: cf89 913d 259b e83d 456c 09bf d913 2d3f
000003e0: c1aa 39be 536e 5fbe ab20 e7bd 2f7e a3be
000003f0: b45b 81bd 77fe 9dbe 1434 96bd f9a8 cebe

bias f4 [30]
0.048656523 -0.17482744 -0.17917883 0.06990177 0.13770244 -0.07059857 0.15462734 0.19195643
-0.11662334 -0.10180201 0.11091614 -0.18526444 0.11501794 0.14269526 -0.15123336 -0.15571867
0.18075609 -0.17686255 0.08612802 -0.09495083 -0.021371914 -0.15932257 -0.086327985 -0.11729079
-0.046962805 0.094953805 -0.13579293 -0.09161329 -0.018090835 -0.11903485
00000000: 104c 473d f705 33be a87a 37be a928 8f3d
00000010: de01 0d3e fc95 90bd a156 1e3e 3a90 443e
00000020: 38d8 eebd 927d d0bd 0028 e33d f6b5 3dbe
00000030: 878e eb3d b51e 123e ebdc 1abe b774 1fbe
00000040: 2018 393e 751b 35be e363 b03d 9575 c2bd
00000050: 2714 afbc 7525 23be bacc b0bd 2736 f0bd
00000060: 125c 40bd 2477 c23d 4d0d 0bbe c09f bbbd
00000070: 3b33 94bc 8bc8 f3bd

weight f4 [30]
0.3377404 0.58827066 0.44075584 0.53522915 0.34770912 0.22461037 0.50312805 0.38241082
0.5734555 0.23976104 0.7376225 1.0230335 0.35691538 0.29389143 0.19751368 0.18590581
0.54697573 0.23347786 0.4522034 0.22063723 0.31049407 0.91853535 0.4735199 0.53931725
1.1164294 0.44112262 0.6117356 0.67827016 0.61077505 1.0450597
00000000: 4fec ac3e e898 163f c0aa e13e c704 093f
00000010: ee06 b23e 4300 663e 00cd 003f 5acb c33e
00000020: fbcd 123f eb83 753e d4d4 3c3f c3f2 823f
00000030: 9dbd b63e f078 963e 0741 4a3e 185e 3e3e
00000040: 9a06 0c3f d214 6f3e 3487 e73e baee 613e
00000050: 14f9 9e3e 2225 6b3f 3371 f23e b210 0a3f
00000060: 29e7 8e3f d3da e13e b49a 1c3f 1da3 2d3f
00000070: c15b 1c3f 84c4 853f

bias f4 [30]
0.8922814 2.0302794 1.6716913 -1.0578014 1.4410784 0.5932058 1.3388817 1.1227298
1.4575055 0.6303761 -2.190374 0.45108435 2.1571286 3.2366533 0.99932295 0.72425103
-1.2337306 1.240374 -0.9168075 0.46279055 0.7276812 4.215899 2.0984015 1.4646004
-1.2163606 1.3718119 -1.302338 -1.8103563 -1.3328977 4.7320557
00000000: 8e6c 643f 19f0 0140 fbf9 d53f 0966 87bf
00000010: 4275 b83f 56dc 173f 7a60 ab3f 9cb5 8f3f
00000020: 8a8f ba3f 5460 213f 162f 0cc0 87f4 e63e
00000030: 650e 0a40 5425 4f40 a1d3 7f3f 8468 393f
00000040: e2ea 9dbf 93c4 9e3f e5b3 6abf e2f2 ec3e
00000050: 5149 3a3f a5e8 8640 364c 0640 0778 bb3f
00000060: b4b1 9bbf 8897 af3f 03b3 a6bf c1b9 e7bf
00000070: 649c aabf 006d 9740

running_mean f4 [30]
-0.02361067 0.47387677 0.12369887 -0.03114122 1.1338067 0.5721601 -0.18720004 0.2216602
-0.1782014 -0.9096618 -0.09882213 0.45541817 -0.5173373 0.30666983 1.0492581 -0.27298087
-0.27283013 -0.63144815 -0.5235198 0.0767909 -0.13486502 -1.0217748 0.7083967 0.34105945
0.40634942 -0.12968767 -0.28604567 -0.9467806 -0.25701648 -0.046731964
00000000: 2a6b c1bc fa9f f23e d555 fd3d df1b ffbc
00000010: 9420 913f 1679 123f 5eb1 3fbe e4fa 623e
00000020: 6e7a 36be 99df 68bf 4263 cabd 922c e93e
00000030: 3870 04bf d403 9d3e 174e 863f 26c4 8bbe
00000040: 64b0 8bbe 96a6 21bf 6505 06bf 8c44 9d3d
00000050: 0e1a 0abe 84c9 82bf 7c59 353f 589f ae3e
00000060: 080d d03e d8cc 04be 9474 92be 3760 72bf
00000070: aa97 83be 046a 3fbd

running_var f4 [30]
0.20156053 0.1251493 0.20764317 0.075834416 0.07374376 0.17837813 0.18141754 0.20033482
0.12285593 0.16522884 0.08298682 0.2229394 0.33282495 0.106266245 0.20375301 0.09710887
0.07887815 0.08373396 0.10621397 0.22949773 0.1150782 0.19166699 0.10700735 0.17960076
0.13748269 0.17721613 0.06864048 0.08498174 0.056068204 0.36595982
00000000: e265 4e3e 2327 003e 69a0 543e 134f 9b3d
00000010: f806 973d c2a8 363e 85c5 393e 9224 4d3e
00000020: e49b fb3d c031 293e fef4 a93d 3a4a 643e
00000030: 0868 aa3e 1ea2 d93d a1a4 503e 04e1 c63d
00000040: de8a a13d b67c ab3d b686 d93d 7401 6b3e
00000050: 1fae eb3d 5a44 443e ab26 db3d 43e9 373e
00000060: 43c8 0c3e 2578 353e 6193 8c3d e80a ae3d
00000070: c6a7 653d 165f bb3e

weight f4 [251, 30]
-0.04904881 -0.09017766 0.347946 0.06324064 -0.99207985 -0.035976116 -0.017100109 -0.0011730653
0.29658407 -0.09324638 -1.4170545 -0.00940234 -0.4519175 -0.49236682 -0.042611353 -0.84416616
0.1190467 -0.12037577 0.14171006 -0.08903672 -0.22840448 0.540419 -0.35875502 0.17077547
-0.10905838 0.21703759 0.082376026 0.017232234 0.0931078 -0.1262811 -0.044565197 -0.2761455
0.52374756 -0.09359675 0.18075956 -0.10251666 0.35645133 0.26366416 -0.21603726 -0.18615548
-0.24121562 0.20896682 -0.09252822 -0.27754036 0.09460725 -0.39673674 -0.56593657 -0.11794924
0.27353066 -0.71427315 0.55192566 -0.49705753 0.7338917 0.3112368 0.64473706 0.52912474
-0.380769 -0.22868676 -0.32072088 -0.17640898 -0.2438434 0.2870331 0.43042397 0.20891403
0.08023515 0.19433275 -0.08980734 0.42860213 0.2770355 -0.314965 -0.23342296 0.1936646
0.28201073 -0.40362805 -0.41790974 -0.35778102 -0.10153255 0.2729144 -0.06290798 -0.025016043
0.429237 -0.27397296 0.6571789 0.47256866 0.78406113 0.30929682 -0.76636493 0.073913805
-0.33807355 -0.41951358 -0.12247622 -0.11040538 -0.8632892 0.43593577 -0.14249653 0.14333202
0.10796247 -0.13370563 -0.26559702 0.028502645 -0.060210843 -0.11902504 0.15365952 0.41811612
-0.038021617 -0.10334399 -0.047721364 -0.2596375 0.100286946 -0.029163113 -0.13995631 0.33445168
-0.46102 -0.29737613 -0.6137596 -0.30809906 0.3086286 0.46819 0.28778395 0.576136
0.30829296 -0.5481079 -0.85526305 0.010303859 0.013480054 0.25217468 0.51802814 -0.016316103
0.28451717 -0.07910676 0.20665933 -0.20086585 -0.1291157 0.2842862 -0.4222437 -0.18627214
-0.055131104 0.10311677 -0.1290089 -0.34034368 0.3743931 -0.0465478 -0.41862777 -0.10297548
-0.6144606 -0.7286543 0.031262062 0.5957796 0.45502564 0.6808378 0.24549316 -0.42761365
-0.8835042 0.10515041 -0.09017703 0.22547546 0.32133818 -0.1779147 0.0044675516 -0.0023883863
0.06389014 -0.16348112 0.12539896 0.31398636 0.27244717 -0.091295026 -0.45704067 -0.20978338
0.17718475 -0.5250732 -0.16576171 0.20299807 -0.24862574 -0.17215142 -0.489584 -0.31941128
0.5100148 0.5615269 0.06973279 0.48646703 -0.23836763 0.030198472 -0.4810692 0.021143867
0.02603134 0.2906416 -0.08403743 -0.18404995 -0.17029713 0.12829879 0.15363702 -0.18055817
-0.03027782 0.40890574 -0.15830709 -0.21075551 0.13643828 -0.28941903 -0.053772673 0.077379815
0.40582675 0.23486587 -0.8447172 -0.3434736 -0.49225304 -0.56136477 -0.086294994 0.5160752
0.420321 0.5684857 0.38993108 -0.7441429 -1.0906146 0.27286163 -0.18100797 0.28643113
0.6415232 -0.14827263 -0.02558169 -0.40181994 0.08620705 -0.13640358 -0.05439195 0.22405326
0.008962909 -0.2716069 -0.16627838 0.09537731 -0.07601296 -0.2677306 -0.020357342 0.25554278
-0.2895626 -0.1663293 -0.54418933 -0.20532495 0.1629706 0.6804482 -0.15725705 0.4968964
0.12904574 -0.12427866 -0.5411854 -0.056325838 0.030053023 -0.19800404 -0.071936324 -0.2832136
-0.1426052 0.022459075 0.21442877 -0.14858913 0.082095705 0.53785956 0.39506954 -0.14598657
00000000: 68e7 48bd 11af b8bd fa25 b23e 4f84 813d
00000010: f2f8 7dbf b15b 13bd 8715 8cbc 8ac1 99ba
00000020: ded9 973e f5f7 bebd 0b62 b5bf 460c 1abc
00000030: bb61 e7be 8117 fcbe 3e89 2ebd 461b 58bf
00000040: c2ce f33d 9287 f6bd 711c 113e e258 b6bd
00000050: dde2 69be e658 0a3f bdae b7be c4df 2e3e
00000060: 005a dfbd 1a3f 5e3e c3b4 a83d 9d2a 8d3c
00000070: 4daf be3d d54f 01be ff89 36bd f162 8dbe
00000080: 5214 063f a7af bfbd 0919 393e 41f4 d1bd
00000090: ca80 b63e fdfe 863e df38 5dbe 8b9f 3ebe
000000a0: 3a01 77be 66fb 553e 6f7f bdbd c519 8ebe
000000b0: 72c1 c13d 1421 cbbe 38e1 10bf 5f8f f1bd
000000c0: 360c 8c3e 9bda 36bf 004b 0d3f 537e febe
000000d0: 54e0 3b3f 6e5a 9f3e 7d0d 253f b874 073f
000000e0: 28f4 c2be dd2c 6abe 8735 a4be 8ea4 34be
000000f0: 16b2 79be 01f6 923e 8860 dc3e 8fed 553e
00000100: 5452 a43d 2aff 463e e9ec b7bd bd71 db3e
00000110: 99d7 8d3e 1843 a1be 6e06 6fbe 0350 463e
00000120: b663 903e 56a8 cebe 44f8 d5be 132f b7be
00000130: 4cf0 cfbd 70bb 8b3e e6d5 80bd 72ee ccbc
00000140: f4c4 db3e 2f46 8cbe e03c 283f 85f4 f13e
00000150: 3bb8 483f 275c 9e3e 7e30 44bf 1f60 973d
00000160: fa17 adbe 7cca d6be d0d4 fabd 371c e2bd
00000170: 8500 5dbf f932 df3e 9cea 11be a1c5 123e
00000180: 6d1b dd3d 21ea 08be 55fc 87be 617e e93c
00000190: a59f 76bd 66c3 f3bd ec58 1d3e 5113 d63e
000001a0: 8ebc 1bbd 04a6 d3bd 7a77 43bd 35ef 84be
000001b0: 3e63 cd3d 7be7 eebc b550 0fbe 403d ab3e
000001c0: d00a ecbe af41 98be 591f 1dbf 29bf 9dbe
000001d0: 9104 9e3e 9ab6 ef3e 6b58 933e a67d 133f
000001e0: 93d8 9d3e cd50 0cbf 85f2 5abf 84d1 283c
000001f0: 72db 5c3c 0a1d 813e 7e9d 043f 59a9 85bc
00000200: 3cac 913e ba02 a2bd 819e 533e c7af 4dbe
00000210: e836 04be f68d 913e 5430 d8be 20be 3ebe
00000220: 27d1 61bd e32e d33d e91a 04be 8741 aebe
00000230: 74b0 bf3e e8a8 3ebd 6156 d6be cfe4 d2bd
00000240: 4a4d 1dbf 1789 3abf a60c 003d 0385 183f
00000250: 1ff9 e83e 634b 2e3f 8f62 7b3e 2df0 dabe
00000260: 552d 62bf 1959 d73d bcae b8bd 0ae3 663e
00000270: 7086 a43e 452f 36be 8a64 923b 7986 1cbb
00000280: d5d8 823d 9867 27be 9668 003e d2c2 a03e
00000290: 327e 8b3e e3f8 babd 3c01 eabe 74d1 56be
000002a0: eb6f 353e 326b 06bf 70bd 29be bade 4f3e
000002b0: bf97 7ebe 7648 30be c1aa fabe e089 a3be
000002c0: 5490 023f 3ac0 0f3f 11d0 8e3d 3512 f93e
000002d0: a516 74be c962 f73c b44e f6be e735 ad3c
000002e0: ad3f d53c face 943e d11b acbd 9777 3cbe
000002f0: 5f62 2ebe c260 033e 0653 1d3e 3ee4 38be
00000300: 3109 f8bc 185c d13e 411b 22be 4bd0 57be
00000310: 7ab6 0b3e bb2e 94be bc40 5cbd 4f79 9e3d
00000320: 86c8 cf3e ae80 703e 633f 58bf c6db afbe
00000330: 9708 fcbe 9ab5 0fbf 6ebb b0bd 811d 043f
00000340: 5034 d73e 4788 113f 0ca5 c73e 2680 3ebf
00000350: 4299 8bbf 85b4 8b3e 275a 39be 1aa7 923e
00000360: dd3a 243f c8d4 17be b190 d1bc 58bb cdbe
00000370: 528d b03d 61ad 0bbe 18ca 5ebd 386e 653e
00000380: 2ad9 123c 0f10 8bbe e144 2abe 2e55 c33d
00000390: afac 9bbd fc13 89be 71c4 a6bc 81d6 823e
000003a0: 8d41 94be 3a52 2abe fe4f 0bbf b440 52be
000003b0: c4e1 263e da31 2e3f fe07 21be 3469 fe3e
000003c0: 9124 043e cf85 febd 208b 0abf ecb5 66bd
000003d0: c231 f63c 92c1 4abe 5a53 93bd 5f01 91be
000003e0: 1907 12be 18fc b73c 3793 5b3e c027 18be
000003f0: cb21 a83d 2ab1 093f 8e46 ca3e 817d 15be

bias f4 [251]
-0.10955469 0.16461265 -0.13486882 -0.0015799656 -0.17089513 -0.11303272 0.044983972 0.001035874
0.16242729 0.049165796 0.18024398 -0.13261834 0.16002487 0.02750288 0.17537294 0.010970131
0.085060515 0.17916562 -0.0453069 -0.18914683 -0.11992221 -0.13738675 0.1396345 -0.05420489
-0.17106071 -0.11732943 -0.13108744 -0.16602583 -0.03415547 0.07743918 0.18574597 -0.08962636
0.15117897 -0.15380232 0.08367708 -0.120064616 0.16949117 -0.14093006 -0.015276061 -0.1149829
0.119394936 -0.13707653 -0.17226376 0.089215845 -0.10904082 0.017451603 -0.0669851 0.10442938
0.061787494 -0.044933345 -0.06390383 0.07617184 0.113463804 -0.05383199 0.15549214 -0.037951037
-0.11609039 -0.17664833 -0.028074518 -0.17901056 -0.1747692 0.053077172 0.06527464 -0.116017446
0.14255981 0.030506423 0.012897825 0.08750504 -0.0054254616 0.0683816 -0.15650149 -0.1672066
-0.10355118 -0.03169825 -0.105368115 0.10834894 0.08320559 -0.110748544 -0.019411996 0.09069566
-0.14799154 -0.103241004 -0.075214826 0.11830606 -0.024163146 -0.14082775 -0.11503321 0.06050161
0.07176843 -0.094773404 0.0985612 0.09567433 0.05519766 -0.16490342 -0.12364032 -0.05759935
0.17546365 -0.042284977 -0.039702076 -0.010598789 0.09543364 -0.18517603 -0.08931857 0.119879715
0.098088704 0.092285916 -0.13538001 -0.07191536 -0.028279258 0.071390145 -0.17914496 -0.07446107
-0.0694679 0.061722077 0.008415752 -0.16685106 0.16419844 -0.009978379 0.054997575 0.09612141
-0.07814864 0.01541408 -0.046282064 -0.0791359 -0.14471485 0.032557245 -0.005306233 0.033520035
-0.03907977 -0.12514505 0.023386909 0.05498425 -0.008898929 0.104053386 0.1153371 0.0018510652
-0.023324115 -0.008195073 -0.02819491 0.15666038 0.062243763 -0.16655019 -0.12401634 -0.034975797
0.14661573 -0.042999238 0.027371299 -0.030786796 -0.030957902 0.110646725 0.12454229 -0.12046726
-0.06388112 0.13540304 -0.023176616 -0.052361272 -0.09966805 -0.054750487 0.14271453 0.053083293
-0.010591734 0.065701246 -0.15064062 0.14798786 -0.11470353 0.12890542 0.0258412 0.115932904
-0.097056456 -0.015937787 -0.12733285 0.11311155 0.14819412 0.012643524 -0.1090307 0.11531629
-0.1578305 -0.17267609 0.06846546 0.07094088 0.07051282 -0.11415329 0.017349655 -0.09514634
0.057633854 -0.055361327 0.028565329 0.15757811 -0.16990076 0.100583695 -0.04233935 -0.0019441232
-0.053521033 0.14332761 0.0894174 -0.09058629 -0.1754426 0.074313365 -0.14794111 0.17777994
-0.11859784 0.008676179 0.028117962 0.15426241 -0.04770341 0.15492184 -0.035471253 -0.1706731
0.11985435 0.017129892 0.052422922 -0.09549435 0.067723334 -0.16577359 -0.073752284 0.035892326
-0.059297558 0.16160582 -0.04121339 -0.16216731 0.17959982 -0.03725549 0.0516962 0.14349946
-0.006274162 0.14987965 -0.15946111 -0.120814085 0.16131179 -0.10666364 0.18327144 -0.016667258
0.14359547 -0.018930992 -0.16914728 0.06654969 -0.059152905 -0.108703375 0.06412675 -0.057302654
0.079757765 -0.11061185 0.06010896 -0.17346387 0.078587286 0.011934216 0.00797566 -0.15089856
0.08435713 0.119200386 -0.15832205
00000000: 365e e0bd 3890 283e 0d1b 0abe d916 cfba
00000010: 22ff 2ebe b37d e7bd 1d41 383d 2ac6 873a
00000020: 5753 263e 1362 493d e191 383e 1acd 07be
00000030: 8fdd 233e b84d e13c f794 333e 10bc 333c
00000040: 3534 ae3d 3177 373e ba93 39bd b5af 41be
00000050: c799 f5bd 1daf 0cbe 59fc 0e3e f205 5ebd
00000060: 8a2a 2fbe 6a4a f0bd c93b 06be ad02 2abe
00000070: 9be6 0bbd 6f98 9e3d 3134 3e3e 068e b7bd
00000080: a9ce 1a3e 5b7e 1dbe e45e ab3d 70e4 f5bd
00000090: 188f 2d3e f84f 10be 7248 7abc 287c ebbd
000000a0: 5585 f43d ca5d 0cbe e965 30be ccb6 b63d
000000b0: cb50 dfbd aaf6 8e3c 7c2f 89bd 12df d53d
000000c0: e214 7d3d 070c 38bd 03e0 82bd fbff 9b3d
000000d0: b65f e83d ef7e 5cbd 5539 1f3e 8c72 1bbd
000000e0: ccc0 edbd 4de3 34be 88fc e5bc 8b4e 37be
000000f0: b2f6 32be 7367 593d b6ae 853d 8e9a edbd
00000100: 33fb 113e 9be8 f93c 6651 533c d835 b33d
00000110: 12c8 b1bb a70b 8c3d ed41 20be 3538 2bbe
00000120: a412 d4bd 06d6 01bd 3dcb d7bd 0de6 dd3d
00000130: b167 aa3d 22d0 e2bd e805 9fbc a5be b93d
00000140: 188b 17be 0570 d3bd 3b0a 9abd 734a f23d
00000150: caf1 c5bc 2635 10be 8896 ebbd 89d0 773d
00000160: 54fb 923d 8f18 c2bd 74da c93d e7f0 c33d
00000170: f116 623d 71dc 28be 2337 fdbd 4ced 6bbd
00000180: beac 333e 0333 2dbd a59e 22bd 8ba6 2dbc
00000190: b672 c33d c99e 3dbe a8ec b6bd 7f83 f53d
000001a0: bbe2 c83d 6600 bd3d 0fa1 0abe 5c48 93bd
000001b0: e7a9 e7bc ff34 923d c771 37be 0c7f 98bd
000001c0: 3045 8ebd 4ad0 7c3d 39e2 093c 01db 2abe
000001d0: a323 283e 5b7c 23bc 2345 613d 4ddb c43d
000001e0: 650c a0bd 568b 7c3c 4392 3dbd 0112 a2bd
000001f0: 2130 14be bf5a 053d e9df adbb 4e4c 093d
00000200: 1c12 20bd 0626 00be e795 bf3c 2a37 613d
00000210: d0cc 11bc f119 d53d dc35 ec3d 719f f23a
00000220: 3712 bfbc a144 06bc 03f9 e6bc 946b 203e
00000230: 51f3 7e3d 228c 2abe 47fc fdbd c842 0fbd
00000240: 6f22 163e f81f 30bd c639 e03c 9734 fcbc
00000250: 6d9b fdbc c09a e23d 0710 ff3d 8ab7 f6bd
00000260: 1bd4 82bd 18a7 0a3e e3dc bdbc c678 56bd
00000270: c31e ccbd 0c42 60bd c223 123e de6d 593d
00000280: f488 2dbc 608e 863d 8941 1abe 218a 173e
00000290: afe9 eabd c8ff 033e edb0 d33c 3b6e ed3d
000002a0: 89c5 c6bd f68f 82bc 8b63 02be 07a7 e73d
000002b0: 33c0 173e c926 4f3c 7d4b dfbd f22a ec3d
000002c0: 529e 21be 00d2 30be 9e37 8c3d 7449 913d
000002d0: 0669 903d 33c9 e9bd dd20 8e3c 16dc c2bd
000002e0: 7a11 6c3d 8fc2 62bd d601 ea3c 285c 213e
000002f0: 77fa 2dbe d3fe cd3d 076c 2dbd f3d1 feba
00000300: df38 5bbd 79c4 123e 7820 b73d 4e85 b9bd
00000310: 3aa7 33be 9b31 983d e07d 17be f20b 363e
00000320: 6de3 f2bd 8826 0e3c a457 e63c f7f6 1d3e
00000330: a764 43bd d5a3 1e3e 4e4a 11bd eec4 2ebe
00000340: 3376 f53d fd53 8c3c 6bb9 563d 8b92 c3bd
00000350: 88b2 8a3d 8dc0 29be 700b 97bd d503 133d
00000360: ffe1 72bd ff7b 253e 5fcf 28bd 300f 26be
00000370: 04e9 373e 3699 18bd 65bf 533d 86f1 123e
00000380: 7c97 cdbb 0d7a 193e c649 23be 606d f7bd
00000390: eb2e 253e 7772 dabd 82ab 3b3e c689 88bc
000003a0: b10a 133e 2b15 9bbc f234 2dbe 344b 883d
000003b0: 514a 72bd e09f debd e354 833d 30b6 6abd
000003c0: 0a58 a33d 7788 e2bd d034 763d 83a0 31be
000003d0: 5ff2 a03d bb87 433c 58ac 023c 2785 1abe
000003e0: 6ec3 ac3d 551f f43d 2d1f 22be

weight f4 [251]
-0.0005250468 0.0005362914 0.00053184933 -0.0005385709 -0.0005376724 -0.0005326348 -0.00053843396 -0.0005281543
-0.0005303421 -0.0005322977 -0.0005414579 0.00052993244 0.0005372433 -0.0005356059 -0.0005386927 0.00053313916
-0.0005345265 0.00053489057 0.00053174654 0.00053847604 -0.0005354503 -0.00053461123 -0.00053324725 -0.0005310517
-0.0005338212 -0.0005358331 -0.00053801964 -0.0005320725 -0.000537716 -0.0005359686 -0.0005344209 -0.00053411414
-0.0005427577 0.0005370721 -0.0005338412 -0.0005366277 -0.00053111976 -0.00052445394 -0.0005285138 0.0005310973
-0.0005270511 -0.0005318604 -0.00053752697 0.0005312539 0.00053404574 -0.0005362412 -0.00053855893 -0.00053571025
-0.0005358169 -0.0005357448 -0.0005337805 -0.0005323379 -0.00053316465 -0.0005362808 0.00052734837 -0.00053637684
-0.0005292214 -0.00053487835 -0.0005383007 0.00053310307 0.00053956616 -0.00052669644 0.00053427095 -0.00053142395
-0.00053288636 -0.0005322384 -0.00052892836 -0.0005305452 -0.00053509633 -0.0005291006 -0.00053479447 -0.00053633744
-0.00053860055 0.0005415186 -0.00052457687 0.00053388934 0.0005336212 -0.00053184084 0.00053259527 -0.00053567695
-0.00053322274 -0.0005344694 -0.00053683744 -0.0005366778 0.0005371803 0.00053054484 -0.0005340945 -0.00053708785
-0.0005317725 -0.0005379614 -0.00053948717 0.000535254 0.00053527096 0.00053481874 -0.0005318974 -0.0005338572
-0.0005366861 -0.00053667015 -0.00053369364 -0.00053660775 -0.0005323648 -0.00053046877 -0.00053227326 -0.0005268836
-0.0005337043 0.0005344581 -0.0005394123 0.0005377218 -0.00052726676 -0.00052734633 0.00052665826 -0.0005349249
-0.0005325169 -0.0005328439 -0.0005302334 -0.00053703657 -0.00052964117 0.00053518114 0.00053151156 -0.00053504854
-0.000536282 0.00053216104 0.0005359511 -0.00053074193 0.0005344541 -0.00053538 -0.0005314469 -0.00053709565
-0.00053785555 0.0005326351 -0.00052970136 -0.0005286358 -0.00053669803 -0.000531528 0.0005324273 0.00053263205
-0.00053414225 -0.00053252606 -0.00052891654 0.0005346649 -0.0005348214 0.0005353057 0.0005370211 -0.00053392356
-0.0005347685 -0.00053709396 0.00053325464 -0.00052981166 0.00052717625 -0.00053125893 -0.0005295506 -0.00052711024
-0.0005265511 -0.0005363104 0.0005310057 -0.00053960213 0.000530224 0.00053693284 0.0005362478 0.0005313696
0.00053959346 -0.0005352765 -0.00053756876 -0.0005356426 -0.0005352666 -0.0005368971 -0.00053155917 -0.0005371891
-0.00053414505 -0.00053438096 -0.0005317533 -0.00053515675 -0.0005399875 0.0005280811 -0.0005324068 -0.0005355016
-0.00053748506 0.00053288596 0.00053075026 0.0005323646 -0.0005379215 -0.00052474526 -0.000535948 -0.00053149107
0.0005278158 -0.00053181045 -0.0005264029 -0.0005422622 0.0005315514 -0.00052713224 -0.000524101 -0.0005341138
-0.000532309 -0.0005374181 0.0005305127 -0.00053503166 0.0005328407 -0.0005348346 -0.00053364725 0.000531243
-0.00053494086 0.0005276993 -0.0005331116 0.0005310152 -0.000536692 0.0005307996 -0.00053848984 -0.0005303832
-0.0005327169 -0.0005325776 -0.0005410455 -0.00053208286 -0.0005353677 -0.00053060753 -0.00053108466 -0.00053730054
0.00053746876 -0.000530314 -0.0005340117 -0.0005394284 -0.0005337578 0.0005299595 -0.0005354106 -0.00053407013
-0.00053220504 -0.00053872983 -0.0005385559 -0.0005274829 -0.0005358948 -0.00053265685 -0.00053504924 -0.00053083914
-0.000532354 -0.00053268386 0.00053106545 0.0005346645 -0.0005325186 -0.0005349731 -0.0005333755 -0.0005377768
0.00052511843 0.00053173443 -0.0005336128 -0.0005316778 -0.00054052204 -0.0005380814 -0.0005351331 -0.0005277497
-0.0005357851 -0.00053384295 -0.00053117436
00000000: 4ba3 09ba e895 0c3a ce6b 0b3a e22e 0dba
00000010: 95f2 0cba 84a0 0bba b125 0dba d673 0aba
00000020: a806 0bba e589 0bba a0f0 0dba 2aeb 0a3a
00000030: cad5 0c3a e767 0cba 0e37 0dba 5dc2 0b3a
00000040: 771f 0cba e637 0c3a e864 0b3a 8428 0d3a
00000050: 765d 0cba 2725 0cba 9ec9 0bba 4736 0bba
00000060: 22f0 0bba 2777 0cba e309 0dba c87a 0bba
00000070: 83f5 0cba 3e80 0cba 6118 0cba cb03 0cba
00000080: da47 0eba 4cca 0c3a 7af1 0bba 7aac 0cba
00000090: d83a 0bba 827b 09ba f68b 0aba 5639 0b3a
000000a0: cd29 0aba 8c6c 0bba d3e8 0cba d943 0b3a
000000b0: 34ff 0b3a 8a92 0cba 142e 0dba e86e 0cba
000000c0: 1076 0cba 3a71 0cba 67ed 0bba 978c 0bba
000000d0: 13c4 0bba 3295 0cba c03d 0a3a a49b 0cba
000000e0: 72bb 0aba 1437 0cba c01c 0dba f1bf 0b3a
000000f0: ac71 0d3a 0012 0aba 510e 0c3a 424f 0bba
00000100: 66b1 0bba ea85 0bba c8a7 0aba 4914 0bba
00000110: b545 0cba 57b3 0aba 7331 0cba ff98 0cba
00000120: df30 0dba b3f4 0d3a c283 09ba b5f4 0b3a
00000130: b6e2 0b3a 3c6b 0bba dd9d 0b3a ac6c 0cba
00000140: f9c7 0bba a21b 0cba 8dba 0cba d6af 0cba
00000150: 8fd1 0c3a 4314 0b3a 7a02 0cba 5bcb 0cba
00000160: a666 0bba fa05 0dba 5f6c 0dba 4a50 0c3a
00000170: 6d51 0c3a 1433 0c3a 086f 0bba 8df2 0bba
00000180: 65b0 0cba 53af 0cba 93e7 0bba 23ab 0cba
00000190: 668e 0bba 280f 0bba 4188 0bba 8f1e 0aba
000001a0: 4ae8 0bba e01a 0c3a 5967 0dba e6f5 0c3a
000001b0: 4638 0aba 9d3d 0aba 700f 0a3a 343a 0cba
000001c0: 9b98 0bba 8cae 0bba 5cff 0aba eac7 0cba
000001d0: 9ed7 0aba 664b 0c3a 2355 0b3a 8042 0cba
000001e0: 4795 0cba b980 0b3a 127f 0c3a 7d21 0bba
000001f0: 9c1a 0c3a be58 0cba cc50 0bba e1cb 0cba
00000200: e0fe 0cba 89a0 0b3a a8db 0aba 2694 0aba
00000210: 32b1 0cba 3e56 0bba 9792 0b3a 55a0 0b3a
00000220: ae05 0cba 3899 0bba fda6 0aba c128 0c3a
00000230: 4233 0cba c253 0c3a e0c6 0c3a 01f7 0bba
00000240: b52f 0cba c4cb 0cba 1dca 0b3a 0fe3 0aba
00000250: 3332 0a3a 2f44 0bba 8ad1 0aba c52d 0aba
00000260: 3f08 0aba 2f97 0cba 3033 0b3a 1674 0dba
00000270: bbfe 0a3a f4c0 0c3a fb92 0c3a 9c4b 0b3a
00000280: 8173 0d3a cc51 0cba a1eb 0cba 5e6a 0cba
00000290: 2251 0cba 8ebe 0cba 5558 0bba 26d2 0cba
000002a0: de05 0cba b315 0cba 5c65 0bba c349 0cba
000002b0: f38d 0dba ec6e 0a3a 3791 0bba e760 0cba
000002c0: 03e6 0cba 5fb1 0b3a 0c22 0b3a 628e 0b3a
000002d0: 4d03 0dba 0f8f 09ba dd7e 0cba c353 0bba
000002e0: 1e5d 0a3a 3269 0bba 4dfe 09ba 9a26 0eba
000002f0: d057 0b3a 3f2f 0aba d363 09ba c503 0cba
00000300: a78a 0bba 85e1 0cba 1b12 0b3a 5e41 0cba
00000310: 56ae 0b3a 2434 0cba 76e4 0bba 1d43 0b3a
00000320: 463b 0cba 4d55 0a3a 84c0 0bba d433 0b3a
00000330: cab0 0cba 5c25 0b3a 7129 0dba 6a09 0bba
00000340: 07a6 0bba ad9c 0bba f3d4 0dba 7a7b 0bba
00000350: eb57 0cba 7818 0bba 7d38 0bba a1d9 0cba
00000360: ebe4 0c3a c504 0bba ebfc 0bba 6d68 0dba
00000370: e1eb 0bba fbec 0a3a cc5a 0cba d700 0cba
00000380: ad83 0bba 8c39 0dba e02d 0dba c746 0aba
00000390: 4b7b 0cba ffa1 0bba 8c42 0cba 0328 0bba
000003a0: ac8d 0bba cfa3 0bba 3337 0b3a ba28 0c3a
000003b0: b898 0bba 703d 0cba 39d2 0bba 97f9 0cba
000003c0: 1aa8 093a 1864 0b3a 26e2 0bba 4b60 0bba
000003d0: d2b1 0dba 080e 0dba 2d48 0cba af58 0aba
000003e0: ee73 0cba 98f1 0bba 823e 0bba

bias f4 [251]
0.9363626 3.6358583 3.6575754 3.6431277 3.6633747 3.6668055 3.6909044 3.6739137
3.6799717 3.6419823 3.629757 3.665128 3.6486309 3.6429486 3.6292605 3.6699808
3.6580465 3.6616056 3.6554654 3.6272097 3.653309 3.6369708 3.6526814 3.678886
3.6635942 3.657273 3.6157684 3.663537 3.6350565 3.6528547 3.635907 3.6555903
3.640314 3.6451263 3.681176 3.6693993 3.6606567 3.6896646 3.6780455 3.66936
3.696376 3.6578832 3.6293793 3.6748757 3.6622033 3.6762097 3.639624 3.6349204
3.635468 3.6459148 3.6546445 3.648845 3.6538231 3.6453846 3.68782 3.6312988
3.6632617 3.659442 3.6579864 3.680857 3.6559372 3.6800358 3.6426659 3.6631384
3.670137 3.6672833 3.6680708 3.6688087 3.6353345 3.6866524 3.6228876 3.6333702
3.6437137 3.6425424 3.680762 3.6078763 3.6771004 3.6534107 3.6653173 3.644272
3.6552444 3.6476445 3.614012 3.6417615 3.634673 3.6568017 3.6603763 3.6414843
3.6408663 3.634545 3.656254 3.6467648 3.65697 3.6481156 3.6709561 3.6467817
3.6373613 3.6479356 3.6289127 3.650131 3.6435003 3.6679935 3.6370697 3.6825244
3.6492033 3.6565096 3.6299407 3.6491742 3.6958506 3.671913 3.6805377 3.6507711
3.6772828 3.6201704 3.6759567 3.6069992 3.6792684 3.63273 3.6633492 3.6799867
3.623473 3.6614234 3.647028 3.6829488 3.6432445 3.6473694 3.6891718 3.65792
3.6272678 3.6532748 3.6624272 3.680412 3.6815345 3.6782458 3.6776395 3.6618195
3.64982 3.6524692 3.667628 3.6693442 3.6719832 3.6508396 3.6432776 3.6542158
3.642673 3.6614702 3.6709006 3.6826477 3.6801023 3.6545384 3.663562 3.6736162
3.6895378 3.6216843 3.655838 3.618186 3.6624813 3.6418436 3.6514373 3.6646981
3.650999 3.662343 3.6364734 3.6717823 3.6441264 3.6196532 3.6561248 3.6523676
3.6573322 3.6726983 3.655865 3.6380303 3.626768 3.6733217 3.6343005 3.6320903
3.628609 3.6505687 3.6823525 3.6172895 3.6477706 3.6918588 3.6562486 3.6581697
3.6551244 3.6529732 3.6725886 3.6299593 3.6948411 3.6801934 3.6843858 3.6437488
3.6763449 3.646824 3.6768801 3.6821349 3.666888 3.638811 3.6694894 3.640453
3.6551647 3.662548 3.654003 3.674561 3.638424 3.668001 3.6296656 3.6789548
3.6682172 3.6439412 3.6647809 3.6662443 3.6343148 3.6837437 3.6717715 3.6327336
3.643209 3.6680307 3.6463878 3.6560035 3.6665933 3.6732671 3.6583087 3.6600637
3.639644 3.6475108 3.6311727 3.6849868 3.6354833 3.6329675 3.6507957 3.6493185
3.6566844 3.6367106 3.6779027 3.6575918 3.6532452 3.6449053 3.6410882 3.6408687
3.6745353 3.6904404 3.6530132 3.669983 3.645019 3.6127217 3.6611164 3.6543374
3.6643753 3.655516 3.6485229
00000000: 76b5 6f3f e7b1 6840 b715 6a40 0129 6940
00000010: bb74 6a40 f1ac 6a40 c737 6c40 6721 6b40
00000020: a884 6b40 3d16 6940 f04d 6840 7591 6a40
00000030: 2b83 6940 1226 6940 ce45 6840 f7e0 6a40
00000040: 6f1d 6a40 bf57 6a40 25f3 6940 3424 6840
00000050: d1cf 6940 21c4 6840 88c5 6940 de72 6b40
00000060: 5478 6a40 c310 6a40 c068 6740 6477 6a40
00000070: c4a4 6840 5fc8 6940 b3b2 6840 31f5 6940
00000080: e8fa 6840 c049 6940 6398 6b40 70d7 6a40
00000090: 3348 6a40 7723 6c40 1965 6b40 cbd6 6a40
000000a0: 6d91 6c40 c21a 6a40 c047 6840 2a31 6b40
000000b0: 8a61 6a40 0547 6b40 9aef 6840 89a2 6840
000000c0: 82ab 6840 ab56 6940 b2e5 6940 ad86 6940
000000d0: 3dd8 6940 fb4d 6940 3e05 6c40 3367 6840
000000e0: e172 6a40 4c34 6a40 731c 6a40 2993 6b40
000000f0: e0fa 6940 b585 6b40 7021 6940 dc70 6a40
00000100: 86e3 6a40 c5b4 6a40 acc1 6a40 c3cd 6a40
00000110: 52a9 6840 1df2 6b40 64dd 6740 2389 6840
00000120: 9b32 6940 6a1f 6940 9b91 6b40 72e7 6640
00000130: 9d55 6b40 7bd1 6940 8f94 6a40 c13b 6940
00000140: 86ef 6940 0273 6940 f94b 6740 9f12 6940
00000150: 7c9e 6840 0a09 6a40 9b43 6a40 140e 6940
00000160: f403 6940 639c 6840 1100 6a40 9864 6940
00000170: cc0b 6a40 ba7a 6940 f2f0 6a40 df64 6940
00000180: 87ca 6840 c777 6940 1b40 6840 bf9b 6940
00000190: 1c2f 6940 68c0 6a40 c0c5 6840 7bae 6b40
000001a0: 8c8c 6940 4104 6a40 f350 6840 128c 6940
000001b0: d188 6c40 9f00 6b40 ee8d 6b40 3ca6 6940
000001c0: 9a58 6b40 dfb0 6740 e042 6b40 13d9 6640
000001d0: 2279 6b40 a67e 6840 5074 6a40 e784 6b40
000001e0: fbe6 6740 c354 6a40 e868 6940 6fb5 6b40
000001f0: eb2a 6940 806e 6940 641b 6c40 5c1b 6a40
00000200: 2825 6840 41cf 6940 3565 6a40 df8b 6b40
00000210: 439e 6b40 6168 6b40 725e 6b40 405b 6a40
00000220: a796 6940 0ec2 6940 6bba 6a40 89d6 6a40
00000230: c601 6b40 5ba7 6940 762b 6940 acde 6940
00000240: 8e21 6940 8755 6a40 09f0 6a40 80b0 6b40
00000250: cc86 6b40 f5e3 6940 cd77 6a40 871c 6b40
00000260: 6321 6c40 adc9 6740 40f9 6940 5c90 6740
00000270: 1866 6a40 f713 6940 26b1 6940 6a8a 6a40
00000280: f8a9 6940 d463 6a40 fbbb 6840 7bfe 6a40
00000290: 5e39 6940 66a8 6740 f3fd 6940 64c0 6940
000002a0: bb11 6a40 7d0d 6b40 b1f9 6940 7dd5 6840
000002b0: f81c 6840 b417 6b40 6198 6840 2b74 6840
000002c0: 213b 6840 eba2 6940 aaab 6b40 ac81 6740
000002d0: 1375 6940 6a47 6c40 faff 6940 741f 6a40
000002e0: 8fed 6940 50ca 6940 b10b 6b40 4151 6840
000002f0: 4778 6c40 4a88 6b40 facc 6b40 2e33 6940
00000300: 3c49 6b40 9065 6940 0152 6b40 19a8 6b40
00000310: 4bae 6a40 48e2 6840 ead8 6a40 2ffd 6840
00000320: 38ee 6940 3067 6a40 2fdb 6940 022c 6b40
00000330: f0db 6840 87c0 6a40 714c 6840 ff73 6b40
00000340: 12c4 6a40 5536 6940 c58b 6a40 bfa3 6a40
00000350: 9d98 6840 75c2 6b40 4efe 6a40 b57e 6840
00000360: 562a 6940 04c1 6a40 6b5e 6940 f6fb 6940
00000370: 77a9 6a40 cf16 6b40 bb21 6a40 7c3e 6a40
00000380: edef 6840 d170 6940 2265 6840 d3d6 6b40
00000390: c2ab 6840 8a82 6840 a3a6 6940 6f8e 6940
000003a0: 1e07 6a40 debf 6840 c262 6b40 fc15 6a40
000003b0: c5ce 6940 2146 6940 9707 6940 fe03 6940
000003c0: 962b 6b40 2d30 6c40 f8ca 6940 00e1 6a40
000003d0: fe47 6940 d536 6740 bb4f 6a40 aae0 6940
000003e0: 2085 6a40 f9f3 6940 6681 6940

running_mean f4 [251]
-2.4484885 -0.06591393 0.7469094 0.7812968 -0.34655902 0.45788243 -0.053029273 -0.27848157
0.8911525 0.46276444 0.86775976 0.80048585 1.9651505 0.11421369 -0.096873194 0.8960109
1.8802073 -0.6362905 1.4995086 -1.381505 -2.6962595 0.9871581 -0.57953244 1.8092252
0.82598543 -1.8647132 -0.7862671 -0.66659963 -0.13724838 1.2994621 -0.2205179 -0.5770414
-0.46616733 3.300595 1.3244536 0.7910719 -1.4853019 2.203945 0.12255537 -0.040203985
0.5783975 0.5094812 -0.23859997 -0.16706909 -0.5090386 -0.61535823 -0.92388844 0.40060037
-0.52806884 1.2630385 -0.67648345 1.140201 2.0781617 -0.6100857 1.0779128 2.4902256
1.6666613 0.69384736 0.80220777 -0.12661079 -0.72189325 0.5527844 -0.9710484 0.90222466
1.0436187 0.20380779 -0.7593026 1.0537304 -1.1339701 -1.2501905 -0.16294771 1.3724225
0.27357432 1.4334177 -0.4683602 1.9445969 1.7507517 -1.5583417 0.56641275 -0.729545
-0.7941808 -0.15020676 0.6579068 -0.46915185 -0.13130993 0.27224874 0.7050865 1.0151328
-1.5323926 -2.2015092 0.55324715 0.33155662 1.1955916 3.9310057 1.455776 1.9088517
0.80377734 0.1851092 0.6091106 1.7397882 1.2036576 -0.33701617 0.89502347 1.0803094
-0.73293597 0.9866874 1.3178722 -0.38924384 0.48851487 0.53610355 -0.029446337 -0.6853782
0.049614873 0.44765857 0.3724895 -0.93201536 -0.03844453 1.8409251 0.73964375 0.851426
-0.61013013 1.3409208 0.6980917 -1.4211272 2.431563 0.15076333 0.8917235 1.5797923
-0.3319701 -0.43831328 1.8027807 0.469645 -0.3826006 -0.3210999 0.72655183 0.6853201
0.14173537 0.7166711 0.33288604 2.2155178 0.12704128 -0.0108100725 0.78287387 -0.22983299
-1.9070776 -0.36861232 -0.29107487 1.047424 1.3757463 -0.15374996 0.8143909 -0.722406
-1.1027801 -1.1137043 1.2668859 0.5880715 0.9360037 1.2885826 1.0445673 1.4715323
-0.47410238 -1.0277976 -1.1097828 -1.9204581 -0.059831686 0.07005844 -2.0027378 1.0367597
0.34917846 1.3856853 0.28280035 0.52337205 0.97278404 3.3786643 0.707927 1.6905926
-1.2198493 -0.2795828 -0.5205241 1.9188285 0.34216493 -0.494244 -0.6184852 -0.17464358
1.7720898 -1.2621098 2.2320468 1.6219006 3.156391 -0.51244485 0.7522491 0.82375985
0.44135302 -0.9802352 1.8325921 -0.7754178 -0.34759787 1.1435529 1.7187623 1.9763187
-0.67964226 2.2207224 -0.6209378 2.3209355 1.3157856 1.063487 1.9703611 -0.39147723
0.20267372 -0.9456446 -0.36388642 -0.20151834 0.46405166 -0.03482857 0.7476573 0.9477916
0.41192618 1.3302181 -0.09647296 0.92231816 1.2047156 1.1078653 -1.7792988 1.2576056
-1.4914769 -0.34961426 1.8371198 -1.3285376 0.9824701 -0.33564347 0.8139613 -4.4688106
-0.66157025 1.5390054 1.7118721 1.3318607 0.6741785 1.1761479 -0.89921737 -0.3357298
1.3573948 1.2327543 0.8590877 0.16398852 1.2111374 1.2390813 1.7706544 1.3934417
1.6238784 0.38103637 -0.5888242
00000000: 09b4 1cc0 e2fd 86bd 7435 3f3f 1103 483f
00000010: 2f70 b1be 916f ea3e 3935 59bd 2395 8ebe
00000020: 9222 643f 76ef ec3e 8125 5e3f a4ec 4c3f
00000030: 0d8a fb3f dee8 e93d 7465 c6bd f860 653f
00000040: a2aa f03f efe3 22bf e6ef bf3f 28d5 b0bf
00000050: 848f 2cc0 65b6 7c3f 3d5c 14bf b194 e73f
00000060: c873 533f ecae eebf cd48 49bf 46a6 2abf
00000070: d78a 0cbe c654 a63f 72cf 61be fcb8 13bf
00000080: 7cad eebe f33c 5340 b287 a93f b083 4a3f
00000090: 5f1e bebf 6f0d 0d40 4ffe fa3d efac 24bd
000000a0: dc11 143f 5c6d 023f 8d53 74be 2914 2bbe
000000b0: 5b50 02bf 1e88 1dbf f483 6cbf 7e1b cd3e
000000c0: 852f 07bf 3fab a13f 052e 2dbf 1bf2 913f
000000d0: 9a00 0540 942e 1cbf 0cf9 893f db5f 1f40
000000e0: 2855 d53f fb9f 313f 7d5d 4d3f 42a6 01be
000000f0: ffcd 38bf 4783 0d3f a196 78bf 32f8 663f
00000100: 4c95 853f fdb2 503e a861 42bf a3e0 863f
00000110: ef25 91bf 3e06 a0bf c4db 26be 8aab af3f
00000120: ef11 8c3e 3b7a b73f e8cc efbe 8de8 f83f
00000130: a218 e03f be77 c7bf 6d00 113f 76c3 3abf
00000140: 6f4f 4bbf cdcf 19be 946c 283f ac34 f0be
00000150: 1c76 06be 3064 8b3e 8d80 343f dfef 813f
00000160: 7125 c4bf 87e5 0cc0 9ba1 0d3f cac1 a93e
00000170: 2509 993f 9995 7b40 de56 ba3f 4155 f43f
00000180: 5ac4 4d3f 448d 3d3e acee 1b3f 61b1 de3f
00000190: 7411 9a3f 628d acbe 4220 653f 9447 8a3f
000001a0: b1a1 3bbf 8c97 7c3f 09b0 a83f f84a c7be
000001b0: 9f1e fa3e 153e 093f 7239 f1bc f274 2fbf
000001c0: f738 4b3d 8133 e53e f2b6 be3e 8f98 6ebf
000001d0: 0378 1dbd 6fa3 eb3f 4b59 3d3f 0ef7 593f
000001e0: 7d31 1cbf 4ba3 ab3f 23b6 323f 7fe7 b5bf
000001f0: ba9e 1b40 b461 1a3e fe47 643f a236 ca3f
00000200: fcf7 a9be 996a e0be 85c1 e63f 4f75 f03e
00000210: 3ae4 c3be 3567 a4be 4dff 393f 2371 2f3f
00000220: 1423 113e c277 373f 0a70 aa3e 0bcb 0d40
00000230: 1c17 023e bb1c 31bc 6c6a 483f 5759 6bbe
00000240: 1e1b f4bf c1ba bcbe c407 95be fd11 863f
00000250: 7418 b03f a170 1dbe ec7b 503f 9aef 38bf
00000260: e627 8dbf dd8d 8ebf 5129 a23f db8b 163f
00000270: f09d 6f3f 46f0 a43f 62b4 853f 2c5b bc3f
00000280: 8cbd f2be df8e 83bf 5d0d 8ebf 92d1 f5bf
00000290: 1212 75bd cd7a 8f3d db2c 00c0 8bb4 843f
000002a0: 85c7 b23e 235e b13f 35cb 903e b6fb 053f
000002b0: 6008 793f 093c 5840 b43a 353f 5765 d83f
000002c0: 0624 9cbf 7a25 8fbe 1141 05bf 2c9c f53f
000002d0: 3e30 af3e 8d0d fdbe 0c55 1ebf c4d5 32be
000002e0: d7d3 e23f d08c a1bf dbd9 0e40 709a cf3f
000002f0: 4f02 4a40 962f 03bf 6693 403f ede1 523f
00000300: 06f9 e13e b2f0 7abf 6192 ea3f c881 46bf
00000310: 59f8 b1be f15f 923f 6700 dc3f 03f8 fc3f
00000320: 09fd 2dbf 5120 0e40 c8f5 1ebf 358a 1440
00000330: aa6b a83f 5820 883f cb34 fc3f b46f c8be
00000340: b389 4f3e c415 72bf 524f babe d35a 4ebe
00000350: 2e98 ed3e 67a8 0ebd 7866 3f3f 78a2 723f
00000360: fde7 d23e 9644 aa3f 9e93 c5bd 0b1d 6c3f
00000370: 1f34 9a3f 88ce 8d3f 10c0 e3bf 38f9 a03f
00000380: b7e8 bebf a400 b3be be26 eb3f 850d aabf
00000390: 2983 7b3f 76d9 abbe c55f 503f 7f00 8fc0
000003a0: ab5c 29bf 21fe c43f a01e db3f 697a aa3f
000003b0: f696 2c3f 048c 963f 1c33 66bf c7e4 abbe
000003c0: 1dbf ad3f e5ca 9d3f 2ced 5b3f 9bec 273e
000003d0: 8d06 9b3f 379a 9e3f cea4 e23f 4c5c b23f
000003e0: 3fdb cf3f 3317 c33e 2fbd 16bf
