EXP11_dump/bottleneck_model.pth (torch, 77664 bytes, 19 tensors)

weight f4 [30, 251]
000000 60 28 4d 3b ed 91 1d bf d0 87 8e be c8 50 cb 3e
       0.0031304583 -0.6155079 -0.27837992 0.3971007
000010 4b 5f 42 3e 35 a4 0f be b9 4e f1 be 41 61 7c bd
       0.18981664 -0.14027484 -0.47130373 -0.061616186
000020 e6 90 77 3e 0f dc 78 be 9e bc bc 3e 77 85 1f 3d
       0.24176368 -0.24302696 0.36862653 0.03894564
000030 22 54 c6 3e 2d d6 c7 bc 26 48 1a be 29 40 51 be
       0.38736063 -0.02439412 -0.15066585 -0.20434631
000040 47 2b 8b 3e d2 bf 0b be 50 9c 2e 3e 1c ca ca 3c
       0.27181455 -0.13647392 0.17051816 0.024754576
000050 99 00 85 be 04 24 5b bf b9 5f ba bd bd b7 ab be
       -0.25977018 -0.8560183 -0.09100289 -0.3353862
000060 67 1f 90 be 11 e9 1c 3f 0f 8d 68 be da 51 dd bd
       -0.28148958 0.6129313 -0.2271006 -0.108066276
000070 dd 0e 13 3e 2b d7 2b 3e 5c ca a4 3d 78 91 b2 3c
       0.14361139 0.16781299 0.080464095 0.02179788
000080 91 f8 a2 3e 26 fc 2f be 63 11 a8 3e a3 22 08 bf
       0.31830266 -0.17186031 0.32825765 -0.5317785
000090 54 4c b5 b8 48 8b 65 3f aa 48 2d 3e 06 2d ab 3d
       -8.64497e-05 0.8966565 0.1692225 0.08358197
0000a0 4b 2d 69 3c 6e 65 ce 3d 50 61 6c 3e 9d 77 88 be
       0.01423199 0.1007794 0.23083997 -0.26653758
0000b0 66 91 b2 3e a9 5b fd bd d5 9d b4 3e 6c 22 1f be
       0.34876555 -0.123709984 0.35276666 -0.15540475
0000c0 17 fa 6c be 16 49 28 3e a2 75 c0 3d b6 3e 75 3e
       -0.23142277 0.1643413 0.09397437 0.23949704
0000d0 80 11 ac 3e b8 17 57 3e b2 d1 91 bd 80 cc 91 3e
       0.336071 0.21005142 -0.07120074 0.28476334
0000e0 f7 29 85 3b 73 34 3d 3c 02 35 84 be dc de 35 bc
       0.0040638405 0.011548149 -0.25821692 -0.011100497
0000f0 8b c7 f0 3e 9f fe 7a be 9c e5 0a 3e 47 57 75 be
       0.4702724 -0.24511193 0.13564152 -0.23959075
000100 ca 69 ff 3c 4d 6f c4 be f5 c3 80 be 7c 8e af be
       0.031178374 -0.38366166 -0.25149503 -0.34288394
000110 10 e3 88 3e 4f 03 54 be 07 bc c1 be 25 ec 9f 3e
       0.26735735 -0.20704387 -0.37838766 0.3123485
000120 59 e9 dc 3c ad c5 fd bb 45 e8 82 3e 29 96 13 3f
       0.026966738 -0.007744512 0.25567833 0.57651
000130 74 ca 96 bd a7 35 7c 3e 7d 94 33 bd 07 9b 38 be
       -0.073628336 0.24629842 -0.04384278 -0.18027888
000140 94 6c 38 bd 04 3b 26 3e 77 45 d6 3e 1e a5 15 bf
       -0.045025423 0.1623345 0.41849872 -0.58455074
000150 89 65 89 3d 32 73 3b bd 3f ae 96 be 9c 4f 82 3e
       0.067088194 -0.045764156 -0.29429814 0.25451362
000160 d5 a3 1b bf 2a 41 e1 3e c2 d7 f1 be 66 fc 9b be
       -0.6079686 0.4399503 -0.47234923 -0.30466002
000170 ba 22 a7 3e c6 87 55 be b1 93 ef 3d bc 65 b7 3e
       0.32643682 -0.20852575 0.11698092 0.35819805
000180 db f8 38 be 59 de 63 be 54 1b 21 be 36 7c 06 3f
       -0.18063681 -0.22252788 -0.15733081 0.5253328
000190 02 1a 65 3e 5e c2 c9 bd 4a 0a b9 3d 99 ad d5 bd
       0.22373202 -0.09851526 0.090351656 -0.10433502
0001a0 2e 24 d9 be b7 43 b9 3d d9 4b 3e 3e 74 7a 11 bd
       -0.42410415 0.09046119 0.18583621 -0.03551717
0001b0 8d 1d 27 be 2a 56 0b 3e ac 61 89 3e 09 7b dc 3d
       -0.16319866 0.13607088 0.2683233 0.107656546
0001c0 48 2c 0a bf ce 8c f2 3d 60 27 ba 3e 86 11 c8 bd
       -0.5397382 0.118432626 0.36358166 -0.09768967
0001d0 65 d0 07 bd 9a 97 db bc ec 56 a9 3d c7 3c 9b 3e
       -0.033157725 -0.026805688 0.08268532 0.30319807
0001e0 2b de 0b 3f 10 c1 6b bd 6f 46 e8 3c 3f 82 d5 3e
       0.54635876 -0.057557166 0.028353898 0.41700932
0001f0 a6 e3 13 3f e7 01 43 3e 4f 6c 64 be df 4a db 3c
       0.5776924 0.19043694 -0.22306941 0.0267691
000200 6a 5f 84 3e d9 36 bb 3e cc 1c 8a be 1b 69 cd bd
       0.25854045 0.36565283 -0.26975095 -0.10029813
000210 ca 64 32 3e a6 01 91 bd 85 83 9e bd 7e 87 0e bd
       0.1742126 -0.070803925 -0.07739929 -0.034797184
000220 5e 09 2f be ec 27 d6 be d9 bd 41 3d 2a 8e 96 3d
       -0.17093417 -0.41827333 0.047300193 0.073513344
000230 43 c4 72 be d3 2a ce be 31 e2 27 3e f2 24 81 3e
       -0.2370768 -0.40267047 0.16394879 0.252235
000240 1b d1 c0 be 68 03 a2 bd 01 83 6e bd 8e 75 c5 3d
       -0.37659535 -0.07910806 -0.058230404 0.096415624
000250 e2 0a 0a be 21 8a db bd e5 fe 86 3e 4c 60 f8 3d
       -0.13480714 -0.107197054 0.26366344 0.12127742
000260 c0 b9 76 3e f7 3d da be 7e 63 9e be 74 0b 7d be
       0.24094296 -0.426254 -0.30935282 -0.247114
000270 ab 19 45 3d 4f f8 c3 bd e7 42 3b 3d d6 10 50 bf
       0.048120182 -0.095688455 0.0457181 -0.8127569
000280 4b c9 ca 3c 69 e4 9f 3d a7 37 d1 3c f4 7f 97 3e
       0.024754187 0.07807238 0.025539232 0.29589808
000290 4f 02 cd 3e ba 5a 52 be 72 c3 7b bc e7 6d 45 3e
       0.40040824 -0.20542422 -0.015366422 0.19280206
0002a0 7b 1c 22 3f 2c 2f cc 3e bc 05 f8 bb 45 0c 2c be
       0.6332471 0.3987974 -0.007569043 -0.16801555
0002b0 aa 2c 96 3d 5d e4 24 be 53 fe 0c 3f aa a5 12 be
       0.07332738 -0.16102739 0.5507557 -0.14321008
0002c0 ab 4a 42 be 9c 56 c1 3e 6f 05 f7 3e 99 c6 0c be
       -0.18973796 0.3776139 0.48246333 -0.13747634
0002d0 15 db 73 3e 50 95 9f 3e 81 cf 14 bd 2b 6d 7b 3d
       0.23814042 0.31168604 -0.036330704 0.061383408
0002e0 e2 bf bf bd 19 d4 94 bd 41 31 5e 3e c3 10 2f bd
       -0.093627706 -0.07267017 0.21698476 -0.042740595
0002f0 48 4f 3f be 53 03 21 be ec 09 d9 3d a9 c3 86 3e
       -0.18682587 -0.15723924 0.105975956 0.26321152
000300 8a bd a5 bd 59 d1 2a 3e 0b 00 17 be 62 81 de be
       -0.08092792 0.16681422 -0.1474611 -0.43458086
000310 98 13 8f be ce ca 94 be 62 aa e9 3d 3f 8d 00 bf
       -0.27944636 -0.29060978 0.11409451 -0.50215524
000320 3c 23 80 3f d3 44 73 be 51 bb 38 3c 20 c8 0f 3d
       1.0010753 -0.23756723 0.011275128 0.035102963
000330 ad 11 4e ba dd a9 92 be ab ae 29 3f 72 76 0d 3d
       -0.000786091 -0.2864522 0.6628215 0.034536786
000340 a6 19 9e bd 28 4a 07 be 4e 99 e3 bd 0a 64 73 3e
       -0.07719736 -0.13211882 -0.11113225 0.2376863
000350 ff d7 9f 3e 37 c8 ce be 0b 3a a8 be 90 91 05 3e
       0.3121948 -0.40387127 -0.32856783 0.13043809
000360 44 55 bf be 2b 39 79 3e 86 3a 21 3e eb 46 e7 3d
       -0.3736974 0.24338214 0.15744981 0.112928234
000370 1e 0a a5 bc d7 77 94 3c 74 dd fe 3d 02 7c fa 3e
       -0.020146426 0.01812355 0.124445826 0.48922735
000380 62 ea 9b 3c 6e 68 fe 3e e5 da 1c 3e b5 70 da 3e
       0.01903266 0.4968905 0.15317877 0.42664114
000390 be 18 bf 3e 8f c9 8d 3e ed 46 32 3e 83 f6 d8 3d
       0.37323564 0.2769284 0.17409869 0.105938934
0003a0 a1 9d 2e 3e ea c6 e6 3c 64 2d 07 3f 6b d3 99 be
       0.17052318 0.028171021 0.52803636 -0.30044112
0003b0 ba 26 9d be 14 65 50 be 13 50 5e be 0c 52 2e 3d
       -0.3069361 -0.20351058 -0.21710233 0.042558715
0003c0 5f 1f a6 3e 77 d0 e3 be 29 1c 99 3d 53 30 19 3e
       0.3244581 -0.44494984 0.07476074 0.1495984
0003d0 a4 f7 00 bf 5d ed 82 3d 3e 5f b6 be 32 8b 69 be
       -0.5037787 0.0639293 -0.3561954 -0.22807005
0003e0 70 aa e8 3d b3 6b 37 3f d3 36 dd 3e 57 84 5c bd
       0.113606334 0.7164871 0.4320589 -0.053837147
0003f0 e2 e5 f8 be ba 77 d6 be 15 d0 28 3e bf 89 07 3e
       -0.48612887 -0.4188822 0.16485627 0.1323614

bias f4 [30]
000000 2e d6 e5 3c 99 4f 7c bd 2f 9d 54 bd b1 1e ba bc
       0.02805623 -0.061599348 -0.051907714 -0.022719713
000010 ce 88 3f 3c d6 5b f1 3b 63 c4 bd bc 57 88 02 3d
       0.011690332 0.007365684 -0.023164934 0.031868305
000020 93 e4 24 3b 46 9b 5e 3d 62 79 b5 3c 8b ad 08 bd
       0.0025160655 0.0543473 0.022152606 -0.03336863
000030 56 f8 78 bd a5 4c 0b 3c 00 15 60 bd 70 ee 1d 3d
       -0.060783707 0.00850216 -0.054707527 0.03855747
000040 43 88 eb bc 40 01 21 bd ec 92 06 bd 83 ce 63 3d
       -0.028751498 -0.039307833 -0.03285496 0.055616867
000050 ae de ee bc 01 4b 34 3d d3 b1 fb 3c 33 4f c5 3c
       -0.029158916 0.04401684 0.030724442 0.024085617
000060 0f ff 34 3c 17 51 13 bd 35 b4 7e 3c b7 11 73 3d
       0.011047139 -0.035966005 0.015545894 0.059343066
000070 2b 2f 65 3d 3d 90 91 3c
       0.055953186 0.017768973

weight f4 [30]
000000 55 e3 63 3e 8c 7b 4b 3f 11 2f c9 3e 81 e3 2d 3f
       0.22254689 0.7948539 0.3929372 0.6792527
000010 5d eb 06 3e 37 f8 b2 3e 58 c1 80 3e 47 0e c1 3d
       0.13175721 0.34954998 0.2514751 0.09426551
000020 21 bd 64 3f 0a f7 70 3e d2 68 54 3f a3 a4 5a 3e
       0.8935109 0.23531738 0.82972443 0.21351866
000030 8c 45 12 3f f0 6f 80 3e ea 74 d4 3e 1e 05 62 3f
       0.5713737 0.25085402 0.41495448 0.8828906
000040 9b 44 37 3e 45 ca 62 3f c0 2b c5 3e c4 2a 44 3f
       0.17897265 0.8858989 0.3850994 0.76627755
000050 12 3a 7b 3f 3b 14 62 3e 90 0f 53 3f a5 d4 5f 3e
       0.98135483 0.2207803 0.8244562 0.21858461
000060 21 fc a3 3e 54 8b d1 3e 50 3a 86 3f 71 43 50 3f
       0.32028297 0.4092661 1.0486546 0.8135291
000070 98 ea e9 3d f3 e7 d8 3d
       0.11421698 0.10591116

bias f4 [30]
000000 6c 2a 3f bf b2 21 85 bf 81 42 cc bf be 43 90 bf
       -0.74674106 -1.0400908 -1.5957795 -1.1270673
000010 c5 48 20 3e 45 0a 05 3f 6a b9 a6 3e f6 2c 97 3f
       0.1565276 0.51968795 0.32563335 1.1810596
000020 ae 22 92 bf 9b 1a 73 bf 68 a7 83 bf f4 20 19 3e
       -1.1416833 -0.9496247 -1.0285463 0.14953977
000030 63 ec 55 3f 91 d2 cd bf 1d b0 27 bf bb 7f 96 bf
       0.8356382 -1.6079885 -0.655031 -1.175773
000040 cf c3 18 3d 1c fd 8b bf 8c c2 01 bf eb df 6f bf
       0.037296113 -1.0936618 -0.5068748 -0.93701047
000050 6c e2 a2 bf ed a8 a5 3f 7c 64 83 bf 22 a2 97 bf
       -1.2725348 1.2942177 -1.026504 -1.1846354
000060 59 12 ab 3e d8 2f 18 3f 75 48 d4 bf 4c f5 7c bf
       0.33412436 0.59448004 -1.6584612 -0.98811793
000070 dc e2 11 3e 54 33 fd 3d
       0.14246696 0.12363306

running_mean f4 [30]
000000 15 70 2e 40 8c 23 4e c1 8e ed 49 40 d9 db 9f c1
       2.725591 -12.883678 3.1551242 -19.982347
000010 16 56 b7 40 c8 ff 75 41 25 2b fa c1 ed 52 50 41
       5.7292585 15.374947 -31.271067 13.020246
000020 2d 29 8a c1 8f 91 4a c0 76 dc 25 c1 58 e3 11 42
       -17.270105 -3.1651342 -10.366323 36.472015
000030 6f 64 85 41 82 e4 30 40 44 95 a8 c0 c1 d5 6b c1
       16.67404 2.763947 -5.268221 -14.739686
000040 95 58 06 42 dc 61 3b c1 66 99 de 41 84 31 0a c1
       33.586506 -11.711391 27.824902 -8.637089
000050 42 ed 98 c1 cc c5 ee c1 d9 22 3c c1 fa 2c 43 40
       -19.115849 -29.84658 -11.758508 3.0496202
000060 9a 69 15 42 12 e3 8b 41 24 48 b3 c1 15 aa 31 c1
       37.353127 17.485874 -22.410225 -11.104024
000070 6e 5a aa 40 29 d4 cf 40
       5.323539 6.4946485

running_var f4 [30]
000000 ec 2f bd 40 3d 9b 6f 42 bd ac ee 40 8e 48 0a 43
       5.9121 59.9016 7.458586 138.28342
000010 37 d9 6f 41 53 e0 aa 42 37 2c a8 43 e0 2e 76 42
       14.990531 85.43813 336.34543 61.545776
000020 1f 76 d5 42 1a 6b f6 40 20 c6 21 42 f8 30 e6 43
       106.730705 7.700574 40.44348 460.38257
000030 23 67 c5 42 e5 c3 ca 40 66 69 46 41 2f 9d 99 42
       98.70144 6.336413 12.400732 76.807
000040 31 80 c2 43 a3 a5 48 42 ec b7 85 43 af 24 ee 41
       389.0015 50.161755 267.4369 29.767912
000050 dc 17 01 43 fd 94 9c 43 97 88 4c 42 af ad dc 40
       129.0932 313.16397 51.13339 6.8962016
000060 19 2d f0 43 18 71 d9 42 7b 29 2f 43 b0 9a 37 42
       480.35233 108.72089 175.16203 45.901062
000070 79 7b 5a 41 27 da 91 41
       13.655145 18.23152

weight f4 [30, 30]
000000 a0 39 0f 3f 0a 0b 33 be b3 2c 87 be 64 46 42 be
       0.55947304 -0.1748468 -0.2640129 -0.18972164
000010 e4 0a ea bd 91 fb 87 be e4 35 c9 bd f6 54 34 3d
       -0.114278585 -0.26559117 -0.09824732 0.044026338
000020 22 10 a5 3e 2b 19 23 be 4e c1 cb bd 15 da 94 be
       0.3223887 -0.1592757 -0.09948979 -0.29072633
000030 11 0f 3a be 82 9a 13 bf 15 cc 11 3f 6e 77 b3 3e
       -0.1816981 -0.57657635 0.5695203 0.35052055
000040 d4 41 db 3c 29 38 70 bf fe 46 24 be 5a bf 5d bf
       0.026764788 -0.93835694 -0.16042706 -0.86620104
000050 41 51 d2 bd c1 51 45 be 48 2c 08 bf a0 85 ee be
       -0.10269404 -0.19269468 -0.5319257 -0.46586323
000060 8f c3 8b be cf b5 74 bd f5 29 97 be 53 64 99 bf
       -0.27297637 -0.0597437 -0.29524198 -1.1983742
000070 56 33 03 bf 0f a8 13 bf ff f4 1a 3e c9 f3 01 be
       -0.5125021 -0.5767831 0.15132521 -0.12690653
000080 fa 1b f0 be 93 8d c3 be 90 4b 44 be 12 a5 cb be
       -0.46896344 -0.3819395 -0.1916945 -0.39774376
000090 94 9b 97 3c fe a4 ac be af 25 89 be 86 ad 75 3e
       0.018506803 -0.3371963 -0.26786563 0.23991975
0000a0 71 78 30 3d 64 c0 67 3e 28 e2 2b be 4f 1e 3a bf
       0.043083612 0.22631985 -0.1678549 -0.727025
0000b0 54 34 49 be 7d ec 42 3d f7 ac 07 3e e1 f1 12 bd
       -0.19648868 0.047588814 0.13249575 -0.035875205
0000c0 19 40 57 be 25 e6 a6 bf a7 41 bb be 4d d6 3c 3e
       -0.21020545 -1.3038985 -0.36573526 0.18441124
0000d0 d6 c7 fd bd ac 81 7f bf 67 39 27 bd 39 ec 17 be
       -0.12391631 -0.9980724 -0.040826228 -0.14836206
0000e0 42 35 0a bf ee d1 94 be 5e 0c a2 be d9 d3 8f be
       -0.53987515 -0.29066414 -0.3165006 -0.28091314
0000f0 da 9c f0 3e 88 91 d8 3e 02 26 b8 be 76 c6 4e be
       0.46994668 0.42298532 -0.35966498 -0.20192894
000100 93 85 29 3e 69 df a8 be 38 c3 38 3d 6f 60 6c be
       0.16554861 -0.32982948 0.04510805 -0.23083661
000110 1e f8 ab be 08 92 15 bf 4f f8 b6 be 1a af 6a be
       -0.33587736 -0.5842595 -0.3573632 -0.22918358
000120 54 88 40 be 65 db 88 be bf 9a 70 be d7 ab 21 bf
       -0.18802005 -0.26729885 -0.23496531 -0.6315283
000130 4e 15 88 be db 6b 4d bf be 0a 93 be db e8 b9 be
       -0.26578754 -0.802427 -0.28719133 -0.36310467
000140 99 6d 8a bf d8 62 0d 3e 9b 51 e6 be 40 f7 8c 3e
       -1.0814697 0.13807237 -0.44984135 0.27532387
000150 f3 b0 a2 be 2a 61 bd be e0 2b 0e bf 12 34 77 be
       -0.31775627 -0.36988193 -0.555357 -0.24140957
000160 54 37 81 be 9d 13 83 be a0 08 4b 3e f7 dc 84 3e
       -0.25237525 -0.256009 0.19827509 0.25949833
000170 4f 73 bf be c8 6f 06 3f 2e 43 b9 3d 5e fd 8c 3d
       -0.3739266 0.52514315 0.09046017 0.068842635
000180 fb e0 a0 bd 98 5f 68 3e eb 9b 6d 3f 28 6a 71 be
       -0.078554116 0.22692716 0.92816037 -0.23575652
000190 54 f2 b3 be ec 4b 17 bd ea a3 6b 3e a3 e7 23 be
       -0.3514582 -0.03693764 0.23011747 -0.16006331
0001a0 9a 4c c5 3d 21 8b 8d be 7f c2 86 3d eb 25 00 be
       0.09633751 -0.2764521 0.06580066 -0.12514465
0001b0 b7 8b ce 3c 8e 34 ae bd 6b 46 de 3e d8 4d a1 be
       0.025213106 -0.08506118 0.434131 -0.31504703
0001c0 75 e0 8b be a3 62 72 3d 59 4b a1 3a b8 2d d3 3e
       -0.27319685 0.0591761 0.001230578 0.41245818
0001d0 93 c8 84 3f 62 c4 79 3e fe ff 90 be 17 31 cd 3e
       1.037371 0.2439132 -0.28320307 0.40076515
0001e0 6e 09 73 bd 02 5a e3 be 8f 9e 8c be bc 2f 7e bf
       -0.059335165 -0.44404608 -0.2746472 -0.99291587
0001f0 57 37 50 be 51 a2 30 be 57 bd ff 3e c3 c0 04 3e
       -0.2033361 -0.17249419 0.49949142 0.12964158
000200 55 c0 a2 3d c4 e4 03 3e a9 29 8e be 29 6f 9e 3c
       0.07946841 0.12880236 -0.2776616 0.019340115
000210 67 5e c5 be a7 ea 19 be fb e6 bd 3e 31 45 46 bd
       -0.38548586 -0.15030919 0.37090287 -0.04840583
000220 87 1d 37 3d b6 bf 60 bc 82 d4 b0 be 09 06 5d bd
       0.044705894 -0.013717582 -0.3453713 -0.053960834
000230 62 77 1e 3e ea 5c 14 3e 5e a4 95 bd db 0c 80 be
       0.15475228 0.14488569 -0.07306741 -0.25009808
000240 c1 4b 92 3e a8 f6 77 be 2d 1a e9 bf f1 fb f7 bd
       0.2857342 -0.24215186 -1.8211113 -0.12108601
000250 03 7a 9f bd f7 42 01 bc f1 a3 1a be da 45 51 bd
       -0.07786944 -0.007889501 -0.15101601 -0.051092006
000260 a6 1d 17 bf 03 59 e7 3d 20 fc e7 be aa 80 24 3e
       -0.59029615 0.112962745 -0.45309544 0.16064706
000270 54 ad e9 3b 98 ef 82 bc 57 99 00 bd 0f e7 ce be
       0.007131258 -0.015983388 -0.031396236 -0.4041066
000280 f8 32 a0 be 5e 97 ad bd d2 41 9a bd 5d 03 ea bd
       -0.31288886 -0.084761366 -0.075320855 -0.11426423
000290 c0 8f 79 3e ac 74 2b bf da a7 a2 bd 4a 5a f4 3e
       0.24371243 -0.669749 -0.079421714 0.47725135
0002a0 5d 48 a3 bc 85 36 43 3d 5b 6d 18 be de 60 28 3e
       -0.019931966 0.047659416 -0.14885466 0.16443202
0002b0 21 ff b6 bf fe f0 0d bf 9b 11 a3 be 5a 62 44 be
       -1.4296609 -0.5544585 -0.3184937 -0.19178143
0002c0 9c f6 93 bb d9 34 6c bf e7 30 3b bf 91 4a 85 be
       -0.004515482 -0.9226814 -0.73121494 -0.26033452
0002d0 d0 22 26 3e 4b 7c 80 3e 6c 44 0a bf a0 1f 31 be
       0.16224217 0.25094828 -0.54010653 -0.1729722
0002e0 b4 b1 6a be 83 89 bd be 50 23 94 be 6d 23 0f bf
       -0.22919351 -0.37018976 -0.2893319 -0.5591343
0002f0 f3 2d 04 bf cc f0 bd 3e 6d fd 4a 3e 2b 7a 6e bd
       -0.5163261 0.37097776 0.19823237 -0.058221977
000300 9a 30 25 bd 46 4d 59 bf 8a 29 bd be d8 8c 78 be
       -0.040329553 -0.84883535 -0.36945754 -0.24272478
000310 b9 c7 51 3d 91 f2 b2 bd e1 0d 01 bd 4f b4 cd bf
       0.05121586 -0.08737672 -0.031507377 -1.6070651
000320 64 01 0e bf dc 1b 66 bd 7f 4e 68 be 5e 96 5f bf
       -0.5547087 -0.056178913 -0.22686194 -0.8733882
000330 fb ce c5 be 28 70 12 be 23 ee 3b be 17 a3 8c be
       -0.38634476 -0.14300597 -0.1835256 -0.27468178
000340 5e 9f ab be ce ec 7e be c8 bb 07 be 91 8c 1e 3f
       -0.33520025 -0.24895021 -0.13255227 0.6193324
000350 84 1c 42 be 5b a6 56 be 1d 6b 9f 3c 45 e6 0c 3e
       -0.1895619 -0.20961897 0.019460255 0.13759716
000360 8f ef 1e 3f 45 1c be be f5 cf a1 3f 88 50 2a 3e
       0.6208429 -0.37130943 1.2641588 0.16632283
000370 45 40 0d be f2 e4 07 3e f6 61 9c 3d c9 ee 8b bd
       -0.13794048 0.1327093 0.07635872 -0.06832654
000380 11 2a 10 3f 20 26 05 3f ae c3 df 3e ad 4a 11 bd
       0.5631419 0.520113 0.4370398 -0.035471607
000390 0e 19 f3 bd 7d d7 13 3e da cf 42 3f 46 c1 31 3d
       -0.11870013 0.14437671 0.76098406 0.04339721
0003a0 05 28 8a 3a e6 34 ea 3d 43 78 6d 3e 2a 58 23 3e
       0.0010540491 0.11435871 0.23190407 0.159516
0003b0 1d 48 18 bf fa 39 8c be f6 76 08 be 90 0d 0f 3e
       -0.59485036 -0.27387983 -0.1332663 0.13970017
0003c0 9c 1f 8a 3e c3 b1 bd be af 04 39 bd 04 5d 44 bd
       0.2697724 -0.37049684 -0.045170482 -0.04794027
0003d0 fc 3c 4e 3d 21 c8 87 3d 15 af 0a bf 12 81 2b 3f
       0.050351128 0.066299684 -0.54173404 0.6699382
0003e0 b1 5e 28 be 91 12 05 be 7b 10 0b be 9a 62 99 be
       -0.16442372 -0.12995364 -0.13580506 -0.2995804
0003f0 b9 e9 a5 3c f2 9a 8b be fd e0 a9 bd fc b3 b9 be
       0.02025305 -0.2726665 -0.08294866 -0.3627013

bias f4 [30]
000000 cf 58 47 3d 8d 0b 33 be fd 55 37 be ab 32 8f 3d
       0.04866868 -0.17484875 -0.17903896 0.06992086
000010 29 f7 0c 3e ff 90 90 bd 62 57 1e 3e ee 93 44 3e
       0.13766159 -0.07058906 0.15463021 0.19197056
000020 ac df ee bd 2a 7d d0 bd b9 2b e3 3d d3 9e 3d be
       -0.11663756 -0.10180123 0.11092324 -0.18517618
000030 05 7d eb 3d 42 2b 12 3e d7 de 1a be 89 72 1f be
       0.11498455 0.14274314 -0.15124069 -0.15571035
000040 a3 1d 39 3e 02 18 35 be a3 5f b0 3d 89 74 c2 bd
       0.18077712 -0.1768494 0.08611991 -0.094948836
000050 51 fc ae bc 56 48 23 be 0d b5 b0 bd a2 40 f0 bd
       -0.021360548 -0.15945563 -0.08628283 -0.11731078
000060 7b 64 40 bd b7 86 c2 3d 99 15 0b be 2f 9d bb bd
       -0.046970826 0.09498351 -0.13582458 -0.0916084
000070 ea f0 93 bc 9c 92 f3 bd
       -0.018059213 -0.11893198

weight f4 [30]
000000 20 03 d9 3e 58 f8 09 3f a6 ae 10 3f 2b b0 0f 3f
       0.42385197 0.5389457 0.5651649 0.56128186
000010 ce dc c2 3e a7 8f 9b 3e 4b 12 12 3f 45 c1 d9 3e
       0.38059086 0.30383036 0.5705916 0.42530265
000020 0c 00 13 3f 15 d3 a8 3e 6d f4 3e 3f 67 07 75 3f
       0.57421947 0.32973543 0.74591714 0.9571442
000030 a9 78 b8 3e 77 3a a2 3e 55 85 20 3e 1d 30 32 3e
       0.36029556 0.3168523 0.15675862 0.17401166
000040 c2 af 1e 3f 71 7f 90 3e 64 50 09 3f 99 9b 6d 3e
       0.61986935 0.2822223 0.5363829 0.23203887
000050 91 09 c2 3e 6a cf 5c 3f 54 a5 0d 3f 1d 60 fb 3e
       0.37897924 0.8625399 0.55330396 0.49096766
000060 f7 ec 5a 3f d9 1a 03 3f 3f 1c 22 3f 56 51 3a 3f
       0.8551783 0.5121284 0.6332435 0.7278036
000070 ab e0 25 3f 30 49 80 3f
       0.6479594 1.0022335

bias f4 [30]
000000 07 c8 5a 3f cb 54 03 40 58 6a d1 3f 38 b2 8b bf
       0.8546147 2.0520504 1.6360579 -1.0913763
000010 3e dc a7 3f f7 ba 1e 3f 99 75 a2 3f 34 4f 7a 3f
       1.3114088 0.62004036 1.2692138 0.97777104
000020 5a 81 bb 3f 3c c1 21 3f 8c 54 0c c0 50 d4 ea 3e
       1.464885 0.6318548 -2.1926603 0.45865107
000030 5b 3b 0a 40 78 26 4f 40 9e d1 7f 3f 02 76 2a 3f
       2.1598728 3.236723 0.99929225 0.66586316
000040 3f 93 98 bf cc b4 98 3f d0 ed 71 bf b0 e5 e0 3e
       -1.1919936 1.1930175 -0.945035 0.43925238
000050 6c b5 3e 3f 81 e7 86 40 96 04 04 40 4a 67 b3 3f
       0.7449558 4.2157598 2.06278 1.4015896
000060 ff 3c a4 bf 29 36 ae 3f 52 00 ab bf c8 d1 e9 bf
       -1.2831115 1.3610278 -1.3359473 -1.8267145
000070 dd 54 b0 bf 64 a9 97 40
       -1.3775898 4.7394276

running_mean f4 [30]
000000 38 38 1d 3e e8 54 ee 3e 88 69 64 3e 27 97 98 bd
       0.15353477 0.46549153 0.22305882 -0.07450705
000010 39 74 a3 3f 63 b1 2b 3f d8 d5 3b 3d 8d 3e e9 bb
       1.2769843 0.67067546 0.045858234 -0.0071180523
000020 d9 6b a8 3d a5 86 2a bf 06 22 d0 be 48 72 64 3e
       0.08223695 -0.666117 -0.40650958 0.2230922
000030 52 99 db be 48 57 04 3f 8d d8 8b 3f 64 27 e3 bd
       -0.42890412 0.5169568 1.0925461 -0.110914975
000040 90 c4 b2 be a6 9a 08 bf 7a e8 23 bf dd b2 49 3e
       -0.3491559 -0.53360975 -0.64026606 0.19697137
000050 59 7d d6 3d 7b a5 34 bf bd e1 3b 3f 14 11 91 3e
       0.10473127 -0.70565003 0.73391324 0.28333342
000060 67 03 92 3e 50 3e bb bc 3d 53 a5 be 5e 6a 7c bf
       0.2851822 -0.022856861 -0.32290068 -0.98599803
000070 9a ac c1 be b4 6b 9c 3e
       -0.37826997 0.3055092

running_var f4 [30]
000000 39 a1 bd 3d 6d 9b 1c 3d bf 5d 20 3e 1b a9 e0 3b
       0.092592664 0.038234163 0.15660761 0.0068560964
000010 ce e6 a0 3c 0f 9d 49 3d be 11 a9 3d 1d 51 37 3e
       0.019641306 0.04922205 0.08255337 0.17902036
000020 90 6c da 3d 49 02 79 3d 2a 2f 97 3c ae 6c 97 3d
       0.10665238 0.060793195 0.018455107 0.07393776
000030 85 28 40 3d c0 97 3b 3d 7a d2 07 3d 94 be 0d 3d
       0.046913642 0.045799017 0.03315971 0.034605578
000040 8e e6 2a 3c de 9f 53 3c 84 16 b8 3b f2 54 35 3d
       0.010430945 0.012916533 0.0056179184 0.044270463
000050 9f ed 94 3d 40 32 4e 3e b7 ef da 3d d3 a4 86 3d
       0.07271885 0.20136356 0.10690253 0.065744065
000060 45 8d 30 3c b3 4d 1b 3e e8 b5 27 3c 0e 18 41 3c
       0.010775869 0.15166359 0.010236241 0.01178552
000070 2b c3 0c 3c b8 64 c9 3e
       0.008591454 0.39334655

weight f4 [251, 30]
000000 6c 0f b6 3c 30 8b ae bb 82 19 ea 3e 91 03 34 bd
       0.02222415 -0.005326651 0.45722586 -0.043948714
000010 3b 12 5a bf cf 2f 64 bd 87 17 ba bc a1 10 88 3d
       -0.8518407 -0.055709656 -0.022716297 0.06643797
000020 f8 1b 42 3e 52 38 8d bd 9c e2 bd bf 69 e9 20 bd
       0.18955982 -0.06895508 -1.4834781 -0.039285097
000030 a2 14 e3 be d1 b7 f7 be 11 a4 12 3d e5 a0 49 bf
       -0.4435168 -0.48382428 0.035800997 -0.7876113
000040 78 c2 61 3b 35 29 9a bd 11 73 27 bd 65 a2 27 bd
       0.0034448188 -0.07527391 -0.04088122 -0.040926356
000050 be cf 28 be 18 28 13 3f 0f a3 90 be ff 22 a1 3e
       -0.16485497 0.57483053 -0.28249404 0.31472012
000060 a8 f3 e7 bd c5 f2 94 3e 54 c9 9d bd e2 ab d2 bd
       -0.113257706 0.29091468 -0.07704416 -0.1028669
000070 18 1c be bc 87 87 81 bd 31 59 ea bd b7 dd 95 be
       -0.023206756 -0.06324678 -0.11442793 -0.29270718
000080 05 a8 ff 3e a9 2c 46 bd de 57 0d 3e 99 8e 0b be
       0.49932876 -0.048382435 0.1380305 -0.13628615
000090 09 73 b4 3e 94 a5 66 3e 75 8e 2a be 56 a1 71 be
       0.35244015 0.225241 -0.16655906 -0.23596701
0000a0 54 69 21 be 8b 1a 87 3e 1c ee f0 bd 91 ed a2 be
       -0.15762836 0.26387438 -0.11764166 -0.31821874
0000b0 c1 46 cd 3d 1a 8c f1 be 2c 93 02 bf fa 97 11 be
       0.10023261 -0.47177202 -0.51005816 -0.1421813
0000c0 93 87 9e 3e e8 ad 3c bf d0 35 f6 3e 83 fb 10 bf
       0.3096281 -0.7370286 0.4808793 -0.56633776
0000d0 37 30 30 3f 02 11 9b 3e d1 45 30 3f cd 30 02 3f
       0.6882357 0.30286413 0.6885653 0.50855714
0000e0 3e c5 9d be 6d 05 2d be 6a 1c 7a be ba 45 43 be
       -0.30814546 -0.16896601 -0.24424902 -0.19069567
0000f0 2b 82 a4 be 3e 4e 86 3e 48 42 b1 3e d6 5d 75 3e
       -0.3213056 0.2623157 0.3462088 0.23961577
000100 8b 7c 58 3d 40 73 4e 3e d1 5b 04 be 33 f6 d0 3e
       0.05285315 0.20161152 -0.1292565 0.40812835
000110 7d 11 9c 3e c2 ad c3 be 30 d7 4c be 24 79 8d 3e
       0.30482092 -0.38218504 -0.20003963 0.27631485
000120 8e 5f 41 3e 84 61 ec be 14 a0 d3 be 04 c3 cc be
       0.18884107 -0.4616815 -0.41333067 -0.39992535
000130 66 e4 83 bd c0 dc 6b 3e d6 2e be bc ec 8a a1 bd
       -0.06440048 0.23033428 -0.023215692 -0.07887825
000140 db 5e c6 3e 26 c8 9c be df 11 19 3f 63 a6 e8 3e
       0.38744244 -0.3062145 0.59792894 0.45439443
000150 35 8b 4f 3f ea a2 7d 3e d2 f5 34 bf 78 25 ff 3d
       0.8107179 0.24769178 -0.7068759 0.124583185
000160 d5 97 93 be c4 16 ff be 85 81 96 bd b0 d0 a4 bd
       -0.28826776 -0.49822056 -0.07348923 -0.080476165
000170 c1 1d 50 bf 94 09 cf 3e dc b4 d1 bd d0 4d 28 3e
       -0.812954 0.40436995 -0.10239574 0.16435933
000180 ec 15 0c 3e f8 19 07 be 81 bf 95 be 70 7a b6 3d
       0.13680238 -0.131935 -0.29247668 0.08910072
000190 15 d4 c9 bd 6b aa 3d be 86 fc 50 3e a9 05 ff 3e
       -0.098549046 -0.1852204 0.2040883 0.49809006
0001a0 aa a9 2f bd 05 c8 34 bd f2 76 a4 bd 14 2a 58 be
       -0.042886414 -0.044136066 -0.080304995 -0.21109802
0001b0 32 d7 91 3d 58 57 7b 3c 6e a6 93 bd 33 c7 c5 3e
       0.071211234 0.015340649 -0.07209478 0.3862854
0001c0 6a 11 c2 be 40 3b 8c be 58 45 24 bf 9f 5b 79 be
       -0.3790391 -0.27388954 -0.6416831 -0.24351357
0001d0 51 d6 84 3e 74 f1 ca 3e 5c bc 79 3e c8 c1 21 3f
       0.2594476 0.3963734 0.2438826 0.6318631
0001e0 85 14 9f 3e a5 f3 09 bf 89 fc 4a bf df 4b aa bc
       0.31070343 -0.538874 -0.7929159 -0.020788131
0001f0 93 e3 d5 3c 2c c7 92 3e 7a 17 0d 3f 5c fd 00 ba
       0.026109492 0.2866758 0.5511395 -0.0004920566
000200 0f 0f 84 3e 9c b4 04 bd e2 0e 12 3e 91 94 81 be
       0.2579274 -0.032398805 0.1426349 -0.2530866
000210 78 7f 8e bd 57 76 a6 3e c2 30 c8 be 4f e4 49 be
       -0.069579065 0.3251216 -0.390997 -0.19715999
000220 c7 f3 f2 bd c1 20 26 3e 09 29 2c be 18 b2 97 be
       -0.11862903 0.16223432 -0.16812529 -0.29628062
000230 f6 f5 bf 3e e8 13 4f bd fd d4 c4 be ae f7 d7 bd
       0.3749234 -0.050556093 -0.38443747 -0.10545288
000240 41 b2 25 bf 3c b6 33 bf 11 5f 0d bd d4 fc 01 3f
       -0.6472512 -0.7019994 -0.03451449 0.5077641
000250 61 cb bc 3e a0 16 3e 3f c9 2b 9d 3e 68 a3 cd be
       0.36873916 0.74253273 0.30697468 -0.40163732
000260 31 0b 57 bf c5 cf 9a 3d 8c ca 60 bd 6b ef 7e 3e
       -0.8400145 0.0755916 -0.054880664 0.24896018
000270 ba 4f b0 3e 0d 8f 2e be 26 76 7f bc 30 87 5b 3d
       0.34435827 -0.17046757 -0.015592134 0.05359572
000280 9d fd e3 3c 0d c6 61 be 14 45 33 3e d8 2c cf 3e
       0.027830893 -0.22048207 0.1750682 0.404639
000290 e8 7b 8c 3e 09 f0 32 bd b0 7c f8 be 0f 12 27 be
       0.27438283 -0.043685947 -0.4853263 -0.16315483
0002a0 16 f9 18 3e 3c 27 01 bf 66 f7 c4 bd 67 b8 85 3e
       0.14938769 -0.5045049 -0.096175 0.2611725
0002b0 f8 2e 34 be fb 42 1f be 85 74 04 bf 2c 65 83 be
       -0.17596042 -0.15552895 -0.51740295 -0.25663126
0002c0 51 77 ec 3e 55 f3 f8 3e 18 26 0a 3d e3 c2 08 3f
       0.4618478 0.48623148 0.033727735 0.53422374
0002d0 9e 56 6a be d7 22 66 3d da 0b d0 be ba 87 2c bb
       -0.22884604 0.05618557 -0.40634042 -0.0026326017
0002e0 38 23 4f 3d b8 3a a4 3e ed 53 d7 bc 3c 4d 34 be
       0.050570697 0.3207605 -0.026285136 -0.17607588
0002f0 c7 8d 51 be 5d fa 30 3e 2b 74 e1 3d 34 02 82 be
       -0.2046424 0.17283006 0.110084854 -0.25392306
000300 a4 bf 00 3d 2e 39 e3 3e 0b 9a 06 be b0 ed 49 be
       0.031432763 0.44379562 -0.131447 -0.19719577
000310 04 16 c1 3d 66 0d 76 be 5c e4 ba bd c5 8b fc 3d
       0.09428027 -0.24028549 -0.09125587 0.123313464
000320 be 56 d9 3e 57 55 70 3e df e4 4e bf 8c e7 a3 be
       0.42448992 0.23470055 -0.8081798 -0.32012594
000330 42 5d 04 bf 85 6c 06 bf fa 73 13 be 42 c1 de 3e
       -0.517048 -0.5250934 -0.1439971 0.4350682
000340 e7 ae b7 3e db b0 22 3f ef 1c e9 3e e4 68 37 bf
       0.35875627 0.6355111 0.45529887 -0.71644425
000350 cc a9 88 bf cc 97 76 3e 91 bb 08 be 28 fa 99 3e
       -1.0676818 0.24081343 -0.13352801 0.30073667
000360 41 1a 29 3f 53 25 0b be ed 5c 5f bd ca c9 b2 be
       0.66055685 -0.13588457 -0.05453198 -0.34919578
000370 0c 2b 3d 3d ff 9b 45 be 24 49 12 bd 26 27 94 3e
       0.04618363 -0.19297789 -0.035714284 0.28936118
000380 78 28 2a 3c 6b 00 50 be 49 ef 48 be 18 6d 0a 3e
       0.010385625 -0.2031266 -0.1962253 0.13518178
000390 70 fe d9 bd ff 4c 70 be ab 77 8b 3d 80 34 a4 3e
       -0.10644233 -0.23466872 0.06809934 0.32071304
0003a0 47 d8 66 be e7 a4 07 be 81 16 13 bf 3a 37 16 be
       -0.22543441 -0.13246499 -0.57456213 -0.14669505
0003b0 7a 1a e3 3d 0b 4e 17 3f 10 20 49 be 95 7c 06 3f
       0.110890344 0.5910346 -0.19641137 0.5253385
0003c0 7c fc 28 3e ae 93 c3 bd 88 64 e4 be 83 2a b5 bd
       0.16502565 -0.09549652 -0.4460795 -0.08845999
0003d0 bc 1f 66 3d 39 4c 5a be 22 d6 0f bd e1 10 88 be
       0.056182608 -0.21318139 -0.035116322 -0.26575378
0003e0 a7 a3 2a be 3b 2d 64 3d e3 9e 38 3e 2e c4 5d be
       -0.16663991 0.055707198 0.1802936 -0.21656868
0003f0 d3 3c 4a 3e b4 e4 1b 3f c7 e3 ca 3e 05 e1 0f be
       0.19749765 0.6089585 0.39626905 -0.14050682

bias f4 [251]
000000 f1 6f e0 bd 13 91 28 3e 3e 1a 0a be c6 12 d0 ba
       -0.10958851 0.16461591 -0.13486573 -0.0015874736
000010 36 fe 2e be a4 83 e7 bd 98 4b 38 3d dc 75 86 3a
       -0.17089161 -0.11304405 0.044993967 0.0010258514
000020 ab 54 26 3e a7 65 49 3d 0f 94 38 3e d8 cd 07 be
       0.16243236 0.04916921 0.1802523 -0.13262117
000030 0e dd 23 3e a5 57 e1 3c 6d 97 33 3e d2 d3 33 3c
       0.16002294 0.027507612 0.17538233 0.010975795
000040 43 3a ae 3d 62 73 37 3e e1 94 39 bd df ac 41 be
       0.08507206 0.17915109 -0.045307998 -0.18913601
000050 6d a2 f5 bd 07 b1 0c be 9d fb 0e 3e 27 19 5e bd
       -0.11993871 -0.13739406 0.1396317 -0.054223206
000060 ed 2b 2f be bf 49 f0 bd 36 3c 06 be 2f 03 2a be
       -0.171066 -0.11732816 -0.13108906 -0.16602777
000070 eb e4 0b bd b7 98 9e 3d 15 35 3e 3e 3e 8f b7 bd
       -0.03415386 0.07743972 0.18574937 -0.08962868
000080 7b cf 1a 3e 84 78 1d be 70 5b ab 3d 7c e8 f5 bd
       0.1511821 -0.15378004 0.0836705 -0.120072335
000090 a0 8e 2d 3e 23 53 10 be 58 62 7a bc 36 7e eb bd
       0.16948938 -0.14094214 -0.015282236 -0.11498682
0000a0 bd 7c f4 3d 84 5c 0c be f6 64 30 be 72 b7 b6 3d
       0.119378544 -0.13707167 -0.17226014 0.08921708
0000b0 a6 4c df bd 26 f8 8e 3c cd 32 89 bd 7e db d5 3d
       -0.109032914 0.01745231 -0.066991426 0.104422554
0000c0 8e 0e 7d 3d 5f 09 38 bd ed dd 82 bd 9f fa 9b 3d
       0.06178146 -0.044930812 -0.06389985 0.076161616
0000d0 79 51 e8 3d 2c 7f 5c bd 94 39 1f 3e c7 6a 1b bd
       0.11343665 -0.053832218 0.15549308 -0.037943628
0000e0 38 bf ed bd cb df 34 be b8 05 e6 bc f7 4d 37 be
       -0.11608738 -0.17663495 -0.028078899 -0.17900835
0000f0 5f f6 32 be 3a 6e 59 3d e8 ab 85 3d 53 99 ed bd
       -0.17476796 0.053083636 0.06526929 -0.1160151
000100 2d fb 11 3e 9e f1 f9 3c f2 5b 53 3c bf 37 b3 3d
       0.14255972 0.03051072 0.012900339 0.08750867
000110 24 c8 b1 bb 65 0d 8c 3d 59 43 20 be 96 38 2b be
       -0.00542547 0.06838492 -0.15650691 -0.16720805
000120 72 0a d4 bd c6 d5 01 bd 26 c8 d7 bd 0b e6 dd 3d
       -0.10353555 -0.03169801 -0.10536222 0.10834893
000130 2d 69 aa 3d 77 cf e2 bd 24 1c 9f bc 85 bd b9 3d
       0.08320842 -0.11074727 -0.019422598 0.09069351
000140 90 8c 17 be d5 75 d3 bd a4 05 9a bd 39 4b f2 3d
       -0.14799714 -0.10325209 -0.07520607 0.11830754
000150 d4 03 c6 bc 88 36 10 be 68 9b eb bd 9f da 77 3d
       -0.024171747 -0.14083302 -0.11504251 0.060511228
000160 6d fc 92 3d 6d 17 c2 bd fe d6 c9 3d 28 ed c3 3d
       0.07177053 -0.09477124 0.0985546 0.09566718
000170 aa 15 62 3d 91 de 28 be 32 3c fd bd 59 f7 6b bd
       0.05519644 -0.16491152 -0.12364997 -0.057608936
000180 4b ad 33 3e 06 39 2d bd b9 9c 22 bd 36 75 2d bc
       0.17546575 -0.04229071 -0.039700244 -0.010587027
000190 ba 69 c3 3d 65 9e 3d be 29 f0 b6 bd 56 87 f5 3d
       0.0954165 -0.18517454 -0.08932526 0.11988704
0001a0 f6 e0 c8 3d 07 01 bd 3d 58 a2 0a be 70 4f 93 bd
       0.09808533 0.092287116 -0.13538492 -0.07192886
0001b0 d5 ab e7 bc 85 34 92 3d df 72 37 be 30 82 98 bd
       -0.028280178 0.071389236 -0.17914914 -0.07446706
0001c0 d4 47 8e bd 21 cb 7c 3d 28 52 0a 3c fb da 2a be
       -0.06947294 0.061717156 0.008442439 -0.16685097
0001d0 d8 21 28 3e 7f 72 23 bc d7 42 61 3d 9a e7 c4 3d
       0.1641916 -0.009976028 0.054995384 0.09614487
0001e0 4d 0e a0 bd 3b 7e 7c 3c 4c 96 3d bd 64 0f a2 bd
       -0.07815228 0.015410955 -0.046285912 -0.07913092
0001f0 82 33 14 be 9d 54 05 3d 0e ba ad bb a8 3b 09 3d
       -0.14472774 0.032551397 -0.0053017205 0.03350416
000200 97 0d 20 bd b8 23 00 be dc bd bf 3c 3e 3d 61 3d
       -0.03907546 -0.12513626 0.023405962 0.054990046
000210 a1 cf 11 bc 11 1b d5 3d 8d 38 ec 3d 6f e5 f1 3a
       -0.0088996 0.10405553 0.11534224 0.0018455217
000220 0a 1a bf bc 53 4c 06 bc 4e 00 e7 bc 6e 6d 20 3e
       -0.023327846 -0.008196908 -0.028198387 0.15666744
000230 36 f8 7e 3d 45 8c 2a be 27 fc fd bd 35 3a 0f bd
       0.06224843 -0.16655071 -0.1240161 -0.03496762
000240 91 25 16 3e d1 1e 30 bd f5 39 e0 3c 8a 46 fc bc
       0.14662768 -0.04299814 0.027371386 -0.030795354
000250 ee a0 fd bc f1 97 e2 3d f4 0c ff 3d 76 b4 f6 bd
       -0.030960526 0.11064137 0.124536425 -0.12046139
000260 a5 d2 82 bd e5 a4 0a 3e 05 de bd bc a9 67 56 bd
       -0.063878335 0.13539465 -0.023177156 -0.05234495
000270 a8 1f cc bd f0 46 60 bd 22 23 12 3e 84 6b 59 3d
       -0.099669755 -0.05475515 0.14271215 0.05308105
000280 8d 7a 2d bc 47 8e 86 3d 9a 40 1a be 84 8b 17 3e
       -0.0105883 0.06570106 -0.15063706 0.14799315
000290 08 e4 ea bd 1e 02 04 3e 2e b2 d3 3c 88 6d ed 3d
       -0.11469275 0.12891433 0.025841799 0.11593157
0002a0 84 c9 c6 bd bc 78 82 bc 44 5f 02 be 5c a5 e7 3d
       -0.09706405 -0.015926711 -0.12731653 0.11310837
0002b0 a3 c2 17 3e be 94 4f 3c e9 43 df bd 52 2b ec 3d
       0.14820342 0.01266974 -0.10901625 0.115317
0002c0 88 9f 21 be 0e d1 30 be cc 3e 8c 3d be 48 91 3d
       -0.15783513 -0.17267248 0.06847915 0.070939526
0002d0 a9 70 90 3d 52 cc e9 bd 3b 18 8e 3c fc db c2 bd
       0.07052738 -0.11415924 0.017345538 -0.09514615
0002e0 bb 12 6c 3d 86 c0 62 bd 86 f5 e9 3c 24 5f 21 3e
       0.05763505 -0.055359386 0.028559458 0.1575895
0002f0 8b fc 2d be ee fd cd 3d 44 72 2d bd a9 20 00 bb
       -0.16990869 0.10058199 -0.0423453 -0.0019550717
000300 16 37 5b bd a3 c5 12 3e 84 22 b7 3d 3f 86 b9 bd
       -0.05351933 0.14333205 0.0894213 -0.090588085
000310 e1 a5 33 be bb 30 98 3d bf 7e 17 be 3f 0b 36 3e
       -0.17543747 0.074311696 -0.14794444 0.17777728
000320 a1 e8 f2 bd 80 ea 0d 3c 39 53 e6 3c c7 f7 1d 3e
       -0.11860777 0.008661866 0.028115856 0.15426551
000330 e3 5e 43 bd 3b a3 1e 3e f9 40 11 bd d0 c5 2e be
       -0.047697913 0.15491955 -0.035462353 -0.17067647
000340 20 70 f5 3d 14 58 8c 3c ad bd 56 3d 8c 92 c3 bd
       0.11984277 0.017131843 0.052426983 -0.09549436
000350 7e b4 8a 3d 20 bf 29 be 6f 0c 97 bd 96 f9 12 3d
       0.067727074 -0.16576815 -0.073754184 0.035882555
000360 87 ea 72 bd ea 7c 25 3e 27 c9 28 bd cc 0d 26 be
       -0.059305694 0.16160932 -0.04120746 -0.162162
000370 3a e6 37 3e ad 99 18 bd e1 c5 53 3d 56 f3 12 3e
       0.17958918 -0.03725593 0.051702384 0.14350638
000380 10 78 cd bb d8 79 19 3e 2e 4b 23 be 37 6d f7 bd
       -0.006270416 0.14987886 -0.15946648 -0.12081378
000390 74 33 25 3e d1 71 da bd 5e ad 3b 3e 04 80 88 bc
       0.16132909 -0.1066624 0.18327853 -0.016662605
0003a0 ac 09 13 3e 53 23 9b bc 45 34 2d be 34 4b 88 3d
       0.14359158 -0.018937742 -0.1691447 0.06654969
0003b0 5e 5c 72 bd dc 9b de bd ba 55 83 3d 23 af 6a bd
       -0.05917012 -0.108695716 0.064128354 -0.05729593
0003c0 e2 58 a3 3d 52 85 e2 bd ef 39 76 3d 86 9c 31 be
       0.079759374 -0.11060585 0.060113844 -0.17344865
0003d0 da e8 a0 3d dd 93 43 3c af 8f 02 3c 1b 8b 1a be
       0.07856913 0.011937109 0.007968827 -0.15092127
0003e0 ce b7 ac 3d 33 1f f4 3d 09 1e 22 be
       0.084334955 0.11920013 -0.1583177

weight f4 [251]
000000 3f f5 20 3f 83 1c 84 be f3 c4 82 be 0c 54 78 3e
       0.62874216 -0.25803003 -0.25540885 0.24250811
000010 83 7b 81 3e 88 f3 7f 3e d7 10 82 3e 44 e8 81 3e
       0.25289544 0.24995244 0.25403473 0.25372517
000020 20 15 79 3e 69 e1 87 3e a1 08 78 3e 4e ea 83 be
       0.24324465 0.26539162 0.24222042 -0.25764698
000030 f7 ae 82 be e4 0f 82 3e 1a b6 8b 3e d4 d5 81 be
       -0.25524113 0.2540275 0.2728737 -0.2535845
000040 98 11 80 3e ba 00 7b be ce c8 81 be 2d c3 82 be
       0.25013423 -0.24511996 -0.25348514 -0.25539532
000050 1d 39 89 3e 8e a8 81 3e f9 b2 84 3e 42 76 80 3e
       0.26801386 0.2532391 0.25917795 0.25090224
000060 43 21 82 3e fb 33 82 3e 18 dd 8f 3e 11 34 81 3e
       0.25416002 0.25430283 0.2809837 0.25235036
000070 95 d9 7b 3e 5a 53 7a 3e 8f 08 81 3e c4 20 83 3e
       0.2459472 0.24445859 0.25201842 0.25610936
000080 c1 38 81 3e 39 c3 83 be e6 2a 76 3e 2f 77 7d 3e
       0.25238612 -0.2573488 0.24039802 0.24752496
000090 86 9a 86 3e 17 ea 7d 3e 41 52 83 3e fd 28 86 be
       0.26289767 0.2479633 0.25648692 -0.26203147
0000a0 3c 69 7f 3e d9 62 80 3e 36 22 81 3e e4 68 80 be
       0.24942487 0.25075415 0.25221413 -0.25080025
0000b0 73 72 82 be fc 39 85 3e 53 4d 80 3e 57 f6 80 3e
       -0.25477943 0.260208 0.25058994 0.25187942
0000c0 5c 32 85 3e 22 e9 83 3e 49 3b 83 3e f2 c1 81 3e
       0.26014984 0.25763804 0.25631168 0.2534328
0000d0 fd 09 81 3e 9f 81 8e 3e 11 74 82 be e1 99 7e 3e
       0.25202933 0.27833268 -0.25479177 0.24863388
0000e0 72 2b 7b 3e 3c 36 85 3e 06 da 81 3e a1 be 80 be
       0.24528292 0.2601794 0.2536165 -0.25145438
0000f0 8c d3 80 be 73 7c 74 3e fa 8a 80 be 40 d3 81 3e
       -0.25161397 0.23875599 -0.2510603 0.25356483
000100 1e ec 83 3e 28 0d 80 3e 1b b5 83 3e 21 22 84 3e
       0.2576608 0.25010037 0.2572411 0.25807288
000110 ad bf 81 3e 31 ca 83 3e e5 3c 7c 3e 0b 90 80 3e
       0.2534155 0.25740197 0.24632604 0.25109896
000120 b2 ad 82 3e c3 91 85 be d0 13 82 3e d1 c4 86 be
       0.25523144 -0.2608777 0.2540574 -0.26322034
000130 b0 c1 83 be 44 d4 82 3e 69 36 87 be 56 be 82 3e
       -0.2573371 0.2555257 -0.264087 0.2553584
000140 bb 86 7f 3e 62 6b 81 3e 67 dc 7e 3e 76 5f 8b 3e
       0.2495374 0.2527724 0.24888764 0.27221268
000150 72 c6 7b be 40 32 85 be eb 8f 83 3e 39 0c 7c 3e
       -0.2458742 -0.260149 0.25695738 0.24614038
000160 5c 13 90 3e 29 1b 82 3e 62 44 80 3e 40 7b 82 be
       0.2813977 0.25411347 0.25052172 -0.25484657
000170 6e ff 84 be 94 9a 86 be 8b 23 7d 3e cb c2 71 3e
       -0.25976127 -0.2628981 0.2472059 0.23609464
000180 53 b4 81 3e 95 3e 83 3e 11 c7 82 3e ab 34 80 3e
       0.2533289 0.25633684 0.255425 0.25040182
000190 28 94 80 3e f4 8c 7f 3e 62 91 80 3e 28 34 7d 3e
       0.25113034 0.24956113 0.25110918 0.24726927
0001a0 65 eb 87 3e df ff 82 be 30 56 7b 3e 42 fc 82 be
       0.2654678 -0.2558584 0.24544597 -0.25583082
0001b0 99 81 85 3e e4 e3 80 3e 66 56 81 be e4 53 85 3e
       0.26075438 0.25173867 -0.2526123 0.26040566
0001c0 42 c4 7d 3e 15 6f 83 3e 1d 5b 80 3e be 72 80 3e
       0.24781898 0.25670686 0.25069514 0.2508754
0001d0 69 30 80 3e fa 05 81 be f0 d5 84 be c9 d6 82 3e
       0.25036934 -0.25199872 -0.2594447 0.25554493
0001e0 ba 19 81 3e ce ef 81 be 5c 30 80 be 09 c9 81 3e
       0.2521494 -0.2537827 -0.25036895 0.2534869
0001f0 65 28 83 be f2 a8 81 3e 8b 9f 7a 3e f4 45 7f 3e
       -0.25616756 0.25324208 0.24474923 0.24929029
000200 20 e3 80 3e fc 2a 81 be e4 10 75 3e 4e d6 7d 3e
       0.25173283 -0.25228107 0.23932225 0.24788782
000210 c5 be 84 3e 9b 31 82 3e c6 56 81 be 1d 21 82 be
       0.25926796 0.2542847 -0.25261515 -0.25415888
000220 b3 49 83 3e 7c 8b 82 3e 5b c2 7f 3e 7d d0 85 be
       0.25642166 0.25497043 0.24976484 -0.26135626
000230 18 eb 81 3e cb 2d 82 be 61 d4 81 be 3e 01 82 3e
       0.25374675 -0.25425562 -0.25357345 0.25391573
000240 15 23 8e 3e 96 b8 7f 3e bb d9 81 be ec e4 82 3e
       0.2776114 0.24972758 -0.25361428 0.2556528
000250 97 83 84 be 1d c8 83 3e 8f 46 82 3e ee 2f 82 3e
       -0.25881645 0.25738612 0.25444457 0.25427192
000260 c6 f2 80 3e 91 0b 86 3e 92 4f 81 be b5 47 81 3e
       0.2518522 0.261807 -0.2525602 0.2525002
000270 fa 2e 7f be 8c 19 81 be 30 ea 83 be 0e 83 83 be
       -0.24920264 -0.25214803 -0.25764608 -0.25685924
000280 0f c6 7a be 0c 32 85 3e 77 03 7d 3e 5c 08 86 3e
       -0.24489616 0.26014745 0.24708353 0.26178253
000290 85 aa 81 3e fe f1 84 3e df 16 93 3e 66 83 7d 3e
       0.2532541 0.25965875 0.28728387 0.24757156
0002a0 97 0c 7e 3e 58 68 82 3e 01 93 7e 3e 2c 4e 84 3e
       0.2480949 0.25470233 0.24860765 0.2584089
0002b0 21 7d 82 3e d3 61 8a be 9b 26 7d 3e 3d fb 7e 3e
       0.2548609 -0.2702776 0.24721758 0.24900527
0002c0 27 c8 80 3e 59 af 82 be 0f cc 83 be 41 5c 83 be
       0.25152704 -0.25524405 -0.25741622 -0.25656322
0002d0 47 79 81 3e 33 78 81 3e 55 c1 83 3e db 02 84 3e
       0.2528784 0.25287017 0.25733438 0.2578343
0002e0 ed 8f 84 be 8b 03 85 3e a4 bf 7d 3e 02 95 7b 3e
       -0.25891057 0.25979266 0.24780136 0.2456856
0002f0 a6 e5 82 be 6d ad 81 3e 94 93 80 3e 44 22 80 3e
       -0.25565833 0.25327626 0.25112593 0.25026143
000300 96 8f 80 3e 79 31 84 3e 0a 7c 83 be d0 f3 7d 3e
       0.25109547 0.25818995 -0.25680572 0.24800038
000310 91 70 84 be 71 29 85 3e a7 e2 77 3e ce 92 84 be
       -0.2586713 0.2600818 0.24207555 -0.25893253
000320 0b c5 82 3e 16 f6 84 be cd 88 82 3e c7 98 86 be
       0.25540957 -0.25969 0.25494996 -0.26288435
000330 4c 73 7f 3e cb 3f 84 be 55 81 80 3e d2 9f 82 3e
       0.24946326 -0.2582992 0.25098673 0.25512558
000340 91 5d 80 3e cc 2f 86 3e 39 15 81 3e 51 b3 84 3e
       0.25071386 0.2620834 0.25211504 0.25918058
000350 0a 6b 81 3e 52 cc 82 3e d9 8a 79 3e f0 de 87 3e
       0.25276977 0.2554651 0.24369372 0.26537275
000360 77 51 7f be c6 22 70 3e 56 fe 7f 3e d7 74 7d 3e
       -0.2493342 0.23450765 0.24999365 0.24751602
000370 2f ac 82 3e 72 ab 83 be e4 87 83 3e 59 9b 81 3e
       0.2552199 -0.2571674 0.25689614 0.25313833
000380 4a 0c 8d 3e 78 1e 7e 3e 48 48 80 3e 10 f4 8e 3e
       0.27548438 0.2481631 0.25055146 0.2792058
000390 48 6e 80 3e c5 7a 83 3e 90 06 7c 3e 88 ce 84 3e
       0.25084138 0.25679603 0.24611878 0.2593882
0003a0 17 eb 7f 3e ee c4 81 3e af 4e 86 be f6 44 80 be
       0.24992023 0.25345558 -0.26231906 -0.25052613
0003b0 15 a6 7e 3e 83 44 77 3e 5e 7f 82 3e 18 b0 84 3e
       0.24868043 0.24147229 0.25487798 0.259156
0003c0 c4 67 84 be 7e 8e 82 be 48 fe 81 3e 9c e7 80 3e
       -0.25860417 -0.25499338 0.25389314 0.25176704
0003d0 08 8c 85 3e 9b b5 7d 3e 7e 60 80 3e a1 1c 83 3e
       0.26083398 0.24776308 0.25073618 0.2560778
0003e0 55 b2 76 3e c8 26 85 3e 92 75 82 3e
       0.24091466 0.2600615 0.25480324

bias f4 [251]
000000 2a b6 20 3f a3 34 61 40 d6 d0 62 40 68 3b 62 40
       0.6277796 3.5188377 3.5439963 3.5348759
000010 ce 3c 63 40 dd 98 63 40 0f 13 65 40 6f 0c 64 40
       3.5505862 3.556205 3.5792882 3.563259
000020 a2 a8 64 40 38 61 61 40 81 53 61 40 fb 57 63 40
       3.5727925 3.5215588 3.5207217 3.552245
000030 08 34 62 40 10 e6 61 40 ba 98 60 40 b2 9f 63 40
       3.5344257 3.529667 3.5093217 3.556622
000040 97 07 63 40 1c 69 63 40 b1 b7 62 40 51 c5 60 40
       3.5473382 3.5532904 3.5424616 3.5120432
000050 44 14 62 40 14 65 61 40 7a 61 62 40 d6 4a 64 40
       3.532487 3.5217943 3.5371995 3.5670676
000060 c8 26 63 40 7d c6 62 40 cc 66 5f 40 a2 50 63 40
       3.549242 3.5433648 3.4906492 3.5517964
000070 6e 99 61 40 51 be 62 40 6a 73 61 40 80 98 62 40
       3.5249896 3.542866 3.5226693 3.5405579
000080 c7 bb 61 40 a4 e9 61 40 64 d4 64 40 a8 f1 63 40
       3.527086 3.5298853 3.5754633 3.5616245
000090 6a c5 62 40 a1 31 65 40 95 14 64 40 c8 78 63 40
       3.5432992 3.581154 3.5637562 3.554247
0000a0 3a aa 65 40 c3 01 63 40 f0 ed 60 40 da 0f 64 40
       3.5885148 3.5469825 3.5145226 3.5634675
0000b0 95 28 63 40 38 dd 63 40 28 bb 61 40 c1 66 61 40
       3.549352 3.5603771 3.527048 3.5218966
0000c0 70 30 61 40 7c fd 61 40 68 9c 62 40 e7 42 62 40
       3.5185814 3.5310965 3.5407963 3.5353334
0000d0 c2 b3 62 40 e1 83 61 40 b4 cd 64 40 d3 2c 61 40
       3.5422215 3.5236742 3.5750551 3.5183609
0000e0 30 7b 63 40 9e d3 62 40 2e dc 62 40 7f 79 64 40
       3.5543938 3.544166 3.5446887 3.5699155
0000f0 61 c3 62 40 5d de 64 40 cf e9 61 40 42 63 63 40
       3.543175 3.576072 3.5298955 3.5529332
000100 b0 9c 63 40 01 99 63 40 12 78 63 40 35 9b 63 40
       3.5564384 3.5562136 3.5542035 3.556348
000110 9d 4f 61 40 25 a2 64 40 37 b4 60 40 de 45 61 40
       3.5204842 3.5723965 3.5109994 3.5198894
000120 f4 e5 61 40 6c a3 61 40 2f 5e 64 40 df 24 5f 40
       3.5296602 3.5255995 3.5682485 3.4866254
000130 54 fb 63 40 68 8e 62 40 13 1a 63 40 5b db 61 40
       3.5622149 3.5399418 3.5484664 3.5290134
000140 9b c2 62 40 16 30 62 40 12 1d 60 40 a2 72 61 40
       3.5431278 3.534185 3.5017743 3.5226216
000150 e6 80 61 40 44 9e 62 40 ca ec 62 40 0b fb 61 40
       3.5234923 3.5409098 3.5457025 3.5309474
000160 f5 38 61 40 82 2d 61 40 e1 cf 62 40 d6 11 62 40
       3.5191014 3.5184026 3.543938 3.5323386
000170 f4 9b 62 40 d0 03 62 40 38 fa 63 40 58 b4 62 40
       3.5407686 3.5314827 3.5621471 3.5422573
000180 d3 9d 61 40 f0 08 62 40 3b e1 60 40 94 6c 62 40
       3.5252578 3.5317955 3.513747 3.537877
000190 1a fb 61 40 75 a5 63 40 18 85 61 40 8e ae 64 40
       3.530951 3.5569737 3.5237484 3.573154
0001a0 4a e8 61 40 27 ab 62 40 16 41 61 40 3a 35 62 40
       3.5298028 3.5416963 3.5195975 3.5344987
0001b0 51 2c 65 40 dc ed 63 40 ff 63 64 40 9d 2a 62 40
       3.5808299 3.5613928 3.5686033 3.533851
0001c0 18 60 64 40 1a 38 60 40 19 26 64 40 10 90 5f 40
       3.568365 3.5034242 3.5648253 3.4931679
0001d0 72 68 64 40 e0 35 61 40 cf fb 62 40 27 49 64 40
       3.5688748 3.5189133 3.5466192 3.5669649
0001e0 17 ac 60 40 b1 18 63 40 e0 43 62 40 55 81 64 40
       3.5105035 3.548382 3.5353928 3.5703938
0001f0 9b c9 61 40 ec 30 62 40 d0 3c 65 40 d8 f6 62 40
       3.52793 3.534236 3.5818367 3.5463161
000200 8f e6 60 40 5d 89 62 40 7a 8d 63 40 2c 80 64 40
       3.5140722 3.539634 3.55551 3.570323
000210 bf 4b 64 40 ed 26 64 40 90 3d 64 40 22 2b 63 40
       3.5671232 3.5648758 3.5662575 3.5495076
000220 59 2a 62 40 0d 98 62 40 0e a7 63 40 b9 64 63 40
       3.5338347 3.5405304 3.5570712 3.5530226
000230 52 cb 63 40 f5 68 62 40 c9 d6 61 40 42 a1 62 40
       3.5592847 3.537656 3.5287344 3.5410924
000240 ce 5a 61 40 da 36 63 40 7d 8c 63 40 00 7a 64 40
       3.5211673 3.5502229 3.5554497 3.5699463
000250 df 2a 64 40 f8 7f 62 40 77 1e 63 40 d0 05 64 40
       3.5651166 3.5390606 3.5487344 3.5628548
000260 c4 09 65 40 95 40 60 40 92 a6 62 40 5f 5f 60 40
       3.578721 3.5039418 3.5414166 3.505821
000270 41 4d 63 40 11 c9 61 40 ef 49 62 40 96 55 63 40
       3.5515902 3.5278971 3.5357625 3.5520988
000280 c6 a5 62 40 1c 00 63 40 a1 a9 61 40 a0 86 63 40
       3.541368 3.5468817 3.5259783 3.5550919
000290 48 fb 61 40 e9 25 60 40 41 fe 61 40 20 ab 62 40
       3.530962 3.5023139 3.5311434 3.5416946
0002a0 26 0d 63 40 46 e1 63 40 89 db 62 40 0c 61 61 40
       3.5476775 3.5606246 3.5446494 3.5215483
0002b0 0d b8 60 40 5b 78 63 40 18 74 61 40 e7 4b 61 40
       3.5112336 3.554221 3.5227108 3.5202577
0002c0 90 ea 60 40 e4 5f 62 40 ba 4f 64 40 10 2e 60 40
       3.5143166 3.5371027 3.5673661 3.5028114
0002d0 bc 40 62 40 ff 2e 65 40 70 d3 62 40 37 cc 62 40
       3.535201 3.5809934 3.5441551 3.5437143
0002e0 93 89 62 40 be 54 62 40 02 18 64 40 c5 3b 61 40
       3.5396469 3.5364223 3.5639653 3.519273
0002f0 6d 56 65 40 f8 80 64 40 d4 a7 64 40 71 f5 61 40
       3.5834 3.5703716 3.5727434 3.5306056
000300 96 2e 64 40 70 fb 61 40 e1 fa 63 40 e8 ae 64 40
       3.5653434 3.5309715 3.5621874 3.5731754
000310 d5 52 63 40 30 5f 61 40 e4 f9 63 40 9b 80 61 40
       3.5519307 3.5214348 3.562127 3.5234745
000320 a9 94 62 40 b9 fb 62 40 b2 88 62 40 1a d2 63 40
       3.5403235 3.546614 3.5395932 3.5596986
000330 bd b4 61 40 13 58 63 40 07 02 61 40 48 2e 64 40
       3.5266564 3.5522506 3.5157487 3.5653248
000340 a3 ae 63 40 9f b8 61 40 17 68 63 40 08 4c 63 40
       3.557534 3.5268934 3.5532281 3.5515156
000350 6f 5f 61 40 e5 88 64 40 99 23 64 40 9e f4 60 40
       3.5214498 3.5708554 3.5646727 3.5149302
000360 9f fe 61 40 a6 33 64 40 9f 40 62 40 72 ef 62 40
       3.5311658 3.5656524 3.5351942 3.5458646
000370 2a 81 63 40 3e de 63 40 88 d2 62 40 a6 08 63 40
       3.5547585 3.5604396 3.5440998 3.5474029
000380 b0 35 61 40 30 5b 62 40 e2 2e 61 40 3b 11 64 40
       3.5189018 3.5368156 3.5184865 3.5635517
000390 ee 76 61 40 0d 44 61 40 72 9e 62 40 ed 32 62 40
       3.522884 3.5197785 3.5409207 3.5343583
0003a0 e2 e3 62 40 61 6d 61 40 cc f7 63 40 0a eb 62 40
       3.5451589 3.522301 3.5619993 3.5455956
0003b0 14 b4 62 40 16 63 62 40 92 da 61 40 11 7d 61 40
       3.542241 3.5372977 3.5289655 3.5232584
0003c0 8e b6 63 40 26 01 65 40 5a 86 62 40 3b b5 63 40
       3.5580173 3.578195 3.5394502 3.5579364
0003d0 de ee 61 40 dd 21 60 40 f4 2b 63 40 e3 a6 62 40
       3.5302043 3.5020669 3.5495577 3.541436
0003e0 68 ab 63 40 75 84 62 40 c4 1e 62 40
       3.5573368 3.5393345 3.5331278
