EXP9_dump/bottleneck_model_Dense.pth (torch, 77664 bytes, 19 tensors)

weight f4 [30, 251]
00000000: a2fc e9bc a0e5 02be 8907 3ebd a034 59bd
00000010: 31d9 9dbd 6cb4 12bd 4d41 31bd 4b01 8f3c
00000020: b13e 2ebd 10fe 0bbd 8a87 36bd 331e 0ebd
00000030: 599a e5bc 758a 0cbe 4b4d ecbc 445e 30bd
00000040: 20a5 25bd 8a77 79bd f774 b03d bcf1 a33b
00000050: 1654 8dbc a341 e6bc 2e80 6f3d 3220 8ebc
00000060: b589 b0bd 9220 753d 9980 293d d82b efbb
00000070: f8d1 ccbc ba15 26bd 2a29 f1bc 6274 4abd
00000080: 0bd3 a0bd 5ca0 f33c 712a 87bd f935 4abd
00000090: fc09 d0bc edd8 b0bd 0f5c 883d e7cf 81bd
000000a0: 4f00 c5bd 6aaa 1d3d 763b 47bb 4df0 113d
000000b0: 602a 48bd 8d3c d5bc ff74 3fbd c53a 833d
000000c0: eecb 0dbd c795 96bd 5f65 3d3b f4b8 cdbc
000000d0: ae47 b8bd 67a4 16bd d4d8 ebbd 623a f1bc
000000e0: 6a82 11bd 373b f3bc 62f5 423d 4e7f 8bbd
000000f0: b6d5 eebc 5efb 5fbd 4aff 97bd a9a0 aabc
00000100: cd60 17bb 293f eebc ead7 8bbd b624 13bd
00000110: 8f08 0fbd 4718 8bbc 0c66 b23c 41a4 6ebd
00000120: baa2 39bd a6f8 c3bb 3afb 5fbd 37d5 a63d
00000130: cf00 e8bc 3b6a c7bd f942 d33c 0d87 5cbd
00000140: 2f4c 9e3c d717 afbd d20d e1bc 6469 88bd
00000150: 9358 f9bc b897 80bd 6da0 323d 22d4 c6bd
00000160: afd8 01bd 8025 1cbd 9b0f b4bd d07a 86bd
00000170: 81fe 3dba 7310 70bc b5d2 dcbd d23f 28bd
00000180: a0a7 52bd 6ddd 6f3d 9ef6 9cbc 26b6 32bd
00000190: 4411 d3bc 9521 44bd 90c2 8ebd ae82 52bd
000001a0: 4a82 2bbd a654 3d3c 876b 1bbd 9ca4 c1bb
000001b0: a884 b23a d4b3 913d 6b97 26bd c5ed 8cbc
000001c0: dea6 7dbc 7f3b b33a 2660 b4bd aeff 8bbd
000001d0: e8b2 3fbd 496d 5fbd 761e 64bd f47b 20bd
000001e0: b94a 7fbd 749c 99bd e1b6 283d 7947 00bd
000001f0: 9475 15bd 5d7e 2abd dce4 9bbd d7b5 56bd
00000200: 41db acbd 8a44 f3bd 6ea5 8b3d 1c5c 5dbd
00000210: 50e6 f53b 9a72 5dbd 6738 aa3c d254 2fbd
00000220: d712 ecbc 02de 47bd 5281 6cbc bdb0 4dbd
00000230: 2c84 8abd 69fc 483b b481 84bd 0dfd 603c
00000240: a465 18bd bc5b bdbd 5fc0 ccbb 9218 53bd
00000250: 346c 24bd 96ea bfbd cf91 babc 2d15 28bd
00000260: 29f1 67bd 34ff 30bd eac7 ae3c 236a 82bc
00000270: c6ba a43d 7768 98bd 4e2b 11bd 961f 5fbd
00000280: 59a1 e3bc c553 903c 62e0 68bd 60a4 63bd
00000290: 8032 213d 0613 d3bd f315 ebbc ab13 18bd
000002a0: 9ee3 52bd 2cd1 03bd d814 41bd b556 48bd
000002b0: a038 3cbc e689 a13d 8c1f d53d 2cd7 14bd
000002c0: fcca 65bd bee8 6fbd bd41 89bd 12ae 14bc
000002d0: 587a 29bd 3206 68bc 1b06 22be 9607 04bd
000002e0: 0cd1 93bd baa7 28bd 82b4 1dbd 3488 893d
000002f0: e9e8 46bd a621 43bd 03bc 643d 1934 813d
00000300: f0b6 363c 3075 02bc e969 23bd 76e8 973c
00000310: 58ff 7cbd 4014 5bbd c4fc 05bd da64 6cbd
00000320: 751d 2bbd c0a5 15bd 949c 79bd 132c 54bd
00000330: d877 d5bc 8c53 f2bc 982d 0cbd 1c3a bebd
00000340: 27af 0dbd 529b 71bd 9371 0abe a88f 02bd
00000350: 6e4b cabc 4ceb 87bd dcf8 14bd 616e 0dbd
00000360: 499b 1ebd 31bc 76bd 6205 4fbd ae0f 47bd
00000370: 7f2f 6bbd bef8 eabc ae77 65bd 3593 14bd
00000380: 6246 93ba 0d87 2f3d 0da4 05bd 0b5a 8bba
00000390: 10ad 04bd 2c1b e3bc ee07 04bd dc53 abbc
000003a0: aa1c a23d 59ec 5d3c 4fa2 58bd 04ba d2bc
000003b0: b454 99bd 7170 0dbd e7be 49bd a747 43bd
000003c0: 0101 e1bd c88c 0bbe 92fc 943d b0c4 0bbd
000003d0: 3bd8 4dbc d29f 36bc da29 a5bc d937 f9bc
000003e0: 17f1 c5bd 2cc8 2dbd 0475 14bc 4dd3 0ebd
000003f0: af08 89bc 7015 b3bc a80d b63d 5008 563c
-0.028562848 -0.12782907 -0.046393905 -0.053028703 -0.077074416 -0.035816595 -0.043275166 0.017456671
-0.042540256 -0.03417784 -0.044562854 -0.03469677 -0.0280277 -0.13724692 -0.02884545 -0.04305865
-0.04044068 -0.060905017 0.08616059 0.005003182 -0.01725201 -0.02810747 0.05847185 -0.017349336
-0.086200155 0.059845515 0.041382406 -0.0072989278 -0.025002465 -0.040548064 -0.029438574 -0.049427398
-0.07852753 0.029739551 -0.06599892 -0.04936788 -0.025395386 -0.08635125 0.06658184 -0.06338482
-0.096191995 0.038492598 -0.0030400432 0.03562956 -0.048868537 -0.02602985 -0.046742436 0.06407694
-0.03461831 -0.073527865 0.0028899533 -0.025112607 -0.08998047 -0.03677788 -0.11515966 -0.029446784
-0.035524763 -0.029691322 0.047597297 -0.06811391 -0.02915464 -0.05468308 -0.074217394 -0.020828562
-0.002309847 -0.029082851 -0.06828292 -0.035923682 -0.03492027 -0.01697935 0.021777175 -0.058262113
-0.045321204 -0.005980569 -0.054682948 0.08146136 -0.028320698 -0.09737059 0.025788771 -0.053839732
0.019323437 -0.08549469 -0.02747241 -0.06660727 -0.030437743 -0.06278938 0.043610025 -0.0970843
-0.031700786 -0.0381217 -0.08792039 -0.065663934 -0.0007247702 -0.014652359 -0.10782377 -0.04107649
-0.05142939 0.058560777 -0.019160565 -0.04363074 -0.025765069 -0.04788359 -0.069707036 -0.051394157
-0.0418723 0.011555826 -0.037944343 -0.0059095155 0.0013619857 0.071143776 -0.040671747 -0.017203221
-0.015481679 0.0013674347 -0.08807401 -0.068358764 -0.046801478 -0.05454758 -0.055693112 -0.03918071
-0.06232712 -0.07500544 0.041190032 -0.03131816 -0.036489084 -0.041624416 -0.07612011 -0.05241951
-0.08440257 -0.11878307 0.068186626 -0.05404292 0.007504262 -0.05406437 0.020778848 -0.0428055
-0.028817577 -0.048795708 -0.014435129 -0.05021738 -0.06763491 0.0030668026 -0.064700514 0.013732207
-0.037206307 -0.092460126 -0.0062485184 -0.051537104 -0.040142253 -0.093709156 -0.022774605 -0.04103582
-0.056626473 -0.04321213 0.02133556 -0.01591975 0.08043437 -0.074418 -0.03544169 -0.054473482
-0.027786897 0.01761807 -0.056854613 -0.055576682 0.0393548 -0.10306363 -0.02869699 -0.03712813
-0.051486604 -0.032181904 -0.04713902 -0.048910815 -0.01148811 0.0788763 0.10406408 -0.036338016
-0.056101784 -0.05857157 -0.06701992 -0.009074705 -0.04137644 -0.014161633 -0.15822642 -0.032233797
-0.07217607 -0.04117558 -0.038502224 0.06715432 -0.048561964 -0.04763951 0.055843364 0.06308765
0.011152014 -0.00796251 -0.039895926 0.018543463 -0.061766952 -0.05348611 -0.03271176 -0.057713367
-0.04177614 -0.036535025 -0.06094034 -0.051799845 -0.026058123 -0.029580854 -0.03422317 -0.09288427
-0.034590866 -0.058986016 -0.13519888 -0.031875283 -0.02469417 -0.06636676 -0.036370143 -0.034529094
-0.03872231 -0.060238067 -0.050542243 -0.048598938 -0.057418343 -0.028683063 -0.05602234 -0.0362732
-0.0011236186 0.042853404 -0.032627154 -0.0010631693 -0.032391608 -0.027722917 -0.032234125 -0.02091401
0.079156235 0.013545119 -0.052889165 -0.025723465 -0.07486859 -0.03453106 -0.049254324 -0.047675755
-0.109865196 -0.13627923 0.072747365 -0.034123123 -0.01256376 -0.011146503 -0.020161558 -0.030422138
-0.09665125 -0.042427227 -0.009061102 -0.03486948 -0.016727773 -0.021860808 0.088893235 0.013063505

bias f4 [30]
00000000: f3a0 5b3c c6b2 21bd aca1 04bc 2330 81bc
00000010: cc18 04bd 0a80 adba af9c 02bd 3648 e5bc
00000020: 5cfa 56bc 4c45 1ebd 5177 34bd 6802 fa3c
00000030: 5fc4 cc3c da78 53bd e52d 97bc ffb0 52bd
00000040: c92b 093d 6c7a 6a3d 8fcf 6abd 8d7e 6f3d
00000050: 406e 90bb 4b63 62bd 40fb 133c 2033 c63c
00000060: 0647 0d3d 7312 35bd e79e 3a3d 6221 8dbc
00000070: f73e 17bd 033f 3cbd
0.0134050725 -0.039477132 -0.008095186 -0.015770024 -0.03225021 -0.0013237011 -0.031887706 -0.027988534
-0.013121214 -0.038640305 -0.0440591 0.030518726 0.02499598 -0.051628925 -0.018454501 -0.051438328
0.033489022 0.057245657 -0.05732685 0.058470298 -0.004407674 -0.055270474 0.009032071 0.0241943
0.03449156 -0.044207048 0.045561697 -0.017227832 -0.036925282 -0.04595853

weight f4 [30]
00000000: d379 853f d87d 783f f78d 893f 0267 6c3f
00000010: 264a 823f cd53 713f a91b 6e3f 7f17 7e3f
00000020: 1054 653f b3bb 873f 2dfd 7c3f d977 7d3f
00000030: 0b1c 7b3f f3f1 793f 892a 803f c19c 773f
00000040: ec37 663f 8496 7e3f 4b15 8c3f 15b1 663f
00000050: 548f 673f 8020 783f ce8a 863f dddd a83f
00000060: db23 7b3f e92c 713f 8aff 653f 75aa 803f
00000070: 0a8f 783f c544 813f
1.0427803 0.9706702 1.0746449 0.9234468 1.0178878 0.94268495 0.93010956 0.992546
0.89581394 1.0604156 0.98823816 0.99011 0.98089665 0.9763481 1.0012981 0.9672356
0.8992908 0.9944842 1.0943998 0.90113956 0.90453076 0.9692459 1.051111 1.3192707
0.98101586 0.9420915 0.89843047 1.0052019 0.9709326 1.0099112

bias f4 [30]
00000000: 4d15 a73c 5e5e 1e3d c440 6ebd 9941 0d3e
00000010: 6f13 e23d a146 4b3e 3841 023e 53f5 8c3d
00000020: db58 e0bd 4b38 703e 3a92 02be fcbd b63e
00000030: 6e4b dbbb c551 ad3c 2ffb 473e c306 dd3d
00000040: 6485 9d3e 2eeb 9dbd 819e 183d ab77 043f
00000050: b4d2 a63d ee28 d43b d678 22bd 7f15 413e
00000060: 85d7 013d 7586 e53b 9db7 b53e 8e98 a8bc
00000070: 6534 143d 3ea1 d43c
0.0203959 0.038664214 -0.058167234 0.13794555 0.11038863 0.19851162 0.12720191 0.068827294
-0.10954448 0.23458974 -0.12751094 0.35691822 -0.0066923415 0.021157155 0.19529413 0.10792305
0.3076583 -0.077108726 0.037260536 0.517451 0.08145657 0.0064746058 -0.03966602 0.18855856
0.031699676 0.007004554 0.35491648 -0.020580556 0.03618278 0.025955793

running_mean f4 [30]
00000000: 92d9 ffc0 c9eb 6fc0 bc16 8b3e 2912 1b3f
00000010: 98e0 0bc1 2267 fbc0 488d 9ebf 9110 91c0
00000020: 308e 913f 31ae dac0 7fbc 413f 7885 94c0
00000030: 100c 89c0 1679 2dc0 5d35 0cc1 8fdd c5c0
00000040: b580 a1c0 8da7 cdbf d60d 3241 828d 02c1
00000050: 44d4 1ac1 92a1 7ac0 5763 13c0 ce53 9041
00000060: ff3c b2be ec37 bac0 e8d4 3cc1 baa6 48c0
00000070: 780b 30c0 f99e aac0
-7.995309 -3.7487662 0.27165782 0.60574585 -8.742332 -7.8563395 -1.2386866 -4.5332723
1.1371517 -6.8337636 0.7567825 -4.6412926 -4.2827225 -2.7105155 -8.763028 -6.1832957
-5.0469613 -1.6066757 11.128378 -8.159548 -9.676823 -3.9161115 -2.3029382 18.04092
-0.3481216 -5.8193264 -11.801979 -3.1351762 -2.7507 -5.331906

running_var f4 [30]
00000000: a7db f93a 7225 4f3b 72cf 463b 66aa 203b
00000010: 8e68 353b 432d 2c3b 85db 343b c351 433b
00000020: 3ef2 4e3b c0a7 333b 66a3 553b 4de4 4f3b
00000030: bd7b 3f3b 5955 2b3b cc0c d13a b697 3d3b
00000040: e654 4d3b 8213 293b 3e45 c93a 4068 7a3b
00000050: 924b cf3a 8ada 543b 9a8e 203b 7a51 3e3a
00000060: caf3 443b e836 3d3b d4ab 183b df4b 363b
00000070: 3fbe 2f3b 2ca8 203b
0.0019062654 0.0031608013 0.003033605 0.0024515628 0.0027680728 0.0026272095 0.0027596664 0.0029803372
0.0031577493 0.002741322 0.0032598614 0.0031721771 0.002921804 0.00261434 0.0015949248 0.0028929538
0.003133112 0.002579898 0.0015355719 0.003820911 0.0015815368 0.0032478892 0.002449906 0.0007260066
0.0030052536 0.0028871838 0.0023295777 0.0027816219 0.0026816276 0.00245143

weight f4 [30, 30]
00000000: 4e94 583e cfb2 5dbc afcd 44bd 5568 debc
00000010: 9132 4fbd cb4d b0bd e939 a13d b6e8 df3d
00000020: b848 513c 501b 97bd 9aad a43d 6955 273e
00000030: 81b7 e0bd d0db 6dbc d334 b83c 7405 9cbd
00000040: 7134 9c3d 9aeb 7e3e d7c8 e1bd 71c9 763c
00000050: b0d4 13be 80ae 57be cc6b f73d 22b4 90be
00000060: 8aa8 1dbd c686 8e38 5b3a d1bd fc6f 243c
00000070: 2e7c 94bd 1e0d 12bd 4535 82bd ee6d 34be
00000080: 25f7 023d fba6 9b3c 7b7d 183d c58d 54bc
00000090: 02c6 843d 8d6f 20be 9848 143d 60ae 113e
000000a0: 8afb f1bd 70ad 0fbe 3486 7c3d 8c4b 69bd
000000b0: d2b2 4fbd bf59 3a3d 9a57 4e3d 43ee 13bd
000000c0: dacf 233d a5db 95bd 1552 353d 0f45 893e
000000d0: 29c0 ba3a 0f43 a2be fc8f cbbd 0df2 5dbd
000000e0: bebc a13c 1348 073d 5b64 be3d 27f1 d43c
000000f0: 7f70 733c 5756 c93c 3d62 17bd 6128 afbd
00000100: 7fce 0dbe 1a09 45bd 6192 91bd e320 62bb
00000110: e053 0e3e 8a2d 173e 1670 113e b8d2 583c
00000120: 9719 17bd 9c30 053e f3d2 02be 9620 af3d
00000130: 44cf cfbd b94e 35be ad74 823b 711a 443d
00000140: 9b61 b93d ba17 363d 928b 013d 46c7 6fbe
00000150: 38b1 f13c b149 85bc 34fb 893d 1d57 1dbd
00000160: e5c9 5dbd 63b3 563e c0a3 37bd fdb5 993d
00000170: b08f 293e ea6c b2bd 2fa4 4fbe 58e6 993d
00000180: 229e 15be f789 d63d fac5 a23d 33dd 79be
00000190: 7183 fdbd 306e 1e3d e7f8 cdbd 5ff6 773d
000001a0: 601d 34bd 8225 9fbc 6688 8fbd bd79 263d
000001b0: d839 8dbd 74b6 25bd 8b67 9bbd 1806 7b3e
000001c0: c728 43bb 03f2 5ebe 9847 47be f9e4 613d
000001d0: be63 003e 1fdd 0bbc f364 bebd 59a4 aabc
000001e0: 0dd6 c93d 739b 94bc 7d1a 27bd 8cf5 293e
000001f0: b7e9 4cbd df5e abbc fa1d c0bd ca83 0f3c
00000200: fd8d a63d b314 813d 4f50 b7bd 5e96 2e3e
00000210: 2179 b73d a1cb ab3b 3111 473e b944 193d
00000220: f3af 41be e8bd 1f3e 1aac b0bd 816a fb3d
00000230: dd29 a93d acb9 a7bc f9ef 8fbd 943a 1ebe
00000240: 36a1 5abd 1563 df3d 9ead 9c3d 7e5e dcbc
00000250: 551d b13c 9d32 04be 4234 083d 3747 c4bc
00000260: 679f 9abd fe4e ccbc d5e2 16bd ec74 42bd
00000270: 69bf 093e 161d 003e 6c94 89bd abd5 84bd
00000280: 6255 503d 2880 2c3e d824 07be 1479 32bc
00000290: b9c3 463e a97b 7ebc f6c3 833b 3162 453d
000002a0: 2b06 9e3c e9ef e8bd 0562 12be 74ea bb3d
000002b0: fa5d eabe 328f 11bc b5c9 843d b5ac 1f3e
000002c0: ca7a 5f3d 0d01 31bc 00b1 e1ba e027 213e
000002d0: d092 1fbe b412 b23d 3a22 d5bd dfc1 b1bc
000002e0: 4839 48be fc5a 3a3d 7f33 f4bc 6cca 8c3d
000002f0: 0d37 963d df62 d43d 0c1d 193e 8b9a 433e
00000300: fc64 043d f11f 40be 5d36 183d bc90 5fbd
00000310: f03b 1d3e 88c3 b2bc 0860 fcbd c726 20be
00000320: 21ce f33d e5e4 2fbd 420c f4ba 8a5b 63be
00000330: 04ac 58be cb49 e93d df93 573d f2a1 1c3d
00000340: 8c3f 1e3e a40f 883b c195 35be bb5c 08bc
00000350: 68dd 3f3e 2b80 39be aca2 973d 8230 a03c
00000360: 6440 003e 84b3 ee3c 0cf6 0bbc 7e9f 5bbd
00000370: bbcb 213e 4882 123e 571f b73c abfa fcbd
00000380: d4ca 213e eb30 84bc 5b26 943c d4cd 7ebd
00000390: d450 39bd a9af b53d ea03 313d 6639 8bbd
000003a0: e7d4 cb3d e8b6 7e3d 7188 65bd 68c1 13bd
000003b0: c1d3 023d 0008 773c 4e2e 86be 0f9f 58be
000003c0: a4a3 cc3d 6d51 c93d c064 4d3d bb22 1f3d
000003d0: 66af f7bd 8082 943c 6aa8 c13d 8461 b93d
000003e0: 0847 b33d a12b 1c3e 9af7 46bc 231e 993c
000003f0: 138f 983d cab1 d7bd b507 68bd d1aa e5bc
0.21150324 -0.013531401 -0.048047718 -0.027149359 -0.050585333 -0.08608588 0.078723736 0.10933058
0.012773685 -0.07378256 0.08040924 0.16341175 -0.109725006 -0.014517739 0.022486126 -0.076182276
0.0762719 0.24894562 -0.11024635 0.015062676 -0.14436603 -0.2106266 0.120811075 -0.2826243
-0.03849081 6.796191e-05 -0.102162085 0.010036465 -0.07250248 -0.03565704 -0.063578166 -0.1762006
0.031973977 0.01900052 0.037229043 -0.012973254 0.064830795 -0.15667553 0.036202043 0.14226675
-0.118155554 -0.14031005 0.061651424 -0.056956813 -0.050707646 0.045495745 0.050376512 -0.036115896
0.039993145 -0.073172845 0.044267733 0.268105 0.0014247942 -0.31691787 -0.09939572 -0.054185916
0.01974332 0.03302772 0.09296485 0.025993897 0.014858364 0.024577303 -0.03695892 -0.085526235
-0.13848303 -0.048104383 -0.07107998 -0.0034504465 0.13899183 0.14763466 0.14202914 0.013233833
-0.03688964 0.13006824 -0.12775783 0.08551137 -0.10146955 -0.17705812 0.003981194 0.04787678
0.0905182 0.04445622 0.031627245 -0.2341586 0.02950345 -0.01627049 0.06737366 -0.038413156
-0.05414762 0.20966868 -0.0448339 0.07505415 0.16558719 -0.0871218 -0.20277475 0.07514638
-0.14611104 0.104755335 0.07947917 -0.24400787 -0.12378586 0.0386793 -0.1005724 0.060537692
-0.043973327 -0.019427065 -0.07008438 0.040643442 -0.068957984 -0.040457204 -0.07588109 0.24514043
-0.0029778944 -0.21772008 -0.19460905 0.055150006 0.12538049 -0.008536606 -0.09296598 -0.02083032
0.0985528 -0.01814053 -0.040796746 0.16597575 -0.050027575 -0.020919262 -0.093807176 0.008759448
0.08132551 0.06302776 -0.089508645 0.17049548 0.089586504 0.0052427803 0.19440152 0.037419055
-0.18914776 0.15599787 -0.08626576 0.122761734 0.08259938 -0.020474277 -0.07028193 -0.15452033
-0.0533764 0.1090757 0.07650302 -0.026900526 0.021620432 -0.12909932 0.033252962 -0.02395974
-0.07549935 -0.02494001 -0.036837418 -0.047474787 0.13451923 0.12511095 -0.06717762 -0.064860664
0.050862677 0.16845763 -0.13197649 -0.010893125 0.194106 -0.015532413 0.004021163 0.048189346
0.01929005 -0.11373884 -0.14295204 0.09175578 -0.45774823 -0.008884238 0.06483785 0.15593226
0.05456046 -0.010803473 -0.0017218888 0.15737867 -0.15583348 0.086949736 -0.10406919 -0.02169889
-0.19553101 0.045496926 -0.029809712 0.068745464 0.07334719 0.10370421 0.14952487 0.19101922
0.03232287 -0.18762185 0.03716122 -0.05458139 0.15354896 -0.021821752 -0.12323004 -0.15639792
0.1190455 -0.0429429 -0.0018619376 -0.22202888 -0.21159369 0.11391028 0.052631255 0.03824038
0.15453929 0.004152255 -0.17732908 -0.00832289 0.18736804 -0.18115298 0.07404074 0.01955438
0.12524563 0.029138334 -0.008542549 -0.0536189 0.15800373 0.14307511 0.022353811 -0.123524986
0.15800029 -0.016136607 0.018084696 -0.06220801 -0.0452431 0.08871395 0.043216623 -0.06798057
0.09952717 0.06218615 -0.056038324 -0.03607312 0.031940226 0.015077591 -0.26207203 -0.21154426
0.099921495 0.09829984 0.05014491 0.03885148 -0.120940015 0.018128633 0.094559506 0.09051803
0.087537825 0.15251018 -0.012143994 0.018691128 0.07449164 -0.105319574 -0.056647975 -0.028035553

bias f4 [30]
00000000: 3b46 95bd c8a3 c03c 5c29 313e bc97 003d
00000010: 437e ec3d 6bb3 1d3e bbe2 a9bd 0351 d6bd
00000020: d329 2c3e d280 cd3c 7f20 b23d 5681 b03d
00000030: d006 babc a42d 323e 6594 31be 051c ed3d
00000040: 8e95 2abe d28e 183e c91d 31be 980a 12be
00000050: 90a4 d53d e090 2b3d 27c7 f33d af18 a73d
00000060: ebda 163e 39c2 c0bd 821a 55bd da2c 123e
00000070: 5c21 363e b6a3 ee3d
-0.07288786 0.023515597 0.17300934 0.031394705 0.1154752 0.15400474 -0.082951985 -0.104646705
0.1681283 0.02508584 0.086976044 0.08618419 -0.022708327 0.17400223 -0.17341764 0.1157761
-0.16658613 0.14898232 -0.17296518 -0.14261854 0.104317784 0.04188621 0.1190322 0.08159005
0.14731948 -0.09412045 -0.052027233 0.14274922 0.17786163 0.11652319

weight f4 [30]
00000000: e404 803f 70d8 613f f8b1 733f a4f7 813f
00000010: a8c7 763f a98e 4d3f d87e 6e3f cd18 6c3f
00000020: 3a3b 7f3f a502 813f 6a01 b73f 894f 683f
00000030: b8d8 5a3f 4185 603f 8755 753f 6915 6e3f
00000040: 718b 7b3f 4bfd 6b3f b495 823f 5294 713f
00000050: 1f53 7e3f 5c33 663f 53b8 663f 3c17 643f
00000060: f695 6a3f 63e3 603f 0941 7b3f 075e 753f
00000070: 3aef 853f 690e 7f3f
1.0001493 0.8822088 0.95193434 1.0153699 0.963984 0.8029581 0.931623 0.92225343
0.9969975 1.0078932 1.4297307 0.9074636 0.85486937 0.8770333 0.9583363 0.9300142
0.98259646 0.9218337 1.0201936 0.94366944 0.9934558 0.8992212 0.90125006 0.8909795
0.9163507 0.87846965 0.9814611 0.958466 1.0463631 0.99631363

bias f4 [30]
00000000: ca3a 03bf 0bba 1a3e 8be8 45bd b735 e8be
00000010: 98ce e9bd 6f59 ff3d 4f2b dabd ca0a b5be
00000020: 531b 5fbe 3ab9 91be 5a6b d1be 9dd0 83be
00000030: 62cf 3bbe 5c5c 84bd 0d14 d9be c995 83bd
00000040: 8a46 e7bd d366 53be ed9c ddbe 2622 00bf
00000050: 3ed9 7bbd b8b4 b9be bfeb a73d 8471 613e
00000060: 6a35 41bc 6dfe 693e 9c87 213e 56dd 9a3d
00000070: 5db7 57be 849f 923b
-0.5126158 0.15110032 -0.048317473 -0.4535348 -0.11416358 0.1246823 -0.10652792 -0.35359794
-0.21787767 -0.2846163 -0.40902215 -0.25745097 -0.18340829 -0.06462929 -0.4239811 -0.064250536
-0.11292751 -0.20644693 -0.43283787 -0.50052106 -0.061486475 -0.3627069 0.08199262 0.22015959
-0.01179252 0.22850962 0.15774387 0.07561748 -0.21066041 0.004474582

running_mean f4 [30]
00000000: b149 6dbe fce2 17be c36e 153e 86a6 92be
00000010: 9c41 a63e e92c 643e b14d 01be ff35 0fbd
00000020: f72f 943e 8d82 c6bd 5ddc 0dbf a2a1 863e
00000030: 477b 103e 02b1 403e 8c2d e0bd 9458 e33d
00000040: 02f0 9fbe c369 9f3c 6f13 4dbd c1ac 93be
00000050: bba8 f7bc e9f5 b93d b6c7 353e 4786 d93e
00000060: 5860 8b3e 66f0 a83c fbce a8bd f43e 763e
00000070: b52f 54bb 7bca 183e
-0.23172642 -0.14832681 0.14593033 -0.28642672 0.3247193 0.22282757 -0.12627293 -0.034963604
0.28942844 -0.09692869 -0.5541437 0.2629519 0.14109527 0.18817523 -0.109461874 0.11100879
-0.312378 0.01945961 -0.05006736 -0.28842738 -0.030231824 0.09080107 0.17751965 0.42485258
0.27221942 0.020622443 -0.082426034 0.24047452 -0.0032377068 0.1492099

running_var f4 [30]
00000000: 994e 2b3e 6d11 163e 67ef 053e 5358 043e
00000010: b3bc 253e e66e 253e e7aa 5b3e 790a 053e
00000020: 4980 4d3e 3873 223e 4a75 2c3f 4ab7 d13d
00000030: 935a 123e 8548 123e 716f 153e 5020 043e
00000040: 414f 243e 28cc 0b3e 521d ed3d fe60 073e
00000050: b9e7 083e 4e5f 4a3e 8ad8 1b3e 929a 9f3e
00000060: f0f9 fc3d 4acb 073e 8ce8 0f3e 661c a33d
00000070: a764 0b3e 0166 e83d
0.16729201 0.14655085 0.13079606 0.12924318 0.16185264 0.16155586 0.21451913 0.12992276
0.20068468 0.15864265 0.6736647 0.10240038 0.14292364 0.14285477 0.14593293 0.12902951
0.16045858 0.13652098 0.11577858 0.13220593 0.13369645 0.19762918 0.15219322 0.31172615
0.12352359 0.13261142 0.14053553 0.07964401 0.13612615 0.11347581

weight f4 [251, 30]
00000000: 2ca6 873c 67b5 b4ba 5dfc d23b d4e4 45b8
00000010: cf6f a33c 75a0 e3bc 851d 4e3c e235 583a
00000020: 9aac d43c d228 df3b a403 5f3f d3bd 01bc
00000030: 04b0 78bc e147 cebb 21ee 733b 6c15 ffbb
00000040: 6b06 21bc f7d5 08bc 02ae 77bc 31ba 53bb
00000050: 7802 01bb 338c ec3b 3991 8f3c 5a7c c63c
00000060: 744c 243b ac57 8bbb 884f d7bb cf56 77bb
00000070: 83b4 9a3c e0bf 05bc fe85 85bc 45f5 933c
00000080: d9cc 673c 4216 5abc d57f 8b3d 8160 67bd
00000090: 1c1d ac3d 2b69 723e 511b a9bd 83e2 813d
000000a0: 91fd 4fbd 297a 1fbd eb91 91bc 3927 82be
000000b0: 0c24 fdbd f795 a83d 026f 333d 88f5 4e3e
000000c0: 6d9f 633e c4a9 1a3e 86f0 16be bf33 76bd
000000d0: fdef 1f3d 4307 c03d 6898 64bc 05c9 03be
000000e0: c2c3 56be 9b22 043c 5a16 e63b 9443 853d
000000f0: 2108 01bd f23e 833d 6a0d 083b 3d59 47bd
00000100: 4c82 6ebe 6968 94bc 50a7 59bd 011f 8fbb
00000110: 90dd 163e 056c ac3d 3720 dcbd 40d9 f3bd
00000120: 78cc 7ebb 0c07 ab3c 34b4 06be efd7 8b3e
00000130: 1144 f1bb 718f 1ebc b06e 7f3d d884 f8bd
00000140: 3f30 c33b ec43 553d 927d 17be dcb5 96bd
00000150: c5df 0c3e 0761 6bbd d91d 4e3d 3387 083d
00000160: 9db9 8e3d 224b 143d b358 633d ac8a 1f3d
00000170: 2501 01bc 07f8 8cbc 9c78 373d cc89 61bd
00000180: a6fe 50bd 6b1c 8abd ae97 b93c 47ea c13d
00000190: 24aa 953d 63fe d8bc 1fc3 0cbe cddd 7a3d
000001a0: 18ae bd3d 486c a33d b8e9 4d3d c25e e1bc
000001b0: e074 8dbc 652c b73d d73b 9ebd 17d3 c03e
000001c0: 143f 12be 6fef c73d d8c3 eebd b5f6 763d
000001d0: c107 0e3b 46b1 ebba 4461 f0bc 8c8a 8ebb
000001e0: 4167 90bc 7248 d4bd 5c20 f8bb c2b0 bc3e
000001f0: 8508 123e 93a3 87bc 6884 88bd 3fbe a73c
00000200: 9fdc 8cbc 9e33 2abc 80c5 80bd a103 d63c
00000210: 2f8e 82bd 383f c4bd f76e c73d b432 0abd
00000220: 0b1e 1cbe ab78 23be 8e0c 093e c240 99bd
00000230: 7440 22bd 98b1 b2bd e3d0 c13d dbb1 76bc
00000240: f6fb 553d 6f59 eebd f2ca abbd 5718 e9bd
00000250: b19b 94bd ed0a 1ebc b352 9cbc 600d 3cbd
00000260: 6b6e b9bd 232e bdbb aff9 83bd e936 a53c
00000270: 2b47 a83d 0a71 d6be c708 aa3c 65e0 13bd
00000280: b840 883a c496 163e 8ee4 db3d f3e5 82bd
00000290: 2545 bebd ec97 adbc 4e4b 3b3d 8f2b 353e
000002a0: f1bf 393d 8f99 403c 5d82 163d ce1e a73c
000002b0: ed9a 8ebd 93d1 a53d 9082 1dbd 584a 93bd
000002c0: 1e36 b03d 7871 47bd 0d3e 283d 34cd f83c
000002d0: 21a9 5cbd e9b5 17bd 74f7 1ebe 627a 443e
000002e0: 4eac 4abd 7177 55bd 759a c83e 9688 07bd
000002f0: fdfb b0bc 0dbc 18be 40a6 f0bb 10b3 013e
00000300: af34 4b3d 157d 85bd 8c18 57bd ef50 b6bd
00000310: 34b5 a13d 92d2 a1bd ee9a c93d 0e2f 993d
00000320: b8e4 69bc 9a48 143d ae51 0a3e 5b4b 4fbd
00000330: 2354 0ebe 3748 6e3d 7fa1 8cba a796 833d
00000340: 7092 96bc 9448 e9bd ad88 19bd 8a5c 8fbc
00000350: 52a8 aa3d b31a 04be c0d7 d5bd b910 003c
00000360: da33 9c3c 9c3a 6f3e ff9a a0bd 3652 98bd
00000370: dc6b a0bd d4df 3ebd 3471 95bd ce31 143e
00000380: 99ca 443d dd71 b4bb f014 bebc d696 60bc
00000390: 45bb 013e df3c 6abe 6d4c 81bd 3271 ebbd
000003a0: bc54 0fbc 86a3 d33b 41a2 633e 0596 d23d
000003b0: 412d a8bd 85eb 34be ecbd 843d e468 663e
000003c0: 35f3 5f3b 1a90 833c 6219 f8bd c0cb 14bc
000003d0: c666 2bbd 03bb fa3d 5fd2 14be 15a2 903d
000003e0: aa28 733e 8934 d73d ea97 f13d be19 793e
000003f0: ac84 dfbb 3f20 87bd 4965 023d b7eb b6bd
0.01655873 -0.0013786972 0.0064387755 -4.7181573e-05 0.019950775 -0.027786473 0.01258028 0.0008247775
0.02596121 0.006810286 0.8711493 -0.007918793 -0.015178684 -0.0062951897 0.0037220793 -0.007784536
-0.00982819 -0.008351794 -0.01511717 -0.0032307024 -0.001968531 0.0072188615 0.017525302 0.024229217
0.0025069984 -0.0042523947 -0.00657076 -0.003774095 0.018884903 -0.008163422 -0.016299244 0.01806129
0.014147961 -0.013310971 0.068114914 -0.056488518 0.0840399 0.23672931 -0.08257163 0.06342032
-0.05077893 -0.03893486 -0.017769774 -0.2542055 -0.12360391 0.082317285 0.043807037 0.2021085
0.22228785 0.15103823 -0.1474019 -0.060107943 0.03904723 0.09376385 -0.013952352 -0.12869652
-0.20973113 0.008064891 0.0070217075 0.0650703 -0.031501893 0.0640849 0.0020759949 -0.04866909
-0.23291892 -0.018116193 -0.053138077 -0.0043677096 0.14732957 0.084190406 -0.10748332 -0.119066715
-0.0038879197 0.020877384 -0.1315468 0.27313182 -0.0073628505 -0.009677754 0.06236142 -0.12134713
0.005956679 0.05206673 -0.14793995 -0.07358906 0.13757236 -0.05746558 0.050321434 0.03333206
0.06968997 0.036204465 0.055504512 0.038950607 -0.007873808 -0.017208112 0.044792756 -0.055063054
-0.0510241 -0.067437015 0.022655334 0.09468513 0.073078424 -0.026488489 -0.13746308 0.061246682
0.092617214 0.079796374 0.05027172 -0.027511004 -0.017267644 0.089440145 -0.07726257 0.3766105
-0.14281875 0.09762465 -0.11658448 0.060293872 0.0021672102 -0.0017981909 -0.029343255 -0.004350012
-0.01762736 -0.1036538 -0.007572217 0.36853606 0.14261062 -0.01655749 -0.066658795 0.020476459
-0.017195044 -0.010388283 -0.0628767 0.026124777 -0.063747756 -0.095823705 0.09737962 -0.03373976
-0.15245835 -0.15964 0.13383695 -0.07483055 -0.03961225 -0.087252796 0.0946367 -0.0150570525
0.05224224 -0.11638152 -0.08388318 -0.113815956 -0.07256258 -0.00964616 -0.019082403 -0.045911193
-0.09054264 -0.005773322 -0.06444108 0.020167785 0.08216699 -0.41883117 0.020756138 -0.03610267
0.0010395264 0.1470595 0.10736953 -0.063915156 -0.09290532 -0.021190606 0.045726113 0.17692398
0.045349065 0.011755361 0.036745418 0.020400431 -0.069631435 0.08096614 -0.038454592 -0.07191914
0.08604072 -0.048692197 0.0410748 0.030371286 -0.05387223 -0.037038717 -0.15524083 0.1918731
-0.04948073 -0.05211586 0.3918034 -0.033089243 -0.021604532 -0.14915486 -0.0073440373 0.12665963
0.04961079 -0.06517998 -0.052513644 -0.089021556 0.0789589 -0.07901491 0.098440036 0.07479678
-0.014275722 0.03620205 0.13507721 -0.050608974 -0.13899283 0.05817434 -0.0010729282 0.06425219
-0.018380374 -0.11390796 -0.03748386 -0.01750018 0.08332886 -0.1290081 -0.10441542 0.007816487
0.019067694 0.23362201 -0.07842063 -0.074375555 -0.078330725 -0.046600178 -0.072969824 0.14472124
0.048044775 -0.0055067376 -0.023203343 -0.013707837 0.12669094 -0.22874783 -0.06313405 -0.114962
-0.00874823 0.0064587025 0.22229864 0.1028252 -0.082117565 -0.17667969 0.06481537 0.2250095
0.0034172062 0.016059924 -0.121142164 -0.009081781 -0.04184606 0.12242701 -0.14533375 0.07062165
0.23745981 0.10508067 0.117965534 0.24326226 -0.0068212356 -0.06597947 0.031834874 -0.08931678

bias f4 [251]
00000000: 8ea5 e13d 21a9 213e 41fe fb3d 4616 063e
00000010: 2462 513d c986 b13d 8877 a63c 87a2 b33d
00000020: 1ee5 ff3d ac35 0c3e 0e8e babd 97d5 e73d
00000030: e3e4 083c 2607 863d f996 103e 1e26 20bd
00000040: 8c3a a33d 0726 323e dc28 e53d 705a 20be
00000050: 1974 cb3d 6789 923d d4d7 bcbc 0f1c d73d
00000060: 2ec6 14bd 2b76 e0bd 41af 2d3d da90 1b3e
00000070: 5a1e c8bd 07db b53d eb6a 283e 2be2 d03c
00000080: 7fde db3c 4644 84bd 02c8 313d 76db 2ebe
00000090: fce5 f0bd 6afb afbd 55a5 823d 581c 09be
000000a0: 1375 6bbd dd3b 93bd 84f4 03be 1eec 38be
000000b0: 2d8e df3c 3f0c 02be 9ee3 a5bd 2d28 11be
000000c0: 2e60 07be 6f17 0c3e e979 063e 79a7 38be
000000d0: 23fc dabc 1463 32bd b4e1 ed3d 40c8 513d
000000e0: 9280 ce3c 1d39 2ebe d4cf 033e 6f64 91bc
000000f0: dc52 873c 4432 0d3e 7574 29be 97d5 39be
00000100: 1e43 9fbd fa64 e7bd 8f33 dabc fe17 28be
00000110: bd1f e4bd 879b 54bd b42c 933d f218 08be
00000120: 42d3 973d a35c a2bd b1b3 003e 918d 08be
00000130: 1fa8 073e cbcd 55bd 1fd9 2bbd fd6a 073e
00000140: 36ad d1bd be54 28be 53cf 9e3b d92d 363e
00000150: 1faf fe3d 03b8 c5bd b274 adbd dd87 0cbe
00000160: 7a7c 8f3d 8cbe 083e c534 b53c f0e2 da3d
00000170: 5c4f 053e 51ca 0d3e b71e 953d ff30 233e
00000180: 79c9 873d f0e1 c13d 63c8 dbbd 46a7 1cbe
00000190: ba93 d73d ec05 a8bd 9f58 b3bd 4500 13be
000001a0: 4d57 243e 0458 033a 358c 11bc ccda b83d
000001b0: 3572 eabd 9248 183e 4aaf a0bd aa8c 2e3e
000001c0: 4acc 083e 4971 08bb 9948 ff3d d55c 643d
000001d0: 9491 133d f0e2 19be 64c3 e43c 8029 263e
000001e0: e017 0fbe 7cd1 b7ba ad17 14be ce17 0ebe
000001f0: 1b9d 353d c70c e4bd a611 ccbd 553d f33d
00000200: efcd f13c ca9f a93d 16f1 2abe b89a f03d
00000210: 127b a33d 4850 b9bd 3f79 e0bc efbf 84bd
00000220: 85b3 a43d 9676 c2bd a39b 0a3e 5123 b33d
00000230: ec63 8d3c 4ac2 24bd 9ab0 a23d f2e0 ce3d
00000240: 730a 813d 5559 4abc 8884 02be a8c4 3fbd
00000250: 09be cdb8 cf8e d7bb 8e58 35bc a516 9ebb
00000260: 533c d6bd c05f 283e 2d0f 0dbd 125b febd
00000270: 736f 4e3b c9bd 553d cf9b e63d 1560 023e
00000280: 94d7 d5bd 5d9c a3bd f3dc 7ebd a700 d1bd
00000290: 6ba2 c5bd b5b9 e3bd 6e6f c13d 7056 ccbd
000002a0: f030 d2bd 818f 18be f1c2 d7bd acf4 bb3c
000002b0: 0241 f9bd df21 dbbc 5e25 f93c 6b57 02be
000002c0: 101d 833c eac5 003e af09 33be 3830 8cbc
000002d0: a20c 1e3e 1831 a93d e831 103d 468b 25be
000002e0: bf8d ca3b 2aa6 ab3d 1e28 a6bc abf5 fbbc
000002f0: e9a0 0a3e 8fc6 8c3d 89f1 a7bd f874 293e
00000300: bd47 ebbd 9a18 1f3e dd5f e33d 3123 813d
00000310: 55f7 71bd 2457 f53d 000a 4cbd ecc3 1bbe
00000320: ec25 0b3e 2b73 b23d 894c debd 46be 15be
00000330: 06d7 453d a88f fabd cd52 c5bd 16b5 2f3e
00000340: 1058 333d 71c1 0cbe 620f 2fbe 1fda 00be
00000350: 48aa 033e 1584 80bd a305 383d 71d7 68bd
00000360: 5e74 4cbd 611a 733d e15d 03be b18f b2bd
00000370: ef83 8bbd 31fb ce3d 811d 9dbd 0ae9 ce3d
00000380: 2d0f 1ebe 0922 8dbd 6047 9a3d 4c9e eebd
00000390: 1f5e 07be 09cd febd 2f13 1f3e 30a9 2ebe
000003a0: acec 9abd a38f 0a3e 8bc1 2abd e93c c9bd
000003b0: 3d00 a63d 7685 b8bd 16a2 b3bc 34f5 663c
000003c0: b5a5 2dbd bc18 cabd a631 5b3d d3bf ae3d
000003d0: 611e 15bc 7ae4 14be ebe1 163e e92c 153e
000003e0: 5f69 fe3d 4a8f d53d 9301 073e
0.11017905 0.15787174 0.123043545 0.13094434 0.051118985 0.08668286 0.020320669 0.08771234
0.124948725 0.13692349 -0.09109126 0.11320036 0.008355352 0.06544332 0.14120091 -0.03909885
0.07970151 0.17397319 0.11189434 -0.15659499 0.09934253 0.07155114 -0.023052134 0.105033986
-0.03632181 -0.10960039 0.042403463 0.15191975 -0.09771414 0.08879667 0.16447036 0.02549847
0.026839493 -0.064583346 0.043403633 -0.17075905 -0.11762616 -0.08592875 0.06379191 -0.13389719
-0.057484698 -0.071891524 -0.12886244 -0.18058822 0.027289474 -0.12699984 -0.08100055 -0.14175482
-0.13220283 0.13680814 0.13132443 -0.18032636 -0.026731556 -0.04355152 0.11615315 0.051216364
0.025207791 -0.17013974 0.12872249 -0.017748086 0.016519003 0.13788706 -0.16548331 -0.18147884
-0.077764735 -0.112985566 -0.026635913 -0.16415402 -0.11138866 -0.051906135 0.07186261 -0.13290766
0.07413341 -0.07927825 0.12568547 -0.13335253 0.13247727 -0.052198213 -0.04195511 0.13224407
-0.102381155 -0.16438577 0.0048464923 0.17790927 0.124357454 -0.09654238 -0.084695235 -0.13723703
0.07006164 0.13353938 0.022119889 0.10687816 0.13018554 0.13846709 0.07281249 0.1593666
0.06630225 0.09466922 -0.1073158 -0.15298185 0.105262235 -0.082042545 -0.087571375 -0.14355572
0.16048928 0.0005010369 -0.008883526 0.09026107 -0.114475645 0.14871433 -0.07845934 0.17045847
0.1335918 -0.0020819476 0.12465019 0.055752594 0.036027506 -0.15027976 0.0279252 0.16226768
-0.13973951 -0.0014024223 -0.14462157 -0.13876268 0.04433928 -0.111352496 -0.09964304 0.118769325
0.029517142 0.082824305 -0.1669353 0.1174826 0.07982458 -0.090485156 -0.027401565 -0.06481921
0.08042053 -0.09495275 0.13535933 0.087469704 0.01725956 -0.04022435 0.0794384 0.10101499
0.06300821 -0.0123504 -0.12745869 -0.046818405 -9.8105585e-05 -0.0065783034 -0.011068476 -0.004824477
-0.10460725 0.16442776 -0.0344383 -0.12419714 0.0031499534 0.052182946 0.11260187 0.12731965
-0.10441509 -0.07988808 -0.062222432 -0.102052025 -0.096501194 -0.11119405 0.09445082 -0.09977424
-0.1026324 -0.14898492 -0.10535229 0.022943817 -0.121706024 -0.02674955 0.030413326 -0.1272866
0.016005069 0.12575498 -0.17484163 -0.017112836 0.15434507 0.08261317 0.035203844 -0.1616641
0.006181448 0.08381303 -0.020282801 -0.030756792 0.13537945 0.068738095 -0.08200366 0.16548526
-0.11488292 0.15536729 0.11102269 0.0630554 -0.059073765 0.119795114 -0.049814224 -0.15211457
0.13588685 0.08713373 -0.10854442 -0.14623365 0.048300765 -0.122344315 -0.096349336 0.17158923
0.043785155 -0.13745667 -0.17095712 -0.12583207 0.12857926 -0.06275193 0.04492725 -0.056846086
-0.049915664 0.05935133 -0.1282878 -0.08718813 -0.06812274 0.10106505 -0.07671643 0.101030424
-0.15435477 -0.06891257 0.07533145 -0.116512865 -0.13219498 -0.12441451 0.15534662 -0.17056727
-0.07564673 0.13531356 -0.041688483 -0.09826071 0.08105514 -0.09009831 -0.021927875 0.014096547
-0.04239436 -0.09867999 0.053514145 0.08532681 -0.009101481 -0.14540282 0.14734618 0.14567913
0.12422442 0.10427721 0.13184194

weight f4 [251]
00000000: d086 e7bf 314a da39 04ea 8e3b fd96 813b
00000010: 2897 873b 7ae5 67bd 6a89 ee3c 569a 613b
00000020: 4000 bb3b e670 2f3c 3283 b93b eb2a 283b
00000030: f668 ff3c 5917 493b 89ec c83b 18b4 033b
00000040: 7c8d 363d a8ec b43c a2ae 6e3a e6df 053c
00000050: a341 cf3c 640e 5c3a 4008 823a b041 6f3c
00000060: 7e26 ff3a 49a6 273b d346 c53b e61f 883c
00000070: 0486 943b 47e8 313c e49c cf3b 09dd 0f3c
00000080: 78e9 853b cd3b d23a f2e8 933b 778f 5a3b
00000090: 3028 d43b 44bd 663c 0788 693b 15e3 ce3b
000000a0: f623 dd3a da7d 823a 4d93 113a a2d3 2f3c
000000b0: 7e93 c73b aa4b 1e3b 0fe0 fb3b 2ce0 203b
000000c0: 258a 16bd e49b 353a 0880 693c ccf1 c43b
000000d0: c1b3 963b dc84 e73b a1e1 c43b 724d 613d
000000e0: 70c9 92bd 67bd a03b 8160 2a3b 55fd 003c
000000f0: 638f 8e38 fe6e 993b 4ec0 773b 09c4 c63c
00000100: e656 5a3c 926b 683c eafb fc3b e2ff 563b
00000110: 98d8 603c f2dc b43b ab07 dd3b e167 a63a
00000120: 9ef2 bb3a e8f2 693c c31c 353b 4dda a03b
00000130: f07d 1d3c c4a4 753b 2982 273c c806 a53b
00000140: 8ec9 c439 a1ec 7a3b 2b77 e53b bc7b a73b
00000150: 871a 893b 5639 c4b9 7d86 8b3a b02c ad3b
00000160: f1f5 a7bd 9fc7 713d 8ed8 423b c761 163a
00000170: 33eb b53b 70a3 4e3b a7dc 043b 2ab9 4b3d
00000180: 77bb 0b3b 6ec9 143b 3fc2 1b3b 4325 1b3b
00000190: 70f4 053c a839 243b 8fea ac3b 0d4d 01bb
000001a0: b0f7 07bd 078e 083d 6653 463b 38df 373b
000001b0: 609b 1c3d bbb3 493b 27b8 cd3b cf45 073c
000001c0: fb5f 963c 5e2a 8abb df6a 143c ae1e 653b
000001d0: 8c1d 303b 9b89 933b fa32 53ba b05d 4b3d
000001e0: 0e08 d43b 45ff 183b a7bd 793c 8535 a83b
000001f0: 1494 323d 4a99 7a3d f3ef c13c 74ba 4a3b
00000200: 0c5c 493b 41a0 aa3b dedf a23b d54e a13b
00000210: 7389 693c 436b 263b f35f 313b 0889 3e3b
00000220: efbc c93c 4463 e93b fd27 443c 7f33 223b
00000230: be79 d73a 5b5e c73b 8343 0a3b 3bfd 083d
00000240: 29b6 ccbd 3321 b13b a9c6 1bbd c66e b3bd
00000250: 807a 023c 2646 9b3b 8cd5 a8bc 1bf6 0e3c
00000260: cd3f 8a3c 4f5e 283b a028 603b f427 b03c
00000270: 02d5 923b 008e 193b 7aeb 7dbd cb39 d93d
00000280: ef04 b938 9313 133d f25a c93a 3484 853b
00000290: f753 5d3b fdcc 623b 8e1f d4ba ccf7 5b3b
000002a0: 3751 7d3b 9f1c bcbb a724 773d 97b8 6e3b
000002b0: 4905 b13b 3add 1b3c b217 2c3b 73e8 063d
000002c0: 2846 ca3a a04d 093b 673b 913b 87cc f13b
000002d0: 7f4c 783b c7f7 a73c 6729 453b 931e a63c
000002e0: 7ce3 2d3b 3f3b e73b bc62 313d 8b69 733b
000002f0: 7cb3 123e f379 073e 31b6 eb3a ea5c 513b
00000300: c126 0c3b 5bf7 9f3c b128 243c 5c8e 963c
00000310: bcff f93a 3701 873c 229e 2f3d 6f14 7f3b
00000320: e360 28bc 0b57 1f3c b3e1 c23b 1776 32be
00000330: cb19 54bc 044c cf3a ee93 b83b 43ce 1f3b
00000340: 2155 463b 295c 603c 4c1b dd3a c01e bc3b
00000350: 06c9 fa3b 9d1b 433c b6c6 2b3d 9722 0f3c
00000360: ac21 8b3b 0352 053c 2ea6 f03b 2f6e 9d3a
00000370: 73fc 903b ba49 56bd c570 333b 8324 80ba
00000380: 55b1 c53c bacf 1e3c 3a5f 8e3b d366 a539
00000390: b353 983b fc0b 803b 2707 923b 55dc 6f3c
000003a0: afb3 963b 78d1 b33c f89b 983b cd49 103d
000003b0: 3f7a 3c3a 01ee 7f3c 4599 a43b 6623 ec39
000003c0: d7fa cf3a 03ec 0d3b b545 0b3c da38 c03c
000003d0: 446c 1cba b86f 383c d82c d6bc 98c6 7a3b
000003e0: 4f33 fcb8 fcf2 dc3b 1e39 913c
-1.8088017 0.00041635477 0.004361393 0.003954767 0.0041378923 -0.05661533 0.029118259 0.0034424267
0.005706817 0.010708069 0.0056613917 0.0025660347 0.031177979 0.0030684082 0.006131713 0.0020096358
0.044568524 0.022085503 0.0009105002 0.008171057 0.025299853 0.00083944784 0.0009920672 0.014603063
0.0019466428 0.0025581291 0.006020406 0.016616773 0.0045325775 0.010858602 0.0063358415 0.008780726
0.0040866695 0.001603955 0.004513853 0.0033349672 0.0064745173 0.01408321 0.0035634057 0.0063136914
0.0016871679 0.000995572 0.00055532606 0.01073161 0.0060905805 0.0024153986 0.007686622 0.002454768
-0.03675284 0.00069278316 0.014251716 0.0060102697 0.004599065 0.0070653986 0.0060083424 0.0550055
-0.071673274 0.004905391 0.0025997462 0.007872899 6.7977955e-05 0.0046824208 0.0037803832 0.024263399
0.013326382 0.014185803 0.00772046 0.0032806327 0.013723515 0.005519503 0.006745299 0.0012695753
0.0014339273 0.014279105 0.0027635552 0.004908836 0.009612545 0.0037482241 0.010223904 0.005036209
0.00037534203 0.0038288014 0.0070027313 0.005111186 0.0041840705 -0.00037426752 0.0010644939 0.005284868
-0.082012065 0.059028264 0.0029731127 0.0005736616 0.0055517196 0.0031530522 0.002027312 0.049737133
0.0021321455 0.002270307 0.0023766903 0.0023673333 0.008175954 0.002505878 0.005276985 -0.0019729764
-0.033195198 0.033338573 0.0030262112 0.0028056633 0.038234115 0.0030777294 0.006278056 0.00825639
0.018356314 -0.0042164763 0.009058683 0.0034960913 0.002687308 0.004502488 -0.00080566073 0.049649894
0.0064706868 0.0023345512 0.015242971 0.005133333 0.04359825 0.061181344 0.023673987 0.0030933889
0.003072503 0.005207092 0.0049705347 0.0049227276 0.014253962 0.0025393523 0.0027065247 0.0029073376
0.024626223 0.007122429 0.011972425 0.0024749932 0.001643948 0.006084246 0.002109737 0.033444624
-0.09995682 0.005405569 -0.038031254 -0.08761363 0.007963777 0.004738587 -0.02060964 0.008725668
0.016876126 0.0025690978 0.0034203902 0.021503426 0.004480959 0.0023430586 -0.061992146 0.10606726
8.8224064e-05 0.03590734 0.0015362187 0.0040745977 0.003377197 0.0034607046 -0.001618372 0.0033564446
0.0038653144 -0.0057407166 0.06033769 0.0036425942 0.0054022414 0.009513194 0.002625924 0.032936525
0.0015432285 0.002095081 0.00443213 0.007379118 0.0037887392 0.020503892 0.0030084492 0.02027825
0.0026533296 0.007056623 0.04330705 0.0037141766 0.1432628 0.13230114 0.0017983374 0.003194625
0.0021385404 0.019527128 0.010019467 0.01837843 0.0019073407 0.016480071 0.042875417 0.0038922091
-0.010277006 0.0097253425 0.0059473156 -0.1742786 -0.012945603 0.0015815501 0.005632869 0.0024384416
0.0030263143 0.013693848 0.0016869097 0.0057409704 0.0076533584 0.011908439 0.041937552 0.008736274
0.0042459574 0.008137229 0.007344029 0.0012010987 0.0044246255 -0.052316405 0.0027380448 -0.0009776506
0.02413241 0.009693081 0.004344848 0.00031547862 0.0046486496 0.0039076786 0.004456419 0.014639934
0.0045990567 0.021950468 0.004657265 0.035226632 0.0007189847 0.015620709 0.005023154 0.00045039802
0.0015867603 0.0021655567 0.008500506 0.023464609 -0.00059670606 0.011257105 -0.02614443 0.0038265344
-0.00012025853 0.006742833 0.01772743

bias f4 [251]
00000000: 1aa8 f1bf 5421 47c0 04b1 6cc0 ab3c 49c0
00000010: 6d3e 53c0 77bb 9bc0 ad57 82c0 7c0e 51c0
00000020: 9df3 47c0 c706 67c0 5088 5bc0 03e8 4cc0
00000030: 9f6d 93c0 bbb6 46c0 48fe 60c0 d9b4 53c0
00000040: d1da 9cc0 d779 79c0 787b 6bc0 22fb 78c0
00000050: 5d10 80c0 69bb 46c0 213f 65c0 2667 81c0
00000060: 40a2 49c0 ea73 46c0 3890 4ec0 9ad5 88c0
00000070: 5ab2 82c0 53f8 7dc0 d2e2 69c0 5c0b 65c0
00000080: 2465 58c0 df14 4ec0 20ea 47c0 3097 5bc0
00000090: 29c3 89c0 3dc0 6bc0 05b5 4cc0 4845 5cc0
000000a0: f9f2 46c0 ccb3 49c0 23b6 52c0 e225 70c0
000000b0: 4d9b 56c0 4916 44c0 ecf0 75c0 88d6 52c0
000000c0: 8a66 8fc0 1093 5cc0 81bf 6cc0 8478 62c0
000000d0: 03ad 56c0 ed8e 5bc0 e7ce 52c0 f12f 92c0
000000e0: b588 a4c0 7b71 57c0 5e00 51c0 e7ae 78c0
000000f0: 872c 69c0 2455 5dc0 1330 4bc0 e064 82c0
00000100: ccf8 86c0 572b 69c0 5d66 5ac0 f6b4 52c0
00000110: 0426 75c0 1b68 6fc0 8f39 6ac0 30f8 48c0
00000120: fd21 48c0 9951 6bc0 342c 47c0 94fd 5fc0
00000130: 4355 63c0 0a49 48c0 041a 7dc0 b63a 63c0
00000140: 53f1 66c0 68bc 60c0 6f89 70c0 e6bd 6ac0
00000150: 1663 52c0 7b45 58c0 bb40 58c0 852f 45c0
00000160: 6ac5 a3c0 edf1 96c0 3e80 4bc0 e1c2 48c0
00000170: d830 81c0 dacb 49c0 2913 4dc0 90e5 9ec0
00000180: f7c3 5ac0 5a69 4fc0 ba07 4dc0 4293 50c0
00000190: f837 7bc0 9225 5cc0 223b 4ac0 98c3 53c0
000001a0: e161 8bc0 b63f 8bc0 56ac 52c0 9cf0 77c0
000001b0: 2f97 91c0 9825 52c0 deea 66c0 32c0 72c0
000001c0: 9510 8bc0 fe08 5ac0 46da 5ac0 f7b4 55c0
000001d0: 79d6 52c0 5101 46c0 2afa 4dc0 9861 9cc0
000001e0: e36e 5dc0 fe54 4fc0 3d6e 78c0 6f71 57c0
000001f0: 8e39 8bc0 a57f 9bc0 f759 76c0 f351 50c0
00000200: 98c2 56c0 5c39 48c0 6856 47c0 45a5 56c0
00000210: d577 7ac0 245d 4ec0 5c52 51c0 1397 57c0
00000220: 3dc8 8fc0 1864 6ac0 a4e1 81c0 ec04 6ec0
00000230: 1213 49c0 56ac 74c0 96f3 52c0 7fdb 89c0
00000240: 7241 a8c0 9b68 4ac0 042b 8ac0 36c2 a1c0
00000250: 6446 4dc0 dde6 52c0 47dd 78c0 b6b2 6dc0
00000260: a63d 74c0 1a8f 48c0 5f49 4dc0 b8c2 89c0
00000270: 51d3 4ac0 8641 5dc0 69b9 a8c0 3446 b1c0
00000280: 56f2 4bc0 6247 85c0 eebe 45c0 94c1 58c0
00000290: e05e 6ac0 642f 4ac0 9ab7 4fc0 e749 61c0
000002a0: ca49 5dc0 1d49 7dc0 775a 93c0 2139 53c0
000002b0: fcc1 73c0 bca8 6ec0 1a64 4ac0 229d 98c0
000002c0: efd5 47c0 31f7 4ec0 9740 52c0 4d22 68c0
000002d0: da03 60c0 119b 7cc0 793b 4bc0 d0d1 7bc0
000002e0: dc12 4ac0 02e5 59c0 89ce 90c0 0777 50c0
000002f0: 1533 bbc0 311c afc0 0089 57c0 99ea 45c0
00000300: 8df9 48c0 0417 75c0 1f10 65c0 c842 6ec0
00000310: 5577 48c0 3171 6ac0 e43e 8cc0 ef36 59c0
00000320: 957c 89c0 2e1b 76c0 be27 4cc0 4d41 c0c0
00000330: ea05 86c0 a2ac 69c0 1e88 65c0 cc05 52c0
00000340: 44ce 46c0 f716 78c0 a597 4fc0 4f3a 62c0
00000350: 88a5 7fc0 7eaf 71c0 2855 95c0 91a7 66c0
00000360: 9b01 80c0 673f 5ac0 e60a 57c0 c286 49c0
00000370: a7eb 5ec0 affa 94c0 9ebf 4bc0 05ea 4dc0
00000380: 7da1 86c0 4c32 7bc0 b5ce 4dc0 7d6c 75c0
00000390: 11da 56c0 8808 58c0 792f 55c0 8f54 80c0
000003a0: 6cf2 4ec0 1375 7dc0 cf9c 60c0 b9b8 82c0
000003b0: 638d 4bc0 176c 7bc0 3dd2 4fc0 3b50 4cc0
000003c0: fb79 45c0 3b4c 44c0 f3bf 57c0 1a72 7cc0
000003d0: ac42 87c0 1016 7dc0 ea76 90c0 c7c0 51c0
000003e0: ed20 54c0 991d 59c0 b39b 82c0
-1.8879426 -3.1114092 -3.6983042 -3.1443279 -3.3006852 -4.866634 -4.0732026 -3.266509
-3.124244 -3.6097887 -3.4301949 -3.2016609 -4.6071315 -3.104903 -3.51552 -3.307913
-4.901711 -3.8980615 -3.679411 -3.890328 -4.0019975 -3.1051886 -3.581978 -4.0438414
-3.150528 -3.1008248 -3.2275524 -4.2760744 -4.0842714 -3.9682815 -3.654469 -3.5788183
-3.3811731 -3.2200239 -3.1236649 -3.4311028 -4.3050733 -3.6836083 -3.1985486 -3.4417286
-3.1085799 -3.151599 -3.2923667 -3.7523122 -3.3532288 -3.0638602 -3.8428297 -3.294344
-4.481267 -3.446476 -3.6991885 -3.5386057 -3.3543098 -3.4305985 -3.2938783 -4.568352
-5.141688 -3.3663013 -3.2656474 -3.8856752 -3.6433427 -3.4583216 -3.1748092 -4.074814
-4.2178707 -3.6432703 -3.4124978 -3.292295 -3.8304453 -3.740729 -3.659763 -3.1401482
-3.1270745 -3.6768553 -3.112073 -3.4998522 -3.552079 -3.129458 -3.9547129 -3.5504584
-3.6084793 -3.5114994 -3.7583883 -3.6678405 -3.2872977 -3.3792408 -3.3789508 -3.0810254
-5.1178484 -4.717032 -3.1797023 -3.1368945 -4.0372124 -3.153067 -3.2042944 -4.965523
-3.4182107 -3.2408051 -3.2035966 -3.258988 -3.925291 -3.439793 -3.1598592 -3.308813
-4.355698 -4.351527 -3.2917686 -3.8740606 -4.549705 -3.2835445 -3.6080852 -3.7929807
-4.345774 -3.4067988 -3.4195724 -3.3391702 -3.2943404 -3.0938303 -3.2183938 -4.8869133
-3.459893 -3.2395625 -3.8817284 -3.3662984 -4.3507757 -4.8593316 -3.849241 -3.2550018
-3.355627 -3.128501 -3.1146488 -3.3538373 -3.913564 -3.2244349 -3.2706518 -3.3685958
-4.493193 -3.6623592 -4.058794 -3.7190504 -3.141789 -3.8230186 -3.2961173 -4.308044
-5.257989 -3.1626346 -4.317751 -5.0549574 -3.2074213 -3.2953408 -3.8885057 -3.7140326
-3.8162627 -3.1337342 -3.2076032 -4.3050194 -3.1691477 -3.4571242 -5.272633 -5.5398197
-3.186666 -4.1649637 -3.0897784 -3.386815 -3.6620407 -3.1591425 -3.2455812 -3.5201356
-3.4576287 -3.9575875 -4.604793 -3.3003619 -3.8087149 -3.7290487 -3.1623597 -4.7691813
-3.1224325 -3.2338374 -3.2851923 -3.6270936 -3.500235 -3.9469645 -3.175505 -3.934681
-3.157401 -3.4046025 -4.525212 -3.2572649 -5.8499856 -5.4721913 -3.3677368 -3.0924437
-3.1402314 -3.8295298 -3.579109 -3.722826 -3.1322834 -3.6631587 -4.382677 -3.3939779
-4.296458 -3.845409 -3.1899257 -6.0079713 -4.188222 -3.6511617 -3.586433 -3.2816038
-3.1063395 -3.8764017 -3.2436306 -3.5348089 -3.9944782 -3.7763362 -4.666645 -3.6039774
-4.000196 -3.4101198 -3.3600402 -3.14885 -3.483133 -4.655601 -3.1835704 -3.2174084
-4.207213 -3.9249449 -3.2157414 -3.8347466 -3.3570597 -3.3755207 -3.3310225 -4.010322
-3.2335463 -3.9602706 -3.5095708 -4.085049 -3.1805046 -3.9284723 -3.247207 -3.1923969
-3.08557 -3.0671527 -3.3710907 -3.9444642 -4.2268887 -3.9544716 -4.514516 -3.2773912
-3.3145096 -3.3924315 -4.0815063
